expert_target_aware/mocosflV2_ResNet18_cifar10_cut2_bnlC4S2_expert_batchsize128_ressfl_2.0_SSIM0.5_data_proportion_0.01_aux_cifar100/checkpoint_c_best.tar (torch, 315844 bytes, 11 tensors)

0.conv1.weight f4 [64, 3, 3, 3]
00000000: 577f 1a3e 82d7 91bd 10be 0d3e 2ac8 3cbd
00000010: bf3c 47be f1b5 2bbd 114c de3d 0337 99bd
00000020: 2186 cd3d 43f0 053e 9b76 aebd 2866 ec3d
00000030: c1ed 8dbd 6b1f 59be 4384 a1bd 6fa6 8f3d
00000040: 45b2 eabd cc83 1e3d 9230 543e 8a4e 29bd
00000050: e7e3 443e ec26 6ebc 5eee 56be d00a 01bd
00000060: ff3e be3d f559 01be 554d 883d ab1e db3d
00000070: d238 123e 5a95 ba3c 8218 3dbd d499 233d
00000080: 92f5 1ebd cd78 c93b cc25 a6bc 3f18 f4bb
00000090: fe2b a8bd a9bc d2ba 3175 00bd f28c eabd
000000a0: ac6c 353c 208e 213b 7835 1fbd 5edc fcbc
000000b0: 068c ac3c 0f09 9cbb 0503 11bc 1055 643a
000000c0: 0dfb e23c 85d0 913d 7b48 d13d 7ec5 d2bc
000000d0: 7271 cabd a441 a3bb f4a8 5bbd 2130 163e
000000e0: 65a0 13be 9074 aa3c b72c 2a3e 1c9f 72bc
000000f0: f221 0fbe e56e cbbc 32b6 02be ada3 82bd
00000100: 9532 8a3d 9ed2 c4bd ffb5 763d 5a77 e13d
00000110: dba0 023d 8f39 40bd 2c03 7ebc 108d 7cbd
00000120: 86bf 9fbd 2c64 1d3c 186f a9bd b8c9 0f3e
00000130: d822 1a3e 13f3 0c3e 3340 ffbc 8203 23bd
00000140: 586e acbc d0b2 eebc 2f07 a43c 38bb c3bd
00000150: c324 8b3d 4904 023e ceba 2c3d f38c 50bd
00000160: 8ee7 573a fabc c0bd 283d 36bc 8e7d c53c
00000170: b322 8abd fbf5 5c3d 5590 c83d bac1 fd3c
00000180: 55ff 59bd a505 85bc 53d5 cdbd ebd7 23bc
00000190: 17a3 843c 4811 3bbd 5530 7c3d 4336 d33d
000001a0: 1323 713d 0955 32bd 3400 75bc 37ea 93bd
000001b0: 8a01 3abd 3a41 85bd 059c fbbc 99cb 513d
000001c0: e1ca e33d e5f4 bd3d fb57 2b3d df18 b03d
000001d0: 2ffb db3c 8cb3 a03d ee0b 9b3d 3b50 243d
000001e0: 25c8 673d a888 e83d 2846 143d d4ff 34bd
000001f0: 12db 3439 3366 86bd a919 b03c a471 2dbe
00000200: 03db 083d d2a0 86bd 04bc 70be 4975 5abd
00000210: fcb5 4d3c 0ab1 10be f986 1a3d 64ed 5f3d
00000220: 77a1 583d 5cc8 0f3d 1c83 ac3d 2e38 af3d
00000230: 9a4e 923d 6b9c 6e3d efb3 5f3d c83f 8a3d
00000240: eb3f 90bd f454 85bd f20f a5bd 4d36 56bd
00000250: dd11 34bd fe6a 59bd 210f 9abd fc13 97bd
00000260: 4cb1 55bd d522 85bc 027f 503c dba0 80bc
00000270: c8c2 a6ba b0ad 003d 54f5 583c 36d5 d9bc
00000280: dcf3 88bb f14b 133c 5ed6 bdbd 3858 f03d
00000290: 340a d6bd 16ea a9bd dd59 c13c 7c84 d5bd
000002a0: 675b eabd 9b57 78bd d1b1 bdbd cab1 b4bc
000002b0: d660 e83d 9194 d6bc 57c0 d13c 5b69 393d
000002c0: 3296 35bc 2af6 eb3c 4579 ed3b b982 f03b
000002d0: 1559 87bd 2fd6 a23d 718a 09bd 212a b23d
000002e0: 9800 023e 21c0 bb3d 46f2 263c 6511 153c
000002f0: 2d95 1b3d aff6 5f3d da86 033d e041 653d
00000300: abe5 e03d f3f8 f63d 30a1 d13d bb60 d93d
00000310: f0da a93d 9375 d83d e4e1 44bd 576a 4abd
00000320: 15ea 82bd 1363 8fbd ddf6 29bd b80e a7bd
00000330: 3206 d6bd 6971 febd f869 ddbd 78f9 8dbc
00000340: c7fa 593b b493 94bc 89f5 f5bc 5347 883c
00000350: 83e1 08bd 8ce1 1f3b e78d 6f3a 7f23 5cbb
00000360: ac3d 053d 09f1 233e f295 f83d 2292 8dbd
00000370: f112 f1bb 1137 2f3c 8c61 21bd bb1d babd
00000380: 9517 afbd a9c0 1d3c 879d 253e ec76 fe3d
00000390: df35 aebd 5a96 dbbc deca e6bb 074e 2bbc
000003a0: 15de ebbd 4bdc e0bd 51c3 9b3d 4b3d ef3d
000003b0: 1432 c43d 5d2a 39bd b8e9 97bd 90f8 16bd
000003c0: cbf5 883d 2a99 ccbd 30bb 95bd 39f0 93bd
000003d0: ca11 10bc a416 b63d c611 21bd 080f 0dbd
000003e0: e41b dd3b 5a8d a23d 0c25 353c 378a 1fbd
000003f0: 1754 6ebd 1f8b d03b 44f8 c83d 21fa a8bc
0.15087639 -0.07121183 0.13842034 -0.04608933 -0.19456767 -0.04192156 0.10854352 -0.07481196
0.10035349 0.13079934 -0.08518716 0.11542922 -0.069301136 -0.21203391 -0.07886555 0.070141666
-0.114597835 0.03869991 0.20721653 -0.041334666 0.19227563 -0.014535647 -0.20989367 -0.031504452
0.09289359 -0.12631972 0.06655375 0.10699209 0.14279488 0.022776294 -0.04616595 0.039941624
-0.038808413 0.006148434 -0.020281695 -0.0074491794 -0.08211516 -0.0016077954 -0.031361762 -0.114526644
0.011073273 0.0024651363 -0.03886935 -0.030866798 0.021062862 -0.004761822 -0.008850818 0.0008710185
0.027707601 0.0711985 0.10218903 -0.025728937 -0.09884919 -0.00498219 -0.053627923 0.14666797
-0.14416654 0.020807534 0.1661862 -0.014808442 -0.13977793 -0.024833152 -0.12764814 -0.06378875
0.06747929 -0.096104845 0.06023216 0.11009093 0.031891685 -0.046929892 -0.015503686 -0.061657965
-0.07800202 0.009606402 -0.082731426 0.14041793 0.15052354 0.137646 -0.031158542 -0.039798267
-0.02104871 -0.029137999 0.020022957 -0.095571935 0.06794121 0.12696947 0.04217034 -0.05091567
0.00082361035 -0.094110444 -0.011122979 0.02410772 -0.067448996 0.053945523 0.09793154 0.030976165
-0.05322202 -0.016238043 -0.10050454 -0.010000209 0.016191049 -0.045670778 0.06156953 0.10313084
0.05887134 -0.043538127 -0.014953662 -0.07222407 -0.045411624 -0.065065816 -0.030714044 0.051219556
0.111226805 0.092752255 0.04183195 0.08598494 0.026853172 0.07846746 0.07570635 0.040115576
0.056587357 0.1135419 0.03619972 -0.04418929 0.00017247748 -0.06562462 0.02149661 -0.16937882
0.03341199 -0.06573643 -0.23509222 -0.053334508 0.0125555955 -0.14130035 0.037726376 0.054669753
0.05288836 0.035103187 0.08423445 0.08555637 0.07143898 0.05825464 0.054614957 0.067504466
-0.070434414 -0.06510344 -0.08059682 -0.05229788 -0.04396235 -0.05308055 -0.07522417 -0.073768586
-0.052171037 -0.01625196 0.0127255935 -0.015701702 -0.0012722844 0.03141564 0.0132420845 -0.026590925
-0.004179461 0.008990274 -0.09269403 0.117355764 -0.10451165 -0.082966015 0.02360242 -0.1042566
-0.11443215 -0.060630422 -0.092624314 -0.022057433 0.11346595 -0.026193889 0.02560441 0.04526649
-0.011083173 0.028803904 0.0072471225 0.007339802 -0.06608788 0.079510085 -0.033579294 0.08699442
0.12695539 0.09167505 0.010189598 0.009098385 0.037984062 0.054678615 0.032111026 0.055971026
0.10981306 0.12059202 0.10235822 0.10614153 0.08293712 0.105693005 -0.04806699 -0.04941782
-0.06392304 -0.07001319 -0.041495193 -0.08157104 -0.104504004 -0.12423975 -0.108112276 -0.01733087
0.0033261047 -0.018136837 -0.030024307 0.016635573 -0.03341819 0.002439591 0.00091382716 -0.0033590493
0.032529518 0.16009916 0.12137975 -0.06912638 -0.0073569943 0.010694281 -0.03939967 -0.09087702
-0.0854942 0.009628453 0.16173373 0.12425026 -0.08506369 -0.026805092 -0.0070432266 -0.010455615
-0.11516968 -0.109795175 0.07605613 0.116816126 0.09579864 -0.045206416 -0.07417625 -0.03685814
0.06687506 -0.09990151 -0.07311094 -0.07223553 -0.008793304 0.08891037 -0.03932359 -0.034438163
0.0067477096 0.07937117 0.011056196 -0.03895017 -0.058185663 0.006364241 0.09812978 -0.020627083

0.bn1.weight f4 [64]
00000000: b0eb d93e ce01 2b3e 2509 bf3e b9ae 693e
00000010: cc36 263f 5b62 9abd 266d 543e 8986 5abd
00000020: 418d c53e e333 7c3e 46c9 0e3f f831 0e3f
00000030: 7de8 c53e 2ecd d1b6 3c03 553e 0863 973e
00000040: 9dc3 e53e 01de 103f 0d5a 053f 405d 1b3e
00000050: f244 a1bd 7e1d 003f f85f a23e cb89 633e
00000060: 431a 143a 4339 9d3e 5db8 48be ef12 733e
00000070: 5f5b 143f 28ea 68bd 8f26 943d 6f04 2835
00000080: 030a ab3e 7736 f53d ec50 053f fe77 e13d
00000090: 3ccb a93e 8ac9 cabd c4c3 033b ba05 883e
000000a0: 91a5 af3e 19e7 813e 1f7f a43d 008d df3e
000000b0: a402 103e 4e78 393e 24ad 0b3f d0d5 2f3f
000000c0: 0dfb 303f 4429 403f edb8 933c d050 203f
000000d0: f239 eb3e 6e06 6b3c f72f 133e 83ee fc3e
000000e0: 0505 5c3e 1432 0c3e 1718 d73e 9f11 aa3e
000000f0: edb3 7a3e a4d7 36bd 8314 b83d e7a1 d43e
0.42562628 0.16699907 0.37311664 0.22820558 0.64927363 -0.07538291 0.20744762 -0.05335096
0.3858433 0.24629168 0.5577587 0.55544996 0.38653937 -6.2525714e-06 0.20802015 0.29567742
0.44875804 0.5658875 0.5209053 0.15172291 -0.078744784 0.50045 0.31713843 0.22220533
0.0005649665 0.3070775 -0.19601579 0.23737691 0.5795192 -0.056863934 0.07233917 6.259133e-07
0.33406076 0.11973279 0.520766 0.11009215 0.33162868 -0.09901722 0.00201057 0.2656687
0.34306005 0.25371626 0.08032059 0.43662262 0.14063507 0.18112299 0.54561067 0.68685627
0.69133073 0.75062966 0.018032515 0.6262331 0.45942646 0.014344795 0.14373766 0.4940072
0.2148629 0.13690978 0.42010567 0.3321657 0.24482699 -0.044639245 0.08988287 0.41529772

0.bn1.bias f4 [64]
00000000: 89c4 adbb d9ce 9a3e 21e6 813e a569 943e
00000010: c742 5fbc 794e 223f 5bdd 2c3e fc1d 7b3f
00000020: 21a7 573e 7cf6 103e 9369 d23d 7df8 fbbd
00000030: f418 aa3e 91ae f2ba a370 813e ef29 a43e
00000040: 9a57 1d3e cb1a 583e c748 813d 4d72 413d
00000050: 5466 a53e 4a4a b33d 45cb aa3e 1cc2 ee3d
00000060: b80b 65bc 2e57 c43e da33 c03e e763 fa3e
00000070: 8363 babd 4a14 903e 0ff4 ec3e fd61 90b7
00000080: c19e a53e 3364 8e3e 6873 e33b 2377 863e
00000090: 40e8 cfbd fd47 963e 5ab8 6f3e 7da6 ba3d
000000a0: 77aa 863e a3cb c63e 3e15 413f 387b bc3d
000000b0: 94c3 493e ade6 793e dadc 013b 35e1 333b
000000c0: 1916 4d3c 49a3 343b 897f 193f 850c 863d
000000d0: e935 343c 7d9a 8e3e f8c4 8f3e 0530 36bd
000000e0: 2486 0d3e ac01 b23e 78a3 043e 8b23 ca3d
000000f0: 6b9c af3e 41cb 853f 5520 c33e 2f68 85be
-0.00530297 0.30235937 0.25370887 0.2898685 -0.013626761 0.6340099 0.16881315 0.9809263
0.21059848 0.14156526 0.10274043 -0.12303255 0.33222163 -0.001851516 0.25281247 0.32063243
0.15365449 0.2110397 0.06312709 0.047228146 0.32304633 0.08754404 0.33358207 0.11658117
-0.013979845 0.38347763 0.3753956 0.48904344 -0.091010116 0.2814048 0.46279952 -1.7211767e-05
0.32347682 0.2781082 0.0069412477 0.2626277 -0.1015172 0.29351798 0.23410168 0.09113786
0.2630193 0.38827237 0.7542304 0.092031896 0.19703513 0.24404402 0.0019815476 0.0027447466
0.0125174755 0.0027563146 0.5996023 0.06545357 0.010999181 0.2785224 0.28079963 -0.04447939
0.13820702 0.347669 0.12952983 0.098700605 0.34299025 1.0452653 0.38110605 -0.26056048

1.conv1.weight f4 [64, 64, 3, 3]
00000000: 35ed 14be b186 3fbe 5d15 bd3d 95aa 22be
00000010: e7fb 24be fbc0 be3c 6a7a 10be 85df e1bd
00000020: 803e fc3c 609f 0c3d f946 733b 16af 133d
00000030: 4c43 6abc 12f1 c4bc c3f1 eabc b674 b73b
00000040: a4ab aa3c dd00 cd3c 2794 2e3d a9dc 143d
00000050: 59e1 b03c 58a0 5cbc dabc 2fbb 55a5 013d
00000060: 2d8d cd3c d475 8c3c c663 8a3d 0eee 133d
00000070: bf6b 3dba 954a 94bc 255a eabc 175c 3ebd
00000080: b89f d2bb 559e 8c3c 0891 5cbb 18a1 443d
00000090: 1942 fcbb b54b 09bd 2c8a 1ebd c13d 49ba
000000a0: bb37 d03b 13d0 89bc 074f 013c 3559 a43c
000000b0: f0b9 33bd 98cb 9a3c be97 30bc 70a4 4e3b
000000c0: bec3 b3bb be66 afbc 8b41 bcbb c273 fe3c
000000d0: 5ada 993c 4276 0c3d e659 2ebd 6fa5 09bd
000000e0: cadf 89bd c04c 84bd 67b4 64bd 5a8e 23bd
000000f0: 1fbf d3bc 41ad 91bc 6592 ba3c 4929 4a3d
00000100: 8d82 073c a256 2e3d 0aa3 bbbc 4dad 09bd
00000110: 2b56 f23b 4c60 123b 585c aa3c 132f e03d
00000120: 4b30 373d ef7d 82bd d770 44bc f297 a93c
00000130: c2af 4ebd 1cff 78bd cb69 393d dac7 0c3d
00000140: 195b d23b 21b8 aabc dfe0 07ba f3e3 163c
00000150: d6e9 83bd 1dca c4bc e026 93bb e36c 0bbd
00000160: a13b a5bc 3ddf 0ebd a6c9 303d e985 b1bc
00000170: c764 463d cdd5 db3d 2273 c93d 007a 153d
00000180: c17e c0bd ebf7 493c 114e 983d ed4a 163e
00000190: f9e9 0d3d 9e00 7bbd cd27 473e 889d 783d
000001a0: 1c43 54bc 8139 483d 5a61 a1bc 5193 093d
000001b0: 8bce f3bc 805d 353b 8244 1a3c b6b1 0ebd
000001c0: 4166 073d 5fca 3f3d 834a 0cbd 6a7e bd3c
000001d0: dab8 8f3c ba04 adbd e917 adbd 620f adbd
000001e0: 6306 adbd 3916 adbd 870e adbd 6d06 adbd
000001f0: 6114 adbd 300e adbd 932d a5bb 9b42 93bd
00000200: b942 51bd 03a7 53bd b307 a2bd 35ff c2bd
00000210: daae 393b 3a6b c63c 22b0 c53a 272a e8bb
00000220: f717 dcbb fe4a 9a3c de5e 90bd 5779 babc
00000230: 11ed 05bd 1609 51bd f2d1 1a3c 5e97 8c3c
00000240: d077 363e 548c d5bc 680f 94bd 4310 673e
00000250: baff 96bc 1bce 0cbd 8863 243d 87e3 f1bd
00000260: 19ba bebc 2adc bebd b121 16bd b31c b53c
00000270: a05a 41be 2581 0fbe 4273 c73c 64f0 a1bd
00000280: ba14 80bd a08c f93d 6417 c63d 3137 b43d
00000290: bb43 c4bd de10 953d 68c8 383e c416 86bc
000002a0: 9dd3 bdbd 6f62 783d 906e 673d eae5 47bc
000002b0: 888d 713c e651 073b a878 863d 23d9 963d
000002c0: 744f de3c 539b 3d3c 7e08 ca3b 9f35 81bd
000002d0: 76eb fabb d40d 5bbc 553f 43bb bf76 75bc
000002e0: 259d 0ebd dbc0 12bd 8a66 8c3c afe5 bebc
000002f0: f037 4fbc e63a 64bc c30d c9bd e5ef 693d
00000300: 401f 9ebd 08b1 efbd 9e11 a6bc 58ee 51bd
00000310: 7039 1dbd ee0e 293d 31ba 59bd c859 13bd
00000320: 3f0b 82bd fef8 59bd 47a3 9bbb 028c 0ebd
00000330: 00c3 a1bc 6ae2 3a3d 65e3 fdba bf3f 99bd
00000340: 392e 0fbc 6719 9b3c ff2d 0bbd 55dc f33c
00000350: cb16 863c bea8 adbd 3e40 79bd 5ada aebd
00000360: aba5 a0bd 2ac1 78bd b271 a2bd 25bc 5abd
00000370: 7f74 38bd e3ff a8bd 8d96 a1bd 97f5 a5bd
00000380: 4807 cdbd 3b03 013d ecc1 323d d5a1 e3bb
00000390: fa2e 923d 222d ae3d d3a8 2b3d 3f65 64bd
000003a0: e99d 89bd 1f0e c63c 2332 dbbb 168b 3cbc
000003b0: fde0 863d 2645 963c a96b 24bd d078 bdbc
000003c0: 64d7 b73c 2971 0dbd cf61 5dbd 381b 913b
000003d0: 6734 f03b 4abe 9ebc 1dd6 8cbc cb32 a23d
000003e0: d089 4dbc c45b d4bd 1e62 f1bc 253b 80bc
000003f0: 21fd a03d e192 113d c6a7 af3d 074f f83c
-0.14543612 -0.18703724 0.0923259 -0.15885384 -0.16111718 0.02328538 -0.14109197 -0.11028961
0.030791521 0.03433168 0.003712116 0.036055647 -0.014298271 -0.024040733 -0.028679734 0.00559863
0.020833798 0.025024826 0.042621758 0.03634325 0.02159183 -0.013465963 -0.0026815445 0.031651814
0.025091732 0.017146029 0.067573115 0.0361157 -0.0007225833 -0.01810197 -0.028607437 -0.046474542
-0.0064277314 0.017165342 -0.0033655781 0.048005193 -0.007698309 -0.033519465 -0.03870599 -0.00076767436
0.0063543 -0.01682285 0.007892377 0.020062068 -0.043878496 0.01889591 -0.010778366 0.0031531118
-0.005485981 -0.021411296 -0.005745118 0.031061057 0.018780876 0.034292467 -0.042566203 -0.033605035
-0.067321375 -0.064599514 -0.055836108 -0.03993068 -0.02584797 -0.01778281 0.022774884 0.04935578
0.008270872 0.04256309 -0.022904892 -0.033612538 0.007395526 0.002233523 0.020795986 0.10946479
0.04472379 -0.06371676 -0.011989794 0.020702336 -0.050460584 -0.060790166 0.045266908 0.03437028
0.006419551 -0.020839753 -0.000518335 0.009209621 -0.06441085 -0.024022156 -0.0044907182 -0.03403939
-0.020170035 -0.034880865 0.043161057 -0.021670299 0.048435953 0.10734139 0.09836413 0.0364933
-0.093991764 0.012327175 0.07436765 0.1467702 0.03464696 -0.061279885 0.19448777 0.06069711
-0.012955453 0.048882965 -0.019699741 0.033587757 -0.029761573 0.0027674139 0.009415748 -0.034837447
0.0330565 0.046823855 -0.034250747 0.023131568 0.017544199 -0.08448167 -0.08451826 -0.084502
-0.08448484 -0.08451504 -0.084500365 -0.08448491 -0.084511526 -0.08449972 -0.0050408333 -0.07190438
-0.051089022 -0.051672947 -0.07911625 -0.09521333 0.002833298 0.024221051 0.0015082399 -0.007085103
-0.006716724 0.018834587 -0.070493445 -0.022762937 -0.032696787 -0.051034056 0.009449469 0.017162021
0.17819142 -0.02606789 -0.07229501 0.22564797 -0.018432487 -0.034376245 0.040133983 -0.118109755
-0.023282098 -0.09319337 -0.036653224 0.022108411 -0.18882227 -0.14014108 0.024346951 -0.07907179
-0.06253953 0.12185025 0.0967243 0.087995894 -0.09583231 0.07278608 0.18045199 -0.016368277
-0.09268878 0.06064075 0.056501925 -0.012200812 0.014743216 0.002064818 0.06565982 0.07365634
0.027137496 0.011572677 0.006165563 -0.063090555 -0.0076574637 -0.013369996 -0.0029792388 -0.014981925
-0.034817833 -0.035828453 0.017138738 -0.023302881 -0.012647614 -0.013930058 -0.09817078 0.057113547
-0.07720804 -0.11703688 -0.020272072 -0.051252693 -0.038384855 0.041274004 -0.05315608 -0.035974294
-0.06349801 -0.053215973 -0.004749689 -0.03480149 -0.019746304 0.04562608 -0.0019370137 -0.07482862
-0.008739048 0.018933011 -0.033979412 0.029768148 0.01636829 -0.08479451 -0.06085228 -0.08537741
-0.07844099 -0.06073109 -0.07931842 -0.053402085 -0.045032974 -0.082519315 -0.078900434 -0.08103483
-0.100111544 0.03149722 0.04364197 -0.006946782 0.07137866 0.08504702 0.04190905 -0.05576062
-0.06719572 0.024176655 -0.0066893264 -0.01150777 0.06585882 0.01834352 -0.040141735 -0.023128897
0.022441573 -0.034531746 -0.054048356 0.0044282936 0.0073304656 -0.019377846 -0.01719194 0.07919844
-0.012545064 -0.103690654 -0.029465731 -0.015653202 0.078607805 0.035540465 0.08576922 0.03031112

1.bn1.weight f4 [64]
00000000: e762 183f 35d8 ad3e 5238 8c39 48a0 393e
00000010: bad3 0cb6 9713 43b6 2d83 97b7 3c24 3cb8
00000020: d6ed ad35 8b84 473f a7a5 4236 9301 853e
00000030: 58f4 a235 4aaf 8639 2f47 1037 d437 6fbe
00000040: a76d 0c36 0f3a 87bb 4867 14bc 8de0 3aba
00000050: bbbc f33d d7a2 b137 c68f 8a3f f892 65be
00000060: 9922 91b6 996d e53a a8b6 56b6 6f53 98b9
00000070: caae 1a3f 6297 fbbe e93e 1935 c1f4 e33e
00000080: 51ed 37bc 7396 1dba 7567 43b9 6ac6 6239
00000090: deed 33b8 61e9 573d ada6 c236 2040 94b6
000000a0: f11d aa3e 01de d538 898f 63b9 be67 08bf
000000b0: bb32 d13e f0d8 34be 1789 83b6 aed5 a5bb
000000c0: 762d edb7 1c3c 313c 8e65 f836 80b4 df34
000000d0: 7657 1a39 4174 c337 a662 a03d 79ff 1fb8
000000e0: b3b3 2436 870a 793f abdd 59be 9e83 2cb7
000000f0: 04fa 41b8 ef52 cc3a cb60 1034 50e9 f6b9
0.59525913 0.33954015 0.00026744843 0.18127549 -2.0984867e-06 -2.9068667e-06 -1.8061686e-05 -4.485644e-05
1.2958724e-06 0.7793662 2.9004675e-06 0.25977764 1.2141054e-06 0.00025689072 8.599643e-06 -0.2336114
2.0925452e-06 -0.004126794 -0.009057827 -0.00071287976 0.11901232 2.1175872e-05 1.0825126 -0.22419345
-4.3253644e-06 0.0017503976 -3.1994805e-06 -0.00029053862 0.60422957 -0.49138933 5.708849e-07 0.4452267
-0.011226014 -0.00060114934 -0.0001863519 0.00021626955 -4.2898457e-05 0.0527128 5.801054e-06 -4.418209e-06
0.33225968 0.00010197983 -0.00021701878 -0.532833 0.40859017 -0.1766088 -3.9200636e-06 -0.005060873
-2.8273771e-05 0.010817554 7.4027985e-06 4.1668318e-07 0.00014719166 2.3299946e-05 0.07831316 -3.814648e-05
2.4542503e-06 0.9728169 -0.21275966 -1.0282643e-05 -4.624763e-05 0.0015588681 1.3446258e-07 -0.00047094608

1.bn1.bias f4 [64]
00000000: 6288 943e 5a57 a03e 96dd 67bb f1c2 2f3e
00000010: 6dfa 44b8 b224 36b8 9dbd 9ab9 3f5a a8ba
00000020: 7a09 e4b7 9f8c 4fbf 2510 ecb8 54cb e23e
00000030: 212a 55b7 5499 ccba 0796 ccb8 9f2c a13d
00000040: 18a3 1bb9 6c2a ddbb 3a6e e5bb 2c58 68bb
00000050: f16a 07bd 860d afb9 5221 b7bd 0095 d53e
00000060: 3a16 48b8 20d8 c1bb a28d 26b8 c531 bbba
00000070: 086e b6bd 7f71 623d 1126 15b8 cc63 9f3d
00000080: 9dc4 55bc 320f 90bb 64b0 cbba a93e e4ba
00000090: 6d47 30ba 4255 883d 5857 45b9 4d16 27b8
000000a0: a803 d1bd 78e4 32ba f4d0 57bb e669 6a3e
000000b0: 2a4f 573d 5270 e13d 59c2 80b9 8116 b1bc
000000c0: 8007 82b9 373d f3bc 9452 8ab8 f2fb d6b6
000000d0: 5e18 d6ba 925b 1ab9 67f6 283e b934 ebb9
000000e0: d798 6ab8 35da 1a3d 40ee 103e d7fb 34b9
000000f0: 5017 9cb9 911d 28bc 9adc 48b6 e09c 26bb
0.29010302 0.31316644 -0.0035379878 0.17164208 -4.696327e-05 -4.3426357e-05 -0.00029514442 -0.0012844278
-2.718413e-05 -0.81073946 -0.00011256364 0.44295752 -1.2705598e-05 -0.001560966 -9.755423e-05 0.07869839
-0.00014842709 -0.006749442 -0.0070016654 -0.0035452945 -0.03306097 -0.00033388677 -0.08941902 0.4171524
-4.7704416e-05 -0.0059156567 -3.970939e-05 -0.00142818 -0.089077055 0.05528402 -3.555982e-05 0.077827066
-0.013047365 -0.0043963427 -0.0015540239 -0.0017413694 -0.00067245105 0.06656887 -0.00018819922 -3.9836672e-05
-0.102057755 -0.00068242056 -0.0032930942 0.2289196 0.05256573 0.110077515 -0.00024558863 -0.021617176
-0.0002480112 -0.029692275 -6.595734e-05 -6.4070273e-06 -0.0016334166 -0.00014720697 0.16500245 -0.00044861974
-5.593229e-05 0.037805755 0.14153385 -0.00017259955 -0.00029772008 -0.010260955 -2.993073e-06 -0.0025423095

1.conv2.weight f4 [64, 64, 3, 3]
00000000: 7bc9 493c 38c7 723c 83d3 a43c 11e4 153c
00000010: 97f5 293c 1c03 833c 132f 403c cefd fb3b
00000020: 6d1d 303c 4261 ff3c 4da0 d83c 8f78 ed3c
00000030: 2781 013d e8a8 fe3c 1a10 f33c 1675 153d
00000040: 388d 0b3d 6b88 023d 4eef eaba 05d2 9fba
00000050: a9e1 abb9 f0c1 55ba 06b8 bfb9 24ff 9739
00000060: 72df 543a bbf9 863a 8b52 b63a 5661 aabb
00000070: 81e1 e9bb 5da7 aebb fd5d d3bb ff67 03bc
00000080: 1c54 cfbb a499 53bb e08f 8fbb ac45 2bbb
00000090: c608 e73a d555 e33a 9d45 e53a 2678 e53a
000000a0: 9710 e33a 7c80 e43a b1d0 e43a 7132 e23a
000000b0: 190b e33a 70df f73a 6b4f f83a dc7f f83a
000000c0: 1a2d f73a 11f4 f73a e8ae f83a 1d4b f73a
000000d0: 9e19 f83a d658 f83a 91e4 1c3a dc02 113a
000000e0: 9f67 1f3a ffab f739 e676 e339 53ba 033a
000000f0: e2b7 fc39 15dd ee39 3b76 0c3a 6320 18ba
00000100: 59b6 87ba 94a4 82ba d26c b7ba 685c e0ba
00000110: d256 bcba 7904 dcba fdff 04bb a10f e4ba
00000120: 8532 f33a 1b33 f23a 9554 f13a dd46 f13a
00000130: 4f84 f03a 8fdb ef3a 28dc ef3a 1962 ef3a
00000140: 18b8 ef3a eeb7 493b 5edd 48bc 0cda 4fbb
00000150: ba52 473b 240f 5cbc de9a c0bb 6d36 3a3b
00000160: 45fc 64bc 4717 fdbb 1c12 213b 26e6 1e3b
00000170: 7d8c 203b 78b9 1d3b 1272 1c3b 3327 1e3b
00000180: 92b9 1e3b 3d8b 1d3b aa59 1f3b 1917 cdba
00000190: 9883 e4bb 9f82 9bbb fa1b a8bb ecc2 45bc
000001a0: 5258 f5bb 5e29 b0ba 432b 18bc 1ea7 0ebb
000001b0: f833 f93a be6f f83a 1ae1 f83a 7819 f83a
000001c0: 77ed f73a 9869 f83a 37cc f73a 2bdc f73a
000001d0: c55b f83a 22bc 773b 286f 603b 23ef 573b
000001e0: 8fc6 4a3b 4761 303b fb44 2a3b 3da7 833b
000001f0: ce4a 6f3b 70cc 623b 21ac 993a 10e9 843a
00000200: 57db 7c3a b990 913a 2daa 7e3a 128b 713a
00000210: 64a8 a33a 5d80 923a c7a7 893a 61bd db3b
00000220: 8101 eb3b 49e5 df3b aeba df3b 56ec e53b
00000230: cba5 d03b 6169 d93b 42f3 d23b 597e b73b
00000240: 4109 eb3a d618 e73a d68c e93a 6ae0 e83a
00000250: 7595 e43a 63e0 e73a d37e ec3a abc3 e83a
00000260: 808a ec3a b9c8 d43a 123a 043b 8d55 583a
00000270: 3ef5 b2b9 c2ca 0439 a1e2 88ba af93 133b
00000280: 533d 333b 4715 c13a b472 3d3c b5f1 5d3c
00000290: df83 4d3c 2110 3b3c 168e 5a3c 213a 4a3c
000002a0: 597e 363c da6d 543c ccea 433c 7663 67bb
000002b0: 65de 79bb 99bc 50bb cbca 9ebb 9867 afbb
000002c0: b422 9ebb 6994 7ebb d421 95bb fef5 8abb
000002d0: 8cca 7ebb b46b 78bb de0a 28bb 73a3 c1bb
000002e0: c41e bcbb 9cae 86bb df17 9abb 8c17 96bb
000002f0: 166c 40bb 3a41 6c3a c07e 623a 06aa 763a
00000300: 88ee 503a 9e90 533a 3e79 723a 8079 653a
00000310: dc3f 733a a87d 873a c6f3 9c3b cb75 76bb
00000320: b4e8 923c 584f fa3a b128 0cbc 22fc 693c
00000330: 2d47 443b d84d cfbb 138e 693c ad84 d8bc
00000340: 1155 07bd 1e70 f1bc a73a f4bc b1e8 13bd
00000350: 2396 02bd 2197 e3bc 5b5b 07bd 616a e1bc
00000360: e25d e83a f359 e93a da66 e73a 5b9f eb3a
00000370: bbee eb3a 2d3f e83a 3e5d eb3a d248 ea3a
00000380: 1838 e63a e004 0238 177a 9238 5d9b db39
00000390: 7426 ecb9 ad0c ffb9 860d 40b9 4892 b7b8
000003a0: e009 5eb8 33f8 6739 a360 f33a 11f9 f23a
000003b0: 4f06 f43a b7e5 f43a 96b1 f33a 29f0 f43a
000003c0: a610 f53a 7e20 f53a 7cac f63a fa8f 8cbb
000003d0: 0bdc a3bb c3f9 8cbb cedc bcbb f516 d6bb
000003e0: 9137 bcbb 3e0e 91bb 764c aebb 0ffb 96bb
000003f0: b2a3 a1bc f17b aebc 6a99 86bc f4b0 a2bc
0.012316103 0.014818005 0.020120388 0.009148614 0.010373495 0.015992694 0.011729973 0.007690168
0.010749203 0.031174306 0.026443625 0.02898815 0.03161731 0.0310864 0.029670764 0.036488615
0.034070224 0.03186838 -0.0017924102 -0.0012193328 -0.00032783792 -0.0008154204 -0.00036567467 0.0002899106
0.0008120454 0.0010297814 0.0013910098 -0.0051995916 -0.007137478 -0.00533001 -0.0064504133 -0.0080204
-0.0063271653 -0.0032287622 -0.004381165 -0.0026134057 0.0017626516 0.0017344306 0.001749206 0.001750712
0.001732367 0.0017433311 0.0017457214 0.0017257464 0.0017322033 0.0018911194 0.0018944567 0.0018959004
0.0018858046 0.0018917342 0.0018973025 0.001886699 0.0018928533 0.0018947374 0.0005984987 0.0005531737
0.00060808094 0.00047239658 0.000433854 0.0005025018 0.0004820219 0.00045559616 0.0005358194 -0.0005803166
-0.0010354026 -0.0009967261 -0.0013994223 -0.0017117383 -0.0014369136 -0.0016786001 -0.0020294182 -0.0017399677
0.0018554485 0.0018478365 0.0018412048 0.001840796 0.0018349978 0.0018299686 0.0018299865 0.0018263488
0.0018289117 0.0030779797 -0.012259809 -0.003171566 0.00304143 -0.013431344 -0.0058778366 0.0028413788
-0.013976161 -0.007723722 0.0024577444 0.0024246066 0.00244978 0.0024066847 0.0023871702 0.0024132251
0.0024219495 0.0024039291 0.0024314919 -0.0015647142 -0.006973695 -0.004745796 -0.005130288 -0.012070399
-0.0074873352 -0.0013440063 -0.009287658 -0.002176709 0.001901268 0.00189542 0.0018987984 0.0018928489
0.0018915375 0.0018952368 0.0018905465 0.001891022 0.0018948248 0.0037801345 0.0034245942 0.0032948933
0.0030941104 0.002691345 0.0025981057 0.004017739 0.0036513093 0.0034606718 0.0011724272 0.0010140259
0.00096457213 0.0011105753 0.0009714689 0.00092141435 0.0012486097 0.0011177171 0.0010502272 0.0067059253
0.00717181 0.006832753 0.006827674 0.007016699 0.0063674203 0.0066348766 0.00643769 0.0055997786
0.0017931835 0.0017631303 0.0017818462 0.0017767076 0.0017439561 0.0017690774 0.0018043168 0.0017758509
0.0018046647 0.0016234136 0.0020176214 0.0008252494 -0.00034133525 0.00012664034 -0.0010443517 0.0022518446
0.0027349785 0.0014731073 0.011562992 0.013546397 0.012543648 0.01141742 0.01333954 0.012342961
0.011138522 0.012965644 0.011957835 -0.0035307086 -0.0038126942 -0.0031850694 -0.004845952 -0.0053529255
-0.0048259143 -0.0038845784 -0.004551152 -0.0042407503 -0.0038878052 -0.0037905993 -0.0025641243 -0.0059093772
-0.0057409722 -0.0041101705 -0.0047025527 -0.0045804437 -0.00293613 0.0009012405 0.0008640103 0.0009409491
0.0007970114 0.0008070561 0.0009249634 0.00087537616 0.000927923 0.0010337131 0.0047898022 -0.0037606831
0.017933227 0.0019097133 -0.008554623 0.014281305 0.002994965 -0.0063264184 0.014255065 -0.026430452
-0.03304011 -0.029472407 -0.029813124 -0.036110584 -0.031881463 -0.027782025 -0.033046108 -0.027516546
0.0017728175 0.0017803296 0.0017654554 0.0017976569 0.0018000224 0.0017719023 0.0017956865 0.0017874485
0.0017564325 3.0998955e-05 6.9845635e-05 0.0004188669 -0.00045042078 -0.00048646834 -0.00018315585 -8.753367e-05
-5.293812e-05 0.00022122338 0.0018568229 0.0018537362 0.0018617603 0.0018684183 0.0018592353 0.0018687296
0.0018696978 0.00187017 0.0018819715 -0.0042896243 -0.0050005964 -0.004302235 -0.0057636267 -0.0065334984
-0.0057439287 -0.0044267466 -0.0053191734 -0.0046075652 -0.019731376 -0.021299334 -0.016430575 -0.019859768

1.bn2.weight f4 [64]
00000000: c026 7ebd 4467 5fbd 561d 813e 06fa 0a3f
00000010: 7e19 a7bc f7a7 e73f 19f9 4cbb 3597 6e40
00000020: 6bf5 c3bd bb5c c0bc 29c2 0a40 1839 a73d
00000030: 5137 81bc d7c8 cf38 1aa5 ba3f eb6c 14bd
00000040: 671d b83d 09ec 403d 80fa c1bc 148d 553f
00000050: dfe6 c33f 5a30 09bb eefc fd3c 460d 3d3e
00000060: 1ce3 f03f 4498 2b3d 8a31 1d3e 9148 0c3e
00000070: 75a3 16be 15de 893e 4ee9 b13f dfce 8537
00000080: 6b4b 643b d9dc dd3e 5aa4 f3be c26d 963e
00000090: 40da de3e 0fb7 743d 4e4a c43c f1bc a63e
000000a0: 8515 5f3f 3e97 0abe bc79 d13f 373d d73b
000000b0: 2307 da3f c6cc 04bd c1cb cbbd 1cfc 823d
000000c0: 53ef fa3e 2158 54bd 75f3 5f40 bec3 93bd
000000d0: 7180 24be 4893 b03f 00d1 053f 6c7c 353d
000000e0: d6e5 eabd 733b 693f c012 bbbd 77e6 0140
000000f0: 5ead 2bbe 48ac 7040 8b21 983d 9afb 7d3d
-0.062048674 -0.05454184 0.25217694 0.54287755 -0.020397898 1.8098134 -0.0031276403 3.727979
-0.09568294 -0.023481717 2.1681006 0.08165187 -0.015773447 9.9079385e-05 1.4581635 -0.036236685
0.08989983 0.0471001 -0.023679018 0.83418393 1.5304831 -0.002093336 0.031004395 0.18462095
1.8819308 0.04189326 0.15350929 0.13699557 -0.14710791 0.26927248 1.3899324 1.5951167e-05
0.0034834992 0.43332556 -0.47586328 0.29380614 0.43525887 0.05974489 0.023961212 0.32566026
0.8714221 -0.13534257 1.6365275 0.0065685767 1.7033428 -0.03242185 -0.09950972 0.06395742
0.49010715 -0.05184186 3.4992344 -0.07215069 -0.16064622 1.3794947 0.52272034 0.04430811
-0.11469619 0.9110634 -0.09134436 2.0296915 -0.16765353 3.7605152 0.07428273 0.062007524

1.bn2.bias f4 [64]
00000000: 7644 01bc 22e5 663d b382 743e bb9c 8e3e
00000010: 1d1f 0b3d 9f59 933f 3c18 9f3d 1048 0840
00000020: df20 793d a523 433d ec02 673f 6399 ae3c
00000030: 61b0 6e3d 1e52 5039 f4ec 393f 843e 9f3d
00000040: ff98 ac3d 7134 acbc c1a9 1fbd 0b00 af3e
00000050: 462a 403f f6f6 873b 2df9 123a 85fc c93d
00000060: 63ca 6d3f 5c0e 9c3d cc22 053e 8b7d 6f3d
00000070: 2802 063e 4649 553e 59e4 643f 1753 c135
00000080: f2f3 af3c 05e1 043e 9873 ab3e 569f 043d
00000090: fc95 093e 2d56 2b3e 66aa a93c 9c81 fb3d
000000a0: af4a 043f 2eb2 a33d f558 863f 3f31 d33d
000000b0: 9014 943f 9ac2 433d 04a8 213e fc54 313e
000000c0: 8802 443f 1d15 003e e26e f13f 1765 71bd
000000d0: 3840 3d3e a874 df3e 8d58 263e 8250 593d
000000e0: 0ddf d83d 2aa8 d53e 1bcd bc3d d2a4 a33f
000000f0: 1b41 db3d f01e 0240 9ed9 583e abb0 ca3d
-0.0078898575 0.05637086 0.23877983 0.2785395 0.03396522 1.1511725 0.07768294 2.1293983
0.060822364 0.047641415 0.90238833 0.021313375 0.058273677 0.00019867017 0.72627187 0.07775596
0.08427619 -0.0210211 -0.03898025 0.3417972 0.75064504 0.004149313 0.0005606588 0.098626174
0.9288694 0.07619926 0.13001555 0.058469336 0.1308676 0.20828733 0.8941093 1.4403803e-06
0.021478627 0.12976463 0.3348663 0.032378517 0.13436121 0.16732092 0.020711135 0.122805804
0.5167646 0.079929695 1.0495898 0.10312127 1.1568775 0.04779301 0.15786749 0.17317575
0.7656636 0.12508054 1.8861964 -0.058934297 0.18481529 0.4364369 0.16244717 0.053055294
0.105894186 0.41729861 0.09218808 1.2784674 0.10705777 2.0331383 0.21176764 0.09896978

2.weight f4 [4, 64, 3, 3]
00000000: a657 8f3c c05e f4bb 88d9 25bb 4599 d43c
00000010: 15a0 94bb 6b44 edba 5f5e a13b ad9e 6bbc
00000020: dd8a 55bc ae95 6d3b 455e bf3b 2c77 e63b
00000030: 3cfa 163c 46ce 953c dc7b 983c abe1 35bc
00000040: b46c 08bc b5e5 21bb eea8 b6bb 5c76 d4bc
00000050: 2c23 273b 35c7 f0bb dccc 3dbc 4a45 a5bb
00000060: 729a 0fbd e652 0ebd ad0d 16bd 61dc 033e
00000070: f184 eb3d 0f38 b23d 3c52 113e a097 003e
00000080: 223b ed3d 99f7 d03d 12fa 9f3d 6e85 9b3d
00000090: 49aa 81bb 0426 a43c 8e31 d9ba 4ff1 71bb
000000a0: ec2c 3e3c e395 b8bb ae28 0a3b 7ff8 9ab9
000000b0: 0896 93bc b090 b23e ac46 bc3e 29a7 9a3e
000000c0: 27eb c13e c0b5 eb3e 9c30 e13e fda6 bc3e
000000d0: 2af6 bd3e dab9 c73e 2d58 c83c 8322 653a
000000e0: 7b54 ce3c 5a3b 0c3d c71f 553c 3342 123d
000000f0: b670 873c c179 68ba 5405 0e3c 0dd1 52bd
00000100: 05ab dcbd c037 d0bd 1c03 2dbd 2452 ccbd
00000110: 0d43 15be 486a 04bd da9d c1bd 791f eabd
00000120: 339e 4c3c 1651 843c 4796 b4bb 3036 debc
00000130: 26b6 41bd 769a 35bd 09ca 61bd b74a a4bd
00000140: f97a 68bd f354 a6b9 b9e2 10bc 07ef 48bc
00000150: 0cb1 e33b a1a1 d83b bb61 903c 3bd1 003c
00000160: 789f d63c 34a7 203d 5dd6 593e 0e83 b33e
00000170: 26fe 853e e575 8d3e f419 103f d43a e03e
00000180: e9b3 373e 9885 c33e fe79 903e 9b54 d63a
00000190: 6f8d f9bb 0660 4ebc 8e41 493c 5324 e4bb
000001a0: 45fb 32bc 1274 bf3b f5f7 13bc e946 ecbb
000001b0: a1f5 463c 6255 adbc b72c 78bc 6f24 b23c
000001c0: 29d7 4dbb add2 0b3b 2266 023d b395 3e3c
000001d0: 412a be3c afb2 0638 a5ed 2338 e74d 9338
000001e0: c4e8 4d38 f140 5938 0225 9c38 5aba 5738
000001f0: fb8e 5238 e8cd 9538 bef8 15be 3056 2cbe
00000200: 70cb 23be f2dc 37be e121 71be fb0b 56be
00000210: f32b 2ebe 135d 72be 0b6e 45be ee2e 043c
00000220: 981b efbc 27c3 4dbc 4bd4 e73c 2ff3 b539
00000230: a779 39bb e548 623c 8330 683c 0339 19bc
00000240: 766a d0bc 62cc a8bb 7d09 15bd 45b2 04bb
00000250: 1ef1 553c f8f2 cfbc a122 df3c 19eb 133d
00000260: a94d 35bc ca67 d4bc fd54 8dbd f99c 4abc
00000270: 0efa c4bc ca6d 90bd 3fb7 88bc 9985 41bd
00000280: b91d dcbd 89d5 91bd d473 da3b 453b abba
00000290: 74bf cb3c d3d7 f1ba f284 11bc cd59 593c
000002a0: 70ab fbbc 53df 43bd 3ea5 03bd c303 ad3d
000002b0: 913d 713d 5853 af3d f17a b43d 8968 ea3d
000002c0: eee7 5b3d 7a44 a73d ba6d c43d 2433 a33d
000002d0: 28ca 4b3d 1a4d 343d 543e a43c 92e9 643c
000002e0: bd62 9f3d efa2 2ebc 968b 14bc f77a f23c
000002f0: c952 39bd 68d2 2f3c e692 1d3c e8d7 483c
00000300: b569 93bc b167 6cbc 2b0c 93bc 76a4 fdbb
00000310: ba72 c3b9 ff2c 2dbc a6b0 06bc 6368 e5ba
00000320: df8a a5bb d96b 36bc f37d 34bc acda 60bc
00000330: a168 07bd 571f 00bd 17ef a0bc d5d5 eb3c
00000340: f55a 723c f2c0 033d 3f8e 6b3d 666c 7a3d
00000350: d072 9a3d a159 813d 01ca 9e3d 03e5 8b3d
00000360: 8b81 a13d 02ad 5b3d dc7a 843d 8715 c93d
00000370: 6317 473d 1197 7f3d 1938 e93d 6645 033d
00000380: 00f6 9c3d 8d0d 13bd 1f6e 343c 24db 003d
00000390: 5bc8 f63c 91be 493d b905 a23c af92 9f3d
000003a0: 84a0 cb3c bfae 503d aabd f7ba 9488 153b
000003b0: 51c8 f8bc 01b3 853c b171 173c b281 163d
000003c0: 1c86 87bd bdbf 17bd 929a 7c3d 9c34 863d
000003d0: 9c03 a0bc 9ee3 8f3c 01ec aa3d a530 283c
000003e0: e873 af3b eec6 f23d 4c92 243d 2912 35bd
000003f0: 5c31 393d e7bf 9f3b c723 b03c 474b 2f3d
0.017497849 -0.007457584 -0.002530666 0.02595199 -0.004535685 -0.0018102055 0.00492458 -0.014381093
-0.013033596 0.0036252546 0.005840095 0.0070332494 0.009214934 0.018286835 0.018613748 -0.011101167
-0.008326698 -0.0024703566 -0.005574337 -0.025935344 0.0025503142 -0.007347966 -0.011584487 -0.0050436603
-0.0350594 -0.034747027 -0.036634136 0.12877037 0.11499966 0.087020986 0.14191526 0.1255784
0.11583544 0.102034755 0.07811369 0.07593809 -0.003957067 0.020037659 -0.0016570555 -0.0036917513
0.01160739 -0.0056331023 0.0021081376 -0.00029558313 -0.018015876 0.34876013 0.36772668 0.30205658
0.3787472 0.46037102 0.439824 0.36846152 0.3710187 0.3900898 0.024456108 0.00087407994
0.025186768 0.03423629 0.013008065 0.035707664 0.016533237 -0.00088682404 0.0086682625 -0.051468898
-0.10774807 -0.101668835 -0.042239293 -0.099766046 -0.14576359 -0.03232792 -0.09453936 -0.11431784
0.0124888895 0.016151946 -0.0055110785 -0.027125448 -0.04729285 -0.04433676 -0.055124316 -0.08022063
-0.0567579 -0.0003172528 -0.008843117 -0.01226402 0.006948596 0.0066110645 0.017624727 0.007862384
0.026199088 0.039221957 0.2127318 0.35060924 0.26170462 0.2762901 0.562896 0.43794882
0.17939724 0.3818786 0.28218073 0.0016352119 -0.007615737 -0.012596136 0.012283696 -0.006962338
-0.010924165 0.005842694 -0.0090312855 -0.0072106016 0.012143523 -0.021158878 -0.01514738 0.021745889
-0.0031408763 0.002133529 0.031835683 0.011632371 0.023213508 3.21145e-05 3.9083552e-05 7.024017e-05
4.909259e-05 5.1797313e-05 7.445553e-05 5.1433548e-05 5.0201063e-05 7.143227e-05 -0.14645669 -0.16829753
-0.15995574 -0.17955378 -0.2354808 -0.20903008 -0.17008953 -0.23668317 -0.1928026 0.00806783
-0.029187962 -0.012558735 0.028299471 0.00034704196 -0.002830127 0.013811325 0.014171722 -0.009351972
-0.02544139 -0.0051513175 -0.036386 -0.0020247858 0.013057975 -0.025384411 0.027238192 0.03611288
-0.011065879 -0.025928397 -0.06900976 -0.012366527 -0.024045017 -0.070521906 -0.016688941 -0.04724655
-0.10747857 -0.07120807 0.00666664 -0.0013063928 0.024871565 -0.0018451161 -0.008881794 0.013266039
-0.030721396 -0.0478204 -0.03214001 0.08447983 0.058896605 0.085608184 0.08812512 0.1144572
0.053687982 0.08167358 0.09591241 0.07968739 0.049753338 0.044018842 0.020049252 0.013971703
0.07782505 -0.010658964 -0.009066483 0.02959965 -0.045244966 0.010731317 0.009617543 0.012258507
-0.017994741 -0.014429019 -0.017950138 -0.0077405525 -0.00037278776 -0.01056981 -0.008220827 -0.0017502423
-0.005051955 -0.011134111 -0.011016357 -0.01372401 -0.033058766 -0.031279888 -0.019645257 0.028788486
0.014792194 0.03216643 0.057508703 0.061138533 0.0754143 0.063159235 0.07753373 0.0683079
0.078860365 0.05363179 0.06468746 0.09818559 0.048606288 0.062399928 0.11387653 0.032048605
0.07664108 -0.035901595 0.011012583 0.03145899 0.030124834 0.049254004 0.01977812 0.077916496
0.024856813 0.0509479 -0.0018901129 0.0022817003 -0.030368956 0.016320707 0.009243415 0.03674478
-0.06617376 -0.03704809 0.061670847 0.06553003 -0.019532971 0.017564591 0.083457954 0.010265504
0.0053543933 0.11854349 0.040178582 -0.044206772 0.04521309 0.0048751715 0.021501435 0.0427964

2.bias f4 [4]
00000000: 4d26 3a3d 7ff6 c13d d98a 513d ff82 3b3d
0.045446683 0.094708435 0.051157806 0.045779224
