expert_target_aware/mocosflV2_ResNet18_cifar10_cut1_bnlC4S2_expert_batchsize128_ressfl_2.0_SSIM0.6_data_proportion_0.005_aux_cifar100/checkpoint_c_best.tar (torch, 18395 bytes, 5 tensors)

0.conv1.weight f4 [64, 3, 3, 3]
-0.1859256 0.05547381 0.23284404 -0.2631599 -0.11499189 -0.068935394 0.06240813 0.11046488
0.031339318 -0.06547886 0.027958788 0.05264992 0.12851611 0.13030182 0.02262179 0.048780575
-0.02349961 -0.23704733 -0.17659028 -0.1502861 -0.21767054 0.23301646 0.1137074 -0.060898326
0.33451536 0.13389122 -0.15402268 -0.15527949 -0.0083062425 0.09530674 -0.0038117021 0.020069964
-0.016498147 0.221735 0.14052737 -0.052837446 -0.14115097 -0.010207193 0.029945847 0.032156475
0.020750418 -0.052779164 0.16608763 0.064950615 -0.15693493 0.065642506 0.18855125 0.2608615
0.083234675 0.00467492 -0.023642683 -0.078836046 -0.25684237 -0.43737218 -0.04051022 -0.06588858
0.058154132 -0.55813533 -0.03789781 0.37548557 -0.19176975 -0.05931956 0.4802234 -0.011374543
0.035312947 0.17905742 -0.54669505 0.057901368 0.5368043 -0.32247755 -0.20252438 0.25347874
-0.051139608 -0.06407429 -0.03241533 -0.4518296 0.01327656 0.50969565 -0.25504357 -0.09675845
0.4884557 -0.15334433 0.031652097 0.13213043 0.07350974 0.023217794 -0.071069136 0.2304256
-0.010070816 -0.2871939 -0.22130163 0.023795065 0.16992567 -0.00042990962 0.0069791237 -0.035143565
0.17558907 -0.0062839757 -0.22567846 -0.2094975 0.08432562 0.2771218 -0.019957192 0.036239766
0.040104445 0.13413142 -0.011075779 -0.18811025 -0.022135112 -0.015350292 -0.04127796 -0.02388404
-0.016009195 -0.045630988 -0.008718824 -0.004077851 -0.036111522 -0.0008483589 -0.0014286151 -0.022597143
-0.0021893308 -0.0020692097 -0.025818354 0.029410142 0.026394442 0.00039712744 0.017229594 0.019826664
-0.030027822 0.038932066 0.041678328 -0.012434639 0.065553196 0.063855596 0.007324631 0.01481521
0.038860437 -0.0019701843 0.017679611 0.046972517 0.010678633 0.013827206 0.03593666 -0.008336136
-0.027184248 -0.010847106 -0.0567814 -0.016734244 0.00624068 -0.033957444 -0.01751784 -0.001816825
-0.049453966 0.0031409562 0.042321384 -0.04470967 0.029680965 0.07484837 -0.009421329 -0.011446636
0.02230497 -0.06712936 -0.0500277 0.07667947 0.0058454243 -0.1335062 -0.07125403 -0.20486496
-0.17030892 -0.08594217 -0.1309514 0.000475232 0.05988951 -0.02803829 0.111094475 0.10053033
-0.005656448 0.036139444 0.062236417 0.05362841 -0.11873192 -0.0016979569 -0.085974626 0.13469
0.20772074 0.10497545 0.03282599 0.04319772 0.057022355 -0.02564089 -0.016839096 -0.042147115
-0.023646377 -0.0140539175 -0.04421897 -0.0105495 -0.003889872 -0.0367599 -0.00013039562 -0.0002958663
-0.022169761 -0.0014609401 -0.0010880628 -0.025420291 0.026464405 0.024541207 -0.001375648 0.016700791
0.01948866 -0.029105013 0.038579557 0.040960327 -0.012130331 0.06749756 0.06601676 0.01067271
-0.0014961618 0.0021723954 0.007096971 -0.004754786 -0.0010234619 0.0043076826 -0.008574335 -0.005124234
0.00016241359 -0.00084471266 0.0035150794 0.008960611 -0.004343321 8.678466e-05 0.0059858346 -0.008449932
-0.0043729544 0.001475509 -0.0005748138 0.005568086 0.012165668 -0.005961666 0.00036277538 0.0076667825
-0.010978034 -0.005146278 0.0021149672 0.0024038607 -0.046837445 -0.015194038 0.041594606 -0.022368921
0.01282945 0.010935085 -0.037440315 0.0047695525 0.021390121 0.014897196 0.04239492 0.01481686
00000000: 4863 3ebe 8138 633d ab6e 6e3e e5bc 86be
00000010: de80 ebbd 002e 8dbd ab9f 7f3d 693b e23d
00000020: a85d 003d c819 86bd d409 e53c 71a7 573d
00000030: ba99 033e d76d 053e 5551 b93c 24ce 473d
00000040: 4182 c0bc 89bc 72be 15d4 34be 99e4 19be
00000050: 07e5 5ebe de9b 6e3e 6ddf e83d 8670 79bd
00000060: 9945 ab3e c81a 093e 1fb8 1dbe 9601 1fbe
00000070: e816 08bc 2e30 c33d c0cd 79bb c469 a43c
00000080: 1f27 87bc 800e 633e 68e6 0f3e 146c 58bd
00000090: e189 10be 123c 27bc fe50 f53c 82b6 033d
000000a0: c8fc a93c f72e 58bd e012 2a3e d404 853d
000000b0: 8db3 20be 946f 863d 9413 413e a38f 853e
000000c0: f176 aa3d 1230 993b 4dae c1bc cb74 a1bd
000000d0: d880 83be 3fef dfbe 0bee 25bd 98f0 86bd
000000e0: 0733 6e3d f5e1 0ebf bc3a 1bbd a53f c03e
000000f0: 4a5f 44be 11f9 72bd d7df f53e 4b5c 3abc
00000100: 4fa4 103d d45a 373e 35f4 0bbf fc29 6d3d
00000110: 026c 093f c71b a5be 8d62 4fbe f7c7 813e
00000120: c477 51bd 6239 83bd f0c5 04bd 3656 e7be
00000130: ee85 593c 6a7b 023f 1295 82be 4b29 c6bd
00000140: de16 fa3e 4c06 1dbe a1a5 013d 334d 073e
00000150: 468c 963d 3e33 be3c b28c 91bd b0f4 6b3e
00000160: 1000 25bc 140b 93be e59c 62be deed c23c
00000170: ff00 2e3e 7e65 e1b9 22b1 e43b b3f2 0fbd
00000180: 9fcd 333e cfe9 cdbb 4118 67be 8386 56be
00000190: e9b2 ac3d e9e2 8d3e 447d a3bc 2670 143d
000001a0: 8f44 243d bf59 093e 2f77 35bc f99f 40be
000001b0: b254 b5bc cb7f 7bbc 1413 29bd 76a8 c3bc
000001c0: b725 83bc 8fe7 3abd 66d9 0ebc 7e9f 85bb
000001d0: ade9 13bd 6764 5eba 5e40 bbba a51d b9bc
000001e0: e07a 0fbb 949b 07bb 0381 d3bc 8aed f03c
000001f0: 2839 d83c 8b35 d039 1425 8d3c 876b a23c
00000200: e8fc f5bc 3b77 1f3d e5b6 2a3d a8ba 4bbc
00000210: c140 863d b9c6 823d 7503 f03b 7fbb 723c
00000220: 1f2c 1f3d 351e 01bb d5d4 903c 4166 403d
00000230: 6ff5 2e3c 818b 623c 5232 133d 4a94 08bc
00000240: 80b1 debc 0fb8 31bc 9d93 68bd 4116 89bc
00000250: 9e7e cc3b f616 0bbd 9381 8fbc 8822 eeba
00000260: 3e90 4abd 80d8 4d3b 3059 2d3d 7d21 37bd
00000270: 7f25 f33c 1a4a 993d eb5b 1abc ac8a 3bbc
00000280: eab8 b63c 1e7b 89bd d8e9 4cbd 200a 9d3d
00000290: f98a bf3b d9b5 08be a2ed 91bd 1fc8 51be
000002a0: 7665 2ebe 7302 b0bd 2018 06be 8f28 f939
000002b0: b44e 753d 8eb0 e5bc 8085 e33d d8e2 cd3d
000002c0: ba59 b9bb f406 143d 9deb 7e3d 77a9 5b3d
000002d0: b929 f3bd fb8d deba 7713 b0bd 2dec 093e
000002e0: bfb4 543e 5efd d63d 8c74 063d 18f0 303d
000002f0: 4690 693d d80c d2bc 25f2 89bc 74a2 2cbd
00000300: 0cb6 c1bc 6742 66bc f31e 35bd cfd7 2cbc
00000310: 39ed 7ebb 8d91 16bd cfba 08b9 811e 9bb9
00000320: 5c9d b5bc 047d bfba 549d 8eba 373e d0bc
00000330: e1cb d83c a40a c93c 164f b4ba 19d0 883c
00000340: afa6 9f3c a36d eebc 9905 1e3d 04c6 273d
00000350: 4cbe 46bc 293c 8a3d cc33 873d 97dc 2e3c
00000360: dc1a c4ba bf5e 0e3b b58d e83b 09ce 9bbb
00000370: af25 86ba 7627 8d3b 5e7b 0cbc 31e9 a7bb
00000380: 914d 2a39 b56f 5dba 3f5d 663b 87cf 123c
00000390: 6b52 8ebb 2900 b638 d224 c43b 9571 0abc
000003a0: 004b 8fbb de65 c13a 1aaf 16ba 7e74 b63b
000003b0: 8352 473c 145a c3bb e332 be39 a239 fb3b
000003c0: 36dd 33bc 1ca2 a8bb 439b 0a3b 178a 1d3b
000003d0: 9fd8 3fbd 6af0 78bc 1b5f 2a3d 073f b7bc
000003e0: 9d32 523c 1229 333c 045b 19bd e849 9c3b
000003f0: 563a af3c 5e13 743c 4ca6 2d3d 6ac2 723c

0.bn1.weight f4 [64]
0.34882227 0.34683713 1.8796909 -0.00013248611 -0.0010465746 3.6364388e-06 0.6111008 -0.0011994151
-0.00028403578 -0.009484328 1.9518131e-05 8.61575e-05 -0.00022486286 0.6886044 -0.026548792 1.5171434
0.66089916 0.00035104156 0.56931925 0.00038895692 -1.5661505 -0.0028056612 0.0010003984 -0.0004092144
1.5602584 7.541117e-05 -0.0433838 5.6356745e-05 -2.3755895e-06 0.0002226045 -0.0006444677 -0.007858779
-0.00020818917 0.7191684 -0.00010504269 0.91133213 -5.9344577e-05 1.6719332e-05 5.6220535e-05 0.00028409797
2.2444422e-07 0.0023378257 0.571161 0.001296015 0.0009239433 7.649765e-05 -0.732695 0.0005462417
0.0015880538 -6.3170523e-06 2.4548193e-05 0.31666017 -0.68208903 -0.37386915 1.2822167 -7.643689e-05
6.59372e-05 1.2372346e-05 -1.2554067 -1.5755465 0.00030939592 9.295942e-05 0.0064329677 -0.00030463006
00000000: d598 b23e a394 b13e b699 f03f f8eb 0ab9
00000010: 372d 89ba 8b09 7436 1a71 1c3f b135 9dba
00000020: a3ea 94b9 2864 1bbc deba a337 75af b438
00000030: 2ac9 6bb9 6148 303f da7c d9bc c131 c23f
00000040: b030 293f 000c b839 e8be 113f eaec cb39
00000050: 9f77 c8bf 2fdf 37bb cd1f 833a d48b d6b9
00000060: 8cb6 c73f 1026 9e38 36b3 31bd 9860 6c38
00000070: 516c 1fb6 f16a 6939 7ff1 28ba 1cc2 00bc
00000080: 5b4d 5ab9 6c1b 383f 5d4a dcb8 104d 693f
00000090: c1e8 78b8 7e40 8c37 57ce 6b38 fcf2 9439
000000a0: c2fe 7034 3536 193b 9b37 123f 0cdf a93a
000000b0: c934 723a 5d6d a038 e691 3bbf a931 0f3a
000000c0: 3e26 d03a 11f7 d3b6 d8ec cd37 4821 a23e
000000d0: 639d 2ebf c76b bfbe ad1f a43f be4c a0b8
000000e0: c447 8a38 d292 4f37 2bb1 a0bf 82ab c9bf
000000f0: 6b36 a239 35f3 c238 a5cb d23b c1b6 9fb9

0.bn1.bias f4 [64]
0.9425593 0.33085912 0.035778955 -0.0013172607 -0.005138472 -0.0001058906 0.7146078 -0.010134234
-0.0032281822 -0.03138363 -0.0011517388 -0.0009793178 -0.0023339123 1.1563319 0.6610792 0.054828264
1.6625861 -0.0043857414 1.6293181 -0.008099284 6.5163965 -0.03780281 -0.01795774 -0.0056407857
7.0714107 -0.0030777382 -0.105262876 -0.0011470919 -6.6231536e-05 -0.0072846874 -0.0067894193 -0.027637033
-0.0026783715 1.1375605 -0.0015684933 0.15160948 -0.0005535743 -0.00019635372 -0.012833894 -0.0062006377
-3.9240676e-05 -0.08980835 0.04461024 -0.024087792 -0.0105042085 -0.0007455577 1.6708575 -0.0074434187
-0.014238444 -0.00012160732 -0.00027634756 0.5194107 1.3991138 0.5533704 1.687799 0.00024177512
-0.020928012 -0.0046113576 0.12206549 0.016557103 -0.004102435 -0.00095469283 -0.038215466 -0.0067368452
00000000: 914b 713f 5e66 a93e f48c 123d efa7 acba
00000010: a160 a8bb 9511 deb8 89f0 363f 0f0a 26bc
00000020: e98f 53bb 1f8c 00bd f1f5 96ba 745c 80ba
00000030: 8df4 18bb af02 943f 7d3c 293f 9a93 603d
00000040: 9fcf d43f 44b6 8fbb 7f8d d03f dcb2 04bc
00000050: 5286 d040 1fd7 1abd 1c1c 93bc 57d6 b8bb
00000060: ff48 e240 e1b3 49bb 1094 d7bd 045a 96ba
00000070: c9e5 8ab8 63b4 eebb c779 debb 0f67 e2bc
00000080: 9e87 2fbb 959b 913f e795 cdba 843f 1b3e
00000090: be1d 11ba 4de4 4db9 4145 52bc b82e cbbb
000000a0: 5b96 24b8 71ed b7bd 3ab9 363d c353 c5bc
000000b0: d819 2cbc 8871 43ba a9de d53f ece7 f3bb
000000c0: 5d48 69bc 6f07 ffb8 bee2 90b9 1af8 043f
000000d0: 2916 b33f afa9 0d3f cc09 d83f 0485 7d39
000000e0: 3971 abbc df1a 97bb 79fd f93d c3a2 873c
000000f0: b86d 86bb 5a44 7aba d287 1cbd c1c0 dcbb

1.weight f4 [4, 64, 3, 3]
0.21958557 0.37787253 0.1878374 0.16531885 0.4176688 0.4688924 0.23992427 0.4012101
0.41315928 0.06254135 0.042735517 0.02959888 0.070736334 0.21614009 0.19784929 0.117361985
0.096535265 0.19985355 -0.75130486 -1.3886514 -0.37733895 -0.84751713 -0.16160356 0.49781737
-0.6337988 -0.290907 0.35043764 0.0007924509 0.0016383734 0.0025518304 0.00028441002 0.0020626357
0.002738134 0.00070640363 0.0024104193 0.002787297 0.009840113 0.016995171 0.017875519 0.0072328583
0.011850378 0.013252286 0.0067831078 0.012423205 0.012605204 4.9568218e-05 5.7749003e-05 8.259035e-05
1.5680735e-05 7.6482196e-05 0.00010359564 -4.486494e-05 -1.4205933e-05 5.1626303e-05 0.34525785 -0.10079714
0.30548474 0.060663793 -0.06741493 0.13668996 -0.04251918 0.027278448 -0.11370383 0.00075891125
0.0029459286 0.0047866604 -0.0027766027 0.00788063 0.005709179 0.0082655735 0.0118851 0.008206202
0.001835365 0.0050030192 0.006599386 0.002538272 0.008161606 0.00993646 0.003272359 0.0075202766
0.009445066 0.056283392 0.09570145 0.084061004 0.072406046 0.100332275 0.08903886 0.07051526
0.089268975 0.08780452 0.00085313205 0.0016313634 0.001376077 0.00067559996 0.0019684439 0.0018134036
0.00066939776 0.001976157 0.0017268164 0.0008073991 0.0013193961 0.0010284533 0.0005522727 0.001576374
0.0013015434 0.000621002 0.0018995261 0.0013472381 0.0040941755 0.007942005 0.007867204 0.0038400544
0.011350708 0.011369622 0.0031814976 0.010871483 0.01092282 0.3193702 0.16196838 0.335221
0.4741213 0.426843 0.4085192 0.35045308 0.60700184 0.4757244 0.1952403 0.22757222
0.15354538 0.1848691 0.27947158 0.28478077 0.19921443 0.27566293 0.2685901 -0.7468111
-0.97800064 -0.24167863 -0.61711425 -0.25869262 0.39429256 -0.5606838 0.03562451 0.52528745
0.49418092 0.55301505 0.5493946 0.47709775 0.6786296 0.7437037 0.44686896 0.6977028
0.6764572 0.0039313855 0.0060344758 0.006288402 0.0025897296 0.003254375 0.0042625763 0.005397456
0.0055259923 0.006818257 0.46725553 0.5089757 0.5194587 0.46342075 0.66097724 0.66671056
0.46301007 0.66911006 0.6721297 0.0043512248 0.009593858 0.009418784 0.0041299397 0.0142050395
0.014762077 0.0032467784 0.012841099 0.013904868 1.9128327 1.832972 1.8049163 2.1323807
2.7342534 2.735591 2.081561 2.6696386 2.697672 0.030087503 0.038371656 0.04966337
0.045478247 0.036372434 0.052997332 0.045708414 0.04123629 0.061762366 0.01608986 0.030313216
0.030667879 0.01206902 0.039485075 0.040787008 0.011161684 0.037016857 0.039166197 0.009295491
0.0015782497 0.007700918 0.021235922 0.030137789 0.038196683 0.015702346 0.02831518 0.032460652
1.9541235 1.9196686 1.9440663 2.3709326 3.0569131 3.0682847 2.2480886 2.8645644
2.8548687 -0.0004404206 0.0006737428 0.00079686195 -2.5495547e-05 0.0031189409 0.0028822797 -0.00076594704
0.0024006313 0.0018295316 0.020762045 0.029523183 0.0150951 0.0038414528 0.055795725 0.045940634
0.017251952 0.037830573 0.06279777 0.001355202 0.0022739854 0.0031132759 0.0015134879 0.0029742287
0.0031719632 0.0019119292 0.0022153277 0.0026767266 5.3352513e-05 0.000113297356 0.00018182285 6.843663e-05
00000000: 0adb 603e 8278 c13e 7358 403e 5849 293e
00000010: afd8 d53e aa12 f03e b5ae 753e 696b cd3e
00000020: 9d89 d33e ae15 803d 700b 2f3d 5a79 f23c
00000030: 36de 903d d453 5d3e 0199 4a3e 7b5b f03d
00000040: 48b4 c53d 69a6 4c3e 8455 40bf 54bf b1bf
00000050: 9232 c1be e2f6 58bf 677b 25be ebe1 fe3e
00000060: a340 22bf c3f1 94be 906c b33e 7bbc 4f3a
00000070: b0be d63a 9c3c 273b de1c 9539 492d 073b
00000080: 4472 333b f22d 393a 20f8 1d3b 15ab 363b
00000090: 6d38 213c 7539 8b3c ae6f 923c 9d01 ed3b
000000a0: 1628 423c 1e20 593c d544 de3b b38a 4b3c
000000b0: 0f86 4e3c 78e7 4f38 8537 7238 5b34 ad38
000000c0: 1f8a 8337 1165 a038 7c41 d938 5d2d 3cb8
000000d0: 0556 6eb7 5289 5838 a3c5 b03e bb6e cebd
000000e0: 7f68 9c3e 997a 783d d710 8abd 74f8 0b3e
000000f0: 9728 2ebd 0d77 df3c 8edd e8bd acf1 463a
00000100: 7b10 413b 6bd9 9c3b aaf7 35bb c21d 013c
00000110: 1114 bb3b 546c 073c b9b9 423c 4e73 063c
00000120: a190 f03a 5ef0 a33b aa3f d83b 2359 263b
00000130: 42b8 053c 89cc 223c 1375 563b a76c f63b
00000140: 7abf 1a3c 6a89 663d 1fff c33d 2d28 ac3d
00000150: 9f49 943d 027b cd3d 015a b63d 4e6a 903d
00000160: a7d2 b63d dbd2 b33d b9a4 5f3a 79d3 d53a
00000170: 7b5d b43a bf1a 313a 0201 013b baaf ed3a
00000180: 867a 2f3a 6a82 013b 5856 e23a a3a7 533a
00000190: 96ef ac3a 2bcd 863a 65c6 103a 569e ce3a
000001a0: 8d98 aa3a bdca 223a 85f9 f83a cf95 b03a
000001b0: 6f28 863b 2f1f 023c 72e5 003c 6ca9 7b3b
000001c0: 52f8 393c a747 3a3c ac80 503b 4e1e 323c
000001d0: a1f5 323c 7e84 a33e 0adb 253e 16a2 ab3e
000001e0: 07c0 f23e 2a8b da3e 6e29 d13e 966e b33e
000001f0: 7964 1b3f 2692 f33e 13ed 473e b108 693e
00000200: 003b 1d3e 534e 3d3e e616 8f3e c9ce 913e
00000210: defe 4b3e b123 8d3e a484 893e 032f 3fbf
00000220: 405e 7abf 9a7a 77be 33fb 1dbf 5c73 84be
00000230: b7e0 c93e f988 0fbf 02eb 113d 3d79 063f
00000240: 4805 fd3e 6592 0d3f 20a5 0c3f 2846 f43e
00000250: abba 2d3f 5e63 3e3f 02cc e43e a79c 323f
00000260: 4d2c 2d3f dad2 803b dabc c53b f00e ce3b
00000270: 74b8 293b 5a47 553b 15ad 8b3b 25dd b03b
00000280: 6213 b53b af6b df3b 1e3c ef3e 3b4c 023f
00000290: 3ffb 043f 7c45 ed3e ce35 293f 8bad 2a3f
000002a0: a80f ed3e cc4a 2b3f b110 2c3f b894 8e3b
000002b0: 8f2f 1d3c 3e51 1a3c 7254 873b 41bc 683c
000002c0: a3dc 713c e7c7 543b 7963 523c 3ed1 633c
000002d0: b4d7 f43f d49e ea3f 7f07 e73f ed78 0840
000002e0: 02fe 2e40 ec13 2f40 4c38 0540 5cdb 2a40
000002f0: a8a6 2c40 117a f63c 992b 1d3d d16b 4b3d
00000300: 6647 3a3d 43fb 143d bb13 593d bf38 3b3d
00000310: 62e7 283d 89fa 7c3d e2ce 833c 6c53 f83c
00000320: 343b fb3c 24bd 453c 1abb 213d 4710 273d
00000330: 7fdf 363c fd9e 173d bc6c 203d 1d4c 183c
00000340: 46dd ce3a fb57 fc3b f5f6 ad3c 86e3 f63c
00000350: 2074 1c3d 35a2 803c 3df5 e73c 76f5 043d
00000360: b820 fa3f b3b7 f53f 2ad7 f83f 5cbd 1740
00000370: 77a4 4340 c75e 4440 afe0 0f40 0655 3740
00000380: 2bb6 3640 41e8 e6b9 1d9e 303a 80e4 503a
00000390: 45df d5b7 2567 4c3b a1e4 3c3b d6c9 48ba
000003a0: e953 1d3b e5cc ef3a 2a15 aa3c 9ada f13c
000003b0: 7051 773c e2c0 7b3b 0f8a 643d 3f2c 3c3d
000003c0: f753 8d3c 3bf4 1a3d 1e9c 803d 09a1 b13a
000003d0: 2507 153b 1a08 4c3b 3a60 c63a 47eb 423b
000003e0: b6e0 4f3b b399 fa3a 082f 113b 056c 2f3b
000003f0: d3c6 5f38 0e9a ed38 b3a7 3e39 a385 8f38

1.bias f4 [4]
0.5536345 -1.1565837e-06 0.02148717 0.34474695
00000000: feba 0d3f ea3b 9bb5 dd05 b03c ac82 b03e
