expert_target_aware/mocosflV2_ResNet18_cifar10_cut1_bnlC4S2_expert_batchsize128_ressfl_2.0_SSIM0.6_data_proportion_0.005_aux_svhn/checkpoint_c_best.tar (torch, 18780 bytes, 5 tensors)

0.conv1.weight f4 [64, 3, 3, 3]
-0.19333386 -0.23379312 -0.15166326 -0.16558671 -0.14280723 -0.14526682 -0.023593903 -0.09139353
-0.16073936 -0.20539291 -0.20379356 -0.09084209 -0.10794004 -0.14040153 -0.060267992 -0.12250972
0.0015002216 -0.14454785 0.15091482 0.095952295 0.10946669 0.14570135 0.2611669 0.18131742
0.19746134 0.26335716 0.21696042 0.2693348 0.40876606 0.20422696 0.19616923 0.060988154
0.34126106 0.21830007 0.13807938 0.25502524 0.016176961 -0.08503122 -0.13049059 -0.30392897
0.02854502 -0.20048915 0.0078110867 0.08074933 0.09796789 0.10025721 -0.11130211 -0.093833044
0.047909707 -0.43695056 -0.21704625 -0.24806897 -0.24095438 -0.17397986 -0.26557472 -0.067474455
-0.14731298 0.107610956 -0.0076694125 -0.24317333 -0.004528236 -0.10009917 -0.13159232 -0.08231947
-0.055037122 0.027758231 0.0037020214 0.014833295 0.04633449 0.1391957 -0.0051006177 0.04996846
0.034069043 -0.03750103 0.15393795 0.18802387 0.10396988 0.014400476 -0.05718805 -0.11898544
0.09747808 -0.09697421 -0.016249863 -0.034439683 -0.14165434 -0.13817662 0.017788347 -0.050040767
-0.047802944 -0.10139981 -0.07600843 -0.09906099 -0.11474531 -0.11345222 -0.12515885 0.0764495
-0.17663775 0.078595914 0.033138704 0.086870454 0.15796071 0.04399746 0.17483768 0.08337152
0.12160076 0.19706905 0.07447937 0.044196554 -0.06863944 -0.06611258 -0.047951903 -0.20538083
-0.20848288 -0.055723853 -0.12582418 -0.026160013 -0.19057587 0.10407505 0.09416443 0.07849288
-0.120101854 -0.112617515 -0.10517855 0.017422779 -0.08811619 -0.1299147 0.344654 0.22926797
0.13608883 0.05239859 0.12859361 0.1155048 0.10301675 0.024804927 0.059170146 -0.09570223
-0.06319213 -0.14915167 -0.235762 -0.20490998 -0.042024814 -0.058527417 -0.07764341 -0.1624112
0.029936092 0.013962723 -0.05716373 -0.13806243 -0.15006998 -0.018986365 -0.07470217 -0.09963996
-0.05746522 0.25184995 0.16256265 0.21736744 0.085423246 0.15977791 0.21201105 0.0805452
0.21248499 0.05341222 0.026757633 0.09508929 0.024486715 -0.13243362 -0.056158926 -0.19569345
-0.1735369 -0.22441888 -0.26055372 0.17578031 0.060185052 0.13274954 -0.18919173 -0.26981875
-0.20293462 -0.20222104 -0.16644067 -0.2232072 0.24834397 0.38417113 0.28865606 0.10839316
0.044310134 0.1496168 -0.07111692 -0.015972488 0.023541149 0.07121404 0.013924138 0.03835722
0.19129083 0.22040403 0.35219613 -0.039659653 -0.15361433 -0.13653079 -0.44821244 -0.24709503
-0.44564447 -0.30248722 0.02409442 -0.21640798 -0.024393424 -0.12154542 0.2248871 0.0405108
0.013951885 -0.20139696 0.28261852 0.0317069 0.21414167 0.272747 -0.15332451 0.015055625
-0.078561164 -0.097994305 -0.15946813 -0.21354301 -0.21748552 -0.12713751 -0.15854457 -0.1588627
-0.09118694 -0.026911624 0.088519335 0.048484635 0.0043613724 0.07955376 0.010816642 -0.06837266
-0.025096107 -0.02932247 0.12387152 0.1551132 -0.01687939 0.09995017 0.05476514 -0.01633149
0.09859134 0.14758524 0.003322184 -0.26398024 -0.25456157 -0.20044175 0.094545245 0.10629115
0.27134714 -0.009522202 -0.04306279 0.14807771 -0.015703399 0.011637485 -0.18897663 0.25525424
00000000: 50f9 45be 7767 6fbe 9d4d 1bbe 908f 29be
00000010: 0f3c 12be d3c0 14be 0048 c1bc 882c bbbd
00000020: dc98 24be 8552 52be 42af 50be 6b0b babd
00000030: ab0f ddbd 6bc5 0fbe 92db 76bd 60e6 fabd
00000040: 15a3 c43a 5a04 14be 6a89 1a3e a382 c43d
00000050: 1230 e03d bc32 153e abb7 853e 46ab 393e
00000060: 4e33 4a3e c0d6 863e df2a 5e3e 40e6 893e
00000070: c949 d13e df20 513e 96e0 483e b7ce 793d
00000080: c5b9 ae3e 0e8a 5f3e ae64 0d3e ab92 823e
00000090: 8c85 843c d924 aebd 539f 05be 949c 9bbe
000000a0: 3fd7 e93c 074d 4dbe 25f4 ff3b e85f a53d
000000b0: 64a3 c83d a753 cd3d 5cf2 e3bd 8a2b c0bd
000000c0: f83c 443d fcb7 dfbe 5f41 5ebe cb05 7ebe
000000d0: bfbc 76be c727 32be 69f9 87be 0c30 8abd
000000e0: 37d9 16be 2263 dc3d b24f fbbb 6e02 79be
000000f0: 9961 94bb cb00 cdbd 23c0 06be 1c97 a8bd
00000100: 9b6e 61bd 3b65 e33c 9d9d 723b 5907 733c
00000110: 3cc9 3d3d 5189 0e3e 1523 a7bb baab 4c3d
00000120: fb8b 0b3d ae9a 19bd e9a1 1d3e 5489 403e
00000130: 29ee d43d f9ef 6b3c 043e 6abd a3ae f3bd
00000140: 96a2 c73d 6a9a c6bd 6f1e 85bc a010 0dbd
00000150: d60d 11be 2c7e 0dbe deb8 913c 8cf7 4cbd
00000160: 05cd 43bd b4aa cfbd 4faa 9bbd 7de0 cabd
00000170: 97ff eabd a359 e8bd a429 00be 8e91 9c3d
00000180: 87e0 34be e5f6 a03d 73bc 073d 23e9 b13d
00000190: 74c0 213e ae36 343d a608 333e b0be aa3d
000001a0: d209 f93d 78cc 493e a488 983d 7207 353d
000001b0: d692 8cbd 0866 87bd 3769 44bd 5a4f 52be
000001c0: 897c 55be b23e 64bd 0ed8 00be 864d d6bc
000001d0: 5226 43be 4d25 d53d 48d9 c03d e0c0 a03d
000001e0: f6f7 f5bd 03a4 e6bd da67 d7bd 37ba 8e3c
000001f0: 4376 b4bd 5c08 05be 7d76 b03e 39c5 6a3e
00000200: df5a 0b3e e79f 563d 0bae 033e c88d ec3d
00000210: 72fa d23d b433 cb3c 655c 723d 88ff c3bd
00000220: e06a 81bd 37bb 18be 986b 71be ecd3 51be
00000230: 3622 2cbd 72ba 6fbd 8203 9fbd 1f4f 26be
00000240: 893c f53c e8c3 643c 8424 6abd 3d60 0dbe
00000250: f2ab 19be 4b89 9bbc 74fd 98bd 0910 ccbd
00000260: a760 6bbd 7af2 803e d376 263e 9295 5e3e
00000270: 62f2 ae3d d29c 233e 6d19 593e e2f4 a43d
00000280: aa95 593e c6c6 5a3d d332 db3c 2cbe c23d
00000290: 5d98 c83c ae9c 07be e706 66bd dd63 48be
000002a0: a8b3 31be 10ce 65be 4c67 85be c1ff 333e
000002b0: 9a84 763d 7fef 073e 7abb 41be af25 8abe
000002c0: 18ce 4fbe 0813 4fbe 6c6f 2abe 6e90 64be
000002d0: e24d 7e3e 14b2 c43e baca 933e 3cfd dd3d
000002e0: 8b7e 353d 2535 193e bfa5 91bd bcd8 82bc
000002f0: 5ed9 c03c abd8 913d 1122 643c 761c 1d3d
00000300: bee1 433e 98b1 613e 0d53 b43e 2972 22bd
00000310: 134d 1dbe bace 0bbe 1a7c e5be 7b06 7dbe
00000320: 832b e4be 9bdf 9abe a961 c53c 0e9a 5dbe
00000330: b8d4 c7bc ceec f8bd ce48 663e a7ee 253d
00000340: 7296 643c 013b 4ebe 60b3 903e 18df 013d
00000350: f447 5b3e 7fa5 8b3e 1a01 1dbe deab 763c
00000360: ade4 a0bd 3db1 c8bd 9d4b 23be 05ab 5abe
00000370: 86b4 5ebe 5630 02be 8259 22be e7ac 22be
00000380: 38c0 babd c475 dcbc a049 b53d d397 463d
00000390: d8e9 8e3b 15ed a23d 4938 313c f706 8cbd
000003a0: 5a96 cdbc ad35 f0bc 5ab0 fd3d ffd5 1e3e
000003b0: a646 8abc adb2 cc3d 6951 603d 9ec9 85bc
000003c0: 42ea c93d 9620 173e 00b9 593b 6b28 87be
000003d0: e555 82be 9a40 4dbe f0a0 c13d 2daf d93d
000003e0: 03ee 8a3e 0303 1cbc 9c62 30bd afa1 173e
000003f0: 6aa4 80bc 26ab 3e3c 1783 41be afb0 823e

0.bn1.weight f4 [64]
0.8267244 1.0105498 0.86024445 0.79069245 0.96734023 0.8853417 1.1249616 0.9755423
0.81185734 1.2392554 0.9775463 0.86719066 0.8773981 1.0158328 0.86063576 1.3127574
1.0018737 0.88439465 0.9723046 0.84825915 0.8446393 0.8905058 0.9027088 0.9879105
0.8552337 0.7362865 1.4686542 0.89455533 0.9042518 0.8979247 0.8149526 0.83823776
1.3859236 0.8115334 0.7974962 1.1308948 0.9369517 1.0038866 0.7744985 0.6756434
1.3018664 0.82133514 0.81455743 0.8628635 0.82615876 1.038352 0.7892632 0.8413185
0.92648906 0.98144114 1.0732478 0.93671626 0.7905018 0.6665987 0.779332 0.8000515
1.1459856 0.82726794 1.1683831 0.8031007 0.8853571 0.94218254 0.8520487 0.8311283
00000000: 36a4 533f b259 813f fb38 5c3f d26a 4a3f
00000010: 9ca3 773f c1a5 623f befe 8f3f 24bd 793f
00000020: e2d5 4f3f ec9f 9e3f 7940 7a3f 3500 5e3f
00000030: 299d 603f cf06 823f a052 5c3f 6f08 a83f
00000040: 663d 803f b067 623f f4e8 783f 8327 593f
00000050: 483a 583f 30f8 633f ed17 673f b4e7 7c3f
00000060: 99f0 5a3f 467d 3c3f dcfc bb3f 9401 653f
00000070: 0c7d 673f 65de 653f bca0 503f c096 563f
00000080: f265 b13f a7c0 4f3f b628 4c3f 29c1 903f
00000090: 11dc 6f3f 5b7f 803f 8945 463f f7f6 2c3f
000000a0: 8fa3 a63f 0543 523f d686 503f 9fe4 5c3f
000000b0: 247f 533f b8e8 843f 270d 4a3f a660 573f
000000c0: 632e 6d3f ba3f 7b3f 2f60 893f a3cc 6f3f
000000d0: 535e 4a3f 36a6 2a3f 4d82 473f 2dd0 4c3f
000000e0: a8af 923f d5c7 533f 948d 953f 0298 4d3f
000000f0: c3a6 623f e032 713f dd1f 5a3f d3c4 543f

0.bn1.bias f4 [64]
-0.023712926 0.5837541 0.032933753 -0.0179074 0.09948784 0.078412 -0.08702293 0.24178252
-0.058992196 0.7151947 0.523448 0.10196339 0.17026359 0.52958447 0.13391666 0.6645635
-0.0801123 0.09155191 0.008736068 -0.11490624 -0.12356951 0.09930679 -0.05219918 0.17477655
0.08412482 0.07814579 0.9186147 0.05057294 -0.17436785 0.093911685 0.2243012 -0.039484892
0.82365656 0.10621045 -0.12047281 -0.1847621 -0.04661913 -0.019955656 -0.046232365 0.035264168
0.80258363 0.028678728 -0.043717198 0.13199678 -0.058892343 -0.1914659 0.14223018 -0.021299968
-0.12596306 0.2057479 0.1080924 0.032887798 0.47435087 -0.5215705 0.00486819 -0.041102488
0.85994124 -0.04438248 0.6105448 0.023275873 0.34275866 -0.17528528 0.15628098 0.10956391
00000000: 9c41 c2bc e970 153f 8be5 063d 8ab2 92bc
00000010: 48c0 cb3d 7896 a03d 1439 b2bd d695 773e
00000020: cda1 71bd 0017 373f b000 063f 2fd2 d03d
00000030: 9459 2e3e d992 073f 7321 093e d520 2a3f
00000040: eb11 a4bd 917f bb3d ba21 0f3c f653 ebbd
00000050: 0312 fdbd 5c61 cb3d cfce 55bd a0f8 323e
00000060: a249 ac3d e60a a03d 552a 6b3f 9225 4f3d
00000070: 7c8d 32be c554 c03d 37af 653e e9ba 21bd
00000080: 28db 523f dd84 d93d 73ba f6bd 4732 3dbe
00000090: b3f3 3ebd 0b7a a3bc 265e 3dbd 2971 103d
000000a0: 1f76 4d3f a7ef ea3c ce10 33bd 2a2a 073e
000000b0: 1939 71bd a30f 44be caa4 113e 457d aebc
000000c0: 76fc 00be 94af 523e 8c5f dd3d 5bb5 063d
000000d0: 1ede f23e a585 05bf 5685 9f3b 155b 28bd
000000e0: 1c25 5c3f 67ca 35bd aa4c 1c3f 0bad be3c
000000f0: 107e af3e fc7d 33be 1f08 203e 0b63 e03d

1.weight f4 [4, 64, 3, 3]
-0.18844025 0.021369785 0.03765801 -0.14237003 -0.00704114 -0.018995462 -0.03717198 -0.04420272
0.010141975 0.60287195 0.72735435 0.6357756 0.8142358 0.9407812 0.80530274 0.6155621
0.94492614 0.71967494 -0.09524471 0.034340616 0.13523367 -0.044699743 0.08049449 0.029543705
-0.2100352 0.15181877 0.010097241 0.017221624 -0.052465174 -0.077616155 -0.016609486 0.060831647
-0.05785479 -0.08073345 0.03388942 0.029882273 -0.050683554 0.08535617 -0.02048982 -0.094919026
0.05028573 0.049301572 -0.025653929 0.0013076027 0.028181722 -0.05853042 0.022307748 -0.03107567
-0.08826882 -0.068232484 -0.01528237 -0.027937539 0.04805118 0.08884174 -0.065624684 0.03936725
0.09107396 -0.06808757 -0.03174983 0.13350035 -0.10714722 -0.03202822 -0.0141874645 0.3249866
0.53266066 0.4283871 0.42846522 0.732524 0.68375695 0.40371856 0.7683722 0.55652773
0.013197033 0.053086262 -0.055780515 -0.0011470992 -0.009944427 0.018328624 0.025977599 -0.005929358
-0.05811743 0.43337595 0.5418962 0.48850814 0.57107586 0.8359391 0.90179116 0.46804386
0.62536764 0.7856184 0.22832268 0.33957294 0.20520502 0.23157705 0.32068667 0.29227743
0.29129905 0.5071442 0.35558838 -0.02377173 -0.012279312 -0.012286548 -0.07035319 -0.025639357
-0.116608255 -0.011987628 0.018370854 -0.05201093 0.016820498 0.015523837 -0.05108323 -0.045589767
0.021092132 0.08386552 -0.14202276 -0.0041099037 -0.051191587 0.13700739 0.2735202 0.31237423
0.2975757 0.491888 0.389563 0.1971539 0.49478108 0.3248766 -0.034833822 0.077606164
0.054127723 -0.117369704 0.030865412 -0.060840514 -0.08624225 -0.031351667 0.023270205 0.5257052
0.7673711 0.7130844 0.72661996 1.1496702 1.021653 0.47131687 1.079964 0.90336114
0.1370961 0.11452819 0.13270038 0.12297786 0.09906144 0.062627524 -0.062252156 -0.038392965
-0.15527226 -0.13750207 0.099595316 0.0960438 -0.17032707 0.102179356 0.15986224 -0.17712526
0.120425604 0.028516911 -0.044423264 -0.08286586 0.011368312 -0.066615455 -0.13289098 -0.091829665
-0.0033701018 -0.023169694 -0.086621866 0.18648225 0.33273512 0.24154627 0.14644094 0.49351874
0.30856892 0.25339663 0.65349525 0.35856158 0.14117095 0.12250279 0.08330002 0.0700435
0.118122876 0.14846353 0.062223792 0.07426876 -0.009139521 -0.13513555 0.087583095 -0.027515715
-0.048513148 0.22219336 0.019056365 -0.13601409 0.13561162 -0.0051460727 0.10248712 -0.02511403
-0.007941339 -0.13101144 -0.0038995158 -0.001958659 -0.042815693 -0.12211296 0.023004467 0.14804615
0.2896458 0.29265225 0.11343432 0.44401646 0.45429277 0.09605851 0.46287397 0.27138016
-0.04152333 0.058841992 0.01034144 0.13631679 0.21237531 0.2487363 -0.007727965 0.24487668
0.07030491 -0.02181848 0.11060072 -0.056101765 0.07260656 -0.008457596 -0.035156865 0.13444541
0.035890043 0.013045347 0.85874206 0.9333546 0.7349903 0.8939025 1.2552867 1.1341028
0.830213 1.0384247 0.93770677 -0.21987256 0.03653693 -0.06907927 -0.14902945 -0.042062305
-0.05282202 -0.14496662 0.108668104 0.09429119 -0.071808316 -0.0221114 -0.10151783 -0.07225491
00000000: 7bf6 40be b00f af3c 493f 1a3d 73c9 11be
00000010: 5db9 e6bb 5f9c 9bbc a541 18bd e90d 35bd
00000020: 872a 263c d155 1a3f e533 3a3f 31c2 223f
00000030: c271 503f 09d7 703f 5228 4e3f 7a95 1d3f
00000040: aee6 713f 9e3c 383f a90f c3bd bfa8 0c3d
00000050: b27a 0a3e 1417 37bd 4cda a43d a405 f23c
00000060: 7813 57be 6176 1b3e e66e 253c 5d14 8d3c
00000070: b9e5 56bd 38f5 9ebd 9e10 88bc 9b2a 793d
00000080: 25f9 6cbd 9457 a5bd a2cf 0a3d abcb f43c
00000090: 8f99 4fbd 37cf ae3d 44da a7bc e864 c2bd
000000a0: 69f8 4d3d 72f0 493d 3028 d2bc de63 ab3a
000000b0: 5bdd e63c 98bd 6fbd bdbe b63c 6792 febc
000000c0: 48c6 b4bd 79bd 8bbd e862 7abc 44dd e4bc
000000d0: 50d1 443d a8f2 b53d 3c66 86bd 8e3f 213d
000000e0: fc84 ba3d 7f71 8bbd 1c0c 02bd 51b4 083e
000000f0: 0070 dbbd 0630 03bd 8a72 68bc a564 a63e
00000100: 735c 083f 8e55 db3e cb5f db3e b186 3b3f
00000110: b20a 2f3f 33b4 ce3e 0ab4 443f 9a78 0e3f
00000120: 5e38 583c fb70 593d 1c7a 64bd 435a 96ba
00000130: f3ed 22bc e925 963c f9ce d43c 0f4b c2bb
00000140: 8b0c 6ebd 74e3 dd3e b6b9 0a3f bd1d fa3e
00000150: 0732 123f 1b00 563f c9db 663f 72a3 ef3e
00000160: 1818 203f 4a1e 493f 6ccd 693e 81dc ad3e
00000170: 4421 523e 8922 6d3e 0b31 a43e 63a5 953e
00000180: 2625 953e 34d4 013f ae0f b63e eebc c2bc
00000190: 2b2f 49bc 844d 49bc 5515 90bd a109 d2bc
000001a0: 4fd0 eebd c267 44bc 797e 963c 6a09 55bd
000001b0: 24cb 893c b157 7e3c a63c 51bd 56bc 3abd
000001c0: 68c9 ac3c b0c1 ab3d 6a6e 11be 5fac 86bb
000001d0: 45ae 51bd aa4b 0c3e d70a 8c3e 84ef 9f3e
000001e0: d85b 983e bed8 fb3e cd74 c73e b6e2 493e
000001f0: f253 fd3e 3a56 a63e e9ad 0ebd fbef 9e3d
00000200: 08b5 5d3d 875f f0bd 76d9 fc3c e733 79bd
00000210: c79f b0bd 9b6a 00bd 28a1 be3c 9e94 063f
00000220: 6f72 443f b38c 363f c403 3a3f 6528 933f
00000230: 87c5 823f 7250 f13e 433c 8a3f ad42 673f
00000240: ec62 0c3e c18d ea3d 9ce2 073e d1db fb3d
00000250: b9e0 ca3d dc42 803d 1efc 7ebd f141 1dbd
00000260: b1ff 1ebe 58cd 0cbe a1f8 cb3d 9db2 c43d
00000270: 386a 2ebe 6943 d13d edb2 233e 5360 35be
00000280: b3a1 f63d 4c9c e93c 2bf5 35bd 93b5 a9bd
00000290: 2842 3a3c af6d 88bd 9314 08be 3111 bcbd
000002a0: eddc 5cbb 5fce bdbc ce66 b1bd 34f5 3e3e
000002b0: 425c aa3e e857 773e 9df4 153e 7dae fc3e
000002c0: bffc 9d3e 34bd 813e 774b 273f 6295 b73e
000002d0: 1e8f 103e bee2 fa3d 3399 aa3d f772 8f3d
000002e0: 68ea f13d d306 183e 60de 7e3d 381a 983d
000002f0: eebd 15bc f960 0abe c45e b33d a368 e1bc
00000300: b9b5 46bd a886 633e 181c 9c3c 4747 0bbe
00000310: c6dd 0a3e 63a0 a8bb c4e4 d13d f0bb cdbc
00000320: 641c 02bc dd27 06be 058f 7fbb d85c 00bb
00000330: 825f 2fbd 5c16 fabd dd73 bc3c 6999 173e
00000340: 744c 943e 84d6 953e 4150 e83d 2056 e33e
00000350: 1099 e83e 53ba c43d d1fd ec3e 57f2 8a3e
00000360: 5e14 2abd 4d04 713d 256f 293c a196 0b3e
00000370: ea78 593e bbb4 7e3e de3a fdbb f4c0 7a3e
00000380: 05fc 8f3d abbc b2bc a182 e23d f7ca 65bd
00000390: c0b2 943d bb91 0abc a500 10bd 0fac 093e
000003a0: 7001 133d 27bc 553c 85d6 5b3f 54f0 6e3f
000003b0: 5328 3c3f cbd6 643f 3cad a03f 482a 913f
000003c0: d788 543f 1aeb 843f 8d0d 703f 4626 61be
000003d0: bfa7 153d 6f79 8dbd 2d9b 18be 8649 2cbd
000003e0: e75b 58bd 2172 14be 628d de3d bd1b c13d
000003f0: 3d10 93bd f722 b5bc 94e8 cfbd 62fa 93bd

1.bias f4 [4]
0.89120686 0.011949703 0.22632341 0.027208744
00000000: 2226 643f b0c8 433c 53c1 673e dfe4 de3c
