expert_target_aware/mocosflV2_ResNet18_cifar10_cut2_bnlC4S2_expert_batchsize128_ressfl_2.0_SSIM0.6_data_proportion_0.00_aux_cifar100/checkpoint_c_best.tar (torch, 316626 bytes, 11 tensors)

0.conv1.weight f4 [64, 3, 3, 3]
-0.26209652 -0.053196985 -0.1268624 -0.009433004 0.28632757 0.23111534 -0.09720202 0.19177534
0.11960687 0.11791986 0.039227545 0.07874579 0.0072308923 -0.15264969 -0.09460818 0.05465338
-0.12866907 -0.10182681 0.0876803 0.05693841 0.03224868 0.012483209 -0.12412676 -0.11632246
0.07757684 -0.05363443 -0.07872405 0.098835565 0.041943442 0.022588054 -0.12810609 -0.14739738
-0.041772988 -0.042907882 -0.0050427793 0.011391779 0.05078244 0.038299173 0.060709175 -0.13960789
-0.08713676 -0.061277583 -0.00053726375 0.088462755 0.12748443 0.032989975 0.04521159 0.057933886
-0.07305504 -0.065640956 -0.010767215 0.021126704 0.054822758 0.05017955 0.004542841 0.04730839
-0.08608991 0.10324955 0.116023585 0.021627089 -0.052373834 -0.030894415 -0.10433028 -0.062100742
-0.020409808 -0.040309854 -0.008392245 -0.01861215 0.029418444 0.063764445 0.04269902 0.111207426
0.042825498 -0.025910236 0.23490518 -0.08393294 -0.31254792 -0.03626479 0.0808421 -0.124865174
0.12236471 0.058568224 -0.024363967 -0.117233075 0.0012910295 -0.10957095 -0.121348105 0.135957
0.0601382 0.112524286 0.07090673 -0.048003275 -0.09356719 -0.011100849 -0.15155219 -0.09770601
0.12374088 0.045598198 0.17075539 0.13349158 -0.07420233 -0.21176 0.08218376 -0.13872935
-0.17902853 0.19511288 0.073935956 0.10830071 0.121997036 -0.0145467175 -0.16771455 0.15653835
-0.033664517 -0.21912198 0.12477246 0.15873083 0.047250196 0.24499902 0.030015763 -0.033070184
0.10942469 -0.18687847 -0.2250466 0.1013504 -0.00040660697 -0.016366215 0.031591572 -0.09660195
-0.06376603 -0.009904742 -0.20770614 -0.09912283 0.1021964 0.045135632 0.10867606 -0.20212196
-0.4512945 -0.30518752 0.0809231 0.12729064 0.115986876 0.09769469 0.35271135 0.18823797
-0.13520755 -0.42153406 -0.2857886 0.08646956 0.10393811 0.07497876 0.10274821 0.3439244
0.1544697 -0.11612737 -0.35498872 -0.17288913 0.028013747 0.06634648 0.08018203 0.024086429
0.282928 0.11551331 0.31006598 -0.0064265793 0.16267437 0.061524328 -0.3248628 -0.08321913
-0.08829824 -0.2013136 -0.019345008 0.06162007 -0.0439164 0.0025456592 0.016366353 -0.18830018
0.042742122 -0.047088034 -0.007576031 0.15557703 -0.023528013 0.027913123 -0.087545365 -0.004441067
-0.20873222 0.11990524 0.14400472 -0.046260126 0.25794163 0.07114953 0.37699604 0.17262715
0.05396117 0.055432312 0.034478065 -0.14337535 -0.3916362 -0.22736806 0.111830294 0.361435
0.17597298 0.12283983 0.053625166 0.041152507 -0.117961586 -0.43824813 -0.28264692 0.0031198687
0.29703248 0.15645072 0.029995535 0.031373587 0.096532 -0.13446185 -0.33199087 -0.16960774
0.21204932 0.17557721 0.40375367 -0.13590498 -0.10873221 0.1114739 -0.42231396 -0.2563041
0.039087266 0.13719359 0.12328537 0.3458188 -0.12045765 -0.10139162 0.08051241 -0.33412537
-0.1809067 0.04712183 0.09267486 -0.031962425 -0.028652692 0.0476799 -0.048934247 -0.071355745
-0.021039201 0.022205796 0.030964235 -0.105742715 0.058828074 0.042346876 -0.2012806 0.097473264
0.14340778 0.014190491 0.030131629 -0.08531073 -0.24476539 0.032853015 0.2448454 -0.418988
00000000: 8431 86be 15e5 59bd 38e8 01be e38c 1abc
00000010: 8799 923e 80a9 6c3e da11 c7bd c160 443e
00000020: 72f4 f43d f87f f13d 10ad 203d 7945 a13d
00000030: 1ff1 ec3b 3350 1cbe efc1 c1bd 39dc 5f3d
00000040: d3c1 03be 938a d0bd bb91 b33d 4038 693d
00000050: 3117 043d 6086 4c3c 2c36 febd 783a eebd
00000060: 9be0 9e3d c7af 5bbd 133a a1bd 4d6a ca3d
00000070: e3cc 2b3d 950a b93c 3e2e 03be 57ef 16be
00000080: 271a 2bbd 2dc0 2fbd e63d a5bb 96a4 3a3c
00000090: 3f01 503d 98df 1c3d 2faa 783d 5ff5 0ebe
000000a0: c274 b2bd 34fe 7abd 29d7 0cba f62b b53d
000000b0: 478b 023e 7f20 073d ca2f 393d 154c 6d3d
000000c0: e19d 95bd c46e 86bd f968 30bc e911 ad3c
000000d0: d48d 603d 1289 4d3d 1ddc 943b 71c6 413d
000000e0: e84f b0bd 8074 d33d c69d ed3d 4b2b b13c
000000f0: f285 56bd 4916 fdbc 1dab d5bd 595d 7ebd
00000100: 7832 a7bc f21b 25bd a07f 09bc 8278 98bc
00000110: f3fe f03c ef96 823d 2be5 2e3d b8c0 e33d
00000120: ca69 2f3d b441 d4bc fc8a 703e 09e5 abbd
00000130: 4806 a0be 638a 14bd 8b90 a53d 50b9 ffbd
00000140: 599a fa3d 3ce5 6f3d f196 c7bc e517 f0bd
00000150: c337 a93a bc66 e0bd 5b85 f8bd 5038 0b3e
00000160: 7953 763d 2273 e63d 8c37 913d 159f 44bd
00000170: 28a0 bfbd 56e0 35bc 7f30 1bbe 171a c8bd
00000180: dc6b fd3d 2dc5 3a3d 80da 2e3e 04b2 083e
00000190: 64f7 97bd 9dd7 58be f64f a83d 110f 0ebe
000001a0: 4153 37be accb 473e bc6b 973d c3cc dd3d
000001b0: 95d9 f93d 5b55 6ebc 5dbd 2bbe 974b 203e
000001c0: cee3 09bd 8361 60be b488 ff3d 568a 223e
000001d0: 6c89 413d 06e1 7a3e 9ee3 f53c 9a74 07bd
000001e0: 0d1a e03d 125d 3fbe 9e72 66be cc90 cf3d
000001f0: dd2d d5b9 7112 86bc 2a66 013d 3ed7 c5bd
00000200: c497 82bd 8047 22bc ebb0 54be e900 cbbd
00000210: 594c d13d 24e0 383d 8e91 de3d 0ff9 4ebe
00000220: 1310 e7be 8a41 9cbe 03bb a53d 7a58 023e
00000230: 878a ed3d 2714 c83d 9596 b43e 74c1 403e
00000240: d973 0abe 50d3 d7be e252 92be f416 b13d
00000250: 81dd d43d 778e 993d a76d d23d dc16 b03e
00000260: 4e2d 1e3e 30d4 edbd 15c1 b5be d909 31be
00000270: 167d e53c aae0 873d 7a36 a43d e750 c53c
00000280: f0db 903e 3e92 ec3d f8c0 9e3e 0e96 d2bb
00000290: 1c94 263e ef00 7c3d 6b54 a6be cb6e aabd
000002a0: b5d5 b4bd 2725 4ebe 6c79 9ebc 5465 7c3d
000002b0: afe1 33bd 13d5 263b bb12 863c c3d1 40be
000002c0: 5d12 2f3d 62df 40bd 5b40 f8bb 964f 1f3e
000002d0: d2bd c0bc 10aa e43c fc4a b3bd 5f86 91bb
000002e0: e6bd 55be e190 f53d f975 133e 427b 3dbd
000002f0: ed10 843e d8b6 913d a005 c13e 2cc5 303e
00000300: 6306 5d3d fe0c 633d df38 0d3d fdd0 12be
00000310: 8a84 c8be 2cd3 68be 4807 e53d 020e b93e
00000320: 4332 343e 7393 fb3d 10a6 5b3d 888f 283d
00000330: d895 f1bd 0f62 e0be 19b7 90be b676 4c3b
00000340: a414 983e 9e34 203e 32b9 f53c 9781 003d
00000350: 92b2 c53d 5eb0 09be b5fa a9be a7ad 2dbe
00000360: 7523 593e 83ca 333e cdb8 ce3e ad2a 0bbe
00000370: feae debd 6e4c e43d 8939 d8be 4a3a 83be
00000380: f819 203d 7a7c 0c3e 0a7d fc3d 290f b13e
00000390: 80b2 f6bd 69a6 cfbd b1e3 a43d 7b12 abbe
000003a0: 9b3f 39be d202 413d 51cc bd3d 08eb 02bd
000003b0: 0db9 eabc 004c 433d 476f 48bd f622 92bd
000003c0: 675a acbc eee8 b53c b5a8 fd3c a38f d8bd
000003d0: b5f5 703d eb73 2d3d 801c 4ebe 10a0 c73d
000003e0: 7dd9 123e 3c7f 683c 9bd6 f63c 64b7 aebd
000003f0: c7a3 7abe e290 063d c1b8 7a3e 9885 d6be

0.bn1.weight f4 [64]
0.33535284 0.022125574 0.3599917 0.23224394 0.2465172 0.46722284 0.3080348 0.4370628
0.40750125 0.37993968 0.5046094 0.13006936 0.06483827 0.28930467 0.25111142 0.14729528
0.20722833 0.30789414 -0.0028709995 0.12028198 0.026991066 0.40534765 0.40439406 -0.011725221
0.08313049 0.08637745 0.20275865 0.13658886 0.2197466 0.4400021 0.3501832 0.41317818
0.2373148 0.2179251 0.24284163 0.29755268 0.330756 0.4203158 0.17918198 0.22371687
0.12535992 0.22291687 0.28251532 0.3390897 0.00845692 0.12472169 0.37502533 0.17887199
0.35951653 0.083264574 0.15782174 0.22058943 0.27393746 0.16365261 0.37912342 0.09070421
0.11359259 0.13400587 0.124538995 0.026354255 0.24543494 0.35082513 0.04030678 0.35947844
00000000: 5eb3 ab3e b140 b53c d550 b83e 5bd1 6d3e
00000010: 016f 7c3e d537 ef3e bdb6 9d3e b2c6 df3e
00000020: 01a4 d03e 7487 c23e 152e 013f e730 053e
00000030: edc9 843d be1f 943e ad91 803e 93d4 163e
00000040: aa33 543e 4da4 9d3e 6127 3cbb 6656 f63d
00000050: 5e1c dd3c ba89 cf3e bd0c cf3e 241b 40bc
00000060: 5140 aa3d a9e6 b03d f79f 4f3e f3dd 0b3e
00000070: 4105 613e f547 e13e 364b b33e 178c d33e
00000080: a702 733e c227 5f3e 7aab 783e d358 983e
00000090: da58 a93e a233 d73e 7b7b 373e 0916 653e
000000a0: 5a5e 003e 5244 643e d9a5 903e 2a9d ad3e
000000b0: e58e 0a3c 166e ff3d 5203 c03e 382a 373e
000000c0: 8d12 b83e 9e86 aa3d 069c 213e 32e2 613e
000000d0: 8841 8c3e 8d94 273e 771c c23e 21c3 b93d
000000e0: 3ba3 e83d d638 093e 4d0e ff3d e1e4 d73c
000000f0: 4c53 7b3e 5a9f b33e b918 253d 8f0d b83e

0.bn1.bias f4 [64]
0.09715288 0.07995575 -0.02159961 -0.014488905 0.0018783808 -0.0052092993 0.036776368 -0.022734601
-0.005545673 -0.002175302 -0.035940915 0.10350142 0.09973394 -0.19716099 0.02344668 -0.067677304
-0.0593818 0.034621492 0.25014052 0.081002325 0.08208189 -0.06230817 0.030295644 0.034098126
-0.2068414 -0.00061671756 0.01106328 0.12251226 -0.08802633 -0.055209506 0.024292426 -0.010082823
0.05067057 -0.27539134 0.04856151 -0.03802254 0.085229896 -0.12168569 0.06578799 0.12861404
0.08863939 -0.06629894 -0.03248174 -0.13786854 -0.08449208 -0.04996301 -0.11853956 0.08126388
-0.2624795 0.1224523 0.045104742 0.028994277 -0.120354615 0.13234517 0.025303341 0.06316531
0.007876727 0.060345516 0.11376696 0.10179419 0.03184438 0.09998735 0.10864288 -0.03184765
00000000: 17f8 c63d d7bf a33d aaf1 b0bc df62 6dbc
00000010: 0034 f63a c5b2 aabb d1a2 163d ea3d babc
00000020: 7ab8 b5bb 838f 0ebb c836 13bd 8df8 d33d
00000030: 4f41 cc3d 92e4 49be 4013 c03c 669a 8abd
00000040: 553a 73bd 44cf 0d3d 6b12 803e 8ce4 a53d
00000050: 8d1a a83d da36 7fbd 922e f83c 7aaa 0b3d
00000060: 3bce 53be 37ab 21ba c242 353c b5e7 fa3d
00000070: 2647 b4bd 5d23 62bd e900 c73c 6d32 25bc
00000080: f28b 4f3d 1800 8dbe 6fe8 463d 86bd 1bbd
00000090: 038d ae3d 5936 f9bd dbbb 863d 66b3 033e
000000a0: 9288 b53d bdc7 87bd 930b 05bd 692d 0dbe
000000b0: 2f0a adbd 03a6 4cbd dec4 f2bd ad6d a63d
000000c0: b763 86be 45c8 fa3d c0bf 383d 6885 ed3c
000000d0: 7b7c f6bd 7e85 073e f448 cf3c d05c 813d
000000e0: 630d 013c dc2c 773d a7fe e83d 7979 d03d
000000f0: 416f 023d 2bc6 cc3d 2980 de3d ae72 02bd

1.conv1.weight f4 [64, 64, 3, 3]
-0.05904303 -0.023509305 -0.0076834136 0.01745274 0.038320776 0.015238144 0.085573025 0.099205285
0.053459607 0.0010228241 -0.009284146 -0.005848123 -0.03273651 -0.041055456 -0.041629106 -0.009345603
-0.023549987 -0.03649128 -0.023822017 -0.023729153 -0.042832967 -0.0017069108 0.012144702 -0.021465681
0.032336585 0.050373696 0.008652579 0.025861219 -0.009963091 -0.034927104 -0.0049924417 0.022507891
0.010209072 -0.06553834 -0.018282922 0.03388552 0.00061519176 -0.01827614 -0.03821652 -0.026729975
0.011078572 0.02594938 -0.04620397 -0.0006789954 0.023656547 0.10258297 0.02550866 -0.06138585
0.06925406 0.07364487 -0.005017074 0.077244915 0.13337803 0.06526066 0.005567067 -0.02774865
0.0030586706 -0.066119835 -0.10163109 -0.078312434 -0.030056575 -0.077434 -0.06970651 -0.029111633
0.028098734 0.005052096 0.013253879 0.11817841 0.027657943 0.015365106 0.12982889 0.054843597
0.121790364 -0.0061838655 -0.084272005 0.076936536 0.047685012 -0.010742886 0.030850325 0.045248095
0.09563718 0.10381456 -0.008469888 -0.04263178 0.10302075 0.0015428478 -0.0016403926 0.03655495
-0.020295085 0.03515472 0.033320975 0.034073334 -0.0071130437 0.025696572 0.044486426 0.0029451298
-0.024588421 -0.0009171189 0.0015359774 0.024267977 -0.00044066767 -0.014801358 0.0147581 -0.0060338215
0.0036746634 0.019883329 -0.0065720663 -0.014206453 -0.021606572 -0.04493025 -0.050360028 -0.013459728
-0.028303562 -0.0358452 0.026887147 0.026790705 0.008690966 -0.02263236 -0.023018317 -0.011861198
-0.0010062258 0.013317304 0.027914414 -0.010205084 0.006922687 0.028643552 -0.015364004 -0.030967956
-0.02787238 0.006681205 0.0015484749 -0.00067773863 0.062126834 0.06424522 0.033079855 0.018488446
-0.0034629223 -0.0043415125 0.020906309 -0.0066135535 0.0022151389 0.046321187 0.06222733 0.06368048
0.05466589 0.030640872 0.03280014 0.028990993 0.0007626515 -0.012708058 0.0062689153 -0.02553372
-0.043047413 -0.017695392 -0.029030671 -0.011708488 0.021924092 0.008287308 0.015695823 0.059251573
0.046695385 0.034086384 0.011572402 -0.0061668386 -0.002605331 -0.02710997 -0.044038866 -0.037897483
-0.012772632 -0.041028224 -0.03999508 -0.06394971 -0.058381945 -0.034018226 -0.044368 -0.03919527
-0.026561135 -0.0018894866 0.007477322 -0.0047314516 -0.0066263927 -0.016862685 -0.008052701 -0.007447384
-0.023808772 -0.02030163 0.00967548 -0.0072596795 -0.018029729 0.025095297 0.03417364 0.015125149
-0.002664601 0.0033553573 -0.003972011 0.005256312 0.0016180117 -0.015539593 0.046602868 -0.00520961
-0.09136934 0.08733572 -0.009196395 -0.04868782 0.1092048 0.10473662 0.13843118 0.003300727
0.00419677 -0.018248012 -0.016068736 -0.024809986 -0.037616525 -0.0028018742 -0.007869191 -0.016387645
-0.02618531 -0.025027217 -0.02394038 -0.01937885 -0.019533627 -0.018623624 -0.012791474 -0.012703687
-0.015103321 0.005023837 -4.7935755e-06 0.0036322656 -0.0075279004 -0.008610527 -0.006548783 0.004753996
-0.0018956785 -0.0012195276 -0.042727634 -0.04513905 -0.021302095 -0.04897678 -0.03961023 -0.033250995
-0.01730829 -0.003609534 -0.021571996 -0.0049538496 -0.00023581095 0.0026547313 0.01146844 0.016426127
0.014932658 0.03704204 0.03764001 0.030300032 -0.08365951 -0.05821175 -0.036356322 -0.038770564
00000000: 1bd7 71bd 9696 c0bc 25c5 fbbb 0cf9 8e3c
00000010: 3ff6 1c3d 69a9 793c e940 af3d 242c cb3d
00000020: 76f8 5a3d 4810 863a 881c 18bc 9da1 bfbb
00000030: b816 06bd c429 28bd 4883 2abd 4d1e 19bc
00000040: e7eb c0bc e177 15bd 6426 c3bc a463 c2bc
00000050: 9f71 2fbd 6cba dfba 92fa 463c ccd8 afbc
00000060: 5e73 043d a654 4e3d 8cc3 0d3c e8da d33c
00000070: 3c3c 23bc b90f 0fbd a397 a3bb 7862 b83c
00000080: f443 273c f738 86bd 11c6 95bc 8bcb 0a3d
00000090: d244 213a d8b7 95bc ed88 1cbd d2f8 dabc
000000a0: e682 353c cb93 d43c 6040 3dbd 9cfe 31ba
000000b0: 60cb c13c 0517 d23d 8af7 d03c bb6f 7bbd
000000c0: 13d5 8d3d 1fd3 963d 4466 a4bb 9532 9e3d
000000d0: 4094 083e 62a7 853d f16b b63b 2351 e3bc
000000e0: fa73 483b d669 87bd f623 d0bd 4562 a0bd
000000f0: 3539 f6bc b895 9ebd 49c2 8ebd 857b eebc
00000100: 512f e63c 0e8c a53b cc26 593c 8607 f23d
00000110: e992 e23c edbd 7b3c ddf1 043e aea3 603d
00000120: 3a6d f93d 06a2 cabb cd96 acbd e790 9d3d
00000130: 5c51 433d ee02 30bc d2b9 fc3c 1156 393d
00000140: 6ddd c33d ba9c d43d 49c5 0abc a99e 2ebd
00000150: 8bfc d23d 6239 ca3a 7102 d7ba a5ba 153d
00000160: e141 a6bc 65fe 0f3d 937b 083d 7b90 0b3d
00000170: 8914 e9bb 9e81 d23c 6637 363d 1403 413b
00000180: a86d c9bc cf6a 70ba d952 c93a a3cd c63c
00000190: 6a09 e7b9 6581 72bc f5cb 713c 5db7 c5bb
000001a0: 9fd2 703b 5de2 a23c 7d5a d7bb 2fc2 68bc
000001b0: 4400 b1bc c808 38bd 5146 4ebd 3186 5cbc
000001c0: dfdc e7bc 6bd2 12bd 6f42 dc3c 2e78 db3c
000001d0: 8e64 0e3c 8067 b9bc e990 bcbc 7855 42bc
000001e0: 56e3 83ba d230 5a3c c5ac e43c 3a33 27bc
000001f0: b5d7 e23b e2a5 ea3c 4eb9 7bbc 83b0 fdbc
00000200: 9e54 e4bc 02ee da3b 32f6 ca3a 45aa 31ba
00000210: b578 7e3d ff92 833d be7e 073d 1575 973c
00000220: 32f2 62bb 3f43 8ebb b543 ab3c 82b6 d8bb
00000230: dd2b 113b 49bb 3d3d 16e2 7e3d e96a 823d
00000240: 57e9 5f3d 9102 fb3c 7159 063d 857e ed3c
00000250: adec 473a 7535 50bc 796b cd3b 182c d1bc
00000260: 7c52 30bd edf5 90bc bbd1 edbc f5d4 3fbc
00000270: 279a b33c 7dc7 073c 8794 803c c7b1 723d
00000280: a943 3f3d 2a9e 0b3d 2c9a 3d3c 3113 cabb
00000290: 33be 2abb ba15 debc 1962 34bd 643a 1bbd
000002a0: 4d44 51bc 360d 28bd e2d1 23bd 11f8 82bd
000002b0: e821 6fbd b256 0bbd 38bb 35bd 388b 20bd
000002c0: bd96 d9bc a6a8 f7ba 5304 f53b 4b0a 9bbb
000002d0: 3622 d9bb 9d23 8abc 7aef 03bc 2f09 f4bb
000002e0: 9d0a c3bc 9b4f a6bc e885 1e3c 9be2 edbb
000002f0: 15b3 93bc a794 cd3c a9f9 0b3d 79cf 773c
00000300: 96a0 2ebb 8ee5 5b3b a527 82bb 243d ac3b
00000310: 7713 d43a c799 7ebc a6e2 3e3d 60b5 aabb
00000320: d91f bbbd 12dd b23d 7aac 16bc e16c 47bd
00000330: c4a6 df3d 2780 d63d e7c0 0d3e 0351 583b
00000340: 0f85 893b db7c 95bc 95a2 83bc 503e cbbc
00000350: c913 1abd a69f 37bb c7ed 00bc 623f 86bc
00000360: 9382 d6bc e105 cdbc 9e1e c4bc 65c0 9ebc
00000370: fc04 a0bc 9290 98bc 5593 51bc 2023 50bc
00000380: eb73 77bc 009f a43b 80d8 a0b6 4e0b 6e3b
00000390: 9bac f6bb 2b13 0dbc 2c97 d6bb 69c7 9b3b
000003a0: 6a78 f8ba 8ed8 9fba 2c03 2fbd b9e3 38bd
000003b0: bb81 aebc e09b 48bd 563e 22bd 3232 08bd
000003c0: 1dca 8dbc ee8d 6cbb c1b7 b0bc e753 a2bb
000003d0: 0544 77b9 00fb 2d3b 20e6 3b3c 1690 863c
000003e0: 1ba8 743c 65b9 173d 692c 1a3d c637 f83c
000003f0: ad55 abbd 726f 6ebd 5eea 14bd e2cd 1ebd

1.bn1.weight f4 [64]
0.15982847 0.35268724 0.31860697 0.31713644 0.48540223 0.4466384 0.29325944 0.16228767
0.2809691 0.20836109 0.29841083 0.3582412 0.2013492 0.29892534 0.61914694 0.20931204
0.3416301 0.19205175 0.26852676 0.2769889 0.22766581 0.10665461 0.20059799 0.27886742
0.29184058 0.38826188 0.5994327 0.19993512 0.16124626 0.11337555 0.11620538 0.35710213
0.259673 0.24591959 0.2456583 0.24479559 0.18350357 0.39141187 0.63720274 0.06177931
0.27887762 0.26909682 0.2688815 0.3394529 0.2442613 0.26321048 0.41401452 0.26995784
0.17586768 0.2860631 0.2636533 0.38320976 0.2792134 0.34781986 0.37879893 0.26483792
0.29204363 0.35755977 0.14851286 0.32359478 0.27531776 0.72179043 0.27094704 0.2065733
00000000: 13aa 233e 6c93 b43e 7420 a33e b55f a23e
00000010: a486 f83e caad e43e 1a26 963e bd2e 263e
00000020: 2fdb 8f3e 9c5c 553e 4ec9 983e 646b b73e
00000030: 7c2e 4e3e be0c 993e 6a80 1e3f e555 563e
00000040: 24ea ae3e 37a9 443e 577c 893e 7dd1 8d3e
00000050: 3a21 693e bb6d da3d 8f69 4d3e b6c7 8e3e
00000060: 216c 953e 43ca c63e 6c74 193f cbbb 4c3e
00000070: bd1d 253e 7131 e83d 16fd ed3d 17d6 b63e
00000080: dcf3 843e 58d2 7b3e d98d 7b3e b2ab 7a3e
00000090: 5ce8 3b3e 2367 c83e b81f 233f 4d0c 7d3d
000000a0: 0cc9 8e3e 0fc7 893e d6aa 893e c5cc ad3e
000000b0: a21f 7a3e 86c3 863e b6f9 d33e ea37 8a3e
000000c0: a816 343e dd76 923e 91fd 863e 1234 c43e
000000d0: 0ff5 8e3e 7215 b23e eff1 c13e d698 873e
000000e0: be86 953e 1312 b73e c113 183e 37ae a53e
000000f0: 73f6 8c3e 42c7 383f 92b9 8a3e f387 533e

1.bn1.bias f4 [64]
0.122474484 -0.09584763 0.034039542 -0.15371327 -0.10493802 -0.15752125 -0.060833298 0.12910408
-0.09563173 0.050036475 -0.09775458 -0.10658719 -0.07633218 -0.056830354 -0.108665735 0.045211818
-0.18391412 0.02476171 -0.42948985 -0.07404225 -0.16540748 0.2294906 0.051442545 -0.17768253
-0.071039096 -0.039605644 -0.05619319 -0.041748345 0.093107395 -0.07504493 -0.19385085 -0.33072302
-0.049373273 -0.04720878 -0.021312896 0.1342498 0.06435672 -0.31863105 -0.0631217 0.10161095
-0.0123184575 0.008116708 -0.006576476 -0.031437356 -0.44858107 -0.27645436 -0.09028843 -0.18070951
0.09932082 -0.25361228 -0.0782434 -0.091942884 -0.107688785 -0.20536627 -0.1253766 -0.1770647
-0.06495536 -0.06437607 0.0002137491 -0.103650846 -0.15002915 -0.2511075 -0.26912928 0.06864475
00000000: e7d3 fa3d c34b c4bd 0c6d 0b3d 0367 1dbe
00000010: bfe9 d6bd 404d 21be 562c 79bd dc33 043e
00000020: 92da c3bd 0cf3 4c3d 8e33 c8bd 624a dabd
00000030: 0c54 9cbd f2c6 68bd 248c debd 0730 393d
00000040: fc53 3cbe 12d9 ca3c 18e6 dbbe 77a3 97bd
00000050: 9460 29be 95ff 6a3e 6bb5 523d 69f2 35be
00000060: f27c 91bd 8739 22bd d52a 66bd 5000 2bbd
00000070: 17af be3d 28b1 99bd d680 46be 8754 a9be
00000080: a13b 4abd fe5d 41bd 6298 aebc c878 093e
00000090: 75cd 833d 9c23 a3be f345 81bd 6719 d03d
000000a0: 5bd3 49bc f1fb 043c 7b7f d7bb 75c4 00bd
000000b0: 6bac e5be 6d8b 8dbe 24e9 b8bd ea0b 39be
000000c0: b768 cb3d 78d9 81be 133e a0bd 8d4c bcbd
000000d0: f08b dcbd 894b 52be b962 00be 7350 35be
000000e0: 5107 85bd 9ad7 83bd d621 6039 e546 d4bd
000000f0: 3ea1 19be 2a91 80be 50cb 89be 9e95 8c3d

1.conv2.weight f4 [64, 64, 3, 3]
-0.031231005 0.014533714 0.022472804 -0.003014087 0.02950023 0.037524708 -0.03668754 -0.022378588
0.0012938791 0.029453158 0.005585826 0.0186534 0.04360409 0.0123040695 0.03105976 -0.033674538
-0.017977742 0.0005664427 -0.0049001216 -0.022061462 -0.020219134 0.028152077 -0.008208088 0.0094465045
0.038400527 0.033082996 0.004966717 -0.034890935 -0.0006061446 0.00414651 -0.023289172 -0.013959255
0.00614168 -0.012117709 0.008723069 -0.009813316 -0.0038257085 -0.010285734 0.0203431 -0.01650927
0.0071799825 0.02749962 0.0116102435 0.051446643 0.0632619 -0.0126192225 0.008235988 0.008380952
-0.012640766 0.010859366 0.007764542 -0.008242892 0.012628646 0.014054851 -0.018830065 -0.016302593
-0.023937747 -0.026021123 -0.009841552 0.0035737248 -0.030950813 0.0007593119 0.027238889 -0.014089867
-0.012822967 0.015255732 -0.023602929 -0.032213353 -0.0052695195 -0.021654857 -0.018808756 0.013699212
-0.03278719 -0.018759215 -0.008211177 -0.007669149 -0.0029175312 -0.00266715 -0.025080085 -0.023094283
-0.002487867 -0.020426378 -0.0158566 -0.008746041 0.0073087937 0.0045041875 -0.0031632127 0.005991813
0.005890154 -0.0013392768 -0.024083646 -0.01590512 -0.017656526 -0.021018144 0.004568958 0.0018275342
-0.016468346 0.0046139685 -0.013622673 0.028656881 -0.005095897 -0.02844093 0.012351014 0.006640856
0.0030770812 0.035240047 0.032085426 0.023389393 -0.010572148 -0.011206323 -0.01224321 -0.006190316
0.0034819208 0.0061815977 -0.020862576 -0.013944318 -0.020701744 -0.009105287 -0.011449044 0.0028864727
-0.010833671 -0.0045474134 0.013515656 -0.013084292 -0.0049533625 0.0052565658 -0.024576133 0.0035751665
0.01177296 -0.042028677 -0.033118628 -0.03287659 -0.026973965 -0.03702556 -0.044401493 -0.0011948504
-0.0019290295 -0.008183489 0.020593118 0.024735002 0.03459708 -0.011499078 0.010696711 0.006602757
-0.0004952045 0.006725346 -0.0024975154 -0.01425155 -0.0066353963 -0.012769916 -0.013033088 -0.009763939
-0.02663974 -0.015897024 -0.02258089 -0.032892045 -0.012171861 -0.007541302 -0.0034347717 -0.037577294
0.0011723059 0.015937924 -0.0015687271 -0.018779261 -0.01064803 0.008118769 -0.00078293786 -0.002635203
0.009794916 0.0013689615 -0.006581692 6.699107e-05 -0.0008142433 0.0029482231 -0.007377007 -0.0041543767
0.0044092657 0.010045817 0.020892205 0.029548397 0.0291168 0.005312117 0.021125438 0.026179655
-0.0013069668 0.013484299 0.04151796 0.02636185 0.032414872 -0.019877242 0.012011145 -0.0073315506
0.0032974354 0.041142803 0.015223821 0.011955634 0.053481087 0.03475077 -0.010584545 0.010382756
0.012505167 -0.034662273 -0.013970641 -0.00069664716 -0.07311956 -0.032361943 -0.024605755 0.004862147
0.012513262 0.0054596146 -0.01764813 0.01697966 0.017307391 -0.011165848 0.008894826 0.0059734746
0.037475776 0.062388897 0.026713211 0.009549353 0.045114715 0.01041147 -0.012885176 0.010632426
-0.011293791 -0.01259175 -0.00820181 0.005314309 -0.023064246 0.00671719 0.03743018 0.013355499
0.0347519 0.06893607 -0.019620877 1.2639791e-05 -0.004031412 -0.0406583 -0.015005162 0.0047720624
-0.030157272 -0.0036181917 0.0073877876 -0.0025062484 0.019561613 0.030546578 -0.011379243 0.0040860004
0.00941834 -0.046649348 -0.03634587 -0.02203504 0.012568267 0.01377477 0.020205319 -0.0055968314
00000000: 2ad8 ffbc d11e 6e3c e318 b83c fd87 45bb
00000010: 77aa f13c 82b3 193d ad45 16bd 4d53 b7bc
00000020: 6197 a93a c047 f13c 4e09 b73b 04cf 983c
00000030: 349a 323d 0297 493c 0a71 fe3c 50ee 09bd
00000040: 0f46 93bc 537d 143a 3391 a0bb 3dba b4bc
00000050: 99a2 a5bc 2f9f e63c 377b 06bc 83c5 1a3c
00000060: df49 1d3d 0982 073d d8bf a23b cce9 0ebd
00000070: ade5 1eba 72df 873b efc8 bebc 5cb5 64bc
00000080: 2540 c93b 5b89 46bc 34eb 0e3c 08c8 20bc
00000090: bdb8 7abb 7f85 28bc 93a6 a63c 733e 87bc
000000a0: 0f46 eb3b e246 e13c e438 3e3c b7b9 523d
000000b0: 748f 813d dbc0 4ebc 3df0 063c 4350 093c
000000c0: 371b 4fbc 7beb 313c b36d fe3b 320d 07bc
000000d0: 61e8 4e3c 5146 663c 8241 9abc 048d 85bc
000000e0: 1819 c4bc 402a d5bc 763e 21bc 2735 6a3b
000000f0: 8f8c fdbc 8f0c 473a 1724 df3c 2fd9 66bc
00000100: 6c17 52bc 2ef3 793c ee5a c1bc 26f2 03bd
00000110: efab acbb 8765 b1bc d214 9abc a972 603c
00000120: dc4b 06bd edac 99bc 2c88 06bc 7c4d fbbb
00000130: 0d34 3fbb 5acb 2ebb c074 cdbc 3930 bdbc
00000140: 7b0b 23bb 3855 a7bc b3e5 81bc 8e4b 0fbc
00000150: 9b7e ef3b dd97 933b e74d 4fbb f856 c43b
00000160: 3102 c13b ac8a afba 114b c5bc 744b 82bc
00000170: 6ba4 90bc 3e2e acbc 33b7 953b df89 ef3a
00000180: a0e8 86bc c630 973b a231 5fbc d6c1 ea3c
00000190: 7bfb a6bb f4fc e8bc e85b 4a3c 8a9b d93b
000001a0: dba8 493b de57 103d 026c 033d 1d9b bf3c
000001b0: cd36 2dbc ba9a 37bc bf97 48bc 22d8 cabb
000001c0: f030 643b 008f ca3b fee7 aabc b576 64bc
000001d0: b496 a9bc 572e 15bc c594 3bbc fa2a 3d3b
000001e0: b67f 31bc 7802 95bb c570 5d3c 805f 56bc
000001f0: d14f a2bb 453f ac3b e353 c9bc 574d 6a3b
00000200: 60e3 403c 4326 2cbd 66a7 07bd 9aa9 06bd
00000210: 81f8 dcbc 1da8 17bd 57de 35bd 879c 9cba
00000220: 7dd7 fcba 0a14 06bc e6b2 a83c 0fa1 ca3c
00000230: abb5 0d3d a166 3cbc 4241 2f3c f15b d83b
00000240: 9dd0 01ba 4b60 dc3b 5bad 23bb 557f 69bc
00000250: bd6d d9bb e938 51bc bc88 55bc eef8 1fbc
00000260: 963b dabc 7a3a 82bc 8ffb b8bc cfb9 06bd
00000270: 7c6c 47bc 071d f7bb e819 61bb a6ea 19bd
00000280: 0fa8 993a 4090 823c bf9d cdba f7d6 99bc
00000290: 1375 2ebc 9604 053c 123e 4dba 5fb3 2cbb
000002a0: db7a 203c ba6e b33a 3cab d7bb 8f7d 8c38
000002b0: f172 55ba fa36 413b d2ba f1bb 7021 88bb
000002c0: 9a7b 903b 3697 243c 2126 ab3c 7b0f f23c
000002d0: 5b86 ee3c 4411 ae3b 410f ad3c b776 d63c
000002e0: 874e abba 40ed 5c3c bd0e 2a3d cef4 d73c
000002f0: 75c5 043d 99d5 a2bc 65ca 443c 813d f0bb
00000300: c919 583b 5b85 283d 556d 793c 90e1 433c
00000310: fc0e 5b3d d356 0e3d cd6a 2dbc 6f1c 2a3c
00000320: 79e2 4c3c 07fa 0dbd 1ee5 64bc 339f 36ba
00000330: b5bf 95bd f58d 04bd 0292 c9bc a552 9f3b
00000340: 6d04 4d3c 91e6 b23b d092 90bc ee18 8b3c
00000350: 3bc8 8d3c f6f0 36bc 9bbb 113c 23bd c33b
00000360: 3380 193d 808b 7f3d aad5 da3c e474 1c3c
00000370: 35ca 383d df94 2a3c 581c 53bc a033 2e3c
00000380: 9809 39bc a14d 4ebc e260 06bc a823 ae3b
00000390: 3bf1 bcbc e01b dc3b 6350 193d 06d1 5a3c
000003a0: 0258 0e3d 5b2e 8d3d f6bb a0bc 7d0f 5437
000003b0: ef19 84bb 5189 26bd 36d8 75bc f65e 9c3b
000003c0: 620c f7bc 2f1f 6dbb 4115 f23b df3f 24bb
000003d0: ad3f a03c d13c fa3c 0170 3abc dbe3 853b
000003e0: 624f 1a3c 6313 3fbd 68df 14bd d482 b4bc
000003f0: 22eb 4d3c 93af 613c a085 a53c a065 b7bb

1.bn2.weight f4 [64]
0.23095143 0.348741 1.5804379 0.34642047 0.13984504 0.32319114 0.41537586 0.6293625
0.607273 0.8022966 0.32783848 0.37179747 0.35209003 0.10843479 0.25663328 0.801957
0.11016048 0.20643754 0.7782572 0.10980722 0.5172643 0.21469055 0.4546059 0.40735912
0.6396251 0.45496663 0.4645811 0.31284904 0.26360813 0.5933961 0.37464905 0.5232882
0.7736655 1.6927519 0.13085945 0.20383893 0.48086524 0.4186859 0.29656 0.57288104
0.19576372 0.479666 0.26861817 0.62403774 0.7377383 0.30017772 0.27798554 0.69578075
0.33915016 0.37521982 0.040987276 0.49149182 0.33827522 0.5340645 0.309487 0.3934518
0.6628995 0.24248353 0.14270572 0.632495 0.4231124 0.6179352 0.10242522 0.41011748
00000000: 887e 6c3e 2e8e b23e ca4b ca3f 065e b13e
00000010: 8a33 0f3e 4f79 a53e 25ac d43e e71d 213f
00000020: 3e76 1b3f 4f63 4d3f 72da a73e 3d5c be3e
00000030: 2545 b43e 0f13 de3d 7065 833e 0e4d 4d3f
00000040: d19b e13d 5d64 533e dd3b 473f 9ce2 e03d
00000050: 6f6b 043f d7d7 5b3e 1bc2 e83e 6091 d03e
00000060: 78be 233f 63f1 e83e 93dd ed3e c02d a03e
00000070: a5f7 863e cfe8 173f 00d2 bf3e 37f6 053f
00000080: f10e 463f 18ac d83f 0500 063e 27bb 503e
00000090: f833 f63e 005e d63e b6d6 973e 55a8 123f
000000a0: 4976 483e c896 f53e 5288 893e f0c0 1f3f
000000b0: 6bdc 3c3f e5b0 993e 1f54 8e3e b01e 323f
000000c0: 17a5 ad3e d01c c03e 46e2 273d d1a4 fb3e
000000d0: 6932 ad3e 73b8 083f 1475 9e3e 8472 c93e
000000e0: c8b3 293f 9a4d 783e 7321 123e 31eb 213f
000000f0: 30a2 d83e 0031 1e3f 50c4 d13d ebfa d13e

1.bn2.bias f4 [64]
-0.12543105 0.15231687 -0.38113347 -0.1288712 -0.097413465 0.0055650086 0.42687476 0.19003856
-0.15506142 0.10270395 0.25074542 -0.11062454 0.04083889 0.20626627 0.069166854 0.23363651
0.021715458 -0.06011482 0.902214 -0.055811062 -0.0319382 -0.16912344 -0.17977424 0.13557939
0.057961136 0.008046558 -0.085666955 -0.1979416 -0.17358808 -0.0818598 -0.10967729 -0.043577313
-0.043013565 -0.3585043 -0.008666755 0.05301039 -0.036969233 -0.12462964 -0.13126238 -0.1873567
0.24813697 -0.019201737 -0.18714668 -0.07330221 0.038622662 0.04600555 -0.14930743 0.0035779253
-0.08325983 -0.1193836 0.38831493 0.07683859 -0.036021847 -0.11844858 -0.098856814 0.06256493
-0.28714922 0.25807044 -0.12407785 -0.08062189 -0.050511718 -0.2615356 0.36889473 -0.26302972
00000000: ff70 00be f4f8 1b3e ed23 c3be d0f6 03be
00000010: b680 c7bd ad5a b63b 548f da3e 7899 423e
00000020: 6cc8 1ebe 7356 d23d b461 803e 1e8f e2bd
00000030: ae46 273d 7737 533e 5aa7 8d3d 693e 6f3e
00000040: 9ee4 b13c f53a 76bd 7ff7 663f 249a 64bd
00000050: a1d1 02bd b22e 2dbe bd16 38be 53d5 0a3e
00000060: a868 6d3d b6d5 033c 2872 afbd 34b1 4abe
00000070: 13c1 31be 1ca6 a7bd 7d9e e0bd 207e 32bd
00000080: fe2e 30bd e08d b7be 01ff 0dbc 6c21 593d
00000090: 0d6d 17bd d33d ffbd a569 06be 6fda 3fbe
000000a0: 9e17 7e3e f64c 9dbc 61a3 3fbe 781f 96bd
000000b0: cc32 1e3d 5170 3c3d 0ce4 18be a07b 6a3b
000000c0: 2184 aabd 647f f4bd 37d1 c63e 8d5d 9d3d
000000d0: a58b 13bd 2b95 f2bd 7175 cabd 0b22 803d
000000e0: 3905 93be cf21 843e 871c febd 171d a5bd
000000f0: 60e5 4ebd ffe7 85be c5df bc3e d5ab 86be

2.weight f4 [4, 64, 3, 3]
-0.0061177756 -0.058782022 -0.08489123 0.021106267 -0.072070636 -0.0811731 0.016823795 0.014969023
0.020086551 -0.06522201 0.010977476 -0.008980726 -0.004522106 0.11617236 0.14910151 0.021282265
0.14776847 0.15584223 -0.046234068 0.0073265587 0.032332923 -0.066347316 0.13919824 0.18212606
-0.006554456 0.24781303 0.2862425 -0.027428146 -0.08046293 -0.040488675 -0.024293428 -0.1801732
-0.15539728 0.07685171 0.016373254 -0.07461194 0.0042682737 0.020044247 -0.050532583 0.028343093
0.030016547 -0.0458929 -0.026384838 0.011977019 -0.03989307 0.062280364 -0.046862207 -0.009369749
0.0045427945 -0.046003565 -0.044393882 0.074729435 0.042175837 0.021315625 -0.037242334 -0.052813895
0.022439245 0.08093859 0.21163747 0.22909713 0.07413112 0.17925838 0.13769604 0.20835719
0.2272743 0.15130168 0.03704084 -0.036190342 -0.010315879 -0.07535624 -0.2752863 -0.24720667
-0.118672825 -0.20223947 -0.08727931 0.037767608 0.1877707 0.2823189 0.061850924 0.23847747
0.14640027 0.0784426 0.23286569 0.27846447 0.1527785 -0.19653977 -0.41152614 0.1284714
-0.21465474 -0.42134085 0.04688268 0.09173474 0.24715154 -0.031371836 -0.08358373 0.0687933
-0.00011248476 -0.08703012 -0.016759034 0.16940306 0.16425218 -0.009866463 0.17583147 0.21198843
0.031793535 -0.09730886 -0.24748291 -0.17831132 0.087595195 0.10383375 0.055307772 0.17683226
0.15086961 0.061004806 0.1274302 0.047522835 -0.057381906 0.018257746 -0.025333278 -0.084739886
-0.0049628546 0.016828692 -0.049998652 0.024526402 0.0828554 0.027404029 0.0045578512 0.010484638
-0.020611482 -0.01905752 -0.043876745 -0.06507898 0.007184641 -0.015949832 -0.02528876 -0.01442104
0.07764432 0.08773608 0.42024007 0.614805 0.5429079 0.25881177 0.33025804 0.120129675
-0.038272448 -0.033642836 -0.014625455 -0.019493788 -0.05253211 -0.021714797 -0.031905677 -0.01112974
-0.027227167 0.031642552 0.020019658 0.0218534 0.04092668 0.059358045 0.05973997 0.05005123
0.07069945 0.059815943 0.03497944 0.007360295 0.0042898017 0.14480342 0.20241567 0.19157664
0.059591465 0.02844219 0.008104454 0.030175734 0.03597058 0.023933865 0.046313442 0.057132177
0.022522822 0.016482702 -0.0062663658 -0.011912738 0.006548688 0.063479744 -0.008778053 0.08131801
0.1650788 0.07869924 0.06583952 0.23960702 0.2317831 0.001503655 0.026698073 0.012133014
0.0074109687 0.03631252 0.044904977 0.022808004 0.040854946 0.099488474 -0.029790303 -0.0056085493
0.11414545 -0.012308363 -0.08863897 0.03454582 -0.049431585 -0.21359208 -0.27922997 -0.096203715
-0.093685016 -0.047346037 0.14113826 0.3644351 0.4068076 0.15276901 0.34983224 0.29266182
0.06549213 0.1691394 0.22729744 0.23420806 0.3542323 0.37057206 0.31528273 0.38320985
0.28355458 0.010540627 0.11437712 0.07783382 0.120276496 0.20121355 0.09182635 0.1037905
0.13873667 0.057601146 -0.002226822 0.09774758 0.07179294 0.041333415 0.16179076 0.21032847
0.056441642 0.14923294 0.17735866 0.117625326 0.16565236 0.17756218 0.058778536 0.13746706
0.16085705 0.14262503 0.12795745 0.09961518 0.007521458 0.03241245 0.0077368612 -0.007707705
00000000: 9f77 c8bb 6bc5 70bd 74db adbd 0de7 ac3c
00000010: c599 93bd 153e a6bd 0ed2 893c a240 753c
00000020: 8d8c a43c 1e93 85bd dfda 333c e523 13bc
00000030: 2d2e 94bb c6eb ed3d 11ae 183e 2558 ae3c
00000040: 9e50 173e 1b95 1f3e ef5f 3dbd a113 f03b
00000050: 876f 043d 1ae1 87bd fc89 0e3e 417f 3a3e
00000060: c3c6 d6bb b3c2 7d3e 618e 923e feb0 e0bc
00000070: c0c9 a4bd 74d7 25bd 0303 c7bc 537f 38be
00000080: 7720 1fbe 6e64 9d3d 3421 863c 25ce 98bd
00000090: e0dc 8b3b d533 a43c 41fb 4ebd c62f e83c
000000a0: 43e5 f53c 32fa 3bbd 0425 d8bc 423b 443c
000000b0: ea66 23bd b219 7f3d 96f2 3fbd 9383 19bc
000000c0: b9db 943b 3c6e 3cbd 5cd6 35bd bf0b 993d
000000d0: 92c0 2c3d 1b9e ae3c 6b8b 18bd 6253 58bd
000000e0: 82d2 b73c 22c3 a53d 7eb7 583e 7098 6a3e
000000f0: 0fd2 973d 828f 373e 3100 0d3e 965b 553e
00000100: 98ba 683e d4ee 1a3e 23b8 173d 533c 14bd
00000110: ef03 29bc 5f54 9abd 53f2 8cbe bf23 7dbe
00000120: bd0a f3bd dd17 4fbe 7fbf b2bd 35b2 1a3d
00000130: f646 403e 1a8c 903e 6557 7d3d 7033 743e
00000140: f4e9 153e 84a6 a03d 5874 6e3e e592 8e3e
00000150: f871 1c3e b941 49be 8eb3 d2be 028e 033e
00000160: 74ce 5bbe fdb9 d7be 0e08 403d 6cdf bb3d
00000170: 4b15 7d3e c17f 00bd f22d abbd 80e3 8c3d
00000180: cce5 ebb8 d93c b2bd 3e4a 89bc ff77 2d3e
00000190: b931 283e f2a6 21bc 2a0d 343e 7f13 593e
000001a0: f039 023d de49 c7bd 296c 7dbe 3e97 36be
000001b0: 1c65 b33d caa6 d43d 678a 623d 8413 353e
000001c0: 907d 1a3e 2de0 793d 107d 023e 4ea7 423d
000001d0: 4a09 6bbd 4591 953c bc87 cfbc 1b8c adbd
000001e0: 719f a2bb 53dc 893c 63cb 4cbd 98eb c83c
000001f0: 18b0 a93d 6a7e e03c 075a 953b c2c7 2b3c
00000200: 69d9 a8bc 841e 9cbc 1ab8 33bd 2148 85bd
00000210: 236d eb3b 39a9 82bc 602a cfbc 3a46 6cbc
00000220: fc03 9f3d f9ae b33d b529 d73e dc63 1d3f
00000230: 03fc 0a3f fa82 843e 9517 a93e 8c06 f63d
00000240: 92c3 1cbd 12cd 09bd 9b9f 6fbc 70b1 9fbc
00000250: e92b 57bd 3be3 b1bc 87af 02bd 8359 36bc
00000260: 820b dfbc 9f9b 013d 4400 a43c e705 b33c
00000270: bca2 273d 6c21 733d e6b1 743d 8502 4d3d
00000280: e0ca 903d 9001 753d 9a46 0f3d a12e f13b
00000290: 7791 8c3b 5947 143e 0e46 4f3e ab2c 443e
000002a0: 2e16 743d 98ff e83c 8bc8 043c 1a33 f73c
000002b0: e355 133d f410 c43c 2ab3 3d3d 6e03 6a3d
000002c0: c881 b83c bb06 873c 1656 cdbb a52d 43bc
000002d0: 6096 d63b ab01 823d d3d1 0fbc 0f8a a63d
000002e0: 6b0a 293e 112d a13d dfd6 863d 8b5b 753e
000002f0: 8d58 6d3e 4a16 c53a ebb5 da3c 8dc9 463c
00000300: b6d7 f23b 70bc 143d 48ee 373d dad7 ba3c
00000310: 8457 273d 9dc0 cb3d cb0a f4bc ecc7 b7bb
00000320: 17c5 e93d 04a9 49bc 5988 b5bd eb7f 0d3d
00000330: c678 4abd e2b7 5abe 3bf7 8ebe 7406 c5bd
00000340: eedd bfbd ebed 41bd 8c86 103e 3d97 ba3e
00000350: 1649 d03e 7b6f 1c3e 361d b33e c5d7 953e
00000360: bd20 863d e132 2d3e a9c0 683e 3dd4 6f3e
00000370: f05d b53e 9fbb bd3e bd6c a13e 1534 c43e
00000380: 112e 913e 98b2 2c3c 8d3e ea3d 5667 9f3d
00000390: 8653 f63d ed0a 4e3e 740f bc3d 1d90 d43d
000003a0: fc10 0e3e 2eef 6b3d e0ef 11bb e22f c83d
000003b0: 2d08 933d 3a4d 293d 7aac 253e 5960 573e
000003c0: 5a2f 673d 85d0 183e 829d 353e 8ce5 f03d
000003d0: c6a0 293e dcd2 353e c3c1 703d 2ac4 0c3e
000003e0: b6b7 243e 4c0c 123e 4707 033e 0b03 cc3d
000003f0: 9076 f63b ebc2 043d 7f85 fd3b ea90 fcbb

2.bias f4 [4]
0.1792139 0.41223446 -0.30447468 -0.004089202
00000000: d983 373e 6510 d33e 1be4 9bbe b6fe 85bb
