expert_target_aware/mocosflV2_ResNet18_cifar10_cut1_bnlC4S2_expert_batchsize128_ressfl_2.0_SSIM0.6_data_proportion_0.01_aux_svhn/checkpoint_c_best.tar (torch, 18780 bytes, 5 tensors)

0.conv1.weight f4 [64, 3, 3, 3]
0	0x3d8add72	0.067805186
1	0xbc4c73ee	-0.012478812
2	0x3e0f06ec	0.13967484
3	0xbe3889e8	-0.18021357
4	0xbdad39f6	-0.08458321
5	0xbdf1cdad	-0.11806808
6	0x3da55a9a	0.080739215
7	0xbcf8c231	-0.030366035
8	0xbe199c41	-0.15001012
9	0xbe044f81	-0.12920953
10	0xbd4454ff	-0.04793262
11	0x3df4540d	0.11930094
12	0xbe34b6d3	-0.17647867
13	0xbdefd75d	-0.11710999
14	0xbc99cae0	-0.018773496
15	0xbe9380ee	-0.28809303
16	0x3d831e76	0.06402294
17	0xbe6d9519	-0.23201407
18	0x3dc9d503	0.09855082
19	0x3c6bcc71	0.014392004
20	0x3af6ccd3	0.0018829353
21	0xbd984a8b	-0.07436093
22	0x3e5a82d5	0.21338971
23	0x3c63b349	0.013897725
24	0xbc9569be	-0.018238898
25	0x3e111917	0.14169727
26	0x3da8e6dc	0.08247158
27	0x3e7e37c8	0.24825966
28	0x3e9b8a74	0.3037907
29	0x3e5b2364	0.21400219
30	0x3e7ee1cd	0.24890824
31	0x3e150ab4	0.14554864
32	0x3e8f1704	0.27947247
33	0x3e4dda8e	0.20102903
34	0x3e234ad0	0.15946507
35	0x3e591eaf	0.21203111
36	0x3d2a32a9	0.04155222
37	0xbdb60588	-0.08887774
38	0xbcc4c86b	-0.024021348
39	0xbd963850	-0.073349595
40	0x3c2770bb	0.010219748
41	0xbd72a486	-0.059238933
42	0x3d0f0963	0.03492106
43	0x3c24cdc6	0.010058826
44	0x3d915442	0.07096149
45	0xbe047ede	-0.12939021
46	0xbe1f8483	-0.15577893
47	0xbdd70f72	-0.10500993
48	0xbe283da8	-0.1642977
49	0xbeae298e	-0.3401608
50	0xbe4903ac	-0.19630307
51	0xbeab140e	-0.33413738
52	0xbe45e637	-0.19326101
53	0xbdfc2a3d	-0.12312744
54	0xbe975bd5	-0.2956225
55	0x3e020f5d	0.12701173
56	0x3e6af43c	0.2294473
57	0x3cb6af3a	0.022300351
58	0x3de4f000	0.11178589
59	0x3da8c703	0.082410835
60	0xbc7ae01a	-0.015312219
61	0x3d872128	0.06598121
62	0x3dd40373	0.103522204
63	0xbe7769c6	-0.24161443
64	0xbdb35e48	-0.08758217
65	0x3e14d7b6	0.14535412
66	0xbe17f208	-0.14838421
67	0xbdb4f25f	-0.08835291
68	0x3dc4200f	0.09576427
69	0x3d1be2ce	0.038058095
70	0xbd55f623	-0.052236687
71	0x3d384961	0.044991855
72	0xbeae7a67	-0.3407776
73	0xbe46c894	-0.19412452
74	0x3e4ec373	0.20191745
75	0xbe013205	-0.12616737
76	0xbd943ef8	-0.07238573
77	0x3da60721	0.081068285
78	0xbdf6972e	-0.12040554
79	0xbd9392a6	-0.07205705
80	0x3e5e5d14	0.21715194
81	0x3e0c04c4	0.13673693
82	0x3e47ac27	0.19499265
83	0x3d1d49e9	0.038400564
84	0x3de42419	0.111396976
85	0x3d8c2d93	0.0684463
86	0x3dc4c865	0.09608535
87	0x3e213f66	0.15746841
88	0x3e0666ca	0.13125148
89	0xbdb89948	-0.09013611
90	0xbb386623	-0.002813705
91	0xbdace0bf	-0.084413044
92	0xbe52f2ff	-0.20600508
93	0xbb36b288	-0.002787741
94	0xbdac8cac	-0.084252685
95	0x3cfc3a67	0.030789567
96	0xbdfb7929	-0.12278969
97	0x3de794ee	0.11307703
98	0xbd827ed9	-0.063718505
99	0x3c73f7c0	0.014890611
100	0x3d1c32c9	0.03813437
101	0xbe5fd30d	-0.21857853
102	0x3df566c7	0.11982494
103	0xbd619a69	-0.055078898
104	0xbe1a59a0	-0.15073252
105	0x3db7c05f	0.08972239
106	0xbdcb0bde	-0.09914373
107	0xbe8f4de4	-0.27989113
108	0xbe13d14b	-0.14435308
109	0xbe4214b0	-0.18953204
110	0xbe091b2f	-0.13389276
111	0xbe4588c5	-0.19290455
112	0xbe7c3b8d	-0.24632092
113	0xbdccf0c4	-0.1000686
114	0xbdc23780	-0.09483242
115	0xbceab05c	-0.028648548
116	0xbe14c09c	-0.145266
117	0x3debfbee	0.11522661
118	0x3de5b378	0.112158716
119	0x3d8a2925	0.06746129
120	0x3d763eb8	0.060118407
121	0x3d9911b1	0.074740775
122	0x3c83c7c1	0.016086461
123	0x3e072ef2	0.13201502
124	0x3d867606	0.0656548
125	0x3acbb243	0.0015540797
126	0x3e2ad529	0.16682877
127	0x3db0751b	0.08616086
128	0x3d9fd60b	0.07804497
129	0xbca241c8	-0.019806758
130	0x3da3c6bd	0.07996891
131	0x3dd84172	0.10559358
132	0x3c1150e3	0.008869383
133	0xbc82dc01	-0.015974047
134	0x3db42414	0.08795944
135	0x3c21211c	0.009834554
136	0xbdbb2c38	-0.091392934
137	0xbd8e1f22	-0.06939532
138	0xbe649152	-0.2232106
139	0xbe80c412	-0.2514959
140	0xbd3119e4	-0.04323758
141	0xbcfb617d	-0.030686134
142	0xbdf5ac8a	-0.119958
143	0xbdc48fd8	-0.095977485
144	0x3d03b56a	0.03215543
145	0xbd7b598a	-0.061364688
146	0xbda9f655	-0.08298937
147	0xbe09dac3	-0.13462357
148	0xbe1894e3	-0.14900546
149	0xbc98ffa6	-0.01867659
150	0xbd8fad6c	-0.070154995
151	0xbdf8808e	-0.12133895
152	0xbd15e538	-0.036595553
153	0x3e72b198	0.23700559
154	0x3d7440d7	0.05963215
155	0x3e296288	0.16541493
156	0x3e054cc0	0.13017559
157	0x3e123290	0.142771
158	0x3e661ffa	0.22473136
159	0x3e10dd82	0.14146999
160	0x3e2f73ea	0.17134061
161	0x3de56890	0.11201584
162	0xbe1946a5	-0.14968355
163	0x3dbd3e9a	0.09240456
164	0x3dd332c1	0.10312415
165	0xbe2d4ca2	-0.16923764
166	0x3d6fcd52	0.058545418
167	0xbda54f57	-0.080717735
168	0xbe341c9c	-0.17589039
169	0xbdaa27d5	-0.083083786
170	0xbd7bb143	-0.061448347
171	0x3d543eb6	0.05181762
172	0x3dc6fb08	0.09715849
173	0x3e52e4f3	0.2059515
174	0xbe3ffd9b	-0.18749087
175	0xbde90c96	-0.11379354
176	0xbd8a1875	-0.06742946
177	0xbe80d52c	-0.25162637
178	0x3d000c40	0.031261683
179	0xbda7dd59	-0.081965156
180	0xbe04a6ca	-0.1295425
181	0x3e3a4b64	0.18192822
182	0x3e18958c	0.14900798
183	0x3c8115ec	0.015757523
184	0x3c9596a6	0.018260311
185	0x3e4d10ad	0.20025893
186	0xbe6074b9	-0.21919526
187	0xbc879e02	-0.016554836
188	0x3d705b15	0.058680613
189	0x3eaaa8b8	0.33331847
190	0x3e747813	0.2387393
191	0x3ea1b639	0.31584337
192	0x3e45e904	0.1932717
193	0x3e19980a	0.14999405
194	0x3e6851ee	0.22687504
195	0x3e059b5b	0.13047545
196	0x3a7608f5	0.000938549
197	0xbc038019	-0.008026146
198	0xbe5cd033	-0.21563797
199	0xbe495b82	-0.19663814
200	0xbe46e1b9	-0.19422044
201	0xbe9cfc03	-0.3066102
202	0xbe5aeb89	-0.21378912
203	0xbe99ce27	-0.30040094
204	0xbd601abb	-0.054712992
205	0xbe5f6c9c	-0.21818775
206	0x3ce63b20	0.028104365
207	0xbdcf8f0d	-0.10134707
208	0xbd0b33a7	-0.033984806
209	0xbdb901e8	-0.09033567
210	0xbdb07696	-0.086163685
211	0xbe11385e	-0.14181659
212	0xbc29f566	-0.010373449
213	0x3deddc3b	0.11614271
214	0xbd1b417c	-0.037904248
215	0x3d8e58b9	0.06950516
216	0xbcfe0610	-0.03100875
217	0x3d0737bc	0.033012137
218	0xbe1f8a3d	-0.15580077
219	0xbdb182ce	-0.08667527
220	0xbd87ea6a	-0.06636508
221	0xbd06d91e	-0.032921903
222	0x3d265cb0	0.040615737
223	0x3cf0cbe3	0.029394096
224	0xbc90a5e5	-0.01765723
225	0xbdc9f375	-0.09860889
226	0x3e5f1fb5	0.21789439
227	0x3d8129ba	0.06306787
228	0x3e0f4867	0.13992463
229	0x3e98de84	0.29857266
230	0x3d264d1c	0.04060088
231	0xbc4d3223	-0.012524161
232	0x3d30c119	0.043152902
233	0xbe1e785e	-0.15475604
234	0xbc86cc17	-0.01645474
235	0x3db55067	0.08853226
236	0xbe59a165	-0.21252973
237	0xbbc0eb55	-0.0058874288
238	0xbdb93a20	-0.090442896
239	0xbe823326	-0.25429648
240	0x3b865b07	0.004100207
241	0x3d46593e	0.04842495
242	0xbe958584	-0.29203427
243	0x3d821f53	0.06353631
244	0xbce639f9	-0.028103815
245	0x3b61fef2	0.0034484235
246	0xbd9a22ba	-0.07526155
247	0xbd67628e	-0.056490473
248	0x3de768f5	0.11299316
249	0xbdd6e7b0	-0.1049341
250	0xbe20bf58	-0.15697992
251	0xbb19c5d7	-0.002346387
252	0x3e6a0941	0.22855093
253	0x3e31cfc2	0.1736441
254	0x3d564eac	0.05232112
255	0x3df7c366	0.12097816

0.bn1.weight f4 [64]
0	0x3f1451ae	0.57937133
1	0x3f65035c	0.8945825
2	0x3f13ff71	0.5781165
3	0x3f2ebc8c	0.6825645
4	0x3f308d6e	0.68965805
5	0x3f170388	0.58989763
6	0x3ef1205d	0.47095004
7	0x3f34e05f	0.70654863
8	0x3f172420	0.590395
9	0x3f350eb0	0.70725536
10	0x3eda8012	0.42675835
11	0x3f080ed3	0.5314762
12	0x3f0e0249	0.55472237
13	0x3f28f1f8	0.65994215
14	0x3f112603	0.56698626
15	0x3f68caa5	0.9093421
16	0x3f198318	0.5996566
17	0x3f4d1b2e	0.801196
18	0x3f327f89	0.69725853
19	0x3edacbe4	0.4273368
20	0x3f0f3796	0.5594419
21	0x3f28c9df	0.6593303
22	0x3ef7f534	0.48429263
23	0x3f5f7a95	0.8729642
24	0x3f1e7c4a	0.619084
25	0x3ec97b98	0.39352107
26	0x3f47ac79	0.7799755
27	0x3f3c648a	0.7359091
28	0x3f1fb8d9	0.6239143
29	0x3f2f5640	0.6849098
30	0x3f4760cc	0.77882075
31	0x3ed0c128	0.40772367
32	0x3f0215ee	0.5081471
33	0x3f12f206	0.5740055
34	0x3edeca07	0.4351351
35	0x3f3dfedd	0.74217016
36	0x3f074465	0.52838737
37	0x3f4a8178	0.79103804
38	0x3efa388e	0.48871273
39	0x3f41e0e5	0.75733787
40	0x3f3d5908	0.73963976
41	0x3f1fb971	0.62392336
42	0x3f0e685f	0.5562801
43	0x3f0233cf	0.50860304
44	0x3f023be0	0.5087261
45	0x3f30064f	0.68759626
46	0x3f56168d	0.8362816
47	0x3f2f318a	0.68434966
48	0x3f2ad384	0.66729
49	0x3f22af61	0.63548857
50	0x3f505e42	0.81393826
51	0x3f1ee37f	0.6206588
52	0x3f5e5613	0.8685009
53	0x3f225de0	0.6342449
54	0x3f1badf2	0.60812294
55	0x3f1b9be1	0.6078473
56	0x3f2d025a	0.67581713
57	0x3eefae35	0.46812597
58	0x3f03656c	0.5132663
59	0x3f3d26c8	0.738873
60	0x3f3c03f3	0.73443526
61	0x3f2c87f6	0.6739496
62	0x3f1bfbdd	0.6093119
63	0x3f2de3bd	0.67925626

0.bn1.bias f4 [64]
0	0xbd88d9ab	-0.06682142
1	0x3dd569f4	0.104205996
2	0xbdae903d	-0.08523605
3	0xbd0b04ae	-0.03394001
4	0xbe8fda33	-0.2809616
5	0xbdff59fa	-0.124683335
6	0xbb2d18a1	-0.0026412385
7	0x3d6ce7f5	0.0578384
8	0x3c9184dc	0.017763548
9	0x3e464e5e	0.19365832
10	0x3d550025	0.05200209
11	0xbdd29689	-0.102826186
12	0xbe4773d7	-0.19477783
13	0x3d8d1050	0.06887877
14	0x3cb7b47f	0.022424934
15	0xbe62be8b	-0.22142999
16	0xbd9043fd	-0.07044218
17	0x3e77b852	0.24191406
18	0xbd5801cd	-0.052736092
19	0xbe2d724c	-0.16938132
20	0xbe05b345	-0.13056667
21	0xbd41b451	-0.047291104
22	0xbdd18b73	-0.10231676
23	0xbe7acc7a	-0.24492064
24	0xbe128f20	-0.1431241
25	0xbe199478	-0.14998043
26	0x3e9b1c0e	0.30294842
27	0xbd1be834	-0.038063243
28	0xbe1cab44	-0.15299708
29	0xbe2c3720	-0.16817904
30	0xbed22d9b	-0.4105042
31	0x3dabe715	0.08393685
32	0xbea3d2ad	-0.3199667
33	0x3d4e070d	0.050299693
34	0xbe5fe672	-0.21865252
35	0x3e0a100a	0.13482681
36	0xbbb342e4	-0.0054706205
37	0xbe97fe8a	-0.29686385
38	0x3c38eb81	0.011286617
39	0xbdb83b24	-0.08995655
40	0x3d21e256	0.03952249
41	0xbe72251e	-0.23646972
42	0xbcada008	-0.021194473
43	0xbe4a5525	-0.19759043
44	0x3caee4bc	0.021349303
45	0xbda5dacc	-0.08098373
46	0x3df108a3	0.117692254
47	0x3c0dc778	0.008653514
48	0xbe811ff4	-0.2521969
49	0xbe09490b	-0.1340677
50	0x3be12cf9	0.0068718162
51	0xbe444063	-0.19165187
52	0x3e3d6ed5	0.1849931
53	0xbe536663	-0.20644526
54	0xbd3764d1	-0.04477388
55	0xbe411b6e	-0.1885812
56	0xbe11e90b	-0.14249055
57	0xbdb1003b	-0.08642622
58	0x3c658099	0.014007711
59	0xbee23c40	-0.44186592
60	0x3e0644e5	0.13112219
61	0xbe0547d2	-0.13015679
62	0xbd40d0b7	-0.047074046
63	0xbe2815a3	-0.16414504

1.weight f4 [4, 64, 3, 3]
0	0x3d33c65e	0.04389035
1	0x3d7f4024	0.06231703
2	0x3e099516	0.13435778
3	0xbe6599b8	-0.2242192
4	0xbe5d54a3	-0.21614318
5	0xbd7ed8d8	-0.062218517
6	0x3d9777b2	0.07395877
7	0xbde112c2	-0.10989906
8	0xbcc189b6	-0.023625236
9	0x3ea1c113	0.31592616
10	0x3e9039d0	0.28169107
11	0x3e182fea	0.14862028
12	0x3eaa39ff	0.33247373
13	0x3e9dcb19	0.30819014
14	0x3e57ed0b	0.21086518
15	0x3d795cb8	0.06087944
16	0x3e4263e1	0.18983413
17	0x3d77667f	0.060400482
18	0xbc9f9a83	-0.019482857
19	0x3ddae844	0.106888324
20	0x3e489ae9	0.19590344
21	0xbc27486c	-0.010210138
22	0xbc4e0c1a	-0.012576127
23	0xbcd1ed4d	-0.02562585
24	0xbe011ff0	-0.1260984
25	0x3de25c0e	0.11052714
26	0x3dddf9ac	0.10838637
27	0x3c66d1cb	0.0140881045
28	0xbc18f513	-0.009335774
29	0x3d56fb08	0.052485496
30	0x3da923a5	0.08258752
31	0x3e44ff98	0.19238126
32	0x3dd8a9e0	0.10579276
33	0x3d7c9901	0.061669353
34	0x3e046110	0.12927651
35	0x3ce2f884	0.027706392
36	0xbc585e2f	-0.013206049
37	0x3b6a837a	0.0035783933
38	0xbd90586f	-0.07048117
39	0xbd2b3929	-0.04180256
40	0xbd8211fb	-0.06351086
41	0xbd1ea94f	-0.038735684
42	0x3d150af2	0.03638739
43	0xbd2c63a5	-0.042087216
44	0xbcb4b4fc	-0.022058956
45	0xbd9cd816	-0.076584026
46	0xbda212df	-0.079137556
47	0xbe0b2c69	-0.1359116
48	0xbe5df9e7	-0.21677361
49	0xbe62eeed	-0.22161455
50	0xbdabeb5e	-0.08394502
51	0xbd8c5b7b	-0.06853386
52	0xbd890f48	-0.06692368
53	0xbd2666b9	-0.040625308
54	0xbdd93bc3	-0.10607102
55	0xbd68756a	-0.0567526
56	0xbdbaa7e3	-0.09114053
57	0xbe2ad546	-0.1668292
58	0xbe89c0a7	-0.26904795
59	0xbd07a1ba	-0.03311322
60	0xbd4cdb10	-0.0500136
61	0x3ce14640	0.027499318
62	0xbdddedcc	-0.10836372
63	0x3e14dfc0	0.14538479
64	0x3da4f51a	0.08054562
65	0x3d3a40f6	0.045472108
66	0x3e11c086	0.14233598
67	0x3e0f94f6	0.14021668
68	0x3e07ba81	0.1325474
69	0x3e4e6af7	0.20157991
70	0x3e42c634	0.19020921
71	0x3dbab04a	0.09115656
72	0x3e0d80d1	0.13818671
73	0x3e140560	0.14455175
74	0x3e4a9ceb	0.19786422
75	0x3dd764e0	0.10517287
76	0x3d87d4f2	0.06632413
77	0x3d926a6b	0.07149204
78	0x3dd647c9	0.10462911
79	0xbba13bbb	-0.0049204505
80	0xbcfd8285	-0.030946026
81	0x3ec2e5c8	0.38065934
82	0x3e8d8c8b	0.27646288
83	0x3e51aac0	0.20475292
84	0x3ce8a0b6	0.028396945
85	0x3c66c591	0.014085189
86	0xbdba9d47	-0.091120295
87	0x3e144551	0.14479567
88	0x3e1224c4	0.14271837
89	0x3dd6af50	0.10482657
90	0x3da5ca8e	0.08095275
91	0x3d455070	0.048172414
92	0xbd2b5600	-0.041830063
93	0x3ddc572b	0.107588135
94	0x3d78aaf5	0.060709912
95	0x3d8f8be0	0.07009101
96	0x3daf4bd7	0.08559387
97	0x3e6646d4	0.22487956
98	0x3daa1821	0.083053835
99	0xbddac235	-0.10681573
100	0xbd8cd32e	-0.06876217
101	0xbd1a5cff	-0.037686344
102	0xbe7de856	-0.2479566
103	0xbd49712f	-0.049180206
104	0xbe1c03e0	-0.15235853
105	0xbe14c695	-0.14528878
106	0xbd386d69	-0.045026217
107	0xbdc08a9e	-0.09401439
108	0xbc837c4b	-0.016050478
109	0xbd8cd3a4	-0.06876305
110	0xbe153bfe	-0.14573666
111	0xbd52c0e2	-0.05145348
112	0xbd08eb1f	-0.033427354
113	0x3d34ffed	0.044189382
114	0xbe4294ec	-0.19002122
115	0xbdb79eb4	-0.08965817
116	0xbdf63e58	-0.1202361
117	0xbd632697	-0.055456724
118	0xbd8be354	-0.06830469
119	0x3d52e6c8	0.05148962
120	0x3d181f81	0.03713942
121	0x3d8d4260	0.06897426
122	0xbb02a758	-0.001993617
123	0x3c4745a0	0.012162596
124	0x3e0f6647	0.1400386
125	0x3d43a774	0.047767118
126	0xbdf08287	-0.11743646
127	0x39a15631	0.0003077253
128	0xbd089b6f	-0.033351358
129	0xbe5e6615	-0.21718629
130	0xbd6f87ea	-0.058479227
131	0xbe04de45	-0.12975414
132	0xbe853a65	-0.26021114
133	0xbdd2678a	-0.10273655
134	0xbe0191cc	-0.12653273
135	0x3e670e0e	0.22563955
136	0x3e425125	0.18976267
137	0x3e698986	0.22806367
138	0x3ea22e9d	0.31676188
139	0x3ec3ba4d	0.38228074
140	0x3e96dfc8	0.29467607
141	0x3db5086c	0.08839497
142	0x3e359327	0.17731915
143	0x3dabe25d	0.08392785
144	0x3e9539e6	0.29145736
145	0x3eb00012	0.34375054
146	0x3e882ba2	0.2659579
147	0xbe27cc4c	-0.16386527
148	0xbd3a7af9	-0.045527432
149	0xbe46685c	-0.19375747
150	0xbe7a6d24	-0.24455696
151	0xbdb1b45e	-0.086769804
152	0xbdcfb025	-0.10141019
153	0x3ea8c781	0.3296471
154	0x3ee16a35	0.44026342
155	0x3eb422a8	0.3518269
156	0x3e111094	0.1416648
157	0x3e98fd10	0.2988057
158	0x3e952894	0.2913252
159	0xbe342923	-0.17593817
160	0x3b08528e	0.002080116
161	0xbd293daa	-0.041318573
162	0xbc30d8d7	-0.010793886
163	0xbd403196	-0.04692229
164	0x3c7cded9	0.01543399
165	0xbe020cce	-0.12700197
166	0xbdeee2b6	-0.116643354
167	0xbd9df46a	-0.07712634
168	0x37b51d5d	2.1590555e-05
169	0x3cdd61b2	0.027024124
170	0xbd8a3137	-0.06747668
171	0x3dcd986d	0.100388385
172	0xbd985497	-0.07438009
173	0xbd543dc6	-0.051816724
174	0x3d531ed9	0.05154309
175	0xbcdd9ff4	-0.02705381
176	0xbd5d7c0a	-0.05407337
177	0x3d8371d8	0.06418198
178	0x3d188e75	0.037245233
179	0xbde9825b	-0.114018165
180	0xbc2e5698	-0.010640763
181	0xbd238fea	-0.03993217
182	0xbd8bd672	-0.068280116
183	0xbdb7fcdf	-0.08983778
184	0xbd98ba70	-0.07457435
185	0xbd9d71fb	-0.07687756
186	0xbd6964ca	-0.056980886
187	0xbd40e7ee	-0.047096185
188	0xbdeb8490	-0.11499894
189	0x3e7d8d22	0.24760869
190	0x3dc8b5d0	0.09800303
191	0x3ca3378b	0.019923946
192	0x3e2034d7	0.15645157
193	0x3df96572	0.12177552
194	0x3ccfae4d	0.025351668
195	0x3d4d21e8	0.050081164
196	0x3d35b2a8	0.044359833
197	0xbd52a7d4	-0.051429585
198	0x3b894034	0.004188562
199	0xbd9b4f4e	-0.075834855
200	0xbd95f340	-0.07321787
201	0xbda90b44	-0.08254102
202	0x3e3d15d5	0.1846536
203	0xbe162483	-0.14662366
204	0xbd33b72c	-0.04387586
205	0xbe192f9a	-0.14959565
206	0xbd8529c2	-0.06502105
207	0xbe8935df	-0.26798913
208	0xbe20b722	-0.1569486
209	0xbdc8dd5b	-0.09807845
210	0xbea62ae6	-0.32454604
211	0xbe1c6b5c	-0.1527533
212	0xbe3b9c74	-0.18321401
213	0xbe37d2fa	-0.17951575
214	0x3e60c016	0.21948275
215	0xbd9c541e	-0.076332316
216	0xbd874c78	-0.06606382
217	0xbdfa31ae	-0.12216507
218	0xbdf1d8c4	-0.11808923
219	0x3d8729bd	0.06599758
220	0x3d06c93a	0.03290675
221	0x3dc9dce3	0.09856584
222	0x3d538825	0.05164351
223	0x3e473d78	0.19457042
224	0x3ad2ebd2	0.0016092008
225	0x3d0e808b	0.034790557
226	0x3d7118b2	0.058861442
227	0xbd29a549	-0.041417394
228	0x3da47d13	0.080316685
229	0x3ce183d8	0.027528688
230	0x3d2cbb5c	0.042170867
231	0xbcb6cea2	-0.022315327
232	0xbd1e814b	-0.038697522
233	0xbcffe0d4	-0.031235136
234	0x3ec04b79	0.3755758
235	0x3e82725c	0.25477874
236	0x3e4c4bd8	0.19950807
237	0x3dcc5b40	0.09978342
238	0x3e83e10a	0.2575763
239	0x3ea147fc	0.31500232
240	0x3cf3ae1f	0.029746113
241	0x3cf6b5e6	0.030116033
242	0x3d96d632	0.07365073
243	0xbe512cdb	-0.20427267
244	0xbdb08f92	-0.08621134
245	0xbe5d07d4	-0.21585017
246	0xbda24059	-0.079224296
247	0x3bda2fcb	0.0066585294
248	0xbe17de18	-0.14830816
249	0xbc3d80fb	-0.011566396
250	0x3e381d48	0.1797992
251	0x3d1613c8	0.03663996
252	0xbd8e2ea3	-0.06942489
253	0xbdd94fda	-0.106109336
254	0xbe1d508f	-0.15362762
255	0xbd9ce0dd	-0.07660077

1.bias f4 [4]
0	0xbccf7bf8	-0.025327668
1	0xbeeb9e8d	-0.46019402
2	0xbe165001	-0.14678957
3	0xbdbb840b	-0.091560446
