expert_target_aware/mocosflV2_ResNet18_cifar10_cut3_bnlC4S2_expert_batchsize128_ressfl_2.0_SSIM0.6_data_proportion_0.00_aux_cifar100/checkpoint_c_best.tar (torch, 614536 bytes, 17 tensors)

0.conv1.weight f4 [64, 3, 3, 3]
0	0xbda7d9b3	-0.0819582
1	0x3e2fa291	0.17151858
2	0xbdde2f42	-0.108488575
3	0x3e134b94	0.143843
4	0x3edb35c0	0.42814445
5	0x3dd224ce	0.10260926
6	0xbe018f49	-0.12652315
7	0x3d8ea2e3	0.06964662
8	0xbe32b012	-0.17449978
9	0xbd087ec3	-0.033324014
10	0xbe21b530	-0.15791774
11	0x3caa062d	0.020754898
12	0xbe13d4bc	-0.1443662
13	0xbe7ae416	-0.2450107
14	0xbd5a66df	-0.05332076
15	0x3d886a5d	0.06660912
16	0xbcf6efb7	-0.030143602
17	0x3e264f52	0.16241196
18	0x3dc81f98	0.09771651
19	0x3a8b8761	0.0010645204
20	0x3d57c946	0.052682184
21	0xbc68db01	-0.014212371
22	0xbe02e4e3	-0.12782626
23	0xbd6d7efe	-0.057982437
24	0x3d803dd1	0.062617905
25	0xbd119e03	-0.035551082
26	0x3bb78b1a	0.005601299
27	0x3d86a440	0.06574297
28	0x3b22d6cb	0.0024847265
29	0x3e0857c7	0.13314734
30	0xbca3c0ad	-0.019989336
31	0xbe7afe56	-0.24511084
32	0x3c2237ac	0.0099009685
33	0x3d0de689	0.034643684
34	0xbe37301a	-0.17889443
35	0x3ccfced6	0.025367182
36	0x3de30089	0.110840864
37	0x3cca6358	0.024705574
38	0x3dd47bc0	0.10375166
39	0x3ce36e32	0.027762506
40	0xbe6aa766	-0.2291542
41	0xbca71dc2	-0.020399932
42	0x3e2da19c	0.1695618
43	0xbd76091e	-0.06006729
44	0x3def6223	0.1168864
45	0x3c3bbfbf	0.01145929
46	0x3d925372	0.07144822
47	0x3db12fd4	0.086517006
48	0xbcf27cfe	-0.029600617
49	0xbe076954	-0.13223773
50	0xbc8aea07	-0.016957296
51	0x3c9593cc	0.018258952
52	0xbda495d2	-0.080363885
53	0xb933a228	-0.00017131178
54	0x3e18cc03	0.14921574
55	0x3e117412	0.14204434
56	0x3dfbd213	0.12295928
57	0x3c02e8f3	0.00799011
58	0xbe12639a	-0.14295807
59	0xbd21c8ca	-0.039498128
60	0xbcfa9548	-0.030588761
61	0xbe32a6ac	-0.17446393
62	0xbe07eaae	-0.13273117
63	0x3d755756	0.059897743
64	0x3d2cf77d	0.04222821
65	0x3b47b87a	0.0030474947
66	0xbc959cf0	-0.01826331
67	0xbdaa8243	-0.08325627
68	0x3c5be091	0.01342024
69	0x3c13df60	0.009025425
70	0x3a854567	0.0010167778
71	0x3d2836b7	0.041067805
72	0xbe55b648	-0.20870316
73	0xbdf71144	-0.1206384
74	0xbe4120cb	-0.18860166
75	0xbc77a420	-0.015114814
76	0x3e2e95da	0.17049351
77	0x3d858ddc	0.06521198
78	0x3d3554ae	0.04427021
79	0x3e646cec	0.22307175
80	0x3d96a35b	0.07355376
81	0x3b87aae8	0.0041402467
82	0x3d6b44c7	0.057438638
83	0x3dad7652	0.084698334
84	0xbc5714a6	-0.013127482
85	0xbd258018	-0.040405363
86	0xbc17c4f5	-0.009263267
87	0xbcbfea78	-0.023427233
88	0xbd7a8736	-0.061164103
89	0x3ca28a9d	0.019841487
90	0xbe48668c	-0.19570369
91	0xbdf11eeb	-0.11773475
92	0xbd0bdd0d	-0.034146357
93	0xbd6841ab	-0.05670325
94	0xbd4282b3	-0.047487926
95	0x3cbbda21	0.02293116
96	0x3dbdf3ed	0.09275041
97	0x3ddbe59b	0.10737153
98	0x3e566364	0.20936352
99	0xbeaaa495	-0.3332869
100	0xbe8155ff	-0.25260922
101	0xbd41d8a0	-0.04732573
102	0xbe2392ff	-0.15974043
103	0xbdc32c3c	-0.095299214
104	0x3dafb112	0.08578695
105	0x3e22b729	0.15890183
106	0x3e7f55fa	0.24935141
107	0x3ec7436d	0.3891863
108	0x3dccab98	0.099936664
109	0x3c9e7e6f	0.019347398
110	0x3e11770e	0.14205572
111	0xbdebeaa2	-0.11519362
112	0xbe7b4a14	-0.24539977
113	0x3ce79b13	0.028272187
114	0x3d632feb	0.05546562
115	0xbd0f7f9f	-0.03503382
116	0x3d93c8fe	0.072160706
117	0x3da7fe50	0.08202803
118	0xbd1a3760	-0.037650466
119	0x3d8f6267	0.07001191
120	0xbda11e18	-0.07867068
121	0xbe850e58	-0.25987506
122	0xbc3dc9e4	-0.011583779
123	0x3dc8bba3	0.09801414
124	0xbce1aadc	-0.027547292
125	0x3dab7b2a	0.08373101
126	0x3d9fffa0	0.078124285
127	0xbc80f3cd	-0.015741253
128	0x3db0a64a	0.08625467
129	0xbd5c7ce0	-0.053830028
130	0xbe409097	-0.18805157
131	0x3ccf7cb3	0.025328016
132	0x3d95297b	0.072833024
133	0xbc5ac19e	-0.013351826
134	0x3d9dfaef	0.077138774
135	0xbda51517	-0.08060663
136	0xbe5476aa	-0.20748392
137	0xbdecad04	-0.115564376
138	0xbdd8c0a3	-0.105836175
139	0xbdbb53bb	-0.0914683
140	0xbd32599d	-0.043542493
141	0x3df591f0	0.11990726
142	0x3e9bacd7	0.30405304
143	0x3e2eebfe	0.17082211
144	0x3cf60cd0	0.030035406
145	0xbdf0c92c	-0.117571205
146	0x3cb8c5f6	0.022555333
147	0xbdd4b8a2	-0.103867784
148	0xbe251fcc	-0.16125411
149	0xbd904f07	-0.07046323
150	0x3d9ddb3c	0.07707831
151	0x3e50281f	0.20327805
152	0x3df261ff	0.118350975
153	0x3cd6cf79	0.026221978
154	0xbde28a13	-0.11061492
155	0xbd3db8a1	-0.046318654
156	0xbda0ef7a	-0.078581765
157	0xbe0b2958	-0.1358999
158	0xbde67545	-0.11252836
159	0x3e0041f5	0.1252516
160	0x3e7b69c2	0.24552062
161	0x3df56fd5	0.11984221
162	0x3e17b6b8	0.14815795
163	0x3bafc475	0.0053639957
164	0x3d49f0c5	0.04930188
165	0xbd03fd77	-0.032224145
166	0xbe989e0e	-0.29808086
167	0xbe199183	-0.14996915
168	0x3d39766a	0.045278944
169	0x3d2394d4	0.039936855
170	0x3c66086e	0.014040096
171	0xbda4b257	-0.08041828
172	0xbd7f960b	-0.06239895
173	0xbdbe5968	-0.09294397
174	0xbd55fef2	-0.052245088
175	0xbe2264f7	-0.15858828
176	0x3b463257	0.0030242407
177	0x3b94b06f	0.004537634
178	0x3e0d503e	0.13800141
179	0x3db99d6e	0.090632305
180	0xbc24b1c9	-0.010052153
181	0x3ea66b58	0.32503772
182	0xbc968ec0	-0.018378615
183	0x3b83f198	0.004026603
184	0x3dd930ef	0.106050365
185	0x3e80cc2f	0.2515578
186	0xbd72cfa7	-0.059280064
187	0xbdc29de2	-0.0950277
188	0xbe089665	-0.13338621
189	0x3e267161	0.16254188
190	0x3d043b0a	0.032282867
191	0xbd29fd4c	-0.04150133
192	0x3d808d1d	0.06276915
193	0xbd31b4b1	-0.04338521
194	0xbdf6004d	-0.12011776
195	0x3deaf638	0.11472744
196	0xbb1f9074	-0.0024347575
197	0xbdcc6157	-0.099795036
198	0x3e026b1d	0.12736173
199	0x3c6a9b58	0.014319263
200	0xbd013885	-0.03154804
201	0x3d060488	0.032719165
202	0xbd48fe5d	-0.049070705
203	0xbdc2c772	-0.095106974
204	0x3de40ede	0.11135648
205	0x3c6fba25	0.014631783
206	0xbd5f3e51	-0.05450279
207	0x3db5a680	0.08869648
208	0xbc99e245	-0.018784652
209	0xbd2829c7	-0.041055467
210	0xbb878d4a	-0.004136716
211	0xbda3d31f	-0.079992525
212	0xbdcf4398	-0.10120314
213	0x3da8a81f	0.082351916
214	0xbbf07bf7	-0.0073389965
215	0xbd3891c4	-0.045060888
216	0x3de97f9f	0.11401295
217	0x3eb6dd32	0.35715634
218	0x3df1ae40	0.11800814
219	0x3cc8d405	0.024515161
220	0x3dd61ed8	0.10455102
221	0x3d176717	0.03696355
222	0xbe11d196	-0.14240107
223	0xbed95415	-0.42446962
224	0xbe38a76d	-0.18032618
225	0x3e085d90	0.13316941
226	0x3ebb3e20	0.36570835
227	0x3e296570	0.16542602
228	0x3d464cb5	0.048412997
229	0x3d923531	0.07139052
230	0x3d22f3f2	0.039783426
231	0xbe18383a	-0.14865199
232	0xbef8a47f	-0.48563
233	0xbe465324	-0.19367653
234	0x3cbddf1e	0.02317768
235	0x3e89e0d5	0.26929346
236	0x3d8b4f0d	0.06802187
237	0x3d28408c	0.04107718
238	0x3d9952fa	0.0748653
239	0x3cad1719	0.021129178
240	0xbd9bc860	-0.07606578
241	0xbea7c9cf	-0.32771155
242	0xbdb92b9e	-0.090415224
243	0xbddde530	-0.1083473
244	0xbc4f6283	-0.012657764
245	0x3dee5f8d	0.116393186
246	0xbef62a11	-0.4807897
247	0xbcb55741	-0.022136332
248	0x3efda589	0.49540356
249	0xbe481b6a	-0.19541708
250	0xbd03c139	-0.032166693
251	0x3e7e5c8d	0.24839993
252	0xbd6bcb7f	-0.057567116
253	0xbd808816	-0.06275956
254	0x3ddabaf6	0.10680191
255	0xbee40bcc	-0.4454025

0.bn1.weight f4 [64]
0	0x3ec69817	0.3878791
1	0x3e6cced2	0.2312577
2	0x3e968545	0.29398552
3	0x3eab7bee	0.33492988
4	0x3efdca9d	0.49568644
5	0x3ea6df9a	0.3259247
6	0x3edb25e7	0.42802355
7	0x3c9bbed1	0.019011887
8	0x3ebb467d	0.36577216
9	0x3eeec511	0.46634725
10	0x3f0be3c2	0.54644406
11	0x3eed630e	0.46364635
12	0x3e3030c5	0.17206104
13	0x3e05f122	0.13080266
14	0x3da35260	0.07974696
15	0x3dd8f642	0.10593845
16	0x3d6d77a4	0.057975426
17	0x3ddaf73d	0.10691688
18	0x3eb40928	0.35163236
19	0x3ebbaea1	0.3665667
20	0x3e6aad64	0.22917706
21	0x3e06065f	0.13088368
22	0x3e9eca11	0.3101354
23	0x3d524cdf	0.05134284
24	0x3e8f71e2	0.28016573
25	0x3d6c95f4	0.057760194
26	0x3e94088d	0.28912774
27	0x3e64d9e9	0.22348751
28	0x3ef31d1a	0.4748314
29	0x3e4fa82a	0.20278993
30	0x3eb58a6e	0.35457176
31	0x3eb7b2ba	0.35878545
32	0xbc82b721	-0.015956463
33	0x3db2fb6a	0.0873936
34	0x3ef3e406	0.47634906
35	0x3ecbc338	0.39797378
36	0x3dd36b08	0.10323149
37	0x3e7c38da	0.24631062
38	0x3e386ea9	0.18010963
39	0x3e87f58b	0.26554522
40	0x3e72e952	0.23721817
41	0x3d0ff821	0.035148744
42	0x3e1c3032	0.1525276
43	0x3dfdd234	0.12393609
44	0x3ec37cb5	0.3818108
45	0x3dcec2c2	0.10095741
46	0x3dbfb98f	0.09361564
47	0x3ecccd73	0.40000495
48	0x3d08203d	0.03323387
49	0x3def6b3d	0.11690376
50	0x3e45172a	0.19247118
51	0x3e5344b0	0.20631671
52	0x3eb3afc3	0.35095033
53	0x3e9c26af	0.30498263
54	0x3cd14304	0.02554465
55	0x3ce06bd6	0.02739517
56	0x3e84a1f2	0.25904804
57	0x3d9099be	0.07060574
58	0x3e4cb099	0.19989242
59	0x3b897a6f	0.0041955034
60	0x3e840caa	0.25790912
61	0x3e820c2b	0.25399908
62	0x3eabcd99	0.33555296
63	0x3e3416cf	0.17586826

0.bn1.bias f4 [64]
0	0x3d81e7da	0.0634305
1	0x3d631e11	0.055448595
2	0x3d833452	0.06406464
3	0x3cf82b0d	0.030293966
4	0x3c91e8bb	0.01781117
5	0x3de256df	0.110517256
6	0x3a81fcf3	0.0009917304
7	0x3e14c429	0.14527954
8	0x3c4a2bee	0.012339575
9	0x3caad5e5	0.020853946
10	0x3d3bd774	0.04585977
11	0x3e162426	0.14662227
12	0x3d76983b	0.060203772
13	0x3d9b11c0	0.07571745
14	0x3e30c731	0.17263485
15	0x3d87f546	0.06638579
16	0x3dfddc2a	0.123955086
17	0xbdc053ff	-0.09391021
18	0xbdba7a20	-0.09105325
19	0xbe6488b6	-0.22317776
20	0x3e508d9c	0.2036652
21	0x3dc5e46c	0.09662709
22	0xbddb80d7	-0.107179336
23	0x3de74a21	0.11293436
24	0x3e7b3289	0.24530996
25	0x3de5c27e	0.11218737
26	0x3db501c2	0.08838226
27	0x3db8f86c	0.09031758
28	0x3da9ec5d	0.08297036
29	0x3de99a84	0.11406425
30	0x3b0b0b69	0.0021216518
31	0x3c55e060	0.013053983
32	0x3d8bbccd	0.0682312
33	0x3e37db41	0.17954732
34	0x3c3093e4	0.010777447
35	0x3ceeba80	0.029141665
36	0x3e226a66	0.158609
37	0x3b716fb7	0.003684027
38	0x3dc7035a	0.09717436
39	0x3e257515	0.16157945
40	0xbd66d73c	-0.056357607
41	0x3e197505	0.14986046
42	0x3d8a7bfc	0.067619294
43	0x3e13656c	0.14394158
44	0xbbd981de	-0.006637796
45	0x3d93f14b	0.07223757
46	0xbd1cf683	-0.03832103
47	0x3b1a131a	0.002350992
48	0x3e235072	0.15948656
49	0x3dd243f4	0.10266867
50	0xbd94fb12	-0.0727445
51	0x3e298b1d	0.16556974
52	0xbd1b2fab	-0.037887257
53	0x3e1fb1c6	0.15595159
54	0x3de76c3d	0.11299942
55	0x3e17d8f7	0.1482886
56	0x3d224a00	0.039621353
57	0x3dacc31c	0.08435652
58	0x3e25b8be	0.16183755
59	0xbd4460c4	-0.047943845
60	0x3dde7291	0.108616956
61	0x3e2c04cd	0.16798706
62	0x3dc630cc	0.09677276
63	0x3e233095	0.15936501

1.conv1.weight f4 [64, 64, 3, 3]
0	0xbadbb39b	-0.0016761901
1	0x3d3c4b04	0.045969978
2	0xbb1760cc	-0.0023098467
3	0xbc0e1bad	-0.008673591
4	0x3ce15494	0.02750615
5	0xbc75f7a8	-0.015012659
6	0xbcb26ad0	-0.021779448
7	0xbbaabbfc	-0.0052103978
8	0xbcd22166	-0.025650691
9	0x3c8c1129	0.017098026
10	0x3d0d6f2c	0.03452985
11	0x3dc92ebc	0.09823367
12	0xbcc2f29e	-0.02379733
13	0xbc74f1a7	-0.0149501925
14	0x3dc91b96	0.09819715
15	0x3c1adc89	0.009451994
16	0xbd056970	-0.032571256
17	0x3d51eae8	0.051249415
18	0x3d04f41c	0.032459363
19	0x3c7dffe6	0.0155029055
20	0xbac93455	-0.0015350679
21	0x3c2e264f	0.010629251
22	0x3cee284f	0.029071955
23	0x3d211fcb	0.03933696
24	0xbc840917	-0.016117616
25	0x3c9c1a3b	0.019055476
26	0x3cf8838d	0.030336166
27	0xbc78629b	-0.015160228
28	0x3d86ad04	0.06575969
29	0x3d3df91f	0.04638016
30	0xbd215107	-0.039383914
31	0x3c659ddf	0.01401469
32	0x3d46ceaa	0.048536934
33	0xbd6adfc3	-0.057342302
34	0xbb1d9786	-0.0024046614
35	0x3c7c4e43	0.015399518
36	0x3bc5b71f	0.0060337926
37	0x3d7c5ba1	0.06161082
38	0x3dd147e1	0.10218788
39	0xbdc3beeb	-0.09557899
40	0xbd73a971	-0.059487764
41	0x3d8d9681	0.06913472
42	0xbc9ab68e	-0.018885877
43	0xbd4c71c0	-0.049913168
44	0x3d4365ea	0.047704615
45	0x3d15d39b	0.036578756
46	0x3e10bccc	0.1413452
47	0x3df6ce1b	0.1205103
48	0xbddebf06	-0.108762786
49	0xbd3c3cd6	-0.045956455
50	0x3cc65e43	0.02421487
51	0x3c3baf6c	0.011455398
52	0xbafb8506	-0.0019189424
53	0x3c96fb3a	0.018430341
54	0x3c25ebf2	0.0101270545
55	0x3c782b4e	0.015147043
56	0x3d2e20cf	0.042511757
57	0xbd1fd0df	-0.039017554
58	0xbc2c1fa5	-0.0105055915
59	0x3d19b0a3	0.03752197
60	0xbd7cee7b	-0.06175087
61	0xbd160ca3	-0.036633145
62	0x3c06a7ed	0.008218748
63	0x3bcdb35e	0.0062774858
64	0xbaf57c5d	-0.001872908
65	0x3c1e6b26	0.009669101
66	0x3cd15acc	0.02555599
67	0x3c40e17c	0.01177251
68	0x3d0b78d5	0.03405078
69	0x3c9c9ab4	0.019116737
70	0x3b352173	0.0027638345
71	0x3cc2447a	0.023714293
72	0xbddbd395	-0.107337154
73	0xbd9bacce	-0.07601319
74	0xbd7538a0	-0.059868455
75	0xbc71662f	-0.014733835
76	0xbc8f4da1	-0.017493071
77	0xbb510f40	-0.003189996
78	0xbc1c7621	-0.0095496485
79	0xbd9deef6	-0.07711594
80	0xbcc6fa43	-0.024289256
81	0xbd7665a8	-0.06015554
82	0x3c120db9	0.008914405
83	0xbd62ed42	-0.055402048
84	0xbe2ebfe1	-0.17065383
85	0x3c40a706	0.0117585715
86	0xbd4cfd23	-0.050046097
87	0xbdad352d	-0.08457408
88	0x3c717438	0.014737181
89	0xbd627d88	-0.055295497
90	0xbb84a95a	-0.0040485086
91	0x3d574bde	0.052562587
92	0x3d2ae4ec	0.041722223
93	0xbc2abf4e	-0.010421587
94	0x3c880534	0.016604044
95	0x3d8242ed	0.06360421
96	0x3c59ceeb	0.013293962
97	0xbc5d8b02	-0.013521912
98	0x3bc48b02	0.0059980163
99	0x3d21024b	0.039308827
100	0x3cebd49f	0.02878791
101	0x3d21faaa	0.039545693
102	0x3cda0a2c	0.026616178
103	0x3cb64abc	0.022252433
104	0x3d14e58e	0.036351733
105	0xbd07a319	-0.033114526
106	0x3c2390e5	0.009983276
107	0x3cf50f43	0.029914504
108	0x3cc805b7	0.024416788
109	0x3c51a214	0.01279499
110	0xbd34726a	-0.044054426
111	0x3d1c9997	0.038232412
112	0x3d02d93d	0.031945456
113	0xbcd40aa1	-0.025883975
114	0x3ac502a0	0.001503069
115	0x3c1d5ed0	0.009605125
116	0xbd1c6b27	-0.038188126
117	0xbd3ebf2b	-0.04656903
118	0xbcb5ef70	-0.0222089
119	0xbb9a9bc5	-0.004718276
120	0xbc54f964	-0.0129989125
121	0x3b4970b4	0.0030737342
122	0x39f5cd0d	0.00046882816
123	0xbd1083a1	-0.03528178
124	0xbb7679e6	-0.0037609278
125	0xb84b9567	-4.8538113e-05
126	0x3b8c6090	0.004283972
127	0x3c050af1	0.008120284
128	0xbce642e1	-0.028108062
129	0x3d1c6e76	0.03819128
130	0x3d4fff6b	0.050780695
131	0x3c6f66e8	0.014611937
132	0x3cfbe113	0.030746972
133	0x3d23b2d8	0.03996548
134	0x3bfa0eb2	0.0076311463
135	0xbb8eaa7e	-0.0043538203
136	0xbcc24de1	-0.023718776
137	0xbdab1fe6	-0.083556935
138	0x3d0f31eb	0.034959715
139	0x3ce49491	0.027902873
140	0xbd364097	-0.04449519
141	0xbc11c9bc	-0.008898195
142	0x3d081ddc	0.0332316
143	0xbbef4b9a	-0.0073027136
144	0xbcd9a4eb	-0.026567897
145	0xbcbf0edc	-0.023322515
146	0x39b670e4	0.00034797855
147	0xbbff2127	-0.0077859345
148	0xbc22d36d	-0.009938103
149	0x3c749b99	0.0149296755
150	0xbcebd315	-0.028787175
151	0xbcde6752	-0.027148876
152	0xbabe033a	-0.0014496811
153	0x3d36487c	0.04450272
154	0x3d47f5ae	0.048818283
155	0x3d733304	0.059374824
156	0x3bf28075	0.007400567
157	0x3c486cfb	0.012233014
158	0x3da13873	0.07872095
159	0x3cc79fb3	0.024368143
160	0xbc61a15b	-0.01377138
161	0x3d1bc09c	0.038025483
162	0xbc05d146	-0.00816757
163	0x3c9331d9	0.017968105
164	0x3d88dd49	0.06682832
165	0xbd5b01e3	-0.053468596
166	0xbcb417e1	-0.021984043
167	0x3cee5595	0.029093543
168	0xbddbf9cb	-0.107410036
169	0xbd912187	-0.07086473
170	0xbc74820d	-0.014923585
171	0xbd18e26d	-0.03732531
172	0x3c92483c	0.01785671
173	0x3ddedf73	0.10882463
174	0xbd772d18	-0.06034574
175	0xbc6c1a99	-0.014410638
176	0x3d8654cd	0.06559143
177	0xbdac59d8	-0.08415574
178	0xbd46ff63	-0.0485834
179	0x3c3b025b	0.011414136
180	0xbc4cd5db	-0.012502159
181	0x3d879c88	0.06621653
182	0x3dc5b139	0.09652943
183	0xbd6edbb8	-0.05831501
184	0x3ccca990	0.024983197
185	0x3d92f307	0.0717526
186	0xbdfe1e6d	-0.12408147
187	0xbd344ed1	-0.044020478
188	0x3c833603	0.016016966
189	0x3cd377d5	0.025813976
190	0xbcd52e88	-0.026023164
191	0xbd9c7d6d	-0.076411106
192	0x3d6e5e23	0.058195245
193	0x3d1c615b	0.038178783
194	0x393c3b59	0.00017951186
195	0x3c3428db	0.010996069
196	0x3d1d63f7	0.038425412
197	0x3d075d4c	0.03304796
198	0x3cdc5efe	0.026900765
199	0x3ca6c13d	0.020355815
200	0xbd66a0a9	-0.05630556
201	0x3d888a92	0.06667055
202	0x3d322a93	0.043497633
203	0x3cbd0955	0.023075739
204	0x3c1ecd19	0.009692454
205	0x3c0afbd8	0.008482896
206	0x3ca95f6f	0.02067539
207	0xbd104638	-0.035223216
208	0xbd25656a	-0.04037992
209	0xbd935f2a	-0.071958855
210	0x3c5cee7b	0.013484593
211	0x3c0c2e57	0.00855597
212	0xbca9da95	-0.02073411
213	0xbc182da8	-0.009288229
214	0x3bec6850	0.0072145835
215	0xbbe529b4	-0.006993497
216	0x3ccec1a1	0.025238814
217	0xbd37ed25	-0.044903893
218	0xbde19f3b	-0.11016699
219	0x3dcf6b95	0.101279415
220	0x3d0071db	0.03135858
221	0xbd38e7ad	-0.04514282
222	0x3d4efede	0.05053603
223	0x3cd3be6e	0.02584764
224	0xbcb45f1b	-0.022018006
225	0xbbcf5c91	-0.0063281734
226	0xbccc0fee	-0.02490994
227	0xbd46b9df	-0.048517104
228	0x3d1511fc	0.036394104
229	0x3cd41929	0.025890904
230	0x3b807276	0.003919895
231	0xbc28d4ca	-0.010304639
232	0x3c208e52	0.009799557
233	0x3c086e88	0.008327134
234	0xbca1a1f6	-0.01973055
235	0x3cace1d8	0.021103784
236	0x3c34c576	0.0110334065
237	0x3c9f85e4	0.019473024
238	0x3d1f7dbb	0.038938265
239	0x3d10c254	0.035341576
240	0xbbec94f8	-0.007219907
241	0x3d82a4e3	0.06379106
242	0x3cee5122	0.029091422
243	0xbda29548	-0.079386294
244	0xbd3491e2	-0.044084437
245	0xbdf4b21a	-0.11948033
246	0xbdce7918	-0.100816905
247	0xbc9083a2	-0.017640892
248	0xbd3f1908	-0.04665473
249	0xbd83d819	-0.06437702
250	0x3c2ce47d	0.010552523
251	0xbc15d3e8	-0.009144761
252	0xbcf69b6e	-0.030103412
253	0xbc64c340	-0.013962567
254	0x3cc9cba3	0.024633234
255	0xbcc4677e	-0.02397513

1.bn1.weight f4 [64]
0	0x3e95c301	0.2925034
1	0x3eaaf28d	0.33388177
2	0x3e90fc0d	0.283173
3	0x3ea9765f	0.33098122
4	0x3ee2dd36	0.44309396
5	0x3ea5a77e	0.3235435
6	0x3eaaf1c8	0.3338759
7	0x3f17db18	0.59318686
8	0x3f237c8b	0.6386191
9	0x3e4dc69d	0.20095296
10	0x3ebacf50	0.36486292
11	0x3e88d228	0.26722836
12	0x3e776d6a	0.24162832
13	0x3e83b093	0.25720653
14	0x3eb19407	0.34683248
15	0x3e77ee37	0.24211966
16	0x3e5ad420	0.21369982
17	0x3e424c7f	0.18974493
18	0x3e8c250d	0.27372018
19	0x3ea2e7d9	0.3181751
20	0x3ea48c19	0.32138136
21	0x3e973573	0.29532966
22	0x3e608297	0.21924816
23	0x3e42f0a9	0.19037117
24	0x3e737007	0.23773204
25	0x3e1fd731	0.15609433
26	0x3ec1497b	0.37751374
27	0x3ea645e6	0.32475203
28	0x3e6c592f	0.23080896
29	0x3e1eee27	0.15520535
30	0x3e7d6093	0.24743871
31	0x3e8fb527	0.28067896
32	0x3e8d12c0	0.27553368
33	0x3e98d404	0.29849255
34	0x3ec7b795	0.3900725
35	0x3ea7163d	0.32634154
36	0x3e859384	0.26089108
37	0x3e415bd4	0.18882686
38	0x3e451355	0.19245656
39	0x3e7a247b	0.24427979
40	0x3e3c7c6f	0.18406843
41	0x3edef769	0.43548134
42	0x3e9dd094	0.30823195
43	0x3ec80894	0.39069045
44	0x3e15d265	0.1463104
45	0x3e447360	0.19184637
46	0x3ee2bdaf	0.44285342
47	0x3e2a1cf7	0.16612612
48	0x3e438297	0.19092785
49	0x3e92da4b	0.2868217
50	0x3e91c63e	0.2847156
51	0x3eba1e98	0.36351466
52	0x3d9de48d	0.07709608
53	0x3e9917e3	0.29901037
54	0x3f0e2b1c	0.5553453
55	0x3e9ab43d	0.30215636
56	0x3e3e2e6f	0.185724
57	0x3ed6bc35	0.41940466
58	0x3e366ee1	0.17815734
59	0x3e364e20	0.1780324
60	0x3e86c7a7	0.26324198
61	0x3ef0b7c6	0.47015208
62	0x3e5d0314	0.21583205
63	0x3ea4d676	0.3219487

1.bn1.bias f4 [64]
0	0x3d16bb3d	0.036799658
1	0xbe1ed5a1	-0.1551118
2	0x3d99e004	0.07513431
3	0x3d7804ac	0.06055133
4	0xbe14cd1a	-0.14531365
5	0xbaebf701	-0.001800269
6	0xbdef9864	-0.11698988
7	0xbdf35402	-0.118812576
8	0xbe1a538b	-0.15070932
9	0xbde5bf4b	-0.11218127
10	0xbccd392a	-0.025051672
11	0xbd600f8d	-0.05470233
12	0xbbd79a71	-0.00657969
13	0x3d344c5c	0.044018134
14	0xbdda0693	-0.10645785
15	0xbd585d2a	-0.052823223
16	0x3cba32be	0.022729274
17	0xbb357eef	-0.0027694067
18	0x3cb61645	0.022227416
19	0xbc96df6a	-0.018417079
20	0xbd28d34e	-0.04121714
21	0xbcbf83bc	-0.023378246
22	0xbd437a85	-0.047724266
23	0x3da79f0c	0.08184633
24	0xbdcb41ef	-0.09924685
25	0x3caaaf5e	0.020835575
26	0xbdd05772	-0.10172929
27	0xbde67952	-0.11253609
28	0xbdf31578	-0.11869329
29	0xbdaab081	-0.08334447
30	0x3c40a221	0.011757405
31	0xbda255c2	-0.07926513
32	0xbd8e3fd1	-0.06945766
33	0xbdf8cd08	-0.121484816
34	0x3d2a6757	0.04160246
35	0xbda2f29e	-0.07956432
36	0x3d52b02f	0.051437553
37	0xbd04ad9f	-0.03239214
38	0x3dba2088	0.09088236
39	0xbe3c6df0	-0.18401313
40	0xbe0a14dd	-0.13484521
41	0xbd9f4bd5	-0.07778136
42	0xbda816f7	-0.08207505
43	0xbe089559	-0.13338222
44	0x3bf4cd3c	0.007470755
45	0x3b636868	0.0034699682
46	0xba053275	-0.0005081066
47	0xbe06663e	-0.1312494
48	0x3d664fa6	0.056228302
49	0xbdc0153c	-0.0937905
50	0xbcae6f29	-0.02129324
51	0x3d85e9a8	0.06538707
52	0x3d389086	0.045059703
53	0xbd908e07	-0.070583396
54	0xbe749c0b	-0.2388765
55	0xbd4f69d5	-0.05063804
56	0xba74e739	-0.0009342316
57	0xbcad2b14	-0.021138705
58	0xbc9b42ab	-0.018952688
59	0xbc751351	-0.014958219
60	0xbe09be6d	-0.13451548
61	0xbdb017e8	-0.0859831
62	0x3d0a93a8	0.033832222
63	0xbca7d09b	-0.020485213

1.conv2.weight f4 [64, 64, 3, 3]
0	0x3c985eba	0.018599857
1	0xbc6ee91f	-0.014581948
2	0xbd1e16fa	-0.03859613
3	0x3ce326a5	0.027728388
4	0x3ac46cfc	0.0014986093
5	0x3bacb419	0.0052704928
6	0x3d8c4218	0.06848544
7	0x3cd9d443	0.026590472
8	0x3d126908	0.035744697
9	0xbbd3cd3f	-0.006463676
10	0xbbf835b6	-0.007574762
11	0x3c10e7e0	0.008844346
12	0xbb14502f	-0.00226308
13	0xbc8176d2	-0.015803728
14	0xbc80e0a9	-0.015732126
15	0xbb9919ff	-0.0046722884
16	0xbc813b24	-0.01577527
17	0xbb6e8105	-0.003639282
18	0x3c8e9a27	0.01740749
19	0xbb9899ee	-0.0046570217
20	0xbd76f654	-0.06029351
21	0x3d37a8af	0.044838604
22	0x3acb5cc1	0.0015515314
23	0xbd810f9b	-0.06301805
24	0x3d0c8a8f	0.034311827
25	0x3baed483	0.005335392
26	0xbc35726b	-0.011074643
27	0xbb32ba6e	-0.0027271765
28	0x3d4d6edc	0.050154552
29	0x3d79bf0a	0.060973205
30	0x3d10abf0	0.035320222
31	0x3d933fba	0.07189889
32	0x3da1448c	0.078744024
33	0xbcd1ab4f	-0.025594382
34	0xbd17e9cc	-0.0370882
35	0xbd13354a	-0.035939492
36	0xbbd97899	-0.006636691
37	0x3bffb3de	0.0078034243
38	0xbccd105a	-0.025032211
39	0xbbcb921a	-0.006212485
40	0xbbd985e9	-0.006638278
41	0xbc783398	-0.01514902
42	0x3d2efb04	0.042719856
43	0x3d15a57f	0.036534782
44	0x3b77a27d	0.003778606
45	0xbcc13830	-0.023586363
46	0xbb97c8dd	-0.004632099
47	0xbc1db04e	-0.009624554
48	0x3c0c0aad	0.008547467
49	0x3d2341d7	0.03985771
50	0x3c4646d1	0.012101845
51	0xbd0968b6	-0.033547126
52	0xbca09ce0	-0.019606054
53	0xbcecc3aa	-0.028901894
54	0x3cbe9228	0.023263052
55	0x3ce47a47	0.027890338
56	0xbc11140b	-0.008854876
57	0x3c78d781	0.015188099
58	0x3c10a2bb	0.0088278605
59	0xbca70098	-0.020386025
60	0x3b40058b	0.002930018
61	0x3b86f809	0.0041189236
62	0xbb888689	-0.0041664285
63	0x3c24f60e	0.01006843
64	0xbb918a93	-0.004441568
65	0x3bd1ffdc	0.0064086746
66	0x3b8a9baa	0.0042299824
67	0x3c8002c7	0.015626324
68	0x3c9527da	0.01820748
69	0xbbb727e7	-0.0055894735
70	0x3c9e0b6f	0.019292561
71	0x3ca99a7e	0.02070355
72	0xbbe1deee	-0.0068930304
73	0xbc8b2f55	-0.016990343
74	0xbc117380	-0.008877635
75	0xbc83dfd5	-0.016097942
76	0xbc4c3921	-0.0124647925
77	0x3c323099	0.010875844
78	0xbd3f73c6	-0.04674127
79	0xbd1d91f9	-0.03846929
80	0xbb8ff732	-0.0043934816
81	0xbcda43bc	-0.026643626
82	0xbd3b781a	-0.045768835
83	0xbd45f8f1	-0.048333112
84	0xbc6fe74d	-0.014642549
85	0xbcfce5ad	-0.030871237
86	0xbcc7ea30	-0.024403661
87	0xbc7833ee	-0.0151491
88	0xbcd034c0	-0.025415778
89	0xbc4fc511	-0.012681262
90	0x3ce7a2c8	0.028275862
91	0x3d1eb154	0.038743332
92	0xbd2a3f45	-0.041564245
93	0x3c039193	0.008030313
94	0x3beb10d8	0.007173639
95	0xbd8558ca	-0.06511076
96	0xbc3bff12	-0.011474388
97	0xbcbc828c	-0.023011468
98	0xbd91dbf8	-0.07122034
99	0xbc984594	-0.018587865
100	0xbd6ccb87	-0.057811286
101	0xbd3ca3f5	-0.0460548
102	0x3be76597	0.007061671
103	0xbd1439fc	-0.03618811
104	0xbd468fe2	-0.04847706
105	0x3d114c47	0.035473134
106	0xbab75697	-0.0013987598
107	0xbcfb8f05	-0.030707845
108	0xbcf6707b	-0.030082932
109	0xbcc71186	-0.024300348
110	0xbcc9c9c6	-0.024632346
111	0x3d0f8b9a	0.035045244
112	0x3d48e4a7	0.049046185
113	0xbb8b1fed	-0.004245749
114	0x3c51ddfb	0.012809272
115	0x3b8c1c4e	0.004275835
116	0xbd3afd25	-0.045651574
117	0x3d1a655f	0.03769433
118	0x3ca3c5f8	0.01999186
119	0xbc929786	-0.017894518
120	0x3cb7b3d2	0.022424612
121	0x3c8c53bf	0.017129777
122	0x3b660cd8	0.003510287
123	0xbbd9d74e	-0.006647981
124	0xbc314cdc	-0.010821547
125	0xbcb1222f	-0.021622745
126	0xbca27486	-0.019830953
127	0xbcedebc3	-0.029043084
128	0x3b465fff	0.003026962
129	0xbc3f5235	-0.0116773145
130	0xbca2862d	-0.01983937
131	0xbc18d915	-0.0093291
132	0xbbcbeaa1	-0.0062230383
133	0xbc3cd30b	-0.011524926
134	0x3c308174	0.0107730515
135	0xbd8622ce	-0.06549607
136	0x3c288839	0.010286384
137	0x3d8d8b26	0.06911306
138	0xbd3a984f	-0.04555541
139	0x3c03719f	0.008022695
140	0x3d81866e	0.063244686
141	0xbd37667e	-0.04477548
142	0xbb03e09e	-0.0020122896
143	0x3d419efc	0.04727076
144	0xbc303977	-0.010755888
145	0x3be6ba4d	0.0070412518
146	0x3c0a9467	0.008458233
147	0xbcf8e66f	-0.030383317
148	0xbc7cf7cd	-0.01543994
149	0xbc28ce08	-0.010303028
150	0xbd15dd2a	-0.03658787
151	0xbd097c9c	-0.033566102
152	0xbd0b0d64	-0.033948317
153	0xbd0fb7e7	-0.035087492
154	0x3bc32314	0.0059551094
155	0x3c84cfcf	0.016212372
156	0xbca3b451	-0.019983443
157	0x3caa5466	0.020792197
158	0x3cb4b479	0.022058712
159	0xbca0c8bb	-0.019626966
160	0xbbf72b6e	-0.007543019
161	0xbc937166	-0.017998409
162	0x3d009a42	0.03139711
163	0x3d3dd18d	0.04634242
164	0x3d24fb96	0.040278994
165	0xbcc01050	-0.023445278
166	0xbb9b4f4f	-0.004739679
167	0x3ca52f8a	0.02016427
168	0xba269fd6	-0.0006356215
169	0x3c89d561	0.01682538
170	0x3d0cec8a	0.03440527
171	0x3db7e4f6	0.08979218
172	0x3d55fbd8	0.05224213
173	0xbcd208db	-0.025638988
174	0x3d6e8a4e	0.058237366
175	0x3ca1ed56	0.01976649
176	0xbd5479e3	-0.051874053
177	0xbcba3d9d	-0.022734458
178	0xbd4355fa	-0.047689416
179	0xbdaa5667	-0.08317261
180	0xbbc61695	-0.0060451725
181	0x3c5f51ac	0.013630312
182	0x3c4b8582	0.012421967
183	0xbc83c1c2	-0.016083602
184	0x3c8178f3	0.015804743
185	0x3c56cd91	0.013110534
186	0xbcc07625	-0.023493836
187	0xbb01d62a	-0.001981149
188	0xbcbf590f	-0.023357896
189	0xbd85ce6c	-0.065335125
190	0xbd78311c	-0.06059371
191	0xbd5dee87	-0.054182556
192	0xbda5b503	-0.08091166
193	0xbd9df066	-0.07711868
194	0xbd7e15be	-0.062032454
195	0xbd98292b	-0.07429727
196	0xbd8b68f7	-0.0680713
197	0xbd8ff3e0	-0.07028937
198	0x3d00e6e7	0.031470206
199	0x3d8a3a18	0.06749362
200	0x3d5388d4	0.05164416
201	0x3cdc25e7	0.026873542
202	0x3d8377b7	0.06419318
203	0x3d4a762d	0.049429107
204	0xbc00405b	-0.007827844
205	0x3cc84b3f	0.024449943
206	0x3c35a5fa	0.011086935
207	0x3b3eded1	0.0029124508
208	0xbb117ca8	-0.0022199545
209	0x3cc39350	0.023873955
210	0xbc329d69	-0.010901787
211	0xbc1fc0dd	-0.009750572
212	0x3cfe7a67	0.031064225
213	0xbc0a7ab9	-0.008452111
214	0x3b67f3e1	0.0035393166
215	0x3d374c67	0.044750597
216	0xbc5d59f6	-0.013510218
217	0x3d262e51	0.040571515
218	0xbc424540	-0.011857331
219	0x3cb89504	0.022531994
220	0x3db2e8d6	0.08735816
221	0x3cb41963	0.021984762
222	0x3b117157	0.00221928
223	0x3d133faf	0.035949405
224	0xbcc9a65c	-0.02461546
225	0xbc5e7757	-0.0135782575
226	0xbc57f637	-0.013181261
227	0xbc1b15d8	-0.009465657
228	0xbc8c573d	-0.017131442
229	0xbcd36d65	-0.025809
230	0xbca60fa4	-0.02027113
231	0xbc5a3977	-0.013319365
232	0xbc6eddaa	-0.014579216
233	0xbc8c1789	-0.017101066
234	0xbcee25f5	-0.029070834
235	0x3c998819	0.018741654
236	0xbc89a3e6	-0.016801786
237	0x3d41da3b	0.04732726
238	0x3dcdbb9f	0.100455515
239	0x3d634cc3	0.055493128
240	0x3d61a02e	0.0550844
241	0x3df05817	0.11735552
242	0x3d928265	0.07153777
243	0xbd019093	-0.031632017
244	0x3b98a36e	0.004658154
245	0x3c1cb6a0	0.009565026
246	0xbcbd80ca	-0.0231327
247	0xba16f9ec	-0.0005759287
248	0x398ffb19	0.00027462168
249	0xbca9037e	-0.020631548
250	0xbbede7cd	-0.007260299
251	0x3c71b3c7	0.014752335
252	0x3c99a963	0.018757528
253	0x3c8b0c57	0.016973658
254	0x3b8cfc43	0.004302533
255	0xbb23df8c	-0.002500507

1.bn2.weight f4 [64]
0	0x3ee1871b	0.4404839
1	0x3e9f019b	0.31055912
2	0x3ec319b1	0.38105538
3	0x3e726f68	0.2367531
4	0x3ed6352e	0.41837448
5	0x3ea29e8a	0.3176158
6	0x3d21d43d	0.039509047
7	0x3ea106ec	0.31450593
8	0x3e3b9593	0.18318777
9	0x3ee2b95f	0.44282052
10	0x3e9b7c72	0.30368382
11	0x3ea43cb7	0.32077572
12	0x3f067ca1	0.5253392
13	0x3e759fed	0.23986788
14	0x3ec4137f	0.38296124
15	0x3ee842d2	0.4536348
16	0x3ec5ad55	0.38608804
17	0x3dea6005	0.114440955
18	0x3dd1fe11	0.102535374
19	0x3f0df863	0.55457133
20	0x3e444590	0.19167161
21	0x3eecea01	0.4627228
22	0x3ea990f5	0.33118406
23	0x3e07b21a	0.13251534
24	0x3e5df168	0.2167412
25	0xbd7c46ec	-0.061591074
26	0x3e9036cb	0.28166804
27	0x3ea106c7	0.31450483
28	0x3edc4f22	0.43029124
29	0x3e1c4b3c	0.15263075
30	0x3f0fa501	0.5611115
31	0x3ed966c3	0.42461213
32	0x3ee65cb6	0.44992608
33	0x3e2dc8b3	0.16971092
34	0x3e8ab6a7	0.27092478
35	0x3d500257	0.05078348
36	0x3eaaedb7	0.33384487
37	0x3eca251c	0.39481437
38	0x3eb98bb0	0.36239386
39	0x3dc0d262	0.09415127
40	0x3e80a241	0.2512379
41	0x3e87ab57	0.2649791
42	0x3ef0ba74	0.47017252
43	0x3e42fb63	0.19041209
44	0x3f06cf87	0.5266041
45	0x3e85928d	0.26088372
46	0x3ede6b34	0.43441164
47	0x3ed8646a	0.4226411
48	0x3e8648f5	0.26227537
49	0x3eb2448d	0.34817925
50	0x3e37170f	0.1787989
51	0x3ec22d55	0.3792521
52	0x3d8da665	0.06916503
53	0x3f30c6a7	0.6905312
54	0x3f4fe633	0.8121063
55	0x3eac9da1	0.3371401
56	0x3f003c3d	0.50091916
57	0x3f0dc919	0.55384976
58	0x3da41a0a	0.08012779
59	0x3ecea691	0.40361455
60	0x3f245eae	0.6420697
61	0x3ea87a6d	0.32905903
62	0x3ee73d8a	0.45164138
63	0x3ea75f29	0.3268979

1.bn2.bias f4 [64]
0	0xbce1d92a	-0.027569372
1	0x3eaf5399	0.34243467
2	0xbe04b4cb	-0.12959592
3	0x3d3288a1	0.04358733
4	0xbe16e02b	-0.14733951
5	0xbd43f211	-0.047838274
6	0x3e40e32a	0.18836656
7	0x3ec006fa	0.37505323
8	0x3d917960	0.071032286
9	0x3df4d323	0.11954334
10	0x3da56a98	0.08076972
11	0x3e69dce8	0.22838175
12	0x3e446143	0.19177727
13	0x3e414aab	0.1887614
14	0x3e736d12	0.23772076
15	0x3e04555c	0.12923187
16	0xbdad871c	-0.08473036
17	0x3f0db0e1	0.5534802
18	0x3dde0250	0.10840285
19	0xbdb3fcb7	-0.08788436
20	0x3e40ae95	0.18816598
21	0x3e461f2d	0.1934783
22	0xbd01b090	-0.031662524
23	0x3e182bbe	0.14860436
24	0x3eaf61df	0.34254357
25	0x3e37390a	0.17892852
26	0x3dbd5688	0.0924502
27	0x3c85e27b	0.016343346
28	0xbdfadaac	-0.122487396
29	0x3dd5159f	0.104045145
30	0x3d89c5c1	0.06727172
31	0x3e9a503a	0.30139333
32	0xbe02f139	-0.12787332
33	0x3ef6f8c2	0.48236662
34	0x3d336fc2	0.043807752
35	0x3e49579e	0.1966233
36	0x3e9a0126	0.30079
37	0x3ddd1c2a	0.107963875
38	0xbdda7055	-0.10665957
39	0x3dfb8e91	0.12283052
40	0x3d8a9ec4	0.067685634
41	0x3eaa5565	0.33268276
42	0x3da11c12	0.07866682
43	0x3d01b4ac	0.031666443
44	0xbd287a87	-0.041132476
45	0x3eb6facd	0.3573822
46	0x3e45fd89	0.19334997
47	0x3d8cfdce	0.06884347
48	0x3dfe0071	0.12402428
49	0x3e932f2d	0.2874693
50	0x3e239d38	0.15977943
51	0x3df94021	0.12170435
52	0x3e9483fd	0.2900695
53	0xbe27b9ce	-0.16379473
54	0xbe524075	-0.20532401
55	0x3e30fc33	0.17283706
56	0x3ca02556	0.019549053
57	0x3d39d2fa	0.04536722
58	0x3ee098df	0.4386663
59	0xbded20fa	-0.115785554
60	0xbdcac4f9	-0.09900851
61	0x3e7c6206	0.24646768
62	0x3defb34e	0.117041215
63	0xbc990f8b	-0.01868417

2.conv1.weight f4 [64, 64, 3, 3]
0	0x3bbf7f89	0.005844061
1	0x3b1974b1	0.00234155
2	0xbbfc8f47	-0.0077075097
3	0x3a958073	0.0011406079
4	0x39fdf752	0.00048440188
5	0xbc221a79	-0.009894007
6	0xbb8ec7e3	-0.0043573244
7	0xbb628c0e	-0.0034568342
8	0xbc800dc0	-0.015631557
9	0xbd0e3627	-0.034719612
10	0xbcae16f0	-0.021251172
11	0xbd05121a	-0.032487966
12	0xbcfeeaf6	-0.031117897
13	0xbc678192	-0.014130013
14	0xbcef710e	-0.029228713
15	0xbce07096	-0.027397435
16	0xbc351285	-0.011051779
17	0xbcd8c02d	-0.026458824
18	0x3c85f8ba	0.016353954
19	0x3c8c945a	0.017160583
20	0x3c9d4272	0.019196723
21	0x3c30fd2a	0.0108025465
22	0x3c54a0ed	0.012977821
23	0x3c8845bc	0.016634814
24	0x3bec7cf7	0.0072170454
25	0x3ca35f0d	0.019942785
26	0x3c8aa736	0.016925436
27	0x3c997473	0.018732285
28	0x3c916ac5	0.017751107
29	0x3b93911c	0.0045033824
30	0x3bc4cd18	0.0060058944
31	0x3c4125f4	0.011788834
32	0x3a26c096	0.0006361095
33	0xbc6d0eb8	-0.014468841
34	0xbb0a45f7	-0.0021098831
35	0xbbe2eb37	-0.0069250125
36	0x3c9348eb	0.017979106
37	0x3b242024	0.0025043571
38	0xbc56314e	-0.013073279
39	0x3c34a1c8	0.0110249
40	0xbb88ff15	-0.004180799
41	0xbc976764	-0.018481918
42	0x3ac2fd95	0.0014876599
43	0xbc02d69f	-0.00798574
44	0xbc8d7e7e	-0.01727223
45	0xbb33eca5	-0.0027454284
46	0xbbdf8bae	-0.006822071
47	0xbb83113b	-0.0039998568
48	0xbc3ac1a1	-0.011398704
49	0xbc776aca	-0.015101144
50	0xbc090943	-0.008364025
51	0xbc07be8e	-0.008285178
52	0xbc91ede7	-0.017813636
53	0xbc3361c8	-0.010948606
54	0x3c5cdb56	0.013480028
55	0x3c5cf6a6	0.01348654
56	0x3bb728d0	0.005589582
57	0x3c6033ae	0.013684196
58	0x3c09605e	0.008384792
59	0x3bec4209	0.0072100204
60	0x3c8a79a1	0.0169037
61	0x3c633f2d	0.013870043
62	0x3c197169	0.009365418
63	0x3c18b20e	0.009319795
64	0xbaa4ddd4	-0.0012578317
65	0xbba44f6c	-0.0050143506
66	0x3ca24e7c	0.019812815
67	0x3a52b9dd	0.000803856
68	0xbbbb461d	-0.0057151453
69	0x3d1da3b9	0.038486216
70	0x3cc1eca1	0.023672404
71	0x3c1d49b4	0.009600092
72	0xbc9cde42	-0.01914895
73	0xbca9f4db	-0.020746639
74	0xbc99a2d7	-0.018754406
75	0xbbcc8371	-0.006241255
76	0xbc884547	-0.016634597
77	0xbc4d0534	-0.012513448
78	0x3c1682ce	0.00918646
79	0x3ade5289	0.0016961853
80	0x3c115aa7	0.008871711
81	0xbccca024	-0.024978705
82	0xbc311636	-0.010808518
83	0xbc1c7e8a	-0.009551654
84	0xbcf56249	-0.029954093
85	0xbcde3065	-0.027122686
86	0xbca07d19	-0.019590901
87	0xbc544535	-0.012955953
88	0xbc3c7a65	-0.0115037905
89	0xbb5c6adf	-0.0033633036
90	0x3c42b0b8	0.011882953
91	0x3c9bcf02	0.019019607
92	0x3c39dab0	0.011343643
93	0x3c156e6b	0.009120564
94	0x3c6921fd	0.014229295
95	0x3c4cdff7	0.012504569
96	0x3b4f620b	0.0031644132
97	0x39d11dd8	0.00039885822
98	0x3b87f223	0.004148738
99	0x3ca7a89b	0.02046614
100	0xb8a5eed8	-7.912301e-05
101	0x3c1631e7	0.009167171
102	0x3c91db92	0.017804895
103	0x3b5d90e4	0.0033808285
104	0x3c1eae10	0.009685054
105	0xbc4dc9cf	-0.012560322
106	0xbc93e6c9	-0.018054383
107	0xba6d8c0c	-0.0009061701
108	0x3cc1e05f	0.023666559
109	0x3d016d12	0.03159816
110	0x3d071eef	0.032988485
111	0x3b8e15d9	0.0043361005
112	0x3a6a6c57	0.00089425355
113	0x39dd29aa	0.00042183447
114	0x3bc9f677	0.006163414
115	0xbb746a4b	-0.00372948
116	0xbc02b839	-0.007978492
117	0xbc723908	-0.014784105
118	0x3b59f524	0.0033257687
119	0xbc2ea7bb	-0.010660107
120	0xbcc70901	-0.024296286
121	0xbc6ddcbc	-0.014517959
122	0xbcb85908	-0.02250339
123	0xbc5423c0	-0.012947977
124	0xbb637c0a	-0.0034711384
125	0xbc3a1c5e	-0.011359302
126	0xbce278b0	-0.027645439
127	0xbcaa810e	-0.020813491
128	0xbc91c554	-0.017794289
129	0xbd4f7f4a	-0.0506585
130	0xbd280397	-0.04101905
131	0xbd2e7d8c	-0.0426002
132	0xbd35aa80	-0.044352055
133	0xbcfa0927	-0.030521942
134	0xbd03ec89	-0.032208
135	0xbbfabddb	-0.007652027
136	0x3bf0f42a	0.0073533254
137	0x389ee60e	7.576878e-05
138	0xbc9a8798	-0.018863484
139	0xbc3e97e8	-0.011632897
140	0xbcc7da19	-0.02439599
141	0xbc7c65d3	-0.015405136
142	0xbbab35e0	-0.0052249283
143	0xbca29056	-0.019844215
144	0x3be90072	0.007110649
145	0x3c0562c2	0.0081412215
146	0x3c1a1539	0.009404474
147	0x3c6cbbfd	0.014449117
148	0x3c50a20a	0.012733946
149	0x3c49f072	0.012325393
150	0x3c4297bd	0.011876998
151	0x3c38f3eb	0.011288623
152	0x3c154cc3	0.00911254
153	0xbc42a685	-0.011880522
154	0xbb3043d9	-0.002689591
155	0xbc28f65c	-0.010312643
156	0xbbf06853	-0.007336655
157	0x3c0ebe32	0.008712338
158	0xb8ee1d05	-0.0001135413
159	0xbc59aad0	-0.013285354
160	0x3ba4d69c	0.0050304662
161	0xbb3b9226	-0.0028621047
162	0xbbac8d90	-0.005265899
163	0xbba1eb43	-0.0049413755
164	0xbbabe044	-0.0052452404
165	0xbbeda72d	-0.007252595
166	0xbbcd9930	-0.006274365
167	0xbb98926f	-0.004656128
168	0xbc0a10e8	-0.008426882
169	0xbbfbf611	-0.0076892455
170	0xbb3d3389	-0.0028869829
171	0x3ca956ba	0.020671237
172	0x3cb0670f	0.021533517
173	0x3c312b8a	0.010813603
174	0x3d061078	0.03273055
175	0x3d2125d3	0.039342713
176	0x3cf1dc75	0.029524067
177	0x3affd601	0.0019518734
178	0x3cc10532	0.023562048
179	0x3ca54212	0.020173106
180	0xbc567d47	-0.013091392
181	0xbca6c1de	-0.020356115
182	0xbcce415c	-0.02517765
183	0xbca384be	-0.019960757
184	0xbcbe9e25	-0.023268769
185	0xbcdaf5a3	-0.026728457
186	0xbcadc6b6	-0.021212917
187	0xbcc2fb67	-0.023801519
188	0xbcbb35c9	-0.022852795
189	0x3c0e5b4c	0.008688759
190	0x3c8834cf	0.016626744
191	0x3bbd5bd2	0.005778768
192	0x3c594a64	0.013262365
193	0x3ca9c355	0.020723024
194	0x3c0c06c3	0.008546534
195	0x3cab0994	0.02087859
196	0x3ce8790b	0.02837803
197	0x3c76274a	0.015024016
198	0xbc63121f	-0.013859301
199	0xbc1dc7ea	-0.009630183
200	0xbc29600b	-0.01033784
201	0xbbe6f0ca	-0.0070477473
202	0xbb99e262	-0.0046961764
203	0xbbb94130	-0.005653523
204	0xbc7048eb	-0.0146658225
205	0xbc393cec	-0.011306029
206	0xbc4ee217	-0.012627146
207	0xbb55ae45	-0.0032605093
208	0xb97e5a56	-0.0002425698
209	0xbbb665d6	-0.005566339
210	0xbbb06fe3	-0.0053844317
211	0xbb4a30b7	-0.003085179
212	0xbbdfcb82	-0.00682968
213	0xba8c4856	-0.001070271
214	0x3995e131	0.00028587275
215	0xbb43de1d	-0.0029887029
216	0xbc950eae	-0.018195476
217	0xbc6f0d2d	-0.014590544
218	0xbcc7a5a8	-0.024370983
219	0xbc5fd351	-0.013661222
220	0xbc47a67b	-0.012185688
221	0xbc9bd111	-0.019020589
222	0xbc05f648	-0.008176394
223	0xbc2d1073	-0.010563004
224	0xbc7e5f6e	-0.015525682
225	0x3b905a85	0.004405322
226	0x3bed498e	0.0072414344
227	0x3a3b05aa	0.0007134328
228	0x3c216727	0.009851254
229	0x3c398e87	0.011325485
230	0x3bd6f834	0.00656035
231	0x3c289883	0.010290268
232	0x3c439703	0.0119378595
233	0x3c07b39c	0.008282568
234	0xbc05be30	-0.00816302
235	0xbc634870	-0.013872251
236	0xbc786e99	-0.015163087
237	0xbb4e2172	-0.003145304
238	0x38b8ff53	8.8213616e-05
239	0x3a24a9b7	0.0006281393
240	0xbc1dffe1	-0.009643526
241	0xbc0f6ab1	-0.008753465
242	0xbb47e40c	-0.0030500917
243	0x3b71d91f	0.0036903096
244	0xbb825445	-0.003977331
245	0x3b46ce69	0.0030335432
246	0x3c391d7f	0.011298536
247	0x3a7262d5	0.00092462945
248	0x3b38630b	0.0028135206
249	0x3cf23711	0.029567273
250	0x3cd6f02b	0.026237568
251	0x3cb4bb1d	0.022061879
252	0xbb412c82	-0.0029475992
253	0xbb044ab6	-0.0020186133
254	0xbb5aec9b	-0.0033405188
255	0x3b326d0f	0.0027225649

2.bn1.weight f4 [64]
0	0x3e2c8f25	0.1685148
1	0x3aadd0b7	0.0013261054
2	0x3e97db2c	0.29659402
3	0x3e4742ce	0.19459078
4	0x3e1520a1	0.14563228
5	0x3eab87c8	0.3350203
6	0x3dee2bfe	0.116294846
7	0x3e2e5105	0.17023094
8	0x3e6e1d20	0.23253298
9	0x3c35cd71	0.011096344
10	0x3e215a3e	0.15757081
11	0x3ea05d12	0.31321007
12	0x3de2b551	0.110697396
13	0x3e84f4a9	0.2596791
14	0x3a76fdf4	0.0009421997
15	0x3e62e20d	0.22156544
16	0x3dd665d5	0.10468642
17	0x3ea0f2e4	0.3143531
18	0x3ec59665	0.38591304
19	0x3ac525d5	0.0015041182
20	0x3e927c2f	0.2861037
21	0x3b212572	0.002458897
22	0x3b0f8d48	0.0021904279
23	0x3e86ef0a	0.26354247
24	0x3ea81b7d	0.32833472
25	0x3a5448a9	0.00080979854
26	0x3e4103b0	0.18849063
27	0x3e9e7754	0.30950415
28	0x3eac7731	0.33684686
29	0x3dec2dbf	0.11532163
30	0x3f5044cf	0.81354994
31	0x3dfc0b0f	0.12306797
32	0x3e048ea9	0.12945046
33	0x3e88406c	0.2661165
34	0x3e60594e	0.21909067
35	0x3eebeb90	0.46078157
36	0x3e82a8e5	0.2551948
37	0x3e75ee53	0.24016695
38	0x3e2f9582	0.17146876
39	0x3ea1e9b2	0.31623608
40	0x3e6438b5	0.22287257
41	0x3e7dbc29	0.24778809
42	0x3e3761a6	0.17908344
43	0x3d6ae272	0.05734486
44	0x3d3acb06	0.045603774
45	0x3e9ccbb2	0.30624157
46	0x3e27b2b4	0.16376764
47	0x3d825d8b	0.06365498
48	0x3e48e9e7	0.19620477
49	0x3e24408c	0.16040248
50	0x3e183b2b	0.14866321
51	0x3e6d6f35	0.23186953
52	0x3e805d72	0.25071293
53	0x3e839085	0.25696197
54	0x3e3b82c8	0.18311608
55	0x3e21aa15	0.15787537
56	0x3e258f0f	0.16167854
57	0x3f41550a	0.75520384
58	0x3aaa4fa6	0.0012993708
59	0x3e2e01ca	0.1699287
60	0x3e8a12dd	0.26967517
61	0x3ea2424c	0.31691206
62	0x3e9dc7f3	0.30816612
63	0xbcef4587	-0.029207958

2.bn1.bias f4 [64]
0	0x3e03c5a3	0.12868361
1	0xbc4b0ff2	-0.012393938
2	0x3dc9544b	0.09830531
3	0x3dc36dbe	0.09542416
4	0x3e1831b1	0.14862706
5	0xbe703729	-0.23458542
6	0xbd9cac11	-0.076500066
7	0xbdecba0f	-0.11558925
8	0xbe335f4a	-0.17516819
9	0xbd9100c0	-0.07080221
10	0x3db6d3b0	0.08927095
11	0x3d93634c	0.07196674
12	0x3e329f29	0.17443527
13	0xbd32708e	-0.04356437
14	0xbc6ddea7	-0.0145184165
15	0x3d133fb5	0.035949428
16	0x3d52738d	0.05137973
17	0x3e5b494a	0.21414676
18	0xbe16ff22	-0.14745763
19	0xbc369aee	-0.011145337
20	0x3d95ece7	0.07320576
21	0xbc3465a3	-0.01101056
22	0xbcafe5c6	-0.02147187
23	0xbcfd5e93	-0.030928886
24	0x3e53a031	0.20666577
25	0xbc258a3a	-0.010103757
26	0x3ceba992	0.02876738
27	0x3e18b6a4	0.14913422
28	0x3ddc896c	0.10768399
29	0x3f0eb2a9	0.55741364
30	0xbe243bd7	-0.16038452
31	0x3d0e665a	0.03476558
32	0xbd076670	-0.033056676
33	0x3d3aba75	0.045587976
34	0x3d81bfff	0.063354485
35	0xbe6834ae	-0.22676346
36	0x3da977e7	0.08274823
37	0x3e2ba7e7	0.16763268
38	0x3e4b78a9	0.19870247
39	0xbcb63bea	-0.022245366
40	0x3dfbcbbe	0.1229472
41	0x3d976359	0.07391996
42	0xbb98f223	-0.004667537
43	0x3be45c11	0.006968983
44	0x3e1147bf	0.14187525
45	0xbdf3ff76	-0.1191396
46	0xbd4252df	-0.047442313
47	0xbc5b8aae	-0.013399763
48	0xbd4cd5ba	-0.050008513
49	0xbe099efa	-0.13439551
50	0xbd8435c4	-0.064555675
51	0x3da9ca6a	0.082905605
52	0x3d474769	0.048652086
53	0x3ddebe17	0.108761005
54	0x3dfc67c6	0.12324481
55	0x3d5a056b	0.053227823
56	0x3da83cf7	0.08214753
57	0x3e1f8a24	0.1558004
58	0xbca7d49c	-0.020487122
59	0x3d19aa08	0.03751567
60	0x3d08edfb	0.03343008
61	0x3c55078c	0.013002288
62	0x3ddcca2c	0.10780749
63	0xbd451182	-0.0481124

2.conv2.weight f4 [64, 64, 3, 3]
0	0x3c0905f6	0.008363238
1	0x3bff61d7	0.007793646
2	0x3c0a64f0	0.008446917
3	0x3c1b790a	0.009489307
4	0x3c104d91	0.008807556
5	0x3c108d29	0.008822718
6	0x3c04457c	0.008073207
7	0x3bf2b9e5	0.0074074143
8	0x3bf3ca68	0.0074399
9	0x3b3c0254	0.002868791
10	0x3b3e7f8d	0.0029067725
11	0x3b37214b	0.0027943428
12	0x3b40afa2	0.002940156
13	0x3b432912	0.0029779118
14	0x3b33e5c5	0.0027450186
15	0x3b3b9388	0.002862187
16	0x3b3b0696	0.002853786
17	0x3b34cd66	0.0027588247
18	0x3cf0883d	0.029361838
19	0x3cf38eb9	0.029731141
20	0x3cddbb28	0.027066782
21	0x3d10b7d5	0.035331566
22	0x3d1348bf	0.035958048
23	0x3d183408	0.037158996
24	0x3d0d4095	0.03448542
25	0x3d0beefb	0.034163456
26	0x3d1bf66a	0.038076796
27	0x3c614129	0.013748446
28	0x3c7ef2f4	0.015560854
29	0x3c0aeb56	0.00847896
30	0x3cd3da91	0.025861057
31	0x3cd85837	0.026409252
32	0x3c84d679	0.01621555
33	0x3d02cde9	0.031934652
34	0x3cd95af9	0.026532637
35	0x3c88cbd9	0.016698765
36	0x3c35c3b6	0.011094024
37	0xbb995278	-0.0046790205
38	0xbbcefa9c	-0.006316496
39	0x3a52fd21	0.00080485834
40	0xbc4644b5	-0.012101342
41	0xbc3c4f1b	-0.01149347
42	0xbba5e630	-0.005062841
43	0xbc702097	-0.0146562075
44	0xbc1f7fa4	-0.009735022
45	0xbd32feca	-0.043700017
46	0xbd95f61d	-0.07322333
47	0xbd6f73f9	-0.05846021
48	0xbd4cb90e	-0.04998117
49	0xbd9b8072	-0.075928584
50	0xbd6ddfbf	-0.05807471
51	0xbd19f9d9	-0.03759179
52	0xbd868865	-0.06568984
53	0xbd5cc6bb	-0.05390046
54	0x3c45cb2a	0.012072364
55	0x3c0a687e	0.008447764
56	0x35c7dcdd	1.4890935e-06
57	0x3c9193ad	0.017770613
58	0x3c356a9c	0.011072781
59	0x398e2392	0.00027110853
60	0x3c94ce58	0.018164799
61	0x3c3814fb	0.011235471
62	0x39b72993	0.00034935455
63	0x3c814b1c	0.015782885
64	0x3c6bf44a	0.014401505
65	0x3c54173c	0.012944993
66	0x3c9ecca2	0.019384686
67	0x3c869a6d	0.016431058
68	0x3c6857c4	0.014181081
69	0x3c8e0b3b	0.01733934
70	0x3c7b08b5	0.0153219
71	0x3c4ac416	0.012375852
72	0xbb296ffb	-0.00258541
73	0xbb6b2d47	-0.0035885142
74	0xbafac772	-0.0019132926
75	0xbbd05629	-0.0063579273
76	0xbc0db93b	-0.008650119
77	0xbc093efb	-0.008376832
78	0xbbb3941c	-0.0054803025
79	0xbb9f3cc2	-0.004859538
80	0xbbc1cce5	-0.005914318
81	0x3b44610d	0.0029965073
82	0x3b452efc	0.003008782
83	0x3b36f3c0	0.0027916282
84	0x3b49df01	0.0030803087
85	0x3b4cb9db	0.0031238708
86	0x3b448d82	0.0029991572
87	0x3b414e21	0.0029496031
88	0x3b45f88a	0.0030207955
89	0x3b40b688	0.0029405672
90	0xbbcfd4fc	-0.0063425284
91	0x399b112c	0.00029576698
92	0xbb6c80e2	-0.0036087562
93	0xbc10edc1	-0.008845747
94	0xb9fa648f	-0.00047758638
95	0xbb877c4c	-0.0041346904
96	0xbc03ebcd	-0.008051825
97	0x3b0b6553	0.002127011
98	0xbb2c2c32	-0.002627146
99	0x38c48fb3	9.3727744e-05
100	0x3bf68f10	0.0075243786
101	0x3b0f1882	0.0021834676
102	0x3a280b24	0.00064103515
103	0x3bcf0828	0.006318111
104	0xb9933b43	-0.00028082178
105	0x3b239c7b	0.0024965096
106	0x3bc0e244	0.005886348
107	0x3b78b8d1	0.0037951956
108	0xbab6f941	-0.0013959781
109	0xbc8df6a1	-0.017329516
110	0xbcb7d097	-0.02243833
111	0xbacc4904	-0.0015585725
112	0xbc40e8dd	-0.011774269
113	0xbc52b0f9	-0.012859576
114	0xb84cb57a	-4.8806403e-05
115	0xbbddf1f5	-0.0067732283
116	0xbba24e44	-0.0049531776
117	0xbd1bdac1	-0.038050417
118	0xbd358ad6	-0.044321857
119	0xbd3c2fcf	-0.04594403
120	0xbd2ef879	-0.04271743
121	0xbd53d082	-0.05171252
122	0xbd5c0c79	-0.053722832
123	0xbcdb46f9	-0.02676724
124	0xbd1df6b4	-0.038565353
125	0xbd2c02e8	-0.04199496
126	0x3b58d7c5	0.0033087593
127	0x3b5a79da	0.003333679
128	0x3b5a7e4c	0.003333944
129	0x3b5eb403	0.0033981807
130	0x3b61b6d6	0.0034441254
131	0x3b6240d3	0.0034523502
132	0x3b614ecd	0.0034379244
133	0x3b61992b	0.003442357
134	0x3b65b33e	0.0035049464
135	0x3c1c7f03	0.009551766
136	0x3b5f3629	0.0034059382
137	0x3c22b00e	0.00992967
138	0x3c4dbdd8	0.012557469
139	0x3c284f61	0.010272832
140	0x3c789b6e	0.015173776
141	0x3cc6deef	0.024276225
142	0x3ca9bae2	0.020718995
143	0x3cb74843	0.022373324
144	0xbcb6c780	-0.022311926
145	0xbc95de2c	-0.018294416
146	0xbc9b7ad2	-0.018979464
147	0xbce4a760	-0.027911842
148	0xbcb240b8	-0.021759376
149	0xbcc21ba8	-0.023694828
150	0xbcae7872	-0.021297667
151	0xbc83116e	-0.015999522
152	0xbcbb1fdf	-0.022842346
153	0x3d49cca4	0.049267426
154	0x3d0687a6	0.03284421
155	0x3d05c6f0	0.032660425
156	0x3cf02325	0.029313633
157	0x3c104cdb	0.008807386
158	0x3bc70ba4	0.0060743857
159	0x3d00e2a6	0.03146615
160	0x3c66a06e	0.014076335
161	0x3c8e4d0c	0.017370723
162	0x3c2a9efd	0.010413882
163	0xbb3de518	-0.0028975662
164	0x3b50c5ba	0.0031856135
165	0x3c0d0e9f	0.008609443
166	0xbc0019e2	-0.007818671
167	0xbb60322f	-0.00342096
168	0x3b3e768a	0.0029062354
169	0xbc1ee5ac	-0.009698313
170	0xbb5b61e9	-0.0033475107
171	0xbbc58b38	-0.006028559
172	0xbbccb51c	-0.006247176
173	0xbbd362ca	-0.0064509856
174	0xbbcc46b1	-0.006234013
175	0xbbe28230	-0.006912492
176	0xbbebc1bb	-0.0071947253
177	0xbbd03b7f	-0.0063547487
178	0xbbedee47	-0.007261071
179	0xbbe95459	-0.0071206507
180	0x3c0fce2d	0.0087771835
181	0xbc42ce1e	-0.0118899625
182	0xbb404b83	-0.0029341883
183	0xb9f14d3f	-0.00046024655
184	0xbc9362a1	-0.017991366
185	0xbbf3bf7f	-0.0074385996
186	0x3c5ebc4e	0.0135947
187	0xba3e30e7	-0.0007255212
188	0x3c0ad8d6	0.008474549
189	0x3b2df375	0.0026542817
190	0x3b31b049	0.002711313
191	0x3b286d40	0.0025699884
192	0x3b35c203	0.0027734048
193	0x3b3c9839	0.0028777255
194	0x3b3558f9	0.002767144
195	0x3b36729e	0.0027839313
196	0x3b41a208	0.002954604
197	0x3b34ad9b	0.0027569297
198	0x3b0bee59	0.0021351783
199	0x3b0e4b7c	0.0021712473
200	0x3aec9de2	0.0018052424
201	0x3b148e81	0.0022667947
202	0x3b17ba1b	0.00231517
203	0x3aee487f	0.0018179565
204	0x3b006b6d	0.001959528
205	0x3b08a6ff	0.002085149
206	0x3ae19a1f	0.0017212069
207	0xbc4557bd	-0.012044844
208	0xbc51d570	-0.012807235
209	0xbb71bb0c	-0.003688517
210	0xbc0a3d60	-0.0084374845
211	0xbc12426c	-0.008926969
212	0x3b3cbbc6	0.0028798445
213	0xbc0aba5b	-0.008467282
214	0xbc7bf48a	-0.015378127
215	0xbb767116	-0.0037604026
216	0x3c3c953c	0.01151019
217	0xbcdbbf1f	-0.026824532
218	0xbce2c96c	-0.027683936
219	0xbc0ed3b7	-0.008717469
220	0xbd506c06	-0.05088427
221	0xbd4874d3	-0.048939537
222	0xbbcf6130	-0.0063287243
223	0xbd2db621	-0.04241002
224	0xbcef9839	-0.02924739
225	0x3b4ae983	0.0030961938
226	0x3b46369b	0.003024495
227	0x3b4fd1b9	0.0031710698
228	0x3b470211	0.0030366222
229	0x3b4549f5	0.0030103896
230	0x3b4dcace	0.0031401399
231	0x3b4d02be	0.0031282152
232	0x3b47deca	0.0030497783
233	0x3b4b9bb5	0.003106815
234	0xbd90ab74	-0.07063952
235	0xbd8e9965	-0.069628514
236	0xbd834435	-0.06409494
237	0xbd8457fd	-0.06462095
238	0xbd8c8349	-0.06860978
239	0xbd7f2538	-0.062291354
240	0xbd776f2a	-0.06040875
241	0xbd8e68ad	-0.06953559
242	0xbd7b1095	-0.06129511
243	0x3b10fa7e	0.0022121961
244	0xbc26b730	-0.010175511
245	0x3b9cd9f8	0.004786726
246	0x3b7620d0	0.003755618
247	0xbc4601e5	-0.012085413
248	0x3aa45e25	0.0012540264
249	0x3ba83e64	0.0051343907
250	0xbc374282	-0.01118529
251	0x3ae9c840	0.0017836168
252	0xb8d14e6d	-9.9805045e-05
253	0xbc8fced2	-0.017554674
254	0xbc5b4173	-0.0133823035
255	0x3ba258e9	0.0049544466

2.bn2.weight f4 [64]
0	0x3e553582	0.20821193
1	0x401eef2d	2.4833481
2	0x3c5019fb	0.012701507
3	0x3ce3fb91	0.027829917
4	0x3de0bb5d	0.10973237
5	0x3ebb2afe	0.36556238
6	0x3cb9dc8d	0.022688175
7	0x3f856a79	1.0423118
8	0x3e71b340	0.23603535
9	0x3f06bf9f	0.5263614
10	0x3daf1109	0.08548171
11	0x3fa0dbbf	1.2567061
12	0x3e46d1e1	0.19416
13	0x3ebf4e0b	0.3736423
14	0x3f7e9688	0.9944844
15	0x3e6c5d0d	0.23082371
16	0x3da81db3	0.0820879
17	0x3fbd09fc	1.4768672
18	0x3ddee360	0.10883212
19	0x3d48b138	0.048997134
20	0xbdaef54c	-0.085428804
21	0x3f8140d8	1.0097914
22	0x3e1127cd	0.14175339
23	0x3d8d340e	0.06894694
24	0x3f9aed80	1.2103729
25	0x3e9655e0	0.29362392
26	0xbd62cd5c	-0.055371627
27	0x3e77a8c2	0.2418547
28	0x3d1bf63e	0.03807663
29	0x3e6e559e	0.23274848
30	0x3e0f10d3	0.13971262
31	0x3fb4fcb8	1.4139624
32	0x3c39bec2	0.011336984
33	0x3fdda6cb	1.7316526
34	0xbe98f3d2	-0.2987352
35	0x3da898ab	0.08232244
36	0x3fbd189d	1.4773136
37	0x3e43cf49	0.19122042
38	0xbcdbc4e4	-0.026827283
39	0xbb8518f6	-0.0040618135
40	0x3ea1bb03	0.3158799
41	0x3fb5c827	1.4201707
42	0x3e0024c8	0.12514031
43	0x3d00a2f4	0.031405404
44	0x3e67c0c6	0.22632131
45	0x3fa63caf	1.2987269
46	0x3ef04007	0.4692385
47	0x3e64048e	0.22267362
48	0x3eeabe9b	0.45848545
49	0x3f9b85e1	1.2150232
50	0x3e5eea6d	0.21769114
51	0xbdbdc83c	-0.09266707
52	0x3fbc7e29	1.4726001
53	0x3e4d8154	0.20068866
54	0x3e307b71	0.17234589
55	0x3e367577	0.17818247
56	0x3df8451d	0.12122557
57	0x3ebf7a91	0.37398198
58	0x3f8f445f	1.119274
59	0x3d5e8355	0.054324467
60	0xbb64541d	-0.0034840174
61	0x3fba6e8d	1.4564987
62	0x399ff8d9	0.0003051225
63	0x3df192bf	0.11795568
