expert_target_aware/mocosflV2_ResNet18_cifar10_cut3_bnlC4S2_expert_batchsize128_ressfl_2.0_SSIM0.6_data_proportion_0.005_aux_cifar100/checkpoint_c_best.tar (torch, 613554 bytes, 17 tensors)

0.conv1.weight f4 [64, 3, 3, 3]
-0.079822786 -0.09484354 -0.063128084 -0.009192663 -0.022510838 0.008767784 0.07118233 0.06227317
0.09975324 -0.0477219 -0.063202605 -0.04276549 0.06303356 0.040624402 0.056900248 0.0875659
0.07123723 0.101138026 -0.1417908 -0.13172762 -0.08163228 -0.011334027 -0.0010106007 0.043552518
0.0024085534 0.013730288 0.06851001 0.22762293 0.1052161 -0.042642944 0.12250424 0.051583283
-0.09543806 0.0052518775 -0.07269893 -0.30772197 0.25190976 0.12613006 0.011743617 0.1381015
0.04840798 -0.07791247 -0.035848077 -0.12681505 -0.3264315 0.18511003 0.10577748 0.04522463
0.06352399 0.007685686 -0.052442465 -0.032991227 -0.097287126 -0.22757135 -0.042996358 0.09099532
0.108911745 -0.09799372 0.021526743 0.07117168 -0.03720037 0.02342804 0.06937353 -0.0694576
0.052307125 0.05484072 -0.15720311 -0.050638046 -0.019110985 -0.054368977 -0.003703513 0.02333203
0.0114485 0.09936592 0.111285985 -0.1322538 -0.052574437 -0.009949416 -0.0423968 -0.005205275
0.037063114 -0.061205108 0.016484678 0.10818454 -0.18138805 -0.040197805 0.061711404 -0.1100745
-0.045844514 0.056538727 -0.037587952 -0.07584922 -0.072515406 -0.000121192104 0.022688279 0.022617493
0.049894698 0.015207831 0.025048552 0.022970896 -0.034245905 -0.10373559 0.109754175 0.1072988
0.04420002 0.086600065 0.027541526 -0.013977871 -0.0021129332 -0.24474296 -0.21225777 -0.0074330284
-0.0037892614 0.045582365 0.08846699 0.22803816 0.16977859 0.15937167 -0.051344294 -0.04103709
-0.053702317 -0.04944941 0.017323257 -0.1147692 0.019808542 0.05981094 0.2594265 0.0929076
0.052594658 -0.007319779 -0.021740928 0.07442775 -0.2722338 -0.1785438 -0.0070696925 0.30458692
0.079332255 -7.9679965e-05 -0.06098585 -0.19319631 -0.00211828 -0.12340419 -0.12315145 0.12989776
0.19291264 -0.033793826 -0.067174345 -0.012289659 -0.12585133 0.052889053 -0.092095844 -0.053845197
0.09762383 -0.008939094 -0.19315135 -0.1622538 0.014437253 -0.054333083 0.04386201 0.079815716
0.1484679 0.16285172 -0.112106405 -0.06774717 0.24532115 0.03268709 -0.07828685 -0.07151241
0.18170606 0.05028004 -0.15999493 -0.17203073 -0.09890197 0.22384822 0.05451187 -0.051355794
-0.031572904 0.17394924 0.049902376 -0.15753464 -0.097303666 -0.060300782 0.2169232 0.032408636
-0.073867016 -0.043885298 0.14585696 0.015638804 -0.14662597 0.13900258 0.025038185 -0.118058056
0.012062594 -0.028965553 -0.010230369 -0.15451133 -0.025430877 0.14389922 0.1295974 0.0016188382
-0.15286858 0.010149935 -0.021976933 -0.00036553558 -0.17320815 -0.0037356834 0.18440908 0.1372142
0.022080813 -0.11202034 0.039352063 -0.02007196 -0.014665048 -0.1296891 -0.0145011395 0.13588075
-0.15266341 -0.14503136 -0.11996932 -0.023758333 0.05638914 0.0230893 0.035157487 0.06969759
0.055701297 0.07353412 0.07906379 0.06914068 0.014139851 0.08444946 0.036629252 -0.026479758
0.010630632 0.0027508475 0.1726774 -0.001729323 0.11885445 -0.046579037 -0.17723112 -0.06940799
0.020707248 -0.13868673 -0.021054847 -0.014247619 -0.003189113 0.084846616 -0.17654607 -0.12109874
-0.10815457 -0.09241888 -0.08082112 -0.03458446 -0.013419171 -0.001739395 0.03717971 -0.04072079
00000000: 217a a3bd 543d c2bd 4c49 81bd d39c 16bc
00000010: a668 b8bc c0a6 0f3c 0bc8 913d 2712 7f3d
00000020: 6d4b cc3d 0a78 43bd 5e70 81bd de2a 2fbd
00000030: bd17 813d c665 263d 3c10 693d c055 b33d
00000040: d3e4 913d 7421 cf3d 9c31 11be 9be3 06be
00000050: d32e a7bd 5bb2 39bc 2276 84ba 2064 323d
00000060: d2d8 1d3b 00f5 603c fa4e 8c3d fc15 693e
00000070: 8a7b d73d 5eaa 2ebd 81e3 fa3d fe48 533d
00000080: 0875 c3bd f117 ac3b 2de3 94bd bc8d 9dbe
00000090: 51fa 803e 3d28 013e 4d68 403c 7b6a 0d3e
000000a0: 7247 463d 9390 9fbd 6fd5 12bd cedb 01be
000000b0: 0822 a7be 7c8d 3d3e dda1 d83d 763d 393d
000000c0: de18 823d 35d8 fb3b e9cd 56bd cf21 07bd
000000d0: 793e c7bd 7708 69be f31c 30bd c15b ba3d
000000e0: 1f0d df3d eeb0 c8bd da58 b03c 75c2 913d
000000f0: 6a5f 18bd 29ec bf3c b613 8e3d c93f 8ebd
00000100: ff3f 563d aaa0 603d daf9 20be d769 4fbd
00000110: a48e 9cbc 01b2 5ebd a3b6 72bb d022 bf3c
00000120: 7d92 3b3c 5c80 cb3d e8e9 e33d 8a6d 07be
00000130: 4b58 57bd e002 23bc 44a8 2dbd 0391 aabb
00000140: 7ecf 173d 35b2 7abd e00a 873c db8f dd3d
00000150: cabd 39be 74a6 24bd 19c5 7c3d bd6e e1bd
00000160: 75c7 3bbd 2795 673d d3f5 19bd d656 9bbd
00000170: f582 94bd 8428 feb8 c5dc b93c 5248 b93c
00000180: 625e 4c3d 442a 793c 9f32 cd3c 762d bc3c
00000190: 6f45 0cbd 5373 d4bd ccc6 e03d 79bf db3d
000001a0: 150b 353d 605b b13d c49e e13c 7103 65bc
000001b0: 2379 0abb e69d 7abe 1a5a 59be c390 f3bb
000001c0: 4255 78bb 93b4 3a3d 2e2e b53d d682 693e
000001d0: 70da 2d3e 5432 233e 654e 52bd 8216 28bd
000001e0: f6f6 5bbd 778b 4abd 81e9 8d3c 1d0c ebbd
000001f0: 8645 a23c 51fc 743d 8dd3 843e 5746 be3d
00000200: 7f6d 573d c2da efbb 081a b2bc 946d 983d
00000210: 3b62 8bbe 30d4 36be e1a8 e7bb d1f2 9b3e
00000220: f378 a23d db19 a7b8 4ccc 79bd 41d5 45be
00000230: d7d2 0abb 56bb fcbd d436 fcbd eb03 053e
00000240: e48a 453e 656b 0abd b492 89bd 915a 49bc
00000250: 2cdf 00be 31a2 583d bf9c bcbd c88c 5cbd
00000260: 01ef c73d 4775 12bc 78c9 45be dc25 26be
00000270: 3a8a 6c3c 5e8c 5ebd a7a8 333d 6c76 a33d
00000280: f807 183e 9ac2 263e 0b98 e5bd 07bf 8abd
00000290: 7835 7b3e e6e2 053d db54 a0bd 1975 92bd
000002a0: 2711 3a3e 71f2 4d3d b6d5 23be d328 30be
000002b0: 1e8d cabd 7838 653e d747 5f3d 745a 52bd
000002c0: 9752 01bd c01f 323e 6f66 4c3d c350 21be
000002d0: 2547 c7bd f4fd 76bd 1e21 5e3e ebbe 043d
000002e0: 9747 97bd 12c1 33bd 875b 153e f31c 803c
000002f0: 1e25 16be b156 0e3e e11c cd3c 6cc8 f1bd
00000300: 30a2 453c 2b49 edbc 479d 27bc 3838 1ebe
00000310: 6a54 d0bc 515a 133e 2eb5 043e 322f d43a
00000320: 9589 1cbe ea4b 263c f808 b4bc 5ba5 bfb9
00000330: 7a5d 31be 5ed2 74bb bcd5 3c3e e181 0c3e
00000340: d2e2 b43c ec6a e5bd a12f 213d f36d a4bc
00000350: ab45 70bc 38cd 04be 3096 6dbc 5324 0b3e
00000360: cc53 1cbe 1a83 14be 7ab2 f5bd d6a0 c2bc
00000370: 4df8 663d c625 bd3c 4c01 103d 9cbd 8e3d
00000380: 0b27 643d 0f99 963d 32ec a13d a199 8d3d
00000390: d5aa 673c d7f3 ac3d 8e08 163d 14ec d8bc
000003a0: 1a2c 2e3c 9047 343b 58d2 303e 73aa e2ba
000003b0: f669 f33d a9c9 3ebd 137c 35be c725 8ebd
000003c0: 3fa2 a93c e503 0ebe 377b acbc d86e 69bc
000003d0: 7000 51bb 10c4 ad3d 7ec8 34be 9e02 f8bd
000003e0: 2580 ddbd 1c46 bdbd 8b85 a5bd 6fa8 0dbd
000003f0: 15dc 5bbc 69fc e3ba c049 183d d8ca 26bd

0.bn1.weight f4 [64]
0.006866913 0.5574095 0.06489927 -0.027702868 0.25089547 0.2655375 0.370748 0.22201958
0.33659184 0.18472236 -0.00036812745 0.30480477 -0.12566505 -0.014102053 0.037954155 0.53214514
0.105243154 0.18428825 0.5093312 0.044793252 0.46614555 0.27879885 0.12361581 0.16508172
0.2651591 0.048266765 0.33995193 0.075782314 0.37332758 0.36687046 0.23939832 2.0891706e-05
0.13531135 0.096937686 0.37373367 0.10253714 0.22441168 0.17516014 0.46744847 0.18706039
0.41944468 0.3019218 0.08063315 0.38303885 0.14033955 0.12364899 0.5497853 0.38507417
0.20595966 0.23654777 0.46099448 0.15406442 0.30513784 0.35480893 -0.00964665 0.23027405
0.54404694 0.05910274 -0.061941173 0.4786025 -0.0674181 0.25598902 0.102253795 -0.111172676
00000000: d703 e13b 64b2 0e3f e9e9 843d 20f1 e2bc
00000010: 5f75 803e 88f4 873e afd2 bd3e 1a59 633e
00000020: c455 ac3e dc27 3d3e 3b01 c1b9 5f0f 9c3e
00000030: 57ae 00be 4c0c 67bc d175 1b3d aa3a 083f
00000040: b989 d73d 0fb6 3c3e 8863 023f 2179 373d
00000050: a1aa ee3e b9be 8e3e 492a fd3d 2f0b 293e
00000060: efc2 873e 5fb3 453d 2e0e ae3e c233 9b3d
00000070: cb24 bf3e 72d6 bb3e d524 753e 9940 af37
00000080: 0f8f 0a3e 4487 c63d 055a bf3e fefe d13d
00000090: 2dcc 653e 2e5d 333e 6855 ef3e c28c 3f3e
000000a0: 74c1 d63e 7f95 9a3e fe22 a53d ab1d c43e
000000b0: 2cb5 0f3e af3b fd3d bbbe 0c3f 7128 c53e
000000c0: 17e7 523e 9439 723e 7807 ec3e 10c3 1d3e
000000d0: 073b 9c3e 84a9 b53e fc0c 1ebc f6cc 6b3e
000000e0: a946 0b3f b715 723d 07b6 7dbd 630b f53e
000000f0: 8012 8abd fe10 833e 706a d13d 80ae e3bd

0.bn1.bias f4 [64]
0.22075827 0.0016388721 0.22235933 0.60027033 0.27670962 0.25230727 0.23092294 0.2712355
0.08491429 0.116285235 0.26384535 0.1926162 0.27529636 0.343757 0.2132629 0.011655382
0.26216 0.21363732 0.01279731 0.2658243 0.0053090737 0.20364699 0.27284372 0.23397565
0.18110916 0.22352692 0.01065692 0.2901638 0.11905308 0.018890709 0.2789691 -0.0004005376
0.17072634 0.2648441 -0.16662134 0.25540105 0.20010577 0.20841311 -0.07924726 0.20988435
0.16967463 0.16506512 0.34447783 -0.12816028 0.18713991 0.20393328 0.17523433 0.18338738
0.30490145 0.2438897 -0.015400495 0.35469046 0.071126066 0.060990833 0.21700254 0.27603716
0.06349455 0.22508125 0.28309342 0.11927169 0.23341501 0.23868494 0.3011208 0.24800813
00000000: 750e 623e 6ccf d63a 2ab2 633e 51ab 193f
00000010: e2ac 8d3e 6b2e 813e 1077 6c3e 61df 8a3e
00000020: 8be7 ad3d f426 ee3d bd16 873e 2e3d 453e
00000030: a5f3 8c3e eb00 b03e 9761 5a3e 37f6 3e3c
00000040: d639 863e bec3 5a3e cfab 513c 1f1a 883e
00000050: bdf7 ad3b d688 503e 2cb2 8b3e 5097 6f3e
00000060: ae74 393e 3ee4 643e 5d9a 2e3c 5990 943e
00000070: 1ad2 f33d b0c0 9a3c 0ad5 8e3e 3fff d1b9
00000080: e3d2 2e3e a599 873e c99e 2abe edc3 823e
00000090: 87e8 4c3e 3f6a 553e 634c a2bd eceb 563e
000000a0: 30bf 2d3e d506 293e 665f b03e 733c 03be
000000b0: 9ba1 3f3e e3d3 503e a170 333e e7c9 3b3e
000000c0: 0b1c 9c3e 39be 793e 5c52 7cbc fd99 b53e
000000d0: 8baa 913d 86d1 793d ea35 5e3e be54 8d3e
000000e0: 6e09 823d b37b 663e 9ff1 903e b744 f43d
000000f0: 5804 6f3e d369 743e 812c 9a3e d8f5 7d3e

1.conv1.weight f4 [64, 64, 3, 3]
0.00111208 0.002609763 0.003021586 0.00017810865 0.0017723765 0.002162155 0.0054526944 0.007302554
0.007404506 -0.020854978 -0.026332399 -0.031511024 -0.03326079 -0.03594847 -0.03711304 -0.050503056
-0.049640834 -0.048482638 -0.0052524437 -0.0029937613 0.0003205999 -0.004836818 -0.0041132686 -0.0019025877
0.0009421621 0.0006537842 0.0012622237 -0.012574041 -0.00908735 -0.008069265 -0.017399656 -0.0139471395
-0.013260363 -0.0034333137 0.00039465443 6.9997455e-05 0.013240539 0.007886713 -0.0014004743 0.0053701373
-0.0037759135 -0.014662572 0.012981022 0.005894173 -0.0036985776 0.039267465 0.030921567 0.01728844
0.038358796 0.022810692 0.0052432944 0.017976202 0.000936351 -0.014771014 0.013665473 0.038489606
0.04671545 -0.04542679 -0.018073713 0.0012108359 -0.051811706 -0.032646827 -0.015450739 0.019673662
0.005928066 -0.01030419 0.018382067 -0.0006065386 -0.021995107 0.0129079 0.0001256761 -0.016028315
0.024412738 0.026728826 0.021529136 0.00025665242 -0.00034801924 -0.004839834 -0.0076265717 -0.009809489
-0.013305839 -0.010824512 -0.009424614 -0.007693614 -0.014055151 -0.0135620525 -0.011634664 -0.014923511
-0.01492531 -0.0135065615 -0.0025754229 -0.0009348657 -0.00045015523 -0.005299763 -0.0036412773 -0.003168024
0.0013491581 0.0033179517 0.003423653 -0.066468015 -0.06310117 -0.0521762 -0.031208985 -0.025896136
-0.017913552 0.025261423 0.032838937 0.03688284 -0.008530128 -0.008135055 -0.0090562 -0.00847002
-0.007065738 -0.007243695 -0.0035637962 -0.00086788886 -0.0005493575 -0.0017317171 -0.00029101252 -0.00043310435
-0.0051027867 -0.0032066999 -0.0029214604 0.0012978918 0.0038932252 0.0042416477 0.007188846 0.008854766
0.009170982 0.0029970761 0.004462647 0.0046534217 0.008732167 0.010096405 0.009817697 0.026364861
0.0137230735 -0.0045918487 -0.002453457 -0.0069945105 -0.018177161 -0.022327598 -0.01920495 -0.022698447
-0.007931414 -0.007253112 -0.0071570366 -0.009589111 -0.008741217 -0.007861055 -0.009389675 -0.0076047448
-0.006222923 -0.010088436 -0.0060227974 -0.0021214674 0.0007510864 0.005487769 0.008549966 0.02555863
0.030228037 0.03150537 0.07481764 0.07934668 0.06448725 0.016604232 0.02208556 0.009256497
0.024898678 0.02901411 0.018495748 -0.0010663894 0.00012100352 -0.00024937556 -0.003954927 -0.0023358602
-0.00237461 0.0023660327 0.0046292124 0.0047206604 -0.0063041192 -0.02021322 -0.017824166 -0.0055958144
-0.030253137 -0.034649283 -0.016463744 -0.04500166 -0.054839566 -0.00708821 -0.0062017837 -0.007118282
-0.0077709695 -0.0049637835 -0.0044861357 0.00037000136 0.004388591 0.0054545193 0.028778046 0.038959347
0.046326257 0.01380254 0.02048542 0.023807827 0.026139045 0.026811996 0.025338707 0.013679857
0.014057683 0.009115098 0.0062797703 0.009703379 0.007142262 0.008260207 0.014301998 0.014443942
0.017541323 0.015033869 0.010404894 0.023263384 0.020266976 0.014591985 0.006670859 0.00361189
-0.0019250578 0.005813677 0.0077190828 0.008704577 0.0028617564 0.0043104757 0.004754927 0.008487553
0.009686203 0.009424308 -0.02001147 -0.017741611 -0.020375902 -0.0057265735 -0.0030798356 -0.004774414
0.012577646 0.017084435 0.017956527 -0.0042435285 -0.002628657 -0.002010371 -0.004443739 -0.0029180208
-0.002516954 0.0005515646 0.0021967555 0.0021362626 0.044715967 0.049032193 0.042267818 0.015937675
00000000: 36c3 913a 8f08 2b3b cd05 463b adc2 3a39
00000010: 164f e83a f1b2 0d3b 84ac b23b 434a ef3b
00000020: 80a1 f23b 0fd8 aabc 0bb7 d7bc b411 01bd
00000030: 773c 08bd b43e 13bd d803 18bd 4bdc 4ebd
00000040: 3054 4bbd bb95 46bd b11c acbb fb32 44bb
00000050: 3116 a839 2c7e 9ebb 99c8 86bb 4060 f9ba
00000060: 6efb 763a b762 2b3a 3371 a53a 5a03 4ebc
00000070: 1ce3 14bc f334 04bc b989 8ebc 8b82 64bc
00000080: fe41 59bc 7201 61bb 9fe9 ce39 99cb 9238
00000090: d8ee 583c 4637 013c 1f90 b7ba faf7 af3b
000000a0: 5175 77bb 493b 70bc 5aae 543c e823 c13b
000000b0: d663 72bb ecd6 203d 3a4f fd3c 7da0 8d3c
000000c0: 1d1e 1d3d 7ddd ba3c f1cf ab3b d442 933c
000000d0: 7475 753a 2002 72bc 26e5 5f3c 47a7 1d3d
000000e0: b358 3f3d 7111 3abd 530f 94bc e9b4 9e3a
000000f0: 8338 54bd aeb8 05bd 1925 7dbc a92a a13c
00000100: 3940 c23b e8d2 28bc fd95 963c 1e00 1fba
00000110: 152f b4bc a87b 533c ecc7 0339 d04d 83bc
00000120: 39fd c73c 69f6 da3c df5d b03c 4e8f 8639
00000130: 5a76 b6b9 7897 9ebb 52e8 f9bb fbb7 20bc
00000140: bc00 5abc 4b59 31bc b269 1abc b61a fcbb
00000150: 9347 66bc 5f33 5ebc 519f 3ebc be81 74bc
00000160: 4a89 74bc a04a 5dbc 6dc8 28bb c611 75ba
00000170: d002 ecb9 a2a9 adbb 7fa2 6ebb 9f9e 4fbb
00000180: 3cd6 b03a fe71 593b 5e5f 603b 6220 88bd
00000190: 303b 81bd b6b6 55bd fca9 ffbc 2224 d4bc
000001a0: 71bf 92bc 0bf1 ce3c 1f82 063d 7612 173d
000001b0: f3c1 0bbc e548 05bc 7560 14bc d7c5 0abc
000001c0: b587 e7bb 855c edbb 948e 69bb 0983 63ba
000001d0: c202 10ba c9fa e2ba 0a93 98b9 4812 e3b9
000001e0: 4735 a7bb 7f27 52bb f975 3fbb 061e aa3a
000001f0: 7b25 7f3b 85fd 8a3b 6990 eb3b 9513 113c
00000200: e341 163c 986a 443b 653b 923b bb7b 983b
00000210: 5d11 0f3c 646b 253c 68da 203c 1ffb d73c
00000220: bed6 603c 3877 96bb 2eca 20bb 3532 e5bb
00000230: 45e8 94bc 5ee8 b6bc b353 9dbc 18f2 b9bc
00000240: c3f2 01bc 83ab edbb 9385 eabb a61b 1dbc
00000250: 5237 0fbc a8cb 00bc 27d7 19bc 3931 f9bb
00000260: a9e9 cbbb f849 25bc e35a c5bb 5108 0bbb
00000270: 8ee4 443a bed2 b33b 2815 0c3c 5560 d13c
00000280: caa0 f73c c60b 013d fe39 993d 8380 a23d
00000290: e411 843d 9905 883c c7ec b43c 90a8 173c
000002a0: 50f8 cb3c 00af ed3c 6584 973c 17c6 8bba
000002b0: 45c3 fd38 9fbe 82b9 5598 81bb 3b15 19bb
000002c0: 589f 1bbb 710f 1b3b a6b0 973b c5af 9a3b
000002d0: c992 cebb 3296 a5bc fc03 92bc 185d b7bb
000002e0: 6dd5 f7bc 68ec 0dbd f9de 86bc a953 38bd
000002f0: 749f 60bd 3744 e8bb 5538 cbbb 7a40 e9bb
00000300: 9ea3 febb 3ca7 a2bb 6f00 93bb befc c139
00000310: 2bce 8f3b d3bb b23b f0bf eb3c d693 1f3d
00000320: 9ac0 3d3d 0c24 623c 0ad1 a73c a208 c33c
00000330: 8d21 d63c d5a4 db3c 1f93 cf3c 7b21 603c
00000340: 3252 663c 7e57 153c 88c6 cd3b ecfa 1e3c
00000350: a309 ea3b d255 073c ed52 6a3c 49a6 6c3c
00000360: d2b2 8f3c 9e50 763c 4a79 2a3c da92 be3c
00000370: ee06 a63c 3913 6f3c 3997 da3b 75b5 6c3b
00000380: 3952 fcba a880 be3b 5cf0 fc3b a49d 0e3c
00000390: 4e8c 3b3b e43e 8d3b 38cf 9b3b 610f 0b3c
000003a0: e1b2 1e3c 6a68 1a3c 18ef a3bc db56 91bc
000003b0: 5deb a6bc fba5 bbbb 11d7 49bb b072 9cbb
000003c0: 7912 4e3c a8f4 8b3c 9119 933c 4c0d 8bbb
000003d0: 8c45 2cbb 6ec0 03bb c99c 91bb 443c 3fbb
000003e0: 7bf3 24bb e096 103a 71f7 0f3b 8a00 0c3b
000003f0: 1728 373d fbd5 483d 0521 2d3d ba8f 823c

1.bn1.weight f4 [64]
1.2960299e-05 0.38043085 0.3461113 -0.0003156512 0.47146374 0.1470321 0.00011327333 0.34120134
-0.000107306434 0.35219866 1.8374476e-06 0.0025474983 0.17388923 0.9151865 0.56008667 0.00046651842
0.15522853 0.2730163 0.3089534 0.3531779 0.21346655 0.22262882 0.5122336 -9.738146e-07
0.2994221 0.09966765 0.3181485 0.29394352 0.10831613 0.0024165448 0.23131806 0.19969587
0.28130773 0.65256476 0.49852788 0.61847484 0.39410406 0.14335574 0.33576024 -0.00046016875
0.17336349 0.72594786 0.2421565 3.1655894e-05 0.07218247 2.06791e-05 0.4613994 0.17681468
-0.016364278 0.17157902 0.018096507 -0.0006228034 0.23556745 2.3287e-06 -1.1483085e-05 0.00054678187
9.510732e-07 0.2524881 0.25657013 8.7617176e-05 -4.8897423e-06 0.28027672 0.4979287 -1.6468439e-05
00000000: 0f70 5937 d5c7 c23e 8035 b13e fd7d a5b9
00000010: b263 f13e 958f 163e 288d ed38 f1b1 ae3e
00000020: b409 e1b8 6253 b43e 389e f635 eef3 263b
00000030: 0510 323e aa49 6a3f d761 0f3f 0b97 f439
00000040: 3af4 1e3e cbc8 8b3e 242f 9e3e bcd3 b43e
00000050: fa96 5a3e cff8 633e be21 033f 04b4 82b5
00000060: da4d 993e 8e1e cc3d 5ce4 a23e c47f 963e
00000070: d9d4 dd3d e55e 1e3b a4de 6c3e 137d 4c3e
00000080: 9107 903e 7c0e 273f 0c3f ff3e 5e54 1e3f
00000090: 02c8 c93e d9cb 123e c4e8 ab3e ce42 f1b9
000000a0: 3386 313e b8d7 393f e0f7 773e 42c6 0438
000000b0: 67d4 933d 0778 ad37 8b3c ec3e e80e 353e
000000c0: 610e 86bc 69b2 2f3e 203f 943c a143 23ba
000000d0: 9838 713e c346 1c36 79a7 40b7 e955 0f3a
000000e0: 414d 7f35 1f46 813e 295d 833e 1dbf b738
000000f0: 9112 a4b6 6e80 8f3e 83f0 fe3e b425 8ab7

1.bn1.bias f4 [64]
-0.0002961353 0.11494309 -0.044423744 -0.0042765164 -0.14238201 0.35023892 -0.0014995529 0.023904316
-0.0019290792 -0.118961744 -6.841176e-05 -0.021721493 -0.061968006 -0.0025865436 0.21962906 0.10023176
0.17216624 -0.09101843 -0.044964757 -0.13143569 -0.04774529 -0.054047648 -0.47221658 -8.983417e-05
-0.060992517 0.23923841 -0.05554736 0.08611677 0.06776998 -0.010861994 0.020800617 0.0067574144
-0.10524882 -0.096292555 0.3217217 -0.31281182 -0.025560834 0.030658469 -0.17925602 -0.0042846985
0.07601734 -0.14680173 -0.03454358 -0.0004565596 0.27870256 -0.00041165386 -0.08779511 0.11641427
-0.026706804 0.048930503 0.09378488 -0.008305744 0.1927398 -3.694237e-05 -0.0001313896 -0.007477576
-1.7860353e-05 0.01232516 -0.085937835 -0.0023357966 -9.129285e-05 -0.09782234 -0.06664304 -0.00051578577
00000000: 9b42 9bb9 4867 eb3d acf5 35bd 0522 8cbb
00000010: 97cc 11be 8452 b33e a58c c4ba fcd2 c33c
00000020: 28d9 fcba 37a2 f3bd 4978 8fb8 46f1 b1bc
00000030: 2ad2 7dbd 0083 29bb 71e6 603e 4f46 cd3d
00000040: 594c 303e df67 babd f72c 38bd 1497 06be
00000050: 9190 43bd 1161 5dbd 5fc6 f1be 5a65 bcb8
00000060: 4ad3 79bd eafa 743e a185 63bd fd5d b03d
00000070: fdca 8a3d 81f6 31bc 0e66 aa3c 4d6d dd3b
00000080: b18c d7bd 0835 c5bd b5b8 a43e df28 a0be
00000090: f464 d1bc 7827 fb3c e48e 37be a866 8cbb
000000a0: fbae 9b3d 3153 16be 927d 0dbd 645e efb9
000000b0: 1ab2 8e3e 3fd3 d7b9 eccd b3bd 9b6a ee3d
000000c0: 3ac8 dabc 5a6b 483d 4a12 c03d d114 08bc
000000d0: 955d 453e 91f2 1ab8 a1c5 09b9 7406 f5bb
000000e0: d1d2 95b7 78ef 493c 2d00 b0bd 2a14 19bb
000000f0: 7a74 bfb8 1457 c8bd 257c 88bd cc35 07ba

1.conv2.weight f4 [64, 64, 3, 3]
-0.0029931285 -0.0029931285 -0.0029931134 -0.0029931255 -0.0029931157 -0.0029930833 -0.0029930829 -0.0029930673
-0.0029930484 -0.0463833 -0.049476903 -0.048646633 -0.04779206 -0.050929017 -0.050044987 -0.046793476
-0.049895406 -0.048998877 0.004693813 0.0043695113 0.0045215003 0.0042170985 0.0038521981 0.004067763
0.0034708444 0.0032114468 0.0035061573 -0.0029925685 -0.0029926423 -0.0029926363 -0.0029927457 -0.002992765
-0.002992765 -0.002992703 -0.0029927257 -0.00299276 -0.0038205849 -0.0067346017 -0.004241823 -0.0064388798
-0.009520108 -0.00686953 -0.0030058087 -0.005950299 -0.0034240352 0.017492624 0.016098458 0.017909678
0.016182113 0.014702182 0.016547447 0.016154613 0.014692486 0.01646047 -0.0029931143 -0.0029931096
-0.0029931134 -0.0029931255 -0.0029931285 -0.0029931208 -0.0029931345 -0.0029931595 -0.0029931345 0.010795817
0.011158349 0.011200259 0.010154982 0.01039924 0.010473966 0.008511997 0.00869805 0.008910201
-0.0029931243 -0.0029930924 -0.0029931036 -0.0029931285 -0.0029930829 -0.0029931096 -0.0029931013 -0.0029930521
-0.0029930673 0.01579093 0.015363105 0.01566811 0.015638277 0.015161533 0.015489231 0.018436361
0.018126745 0.018340591 -0.0029930924 -0.0029930875 -0.0029930829 -0.0029930912 -0.0029930829 -0.0029930824
-0.0029930829 -0.0029930824 -0.0029930787 -0.002995558 -0.0029955243 -0.0029951548 -0.0029959737 -0.002995954
-0.002995527 -0.0029955835 -0.002995558 -0.0029951213 -0.017836627 -0.018027654 -0.017944941 -0.017778419
-0.0179484 -0.017880987 -0.017212836 -0.017347656 -0.017276736 0.15975775 0.16259019 0.16009244
0.15450764 0.1573058 0.15490037 0.1516494 0.15440892 0.15197664 -0.08227181 -0.08403847
-0.082807876 -0.08532947 -0.08718766 -0.08598053 -0.08308284 -0.08487761 -0.08372121 0.0018622266
0.0013899829 0.0018349055 0.0012775298 0.0007691944 0.0012460849 0.0019529171 0.0014742579 0.0019183689
0.014492676 0.013592509 0.013766624 0.013630221 0.012727979 0.012970868 0.014908658 0.014119304
0.014353758 -0.009164706 -0.009618964 -0.009273493 -0.010924898 -0.0113442065 -0.010837268 -0.0064840056
-0.0066831047 -0.006323456 -0.013372964 -0.015103811 -0.014810987 -0.013415828 -0.015062713 -0.014711473
-0.012435685 -0.0140022645 -0.013683135 0.004038026 0.0029043397 0.0019274999 0.003151482 0.002118047
0.0013728767 0.0033111547 0.0024786498 0.0019502204 0.004161969 0.00486585 0.005063565 0.004218713
0.004911275 0.0051047513 0.0036875075 0.0043670996 0.0045358655 -0.0025761027 -0.0017914653 -0.0013293015
-0.002788179 -0.0020449446 -0.0015777721 -0.0032903757 -0.002577342 -0.0021320006 0.004977761 0.0048854654
0.0051477975 0.0018012385 0.0016640231 0.0020222324 -0.0029723495 -0.003021284 -0.0025892705 -0.0029930833
-0.0029930829 -0.0029930912 -0.0029930833 -0.0029930829 -0.0029930833 -0.0029930924 -0.0029931013 -0.0029931013
0.0055510816 0.0064254934 0.008543048 0.0058339424 0.0064780307 0.008360181 0.00628092 0.0067123063
0.008288044 -0.0007407338 -0.0011164513 -0.00035514415 -0.0014670261 -0.0018696934 -0.001062494 -0.0009103659
-0.0012801939 -0.00048509508 -0.0014961632 -0.0017239086 -0.0015920221 -0.0014966663 -0.0017390199 -0.001666545
0.00052580284 0.0002592341 0.00020173051 0.011763397 0.010647753 0.011060075 0.01134763 0.010239021
0.010674421 0.011525915 0.010421543 0.010885751 -0.0048762 -0.004906265 -0.004794848 -0.0050889184
00000000: 5d28 44bb 5d28 44bb 1c28 44bb 5028 44bb
00000010: 2628 44bb 9b27 44bb 9927 44bb 5627 44bb
00000020: 0527 44bb 6afc 3dbd 4ba8 4abd b141 47bd
00000030: 9bc1 43bd f29a 50bd f9fb 4cbd 84aa 3fbd
00000040: 205f 4cbd 0cb3 48bd 8fce 993b 1e2e 8f3b
00000050: 1829 943b 962f 8a3b 2975 7c3b df4a 853b
00000060: 1b77 633b 2377 523b 8fc7 653b f81e 44bb
00000070: 3520 44bb 1b20 44bb f121 44bb 4422 44bb
00000080: 4422 44bb 3a21 44bb 9b21 44bb 2e22 44bb
00000090: c762 7abb efad dcbb fefe 8abb 3dfd d2bb
000000a0: 3afa 1bbc cb19 e1bb 1afd 44bb bafa c2bb
000000b0: c765 60bb b14c 8f3c eae0 833c 51b7 923c
000000c0: 5a90 843c 6ce1 703c 838e 873c ae56 843c
000000d0: c1b8 703c 1cd8 863c 2028 44bb 0c28 44bb
000000e0: 1c28 44bb 5028 44bb 5d28 44bb 3c28 44bb
000000f0: 7728 44bb e228 44bb 7728 44bb f0e0 303c
00000100: 82d1 363c 4b81 373c 1561 263c 9361 2a3c
00000110: ff9a 2b3c e775 0b3c 4482 0e3c 17fc 113c
00000120: 4b28 44bb c227 44bb f227 44bb 5d28 44bb
00000130: 9927 44bb 0c28 44bb e827 44bb 1527 44bb
00000140: 5627 44bb fb5b 813c 88b5 7b3c 695a 803c
00000150: d81b 803c 1468 783c 8bc6 7d3c da07 973c
00000160: 8a7e 943c 023f 963c c227 44bb ad27 44bb
00000170: 9927 44bb bd27 44bb 9927 44bb 9727 44bb
00000180: 9927 44bb 9727 44bb 8727 44bb 2051 44bb
00000190: 8f50 44bb 5c4a 44bb 1958 44bb c457 44bb
000001a0: 9a50 44bb 8d51 44bb 2051 44bb cc49 44bb
000001b0: 1e1e 92bc bbae 93bc 4501 93bc 0ca4 91bc
000001c0: 8608 93bc 267b 92bc ef01 8dbc ac1c 8ebc
000001d0: f187 8dbc 8997 233e 0b7e 263e 46ef 233e
000001e0: 4037 1e3e c614 213e 349e 1e3e fb49 1b3e
000001f0: 5f1d 1e3e c49f 1b3e 1f7e a8bd 5d1c acbd
00000200: 2d97 a9bd 38c1 aebd 728f b2bd 8f16 b0bd
00000210: 5627 aabd 50d4 adbd 0776 abbd f515 f43a
00000220: 1630 b63a 3681 f03a c972 a73a c3a3 493a
00000230: ac53 a33a 06f9 ff3a e33b c13a c771 fb3a
00000240: b072 6d3c 1db3 5e3c 688d 613c 4a51 5f3c
00000250: 0389 503c c383 543c 7243 743c a754 673c
00000260: 062c 6b3c 9027 16bc dc98 1dbc d9ef 17bc
00000270: 58fe 32bc 0ddd 39bc cc8e 31bc c877 d4bb
00000280: f2fd dabb fe34 cfbb 471a 5bbc fa75 77bc
00000290: c8a9 72bc 10ce 5bbc 99c9 76bc 6408 71bc
000002a0: 0bbf 4bbc c169 65bc 3a2f 60bc 6b51 843b
000002b0: bc56 3e3b 2aa4 fc3a 1889 4e3b efce 0a3b
000002c0: 19f2 b33a f5ff 583b d870 223b 8a9e ff3a
000002d0: 2061 883b b571 9f3b 43ec a53b 213d 8a3b
000002e0: c3ee a03b c245 a73b 1caa 713b e319 8f3b
000002f0: 99a1 943b d5d3 28bb 9acf eaba f53b aeba
00000300: e2b9 36bb 7a04 06bb 3fcd ceba 58a3 57bb
00000310: a0e8 28bb 09b9 0bbb 7c1c a33b 4116 a03b
00000320: dbae a83b 8917 ec3a 5a1b da3a 6e87 043b
00000330: c0cb 42bb bc00 46bb c0b0 29bb 9b27 44bb
00000340: 9927 44bb bd27 44bb 9b27 44bb 9927 44bb
00000350: 9b27 44bb c227 44bb e827 44bb e827 44bb
00000360: d9e5 b53b f28c d23b 24f8 0b3c a82a bf3b
00000370: a945 d43b 24f9 083c 2dd0 cd3b e8f2 db3b
00000380: 93ca 073c ce2d 42ba e455 92ba a432 bab9
00000390: 3a49 c0ba 8010 f5ba 6243 8bba 9fa5 6eba
000003a0: 2ecc a7ba 5c54 feb9 e81a c4ba c6f4 e1ba
000003b0: 66ab d0ba ca2b c4ba d3ef e3ba f96f daba
000003c0: 08d6 093a d0e9 8739 9f87 5339 43bb 403c
000003d0: ea73 2e3c 5135 353c 69eb 393c 91c1 273c
000003e0: c4e3 2e3c 31d7 3c3c 1fbf 2a3c 265a 323c
000003f0: 88c8 9fbb bcc4 a0bb 1a1e 9dbb f1c0 a6bb

1.bn2.weight f4 [64]
-0.011014716 -0.019872047 -0.017923223 3.9161067 -0.013198234 0.07723412 0.012139303 1.2221687
0.13940345 0.22660579 -0.8906875 0.054997716 0.24542567 1.5828897 0.13885291 0.22228582
-0.081958406 -0.045029476 0.03786342 0.5977134 0.03257388 -0.0368968 2.2323985 0.05421938
-0.3286675 -0.20656797 0.057143126 0.62346995 0.25426316 1.1715765 0.017790377 0.5318653
0.5834818 0.09085406 0.0351839 -0.03796664 0.18520725 0.22928622 1.0379986 -0.0402961
0.03042984 -0.05355524 1.2741666 0.0065714177 0.4770341 0.04628237 -0.034250975 -0.3232849
-0.049409445 -0.18373397 0.23794773 1.1438608 -0.04442611 0.95584446 -0.052637905 -0.003540628
-0.009811431 0.17231101 0.62804264 -0.07073144 0.16410713 -0.20069401 0.46755558 0.08890677
00000000: 1177 34bc b4ca a2bc b9d3 92bc 7ea1 7a40
00000010: 683d 58bc ec2c 9e3d ede3 463c 0670 9c3f
00000020: c7bf 0e3e 590b 683e 1904 64bf 4945 613d
00000030: de50 7b3e 219c ca3f 752f 0e3e e59e 633e
00000040: cfd9 a7bd d470 38bd ac16 1b3d bf03 193f
00000050: 306c 053d 1921 17bd 9edf 0e40 2415 5e3d
00000060: 1b47 a8be 8e86 53be e90e 6a3d ba9b 1f3f
00000070: c82e 823e 38f6 953f 20bd 913c 5328 083f
00000080: 105f 153f b211 ba3d fe1c 103d e882 1bbd
00000090: f8a6 3d3e 02ca 6a3e 23dd 843f 860d 25bd
000000a0: 0048 f93c bd5c 5bbd e417 a33f 0c55 d73b
000000b0: d03d f43e 9592 3d3d c04a 0cbd 9985 a5be
000000c0: 8f61 4abd c224 3cbe 92a8 733e 086a 923f
000000d0: 27f8 35bd 39b2 743f d89a 57bd e109 68bb
000000e0: 20c0 20bc 4c72 303e 67c7 203f a5db 90bd
000000f0: b30b 283e bb82 4dbe 7263 ef3e c114 b63d

1.bn2.bias f4 [64]
0.08887684 0.043279167 0.12828554 3.1347125 0.089984976 0.085127234 0.068601176 0.6882678
0.0898669 0.14205906 0.6039351 0.084046565 0.25727782 0.6435222 0.10215049 0.14164495
0.10711666 0.09454306 0.04657776 0.37767148 0.026725827 0.139662 1.9071528 0.10138539
0.11445559 0.10207987 0.09901107 0.48207834 0.07641032 0.5467065 0.23553137 0.3779805
0.27064443 0.10451341 0.088670336 0.06988195 0.17084128 0.12026079 0.47622684 0.09328406
0.08623355 0.078038946 0.74255 0.09639092 0.3504593 0.1121335 0.07263521 0.1133763
0.08605762 0.06362856 0.17927913 0.5906446 0.09532901 -0.20533328 0.10053405 0.24021304
-0.09790498 0.113453425 0.4020333 0.094628714 0.26647 0.08928307 0.41023934 0.17334107
00000000: 1005 b63d 7f45 313d 495d 033e 219f 4840
00000010: 0b4a b83d 3057 ae3d c67e 8c3d 5232 303f
00000020: 230c b83d ee77 113e 7e9b 1a3f 9b20 ac3d
00000030: ebb9 833e dfbd 243f 4734 d13d 600b 113e
00000040: fb5f db3d cb9f c13d 52c8 3e3d 285e c13e
00000050: 1ff0 da3c 8e03 0f3e 951d f43f 25a3 cf3d
00000060: b167 ea3d 400f d13d 51c6 ca3d f9d2 f63e
00000070: 047d 9c3d f5f4 0b3f 232f 713e a986 c13e
00000080: e891 8a3e 200b d63d cb98 b53d 451e 8f3d
00000090: 04f1 2e3e 4a4b f63d 01d4 f33e b70b bf3d
000000a0: 379b b03d e2d2 9f3d c217 3e3f 9a68 c53d
000000b0: 676f b33e 40a6 e53d c5c1 943d d531 e83d
000000c0: fa3e b03d b14f 823d f394 373e 7c34 173f
000000d0: db3b c33d e342 52be cce4 cd3d 68fa 753e
000000e0: 6882 c8bd 455a e83d 4fd7 cd3e b3cc c13d
000000f0: c16e 883e 0bda b63d e40a d23e 5280 313e

2.conv1.weight f4 [64, 64, 3, 3]
0.014930619 0.013586328 0.013109723 0.013234408 0.012276845 0.0115830535 0.012796973 0.012143078
0.011705499 0.024178892 0.027204877 0.022795616 0.023389202 0.026404524 0.022482647 0.022675073
0.025485057 0.021500815 -0.004156034 -0.005518231 -0.0022228681 -0.0037553173 -0.005034608 -0.002086337
-0.0026884908 -0.0034003726 -0.0006332219 -0.095153876 -0.09271927 -0.096912585 -0.0954142 -0.09178305
-0.096408054 -0.0919377 -0.08690757 -0.09091657 0.0069679176 0.0076682377 0.007194011 0.0059972485
0.007714565 0.008011286 0.006865044 0.008983061 0.009364114 0.013569726 0.016331084 0.012108009
0.013723783 0.016366076 0.012269397 0.0145304445 0.017091522 0.013444183 0.012148125 0.015790619
0.01190136 0.014861935 0.01837394 0.01566103 0.014297316 0.01732269 0.015337944 -0.026950141
-0.026130337 -0.02842642 -0.028736535 -0.02660344 -0.025050346 -0.03053241 -0.026103696 -0.023001153
0.0044428087 0.004587622 0.004366439 0.004928293 0.004732053 0.0044702096 0.007152009 0.0069742845
0.006878939 -0.004870915 -0.0066907397 -0.0080644535 -0.004474074 -0.0054922104 -0.006753603 -0.005563145
-0.0063540326 -0.0077060573 -0.06618485 -0.06444074 -0.06539016 -0.06452971 -0.06252745 -0.06400363
-0.06285314 -0.061151702 -0.06240673 0.009011257 0.008965108 0.009629664 0.008978939 0.008737901
0.008686737 0.008478007 0.008328159 0.008570923 0.006066037 0.0052114893 0.0055520893 0.0053873104
0.0053127534 0.006203954 0.0040960507 0.004636712 0.0054171355 0.0058885193 0.0009938456 0.0049863923
0.009319916 0.0045956867 0.008867054 0.0034582156 0.0013511205 0.0037701922 0.0014737779 0.0013802632
0.0011411668 0.00020713142 0.0006030718 0.00079444476 -0.0012855503 -0.00067333033 -0.00032849438 0.022431776
0.027124032 0.019856008 0.023646116 0.02773365 0.019450452 0.024252808 0.027541487 0.019216122
0.009435014 0.008339718 0.007156495 0.008829492 0.008032279 0.007096549 0.008631966 0.008102623
0.0073208557 0.0030449557 0.00294256 0.0038908236 0.0035222294 0.0029995192 0.003485943 0.0023873104
0.0017792871 0.002202655 0.015319911 0.020434225 0.014782605 0.018383289 0.023457877 0.017994728
0.020390764 0.023409124 0.018473674 0.053453103 0.057551473 0.051649075 0.05776592 0.061723106
0.054438837 0.0542063 0.057157222 0.049765795 0.012038069 0.012793832 0.013801527 0.010487407
0.012520736 0.014488026 0.009160503 0.010278907 0.012862426 0.0010857437 0.0022031704 0.002554998
0.0016949227 0.0026705062 0.004067856 -0.0005279538 0.0007546503 0.0023509732 0.018256608 0.014565324
0.012288008 0.016904037 0.014701292 0.013159118 0.002265127 0.0016517757 -0.00219328 0.008555143
0.008488059 0.0059879594 0.008151025 0.008460969 0.006551131 0.008058863 0.008413307 0.0065408708
0.007137894 0.007397355 0.005698893 0.009665823 0.010773105 0.009043798 0.009103938 0.010430392
0.008704101 0.009353903 0.008277363 0.00857458 0.010065702 0.009383944 0.009509536 0.009082169
0.0084980745 0.008520353 0.010415985 0.010783274 0.012787401 0.009612905 0.009496181 0.0110817505
0.006014808 0.005732271 0.007228919 -0.032308977 -0.030140214 -0.0280267 -0.03548775 -0.03323895
-0.031839676 -0.037510168 -0.035923757 -0.036004893 0.03780181 0.038298078 0.033075605 0.03889991
00000000: 8e9f 743c 3199 5e3c 2aca 563c 21d5 583c
00000010: d224 493c d9c6 3d3c 65aa 513c c3f3 463c
00000020: 6cc8 3f3c d012 c63c c3dc de3c dfbd ba3c
00000030: b69a bf3c 4d4e d83c 872d b83c 13c1 b93c
00000040: 0ac6 d03c 7a22 b03c 572f 88bb 47d2 b4bb
00000050: 8aad 11bb c51b 76bb 5af9 a4bb edba 08bb
00000060: 6431 30bb c9d8 5ebb cdfe 25ba 09e0 c2bd
00000070: 9ae3 bdbd 1b7a c6bd 8568 c3bd c0f8 bbbd
00000080: 9671 c5bd d549 bcbd 99fc b1bd 7732 babd
00000090: 2153 e43b d745 fb3b bdbb eb3b 9184 c43b
000000a0: 76ca fc3b c541 033c 2af4 e03b b02d 133c
000000b0: f16b 193c 8e53 5e3c c4c8 853c ac60 463c
000000c0: b8d9 603c 2612 863c 9505 493c 1a11 6e3c
000000d0: 8503 8c3c fe44 5c3c ee08 473c 545b 813c
000000e0: ecfd 423c 797f 733c f284 963c 8f4b 803c
000000f0: 4a3f 6a3c 50e8 8d3c 004c 7b3c 8bc6 dcbc
00000100: 4a0f d6bc 86de e8bc e268 ebbc 75ef d9bc
00000110: 6236 cdbc 1b1f fabc 6bd7 d5bc ea6c bcbc
00000120: fb94 913b c353 963b 5814 8f3b 857d a13b
00000130: 560f 9b3b d67a 923b 665b ea3b 8a88 e43b
00000140: b968 e13b 329c 9fbb fe3d dbbb c520 04bc
00000150: 419b 92bb 00f8 b3bb 544d ddbb 0b4b b6bb
00000160: 7d35 d0bb 1883 fcbb ec8b 87bd 82f9 83bd
00000170: 47eb 85bd 2728 84bd 640e 80bd 5614 83bd
00000180: 26b9 80bd 357a 7abd 339e 7fbd f4a3 133c
00000190: 63e2 123c bdc5 1d3c 661c 133c 6a29 0f3c
000001a0: d152 0e3c 57e7 0a3c d572 083c 0e6d 0c3c
000001b0: 9bc5 c63b 24c5 aa3b 4dee b53b 0988 b03b
000001c0: 9b16 ae3b 8a4a cb3b 2a38 863b 8fef 973b
000001d0: 3a82 b13b 7bf4 c03b ed43 823a e464 a33b
000001e0: 90b2 183c 6a97 963b 1f47 113c 3ba3 623b
000001f0: 1518 b13a 5415 773b c82b c13a f3e9 b43a
00000200: 3493 953a 6b31 5939 7717 1e3a 4942 503a
00000210: e97f a8ba 6f82 30ba c539 acb9 d8c2 b73c
00000220: 3833 de3c 11a9 a23c 80b5 c13c ae31 e33c
00000230: 8e56 9f3c d3ad c63c af9e e13c 216b 9d3c
00000240: 5195 1a3c 50a3 083c 0881 ea3b 93a9 103c
00000250: d299 033c 2b8a e83b 176d 0d3c ddc0 043c
00000260: cae3 ef3b e18d 473b f7d7 403b 30fd 7e3b
00000270: 34d5 663b 9593 443b 6b74 643b 6c74 1c3b
00000280: f836 e93a 6b5a 103b 5d00 7b3c ad65 a73c
00000290: bd32 723c 8d98 963c bc2a c03c ae69 933c
000002a0: 880a a73c 7ec4 bf3c 1a56 973c a4f1 5a3d
000002b0: 18bb 6b3d fb8d 533d f59b 6c3d 5ed1 7c3d
000002c0: 42fb 5e3d 6d07 5e3d b11d 6a3d 38d7 4b3d
000002d0: 523b 453c 399d 513c cd1f 623c 60d3 2b3c
000002e0: c623 4d3c 2f5f 6d3c ef15 163c dc68 283c
000002f0: edbc 523c 834f 8e3a 1163 103b c171 273b
00000300: 2b28 de3a a903 2f3b a64b 853b 6166 0aba
00000310: b9d3 453a c912 1a3b e28e 953c 66a3 6e3c
00000320: a453 493c 567a 8a3c b0dd 703c 5799 573c
00000330: 8672 143b 6580 d83a 22bd 0fbb df2a 0c3c
00000340: 8011 0b3c a536 c43b e08b 053c e09f 0a3c
00000350: dfaa d63b 5209 043c f8d7 093c cd54 d63b
00000360: ffe4 e93b 8365 f23b c8bd ba3b 665d 1e3c
00000370: ad81 303c 702c 143c af28 153c 3ce4 2a3c
00000380: a59b 0e3c 1d41 193c c79d 073c 657c 0c3c
00000390: 9dea 243c 1dbf 193c e3cd 1b3c 61cd 143c
000003a0: 823b 0b3c f398 0b3c cfa7 2a3c 54ac 303c
000003b0: 3f82 513c 727f 1d3c df95 1b3c 3b90 353c
000003c0: de17 c53b c6d5 bb3b 91e0 ec3b 6b56 04bd
000003d0: 9ce8 f6bc 4098 e5bc 9a5b 11bd 9125 08bd
000003e0: 526a 02bd 43a4 19bd ca24 13bd de79 13bd
000003f0: 12d6 1a3d 72de 1c3d 497a 073d 8355 1f3d

2.bn1.weight f4 [64]
-5.5625296e-06 0.5062609 0.4012116 -2.886224e-07 4.203704e-05 -3.074999e-06 -0.00010018967 -4.716676e-05
5.7522766e-06 0.0050286395 3.698898e-06 -4.846626e-06 0.6308349 -1.3131004e-06 0.12626608 8.3448496e-05
-7.1297445e-06 -6.3992643e-06 7.4485883e-06 2.482602e-07 0.0012904139 0.07332091 6.899387e-07 0.009792685
0.010235239 0.013326022 0.009083463 5.8374194e-06 6.591231e-07 -0.000100865676 0.00050061144 2.2168736e-06
0.6023027 0.099238016 8.051894e-06 -1.3386698 2.6816112e-06 -5.974403e-06 1.1711828e-06 -5.4608076e-06
-9.4426736e-07 0.0059767463 0.40425053 -0.016229048 -5.995238e-05 0.00023563241 -7.054361e-09 1.1217841e-06
0.04667619 -1.35413875e-05 6.0410247e-07 1.0288344e-06 -0.002986042 0.093078345 0.0015511743 4.2812295e-05
5.850912e-06 -0.0064612194 -0.007069867 9.503145e-06 -0.21224196 1.895742e-05 0.054063737 1.8879764e-06
00000000: c4a5 bab6 509a 013f 9b6b cd3e f6f3 9ab4
00000010: ee50 3038 155c 4eb6 eb1c d2b8 ecd4 45b8
00000020: ae03 c136 49c7 a43b 953a 7836 33a0 a2b6
00000030: 657e 213f c93d b0b5 e54b 013e 1201 af38
00000040: 0a3c efb6 43b9 d6b6 e3ee f936 9f48 8534
00000050: 1b23 a93a 4629 963d 3a34 3935 7f71 203c
00000060: b4b1 273c 6355 5a3c ced2 143c 0ddf c336
00000070: 98ee 3035 d987 d3b8 773b 033a 99c5 1436
00000080: 8230 1a3f 4d3d cb3d 9f16 0737 8859 abbf
00000090: bbf5 3336 bb77 c8b6 8931 9d35 fb3b b7b6
000000a0: 8f79 7db5 95d8 c33b edf9 ce3e c8f2 84bc
000000b0: 6175 7bb8 1814 7739 d162 f2b1 3590 9635
000000c0: 882f 3f3d d12f 63b7 9b29 2235 7b16 8a35
000000d0: 79b1 43bb dc9f be3d c650 cb3a 5a91 3338
000000e0: f452 c436 a3b8 d3bb 58aa e7bb b26f 1f37
000000f0: f555 59be c006 9f37 f071 5d3d 6066 fd35

2.bn1.bias f4 [64]
-4.925621e-05 0.068562865 0.24837685 -1.1873171e-05 -0.0002456967 -2.3754374e-05 -0.00036221603 -0.00016954352
-2.2707576e-05 -0.0014914116 -0.000103212464 -2.1456739e-05 0.23415141 -1.1903079e-05 -0.090775676 -0.00060524
-0.001184318 -5.6174227e-05 -4.607176e-05 -3.6802667e-06 -0.0030191215 -0.03482785 -6.9836806e-06 -0.012385476
-0.040795263 -0.024992209 0.03118455 -5.82371e-05 -4.007955e-06 -0.0007907384 -0.005828367 -3.3793454e-05
0.5663123 -0.16604519 -4.4243337e-05 0.6152799 -1.791022e-05 -0.00011510188 -8.880142e-06 -5.0457915e-05
-7.115101e-05 -0.013415308 -0.00076897745 0.03713708 -0.000557835 -0.0018160259 -7.89649e-06 -3.4897555e-05
0.0016697037 -5.5979348e-05 -6.860166e-05 -8.855248e-06 -0.009267982 0.022833087 -0.003302766 -0.00020164516
-4.2347005e-05 -0.02993283 -0.014666234 -6.5857064e-05 0.030960198 -9.749081e-05 -0.106128976 -1.5881174e-05
00000000: 7498 4eb8 b06a 8c3d 8056 7e3e e232 47b7
00000010: dad0 80b9 2144 c7b7 d0e7 bdb9 7ec7 31b9
00000020: 267c beb7 787b c3ba c573 d8b8 fffd b3b7
00000030: 63c5 6f3e 56b3 47b7 99e8 b9bd f8a8 1eba
00000040: 1e3b 9bba 9e9c 6bb8 2d3d 41b8 80fa 76b6
00000050: 74dc 45bb a6a7 0ebd 5c55 eab6 74ec 4abc
00000060: ef18 27bd 76bc ccbc be76 ff3c 9c43 74b8
00000070: 127c 86b6 8e49 4fba e3fb bebb 72bd 0db8
00000080: d8f9 103f c007 2abe ec91 39b8 fc82 1d3f
00000090: e83d 96b7 da62 f1b8 ebfb 14b7 c6a2 53b8
000000a0: e836 95b8 e1cb 5bbc 3495 49ba 0d1d 183d
000000b0: ac3b 12ba b807 eeba 2b7b 04b7 f75e 12b8
000000c0: f6d9 da3a 5ecb 6ab8 3cde 8fb8 0091 14b7
000000d0: bcd8 17bc 740c bb3c 3873 58bb b670 53b9
000000e0: c09d 31b8 b235 f5bc a54a 70bc be1c 8ab8
000000f0: 3ea0 fd3c fb73 ccb8 265a d9bd 9038 85b7

2.conv2.weight f4 [64, 64, 3, 3]
-0.0028258148 -0.0028168906 -0.0028825423 -0.002835446 -0.0028173947 -0.0028747788 -0.0028040968 -0.0028074472
-0.0028422256 -0.007985305 -0.0028863607 -0.0041250554 -0.0076788776 -0.007077398 -0.009139101 -0.0078040063
-0.00642435 -0.008407888 0.081217155 0.047730636 0.036957774 0.09701193 0.060301702 0.04921433
0.09111948 0.066242546 0.06348465 -0.0029641127 -0.0029640442 -0.0029666082 -0.002960087 -0.0029660896
-0.0029740664 -0.0029287112 -0.0029318905 -0.0029500455 -0.0026250354 -0.0025458126 -0.0026705265 -0.0026072063
-0.0024778184 -0.0026890072 -0.002872793 -0.0026380005 -0.0027951235 -0.002974049 -0.0029227156 -0.00296074
-0.002992205 -0.0029577254 -0.002978736 -0.0029806867 -0.0029459961 -0.0029638899 -0.0030701363 -0.0023670616
-0.0014204541 -0.0037244828 -0.003086721 -0.0027382514 -0.0031712211 -0.0027562333 -0.0018749865 -0.0014925385
-0.003040407 -0.002853038 -0.0026186109 -0.004683671 -0.00425573 -0.0017084164 -0.003576533 -0.0029683823
-0.002936081 -0.002912455 -0.0029312705 -0.002944127 -0.0029619038 -0.0029863946 -0.002903828 -0.0029236162
-0.0029470383 0.0010917909 -0.0022158828 -0.0065421765 0.0132630635 0.011770787 0.006177248 0.0037703153
0.0007350656 -0.0020998777 -0.003020883 -0.003029575 -0.003020632 -0.0030818048 -0.0030994597 -0.003117821
-0.00302351 -0.0030703852 -0.0030899083 -0.0029259361 -0.002923776 -0.0029254593 -0.0029363567 -0.0029343644
-0.0029356782 -0.0029366894 -0.0029397425 -0.0029386787 -0.0033263492 -0.019508095 -0.01795563 0.0108291535
-0.0043388386 -0.0109327845 -6.979832e-05 -0.013885308 -0.01759957 -0.0030598706 -0.0030202088 -0.0030462525
-0.0030543343 -0.002987262 -0.0029724112 -0.0030006983 -0.002941546 -0.0029537694 -0.031760782 -0.039327804
-0.009225028 -0.027063208 -0.035917845 -0.018195605 0.023240786 0.007396209 0.016186267 -0.007878406
-0.005978864 -0.0039602593 -0.011116785 -0.0060129175 9.642758e-05 -0.007462744 -0.0054509747 -0.0010288651
-0.0018307389 -0.0010491731 -0.0014909529 0.007252174 0.009207618 0.006997735 0.0021829903 0.003210436
0.0024196748 -0.0028482059 -0.0028856746 -0.0030055363 -0.002838997 -0.0028316674 -0.0029612696 -0.002519214
-0.0025467128 -0.0026433798 -0.0032554583 -0.00321915 -0.0031983042 -0.002964206 -0.0029153354 -0.0029696536
-0.00314478 -0.0030823865 -0.0031220322 -0.002952571 -0.0029604998 -0.0029615692 -0.0029552497 -0.002954396
-0.0029592088 -0.0029479936 -0.0029387919 -0.0029557375 0.002521671 0.002595961 0.004669767 0.0026646142
0.00032720374 0.0043589673 0.0012181604 -0.0032227274 0.0010249632 -0.009276852 -0.010404247 -0.011311526
-0.0144257285 -0.015991509 -0.015414309 -0.015108804 -0.017400559 -0.01643777 -0.0029612903 -0.0029421018
-0.002944695 -0.002946343 -0.0029362005 -0.0029311387 -0.0029565566 -0.0029409342 -0.002928655 0.0024862003
0.0011662481 0.00038651333 0.001969296 -0.0005311106 -0.002519973 0.0061042844 0.0039283037 0.0018488982
0.015551749 0.0118689835 0.019017134 0.0093337465 0.0047769034 0.014228059 0.021964986 0.023052942
0.035001133 -0.029685674 -0.040022843 -0.02914483 -0.037689023 -0.056320008 -0.04525877 -0.026341407
-0.042769715 -0.034937743 -0.0061973985 -0.0059874672 -0.0019271492 -0.005094251 -0.005812745 -0.00089711376
-0.0024356493 -0.003084241 0.0016727919 -0.002953605 -0.0030453932 -0.0030397887 -0.0029349048 -0.0029780641
-0.0029898526 -0.0028467502 -0.0028542932 -0.0028263407 -0.002949217 -0.002940183 -0.0029368605 -0.0029569275
00000000: 4e31 39bb 959b 38bb 09e9 3cbb e4d2 39bb
00000010: 0aa4 38bb c966 3cbb f0c4 37bb 26fd 37bb
00000020: a244 3abb ccd4 02bc 1929 3dbb 792b 87bb
00000030: 189f fbbb 84e9 e7bb 2bbc 15bc c0b8 ffbb
00000040: 5b83 d2bb 3dc1 09bc 2e55 a63d 3381 433d
00000050: 0961 173d 31ae c63d ebfe 763d f794 493d
00000060: da9c ba3d 2caa 873d 3d04 823d 8f41 42bb
00000070: 6940 42bb 6d6b 42bb 05fe 41bb ba62 42bb
00000080: 8ee8 42bb 9fef 3fbb f624 40bb 8d55 41bb
00000090: c908 2cbb a6d7 26bb 0004 2fbb aadd 2abb
000000a0: e562 22bb 0e3a 30bb 7845 3cbb 4ee2 2cbb
000000b0: 642e 37bb 43e8 42bb 088b 3fbb f908 42bb
000000c0: df18 44bb 66d6 41bb e636 43bb a057 43bb
000000d0: 9d11 41bb d23d 42bb 5734 49bb b420 1bbb
000000e0: 882e baba 7416 74bb 964a 4abb 3c74 33bb
000000f0: 43d4 4fbb eca1 34bb 1bc2 f5ba 48a1 c3ba
00000100: 9141 47bb 09fa 3abb 009d 2bbb 7b79 99bb
00000110: a773 8bbb f1ec dfba 4464 6abb 3189 42bb
00000120: 446b 40bb e3de 3ebb 8f1a 40bb 41f2 40bb
00000130: 801c 42bb 63b7 43bb 264e 3ebb 249a 3fbb
00000140: 1923 41bb 6c1a 8f3a 5838 11bb c15f d6bb
00000150: 524d 593c 42da 403c 836a ca3b 6517 773b
00000160: 6bb1 403a 1a9e 09bb 02fa 45bb d68b 46bb
00000170: ccf5 45bb 1bf8 49bb 4e20 4bbb 5b54 4cbb
00000180: 1526 46bb 8438 49bb 0f80 4abb 10c1 3fbb
00000190: d29c 3fbb 10b9 3fbb e46f 40bb 774e 40bb
000001a0: 8264 40bb 7975 40bb b2a8 40bb d996 40bb
000001b0: e1fe 59bb 71cf 9fbc af17 93bc c36c 313c
000001c0: d12c 8ebb 6c1f 33bc b060 92b8 347f 63bc
000001d0: f92c 90bc 1c88 48bb b2ee 45bb a3a3 47bb
000001e0: 3a2b 48bb f1c5 43bb c9cc 42bb 5da7 44bb
000001f0: f4c6 40bb 0794 41bb 9817 02bd 3116 21bd
00000200: 9224 17bc a9b3 ddbc 971e 13bd f30e 95bc
00000210: 7663 be3c e65b f23b 1099 843c 6e14 01bc
00000220: 59ea c3bb 10c5 81bb 2d23 36bc 0208 c5bb
00000230: 2a39 ca38 098a f4bb 179e b2bb fcda 86ba
00000240: 67f5 efba 6884 89ba 146c c3ba a5a3 ed3b
00000250: 8ddb 163c 414d e53b 8010 0f3b 2e66 523b
00000260: 6893 1e3b f7a8 3abb 961d 3dbb 88f8 44bb
00000270: 770e 3abb 7f93 39bb dc11 42bb 6619 25bb
00000280: c0e6 26bb 8e3c 2dbb 8759 55bb 60f8 52bb
00000290: a49a 51bb 2043 42bb 360f 3fbb 859e 42bb
000002a0: a718 4ebb dd01 4abb 029b 4cbb ec7f 41bb
000002b0: f204 42bb e316 42bb ddac 41bb 8a9e 41bb
000002c0: 49ef 41bb 2033 41bb bf98 40bb 0cb5 41bb
000002d0: 9e42 253b 0021 2a3b d804 993b cfa0 2e3b
000002e0: 8b8c ab39 abd5 8e3b aeaa 9f3a 6534 53bb
000002f0: 0f58 863a f0fd 17bc 9376 2abc fb53 39bc
00000300: e459 6cbc a000 83bc 4c8c 7cbc eb8a 77bc
00000310: 9e8b 8ebc 81a8 86bc 3512 42bb 47d0 40bb
00000320: c9fb 40bb 6f17 41bb 456d 40bb 5918 40bb
00000330: cac2 41bb b0bc 40bb adee 3fbb 85ef 223b
00000340: cbdc 983a f1a4 ca39 4e0f 013b 3b3a 0bba
00000350: 2226 25bb 7306 c83b 00b9 803b bb56 f23a
00000360: c3cc 7e3c 2076 423c d2c9 9b3c 92ec 183c
00000370: 9287 9c3b ce1c 693c eaef b33c 86d9 bc3c
00000380: 595d 0f3d 5f2f f3bc feee 23bd 23c1 eebc
00000390: ce5f 1abd cfaf 66bd 4361 39bd efc9 d7bc
000003a0: 4c2f 2fbd e11a 0fbd 8c13 cbbb 8432 c4bb
000003b0: 6698 fcba aded a6bb d778 bebb 492c 6bba
000003c0: 6a9f 1fbb fa20 4abb 9541 db3a 4591 41bb
000003d0: 3895 47bb 3137 47bb 8857 40bb a02b 43bb
000003e0: 67f1 43bb 8b90 3abb 180f 3bbb 213a 39bb
000003f0: a747 41bb 16b0 40bb 5878 40bb 03c9 41bb

2.bn2.weight f4 [64]
0.05334365 -0.009822032 0.060805768 3.449339 0.02806542 0.032600626 0.016959054 1.4035873
0.034930132 0.42813304 1.2553592 0.022639224 0.97577167 1.0224475 0.04887654 -0.01463834
0.01527366 0.0066537396 -0.003942605 1.4240764 -0.02935564 0.009160538 2.804583 0.051447395
0.019007822 0.07517802 0.017475812 1.1344283 0.039829303 -0.861182 -0.3235739 1.0304103
1.217746 0.0015128185 0.0049065985 0.045650892 0.0662769 0.0016339797 0.967381 0.027277725
0.013086092 0.015537286 1.2252679 0.015985407 1.366494 0.05016707 0.0036879482 0.10461175
0.011446539 0.0008319334 0.07944442 0.9833527 -0.062494032 0.2900511 -0.006057593 0.37818766
-0.030460414 0.07293198 1.2693499 0.0180548 0.16181304 0.04136053 1.0425463 0.3368773
00000000: df7e 5a3d 97ec 20bc 780f 793d f8c1 5c40
00000010: 74e9 e53c 3c88 053d b7ed 8a3c c0a8 b33f
00000020: e612 0f3d 4134 db3e 9caf a03f e575 b93c
00000030: 2ccc 793f 8fdf 823f c432 483d a6d5 6fbc
00000040: 603e 7a3c 9d07 da3b f830 81bb 2348 b63f
00000050: 3d7b f0bc 1516 163c 4a7e 3340 81ba 523d
00000060: 4bb6 9b3c eff6 993d 6f29 8f3c f234 913f
00000070: 0d24 233d 6c76 5cbf 7aab a5be 7ce4 833f
00000080: 1adf 9b3f c449 c63a 88c7 a03b 6efc 3a3d
00000090: 2fbc 873d 432b d63a 48a6 773f 8975 df3c
000000a0: 0c67 563c 1a90 7e3c 94d5 9c3f d4f3 823c
000000b0: 47e9 ae3f fc7b 4d3d 81b1 713b af3e d63d
000000c0: 448a 3b3c 1b16 5a3a c2b3 a23d 01bd 7b3f
000000d0: bef9 7fbd 9481 943e c67e c6bb d0a1 c13e
000000e0: 1e88 f9bc 5d5d 953d 0f7a a23f a9e7 933c
000000f0: 51b2 253e a969 293d 2872 853f 2e7b ac3e

2.bn2.bias f4 [64]
0.013544424 -0.002460479 0.043608837 3.6089227 0.028286241 0.03485375 0.012238143 0.8271517
0.0191535 0.10507244 0.5872957 0.02294663 0.21231873 0.5440203 0.026235523 -0.0029975798
0.034223177 0.015966246 -0.0071848244 0.46348268 0.015719673 0.044332106 2.3468885 0.01934527
0.03355573 0.02844971 0.015412033 0.5544601 -0.0005315472 0.30225167 0.17139111 0.17346843
0.1806167 0.030986032 0.023274254 0.019440183 0.042863593 0.015744606 0.41902933 0.023466563
0.02680223 0.02128881 0.6711711 0.016809959 0.35636225 0.038558185 0.012962287 0.04580265
0.01980172 0.01312133 0.03575432 0.5365184 0.0405068 0.08463582 0.025461936 0.19181494
-0.0061906255 0.027645731 0.31578326 0.02995773 0.1373191 0.020730477 0.4574665 0.109267786
00000000: 6fe9 5d3c fd3f 21bb 2e9f 323d 97f8 6640
00000010: 8cb8 e73c cec2 0e3d 7e82 483c 37c0 533f
00000020: cde7 9c3c 3830 d73d 0359 163f 92fa bb3c
00000030: 156a 593e ea44 0b3f e1eb d63c 0b73 44bb
00000040: 9a2d 0c3d a5cb 823c ad6e ebbb 9a4d ed3e
00000050: 8bc6 803c 9595 353d 6c33 1640 f979 9e3c
00000060: bc71 093d 5e0f e93c c082 7c3c 19f1 0d3f
00000070: 8757 0bba bbc0 9a3e 2781 2f3e b5a1 313e
00000080: 96f3 383e 6bd6 fd3c a6a9 be3c 0541 9f3c
00000090: bc91 2f3d d5fa 803c 038b d63e f33c c03c
000000a0: 5a90 db3c df65 ae3c dfd1 2b3f 0ab5 893c
000000b0: 1d75 b63e 30ef 1d3d c65f 543c 8f9b 3b3d
000000c0: 3737 a23c d9fa 563c 1f73 123d 4559 093f
000000d0: 75ea 253d 8b55 ad3d 8d95 d03c 236b 443e
000000e0: bbda cabb 4d79 e23c 58ae a13e ea69 f53c
000000f0: 619d 0c3e f6d2 a93c 0d39 ea3e cac7 df3d
