expert_target_aware/mocosflV2_ResNet18_cifar10_cut2_bnlC4S2_expert_batchsize128_ressfl_4.0_SSIM0.6_data_proportion_0.01_aux_cifar100/checkpoint_c_best.tar (torch, 316626 bytes, 11 tensors)

0.conv1.weight f4 [64, 3, 3, 3]
00000000: a73a 86bd 9198 363d 38c6 50bd e288 f9bc
00000010: 4358 053e be1d 6a3d 4234 bd3d f975 1b3b
00000020: 44dc 3ebd 5188 fd3c d3a4 4ebc 47a6 4fbc
00000030: c777 68bd c48c 0abb 4562 433d b4e0 8bbc
00000040: c0d3 e5bd f63c 0abd 3fb0 903d 5318 8b3c
00000050: e78d 08bd 199b 9abd 4a66 08bd c88f c8bc
00000060: c2f0 473d 79ef 3c3c df4b 5d3d a58a b4bc
00000070: fe5a b3bd df99 e7bc 008d cdbd f61c f5bd
00000080: 35d3 b2bd 2473 81bd 214c bbbd f04c 4ebd
00000090: 7e1f 6c3d a752 60bb 3af4 6d3d 783c f9ba
000000a0: 87e0 c2bc 9146 423c d284 523d 2a07 b13c
000000b0: 1256 953d 2c8f a33d 9f43 543c 67d1 623d
000000c0: 2c96 3c3d 9133 cd3c 3c8f 253d bbeb 653d
000000d0: 29a5 ec3c fb70 7a3d b72d 2c3d 3895 433d
000000e0: d953 223d 11c0 323d 0f49 533d dc41 3b3d
000000f0: fd72 113d 9c74 303d 11c1 233d 6d0c 11bd
00000100: 889c 02bd a6ea 14bd 6aa2 17bd e6cd febc
00000110: 9144 0abd 50fc 19bd a542 09bd ead6 0fbd
00000120: 025e 48bc 20b5 6dbb 6339 14bc f4fc 52bc
00000130: 203e bbba b09b c3bb dfba 80bc 7d0e d3bb
00000140: 3e12 21bc acd5 69bd f364 7c3d 1961 ddbd
00000150: 2bd7 2ebe 1d09 65bd bdaf 40be 8123 45bd
00000160: 9f61 3bbb 3359 e3bd 9305 9bbc 3660 5e3d
00000170: 3b53 80bd 4268 82bd fdc4 3a3a c093 92bd
00000180: 8927 863d a60b 773d 7b86 f33b fcf0 2c3c
00000190: c843 313e caf7 f63c 4cf3 493b 9cab 143e
000001a0: 5463 573d 953e 873d ba74 183e cc86 a23d
000001b0: f889 a43d b5df e2bd b7df cf3d 8669 8fbd
000001c0: ac4b e9bd 5668 2f3c a5a6 633d 937c 85bd
000001d0: b616 de3c 9c58 053e 0672 84bd cb85 0c3d
000001e0: 036a b8bd 868e 20be 5303 bfbd 6c18 1abc
000001f0: ce3b 0ebe fc56 e9bd a561 3d3e c52b c6bd
00000200: eb65 1d3e 6b62 61bd 93f9 6dbe 4d6d 903d
00000210: 821a 683e 404e 1f3d 04d7 973e 092b 24be
00000220: 82d3 50be 03c0 94be cd9c a83d 62ae 923d
00000230: 49fa 52bd 81a5 853e 5d7f 763e 032f b43d
00000240: a292 e2bd 9525 13be 0e29 30be 3639 a13b
00000250: a721 593c 1b76 10bd 641d 1c3e b240 053e
00000260: 1bc4 693d 092a b3bd d481 82bd 3f3c 0dbc
00000270: 55c8 0bbd 343a 81bc f9dc e33c 9fb2 e93d
00000280: 0c9a a03d a18e 643d ccbf 9bbd 5092 7f3c
00000290: fc7e d53d 1957 a2bd 5d8f f03b b594 ae3d
000002a0: 3385 9dbd bfb4 8b3c b149 c73d c5d9 9fbd
000002b0: eded 2e3c 3abb d73d fd6d bdbd 68c4 12bc
000002c0: 4e80 993d 36b2 bdbd 53b9 52b9 b5e6 b43d
000002d0: 83f6 babd dba2 dfb8 46c0 b43d 841a d8bd
000002e0: 7c1e 95bc 5d1f 7c3d ff20 d3bd d2d9 0abc
000002f0: 0a50 9a3d 747c 193e b728 2d3d 08fe 343c
00000300: 035d 8d3d e80d d2bd 70c3 7dbe 6ecc 4d3d
00000310: 6d84 023d ad48 eabd b051 9abd fbd1 74bd
00000320: 1f01 803d d84d 333c 613f 593d 478c 9f3d
00000330: c147 0fbd 9007 3939 992e 8e3d e8af 84bd
00000340: fa4d 7ebd afdb 59bb 8c15 9abc 9155 b43d
00000350: 04c2 a73d 2d68 82bd fce8 a6bc cc9e 8e3d
00000360: bb0d 9bbd 2329 0dbe 16b8 a3bd 7559 22bd
00000370: 3ccd 98bd b8d0 59bc d14e f73c f649 283c
00000380: 3a20 a7bc c366 fc3d 1b6c 283d d106 013e
00000390: 5e41 9f3d 310d 883c 6571 0d3e 2945 b43d
000003a0: 84d0 193d d116 963d 31c9 d23d 46f2 8ebd
000003b0: 1737 aab9 26ab 8d3d b482 82bd 3a27 1f3d
000003c0: 65fd 82bd 174d 3cbe 5b96 19be 7ad0 0dbd
000003d0: 22df 7bbd 5573 e1bd 56fa 86b8 cf7f 63bd
000003e0: ce1c c5bd e0ac 8e3c f922 c93b c726 b13b
000003f0: 5ca8 72bd 8407 28bd 83b8 35bd d2fc 9abd
-0.06554156 0.044579092 -0.050970286 -0.030460779 0.1302195 0.05715727 0.09238483 0.002372144
-0.04659678 0.03094879 -0.012612539 -0.012673921 -0.056754854 -0.0021141032 0.04770114 -0.01707492
-0.11222029 -0.033749543 0.07064866 0.016979372 -0.033338454 -0.07549114 -0.033300675 -0.024482623
0.04881359 0.011531704 0.054027434 -0.022038767 -0.0875759 -0.028271614 -0.10036659 -0.119684145
-0.08731691 -0.063207895 -0.0914538 -0.050366342 0.05764722 -0.0034228952 0.05809424 -0.0019015213
-0.023788704 0.011857645 0.0513962 0.021609861 0.07291807 0.07986292 0.012955575 0.055375483
0.046041653 0.025049003 0.040419802 0.056133013 0.028887348 0.061142903 0.042035785 0.047749728
0.039630745 0.0436402 0.051583346 0.045717105 0.035510052 0.043079957 0.039979044 -0.03541224
-0.03188756 -0.03635659 -0.037020124 -0.03110404 -0.033756796 -0.03759414 -0.033510823 -0.035117067
-0.012229444 -0.003627129 -0.009046885 -0.012877692 -0.0014285482 -0.005969487 -0.015714107 -0.006440936
-0.009831009 -0.05708854 0.06161971 -0.108095355 -0.17074268 -0.055916894 -0.18817039 -0.048129562
-0.0028592122 -0.11100998 -0.018923556 0.054290973 -0.06265875 -0.06367542 0.00071246905 -0.07157087
0.065505095 0.060313843 0.007431803 0.010555502 0.17311013 0.030147452 0.0030815182 0.14518589
0.05258496 0.066037335 0.14888278 0.07935867 0.08034128 -0.11077825 0.10150092 -0.07002549
-0.113913864 0.010706028 0.055578846 -0.06517901 0.027110439 0.13022083 -0.06467061 0.034307282
-0.09004595 -0.15679368 -0.09326806 -0.009405237 -0.13890001 -0.11393544 0.1849428 -0.09676317
0.1537091 -0.0550255 -0.23239736 0.070520975 0.22666362 0.038892984 0.2965623 -0.16032042
-0.20393184 -0.29052743 0.082330324 0.07162167 -0.05150822 0.26102832 0.24072023 0.08798029
-0.11063124 -0.14369805 -0.17203161 0.00492015 0.013252652 -0.035268884 0.15245587 0.1301296
0.057071786 -0.08748252 -0.06372419 -0.008620321 -0.0341266 -0.015774824 0.027815329 0.114110224
0.07841882 0.055800084 -0.07604942 0.015598848 0.10424611 -0.07926769 0.007341309 0.08524457
-0.07691421 0.01705396 0.097308524 -0.07805208 0.010676843 0.105337575 -0.09249494 -0.00895796
0.07495175 -0.09262507 -0.000200962 0.088330664 -0.0912905 -0.00010663803 0.08825736 -0.105519325
-0.018203013 0.061553348 -0.10309028 -0.008474784 0.075347975 0.14988881 0.042275157 0.011046894
0.06902506 -0.10256559 -0.24781585 0.050243787 0.031864572 -0.11439643 -0.07535112 -0.059770565
0.06250214 0.010943852 0.05303896 0.07790428 -0.03498054 0.00017645792 0.069424815 -0.06478864
-0.062086083 -0.0033242514 -0.018809102 0.08805383 0.081913024 -0.06367526 -0.020374767 0.06963882
-0.07570978 -0.13785224 -0.07994096 -0.039636094 -0.0746102 -0.013294391 0.03018895 0.01027154
-0.020401109 0.12324288 0.041118722 0.12600257 0.0777614 0.016607853 0.13812788 0.08802254
0.03755237 0.07328571 0.102922805 -0.06979804 -0.00032465972 0.069174096 -0.06372586 0.03885577
-0.063959874 -0.18388782 -0.14998762 -0.034622647 -0.061492093 -0.11008326 -6.4362466e-05 -0.05554181
-0.09624635 0.017416418 0.0061382023 0.005406234 -0.05924259 -0.041022792 -0.044365417 -0.07567753

0.bn1.weight f4 [64]
00000000: 3b11 403c 1331 143e 3d0e 343d 147b 963e
00000010: 7933 e93e 371d be3e 8e0f 62bb a641 22bd
00000020: 870c bb3e e722 853e 82e4 7fbc 0893 a13e
00000030: a1d9 6dbb f025 093d 358b 6b3e f17f 4c3e
00000040: 4b14 ac3e 1260 343e c35a ea3b 9ec0 5135
00000050: f475 5a3e 5b3c cc3d 9225 473d c257 8f3e
00000060: f52f b43e 590c 213e 6e26 04bb 15f4 c23e
00000070: c713 1d3e 1280 293e 0df1 aa3e 111c 623e
00000080: 3656 c53e c45e 323a 21fb ca3e 3c63 d83e
00000090: e4bd a03e 2dec 543e 4fa7 d13e af6a 65bd
000000a0: 4a09 5f3e 6bb5 ad3e 96a9 6c3e fb3c 6e3e
000000b0: 57d8 f93e 243f 823d c6e6 e23e 97ef e83e
000000c0: 6291 983e 2fbc 9bbc e681 7b3e 885e b23e
000000d0: 465c 86bc 9658 b8ba 6fb4 b03e 1abc d8bd
000000e0: 984e db3e c29a c23e df97 4e3b e23d 063f
000000f0: 03bf 003f 9d04 913e c590 533e 04a2 a03e
0.011722858 0.14471845 0.04395889 0.29390776 0.45547083 0.37131664 -0.0034494135 -0.03961339
0.36532995 0.2600319 -0.015618445 0.31557488 -0.0036293047 0.033483446 0.23002322 0.19970681
0.33609232 0.17614773 0.007151933 7.813886e-07 0.21334058 0.099724494 0.048619814 0.2799664
0.35192838 0.15727367 -0.0020164507 0.38076845 0.15339576 0.16552761 0.33387032 0.22081019
0.38542336 0.00068042823 0.3964472 0.4226321 0.31394875 0.20793219 0.4094796 -0.056009945
0.21780887 0.33927473 0.23111567 0.2326545 0.48797867 0.06359699 0.4431669 0.45495293
0.29798418 -0.019010631 0.24561271 0.34837747 -0.016401421 -0.0014064487 0.3451266 -0.105827525
0.428334 0.38008696 0.0031523628 0.52438176 0.5029146 0.28323832 0.20660694 0.31373608

0.bn1.bias f4 [64]
00000000: 72ce a43e c26b ee3d a49d 243e 25ad 84bd
00000010: 6a69 39bd cbb4 c3bb 4aba 0a3e f49c f33e
00000020: b61d 573d 2096 2bbd bed0 bc3e 9e5b 30bd
00000030: 9d6e 1a3e 4115 163e 4507 b33c 0351 7d3e
00000040: 43f3 803e 9aaf 8e3e 8ae7 103e 6ec3 20b8
00000050: 9b00 963d 434e 613e 8a7b 5a3e ec3c 933d
00000060: 3ae4 c93d a74f bf3d e471 333e 7ecc 0e3a
00000070: d33b 303e 95c1 f33d a902 b8bd 8092 f03d
00000080: 2a05 033e c85b 6e3e 732a 123b 03c8 053d
00000090: 544f 30bd cee4 243d cc15 e2bc 5dd7 033e
000000a0: 6d90 743e 922f babd 9bee c2bd e533 163e
000000b0: 7f5d 8cbb bc13 423e 91b8 193d 561a f83b
000000c0: d824 dd3d 6603 4f3e 1ce9 f5bb fe76 ccbb
000000d0: 904c 0e3e 5a7a 6b3e 5810 2a3d 00bf 073e
000000e0: 6879 26bc 9b8e 283e 32b0 0f3e 8e94 aabc
000000f0: 9f2a 95bd b3b8 f1bd 33d8 893e 87c5 d43c
0.32188755 0.11641647 0.1607576 -0.06478337 -0.045266546 -0.00597248 0.13547626 0.47580683
0.05251857 -0.041891217 0.36878008 -0.043056123 0.15081258 0.14656545 0.021854052 0.24737935
0.25185594 0.27868348 0.14150825 -3.832898e-05 0.07324334 0.2200251 0.21336189 0.07189354
0.09857984 0.09341364 0.17523915 0.0005447342 0.17210321 0.11902157 -0.089848824 0.11746693
0.12794939 0.232772 0.0022303134 0.03266145 -0.043044403 0.040257268 -0.027598284 0.12875123
0.23883219 -0.090911046 -0.09518167 0.14668234 -0.0042836065 0.1895284 0.037529532 0.007571499
0.10798043 0.2021614 -0.0075045954 -0.006239771 0.13896394 0.22995892 0.041519493 0.13256454
-0.010160781 0.1646065 0.14032057 -0.02082279 -0.0728352 -0.11802807 0.2692276 0.025973095

1.conv1.weight f4 [64, 64, 3, 3]
00000000: 9786 73bd a72b 3ebd 6b17 0bbd 1581 0abd
00000010: fe9d 88bc 73b9 f3bb aa31 9fbc 3155 183b
00000020: f91a 663c 4f64 e5bc 1227 1ebc ec8e 6fbc
00000030: c6a8 963b 611d 913b a05e e23b 609a 8d3c
00000040: a32b 4b3c 4dcf dd3b 8e11 81bc 6047 05bc
00000050: 8173 d9bb f82e 95bb 7a73 813b ea24 953b
00000060: e746 bfbb 9b09 a53b 8fac f43b 4777 873b
00000070: 1a4f 02bc e69d cbbc f107 283d c084 093d
00000080: e06f b53b 607c 403b 8a93 813c 5d10 29bc
00000090: 9708 03bc 47c2 42bc 5fa9 27bd 78ed 5a3c
000000a0: 4cd4 3cbd 161b 75bd cc08 2bbd 463e 96bd
000000b0: 3b44 98bd fef8 1e3d 3245 a63c 70c8 2abd
000000c0: b65c 6dbd 18ff 0abd e50f c7bc db0b 61bd
000000d0: 4742 25bc 56e3 873d 6bfa 5ebc d0f6 4dbb
000000e0: c42e bfbb fa10 0bbb 1369 013c 5c87 e83b
000000f0: b64e 9abb f847 be3b 2ed9 3f3c d8f6 81bd
00000100: f6ac 16bd b784 f2bc 2a24 2ebd e8ad 33bc
00000110: 8070 0bbb 1b9c 0bbd 08fc cd3b 8ef6 b93c
00000120: 541d 26bd 2217 0bbd 6057 2fbd ff2d 1e3d
00000130: fa45 fc3c c68a 9e3b 9ec5 6b3d 24e4 353d
00000140: dfb5 cb3c dfe1 2abd 35c0 51bd 8cd5 bbbc
00000150: 8736 46bd 1421 8abd 3eb0 57bd 6051 c7bd
00000160: c6f9 e6bd e3bd d4bd 5f4a efbc eedd f5bb
00000170: 3b00 03bb 15e4 30bb fe3a 8a3c 280f a83c
00000180: 63ab f1bb f1b5 b13c 0eea f53c f195 0e3d
00000190: da6c 9f3d a717 0c3d 14f4 a03c e7c3 96ba
000001a0: c3dc 863c 07c4 dd3c ce0e 053c 1a9b 733c
000001b0: a50d 6abc bb80 d5bb 2799 cdbb c8ae 3dbb
000001c0: 24f9 bf3b 9fe6 b23b 8f26 cdbb 06e6 853b
000001d0: 2e7c d53b 7883 57bc dac2 d8bb 3f43 dcbb
000001e0: 9aba 61bb 4416 963b 765b 8f3b 82c4 5ebb
000001f0: b3e9 e43b ae0d 1e3c e533 9d3b 9452 93bb
00000200: f408 eabc b3f4 9d3c d148 603b 8425 82bb
00000210: e969 f43b 9bee 6f3b 2088 d53b b8bb 73bd
00000220: e982 0dbc 0949 1dbd 5293 53bd d957 1b39
00000230: b491 44bc 2b97 b63b 8700 823d e203 423d
00000240: 1203 9fbd c29d 2a3c 69c8 253d ab87 0cbd
00000250: 313a d93c 0f16 333d 3b77 6a3d 5a47 d83d
00000260: c115 f33d 1033 5abd c8a9 bdbc 1793 19ba
00000270: 3ec8 afbd 1413 24bd 3021 7dbc f5b7 d9bd
00000280: b6d9 7cbd ca9b e2bc 0129 68bc 6079 bdbb
00000290: 7f90 ebbb 16ff 82bb 17be d03b aecc c33b
000002a0: 0026 b0bb 5c84 fd3b b7f2 2f3c ebce 823b
000002b0: 9fde 823b 35af 823b add2 823b adef 823b
000002c0: 04dc 823b 2325 823b 2138 823b 4345 823b
000002d0: 59e6 d839 53c7 b13c 6b49 a93d d215 183c
000002e0: 02c1 253d 4f08 b63d 246d 2ebd 0b04 78bc
000002f0: dcd3 403d 98c1 01bd 7616 393c ae07 173d
00000300: 6bf8 7fbc c713 d73c d129 3a3d f594 19bd
00000310: 1623 25bc d25e 993c 8b80 e0bc 43f3 1d3c
00000320: de46 de3c 977d 8ebc 4d3c a03c d62b 1a3d
00000330: 622b 10bd e892 e5bb b685 a63c f2fa 3bbd
00000340: d256 423d 26a1 353d 6d77 b8bd 95b4 cd3c
00000350: 419e 343d 1e19 9fbd fa10 173d 7af6 183d
00000360: a137 20bd 2ca9 af3c cf3b 32bb 57c0 3dbc
00000370: 56d2 143d a473 bf3c 8255 a63c b652 873d
00000380: 3d5a 583d 2b98 dd3c 5c29 14bb 46a3 cc3b
00000390: 6240 7a3c 6a24 3fbc f90e febc 2ac5 253b
000003a0: d6ad 01bc a019 ebbc 1cf8 62bc 784b 4cbc
000003b0: 4c04 f0bb 3ffc b93b 9ac9 0c3c f03d 1e3c
000003c0: 5ed6 e8bb be68 77ba 97f6 3c3b fd04 c4bc
000003d0: 6532 b83c 9cb2 2e3c ec8c 313c 5547 79bc
000003e0: 4c22 1ebd 58b6 853d 5204 853c 1230 9b3c
000003f0: e634 c03c 6292 2a3b 76e7 fabc fb38 8e3b
-0.059454527 -0.04642835 -0.03395788 -0.03381451 -0.016676899 -0.0074378788 -0.019432861 0.0023244137
0.014044517 -0.028001932 -0.00965287 -0.014621478 0.004597756 0.004428551 0.006908253 0.017285526
0.0124005405 0.006769097 -0.015755441 -0.008134693 -0.0066360836 -0.0045527183 0.0039505335 0.0045515196
-0.0058373096 0.0050365455 0.0074668596 0.004134092 -0.00795343 -0.024855565 0.0410232 0.033573866
0.005537018 0.0029371008 0.015817422 -0.010318843 -0.007997653 -0.01188714 -0.04093301 0.013362281
-0.0461009 -0.059840284 -0.041756436 -0.073360965 -0.07434889 0.038811676 0.020296667 -0.04169506
-0.057949744 -0.033934683 -0.024299571 -0.054942947 -0.0100866025 0.06635158 -0.013609509 -0.003142763
-0.0058344323 -0.0021219836 0.007898587 0.007096214 -0.00470909 0.005806919 0.0117094945 -0.0634591
-0.036786042 -0.029604299 -0.042514957 -0.010966755 -0.0021276772 -0.03408442 0.006286148 0.022700574
-0.040555313 -0.033957608 -0.042807937 0.038618084 0.030795086 0.0048383204 0.05756151 0.044407025
0.024866996 -0.041719314 -0.051208694 -0.022928976 -0.048391845 -0.067445904 -0.052658312 -0.09732318
-0.11278109 -0.103877805 -0.029210268 -0.0075032627 -0.001998915 -0.0026991416 0.016873833 0.02051504
-0.007375167 0.021693202 0.030018833 0.034810964 0.07784434 0.034202244 0.019647636 -0.0011502475
0.01646269 0.027071012 0.0081212055 0.014868522 -0.01428548 -0.00651559 -0.0062743607 -0.002894329
0.0058585573 0.005459621 -0.0062607 0.004086259 0.0065150475 -0.013153903 -0.006615025 -0.0067218835
-0.0034443499 0.004580291 0.0043749167 -0.003399164 0.006985867 0.009646816 0.004797446 -0.004495928
-0.028568722 0.01928172 0.003422309 -0.0039717574 0.0074589145 0.0036610726 0.0065164715 -0.059505194
-0.008637168 -0.03839973 -0.051654167 0.00014814678 -0.011997629 0.00557222 0.06347757 0.047366984
-0.077642575 0.010413589 0.04047433 -0.03430907 0.026517006 0.04372221 0.057242613 0.10560484
0.118693836 -0.053271353 -0.023152247 -0.0005858405 -0.08583115 -0.040057257 -0.015449807 -0.1063079
-0.061731063 -0.027662177 -0.014169932 -0.0057822913 -0.007188856 -0.003997694 0.0063703167 0.0059753275
-0.0053756237 0.0077367257 0.01073902 0.0039919517 0.0039938237 0.0039881715 0.0039923997 0.0039958567
0.003993513 0.003971712 0.0039739762 0.003975542 0.00041370353 0.02170149 0.082659565 0.009282546
0.04046727 0.088883035 -0.042584553 -0.015137683 0.047077045 -0.031678766 0.011296859 0.03687256
-0.015623192 0.026254548 0.045450035 -0.037495572 -0.010079166 0.018721972 -0.027405044 0.009640518
0.027133401 -0.01739387 0.019560004 0.03763946 -0.035197623 -0.007006038 0.02032743 -0.045893617
0.04744608 0.044343136 -0.09007154 0.025110522 0.044096235 -0.077684626 0.036881424 0.037344433
-0.03911555 0.021442972 -0.0027196293 -0.011581502 0.036333404 0.023370571 0.020304445 0.06607573
0.052820433 0.027050098 -0.002260766 0.0062450496 0.015274139 -0.011666397 -0.031012999 0.002529452
-0.007914981 -0.028698742 -0.013853099 -0.012469165 -0.007324731 0.005675822 0.008592987 0.009658322
-0.0071056327 -0.000943791 0.0028833502 -0.02392816 0.022484967 0.010662701 0.010836821 -0.015214761
-0.038606927 0.0652892 0.016237412 0.01894382 0.023462724 0.0026027192 -0.030627947 0.0043402887

1.bn1.weight f4 [64]
00000000: 22fb 2b3e e72c 853e 6727 3cb5 4696 893e
00000010: b7f6 1ab5 69c1 503e 8f1e 51b8 6753 903e
00000020: caee 263e 3cdb cf3e c977 0c3e 0a15 143e
00000030: 60c4 c23e fbfc 823e abe3 26bb 8330 8934
00000040: 92b6 46b8 7e93 cf3e 7a56 c038 89c5 9d3e
00000050: f4aa 97b8 b4e0 de3e 207c a434 756e bd3e
00000060: 2d40 30b8 4076 1c3e 3c1c 423f 221a f534
00000070: db7f 383e 5ae0 923e c422 99b6 5e54 a63e
00000080: 0598 a63e d3f6 913e aff7 95b4 1ea3 9c3d
00000090: fa9a 733e ed4b c338 2c00 a03e 0dc7 bf3e
000000a0: 33cc 7d3e 55bb 8438 2bb1 c03e ff78 f336
000000b0: e55e 0d3e 5310 533e 1938 f83d 7fc3 ba3e
000000c0: 8d8d d93e 74f5 b43e d49c ad3e 74c1 ceb7
000000d0: 1892 e73e a1bb 7a38 9328 9039 6f17 983e
000000e0: f8af 873e d70a 30be 501c 163f 48d7 ebb5
000000f0: 5e6d 0539 49ad a23e 1d7b f83d f966 113e
0.16795018 0.2601082 -7.0092796e-07 0.26872462 -5.772849e-07 0.2038628 -4.9857943e-05 0.2818863
0.16302028 0.4059695 0.1371757 0.14461151 0.38040447 0.25583634 -0.002546529 2.5553535e-07
-4.737691e-05 0.40542215 9.171381e-05 0.3081477 -7.2320836e-05 0.4353081 3.0637693e-07 0.36998335
-4.202144e-05 0.15279484 0.7582433 4.565382e-07 0.18017523 0.28686792 -4.5638026e-06 0.32486242
0.32537857 0.28508624 -2.7933626e-07 0.076483 0.23789588 9.312467e-05 0.3125013 0.3745655
0.24784927 6.329144e-05 0.37635168 7.25605e-06 0.1380573 0.20611696 0.12120075 0.36477277
0.42490807 0.35343516 0.33908713 -2.4647197e-05 0.45228648 5.9779388e-05 0.0002749605 0.29705378
0.2650144 -0.17191635 0.5863695 -1.757152e-06 0.00012724611 0.3177283 0.12132857 0.14199437

1.bn1.bias f4 [64]
00000000: c541 923e dd7a 10bd 82b6 25b7 59e7 44be
00000010: b475 a6b7 fda0 533c 2f1c 6cba b8ec d33d
00000020: 8a5c febd a15a a9be 3aef fdbd a5fe 0bbd
00000030: 0bcb 12be c0cd 1a3d 995f 91bc 272e 28b7
00000040: 944d 04ba 0629 773e a105 95ba 8e63 7a3e
00000050: 9099 8cba 7ada f73d bfc9 c0b7 ef37 f63d
00000060: 224c 1dba c664 a93e 2b73 343e 8275 81b7
00000070: b982 353e 72e2 b63d d045 a8ba 5628 bf3c
00000080: 6cae 9b3e 5c26 66be b5dd 24b7 f18e 823e
00000090: a1e5 4a3d 4183 25bb eb6a 273d b5db f4bd
000000a0: 3b01 853d 8861 3eba 0120 04be f6d0 08b9
000000b0: 49e8 483e 19bd 3ebe f7b5 823d 95b8 18be
000000c0: dbe1 2c3f 86c9 133d 9ae5 5cbd 31ad edb9
000000d0: fbb1 90be dd3c e7ba d5c1 28bb 94dc a4bd
000000e0: 95db f83d 5171 57bd 4ccf 523d 4b19 96b9
000000f0: 4c77 c9ba 33fb a2be 3afb 56bd 1c8d 473e
0.28565803 -0.03527342 -9.87726e-06 -0.19228877 -1.9843552e-05 0.012916801 -0.0009006885 0.10347885
-0.12419994 -0.33076957 -0.123991445 -0.034178395 -0.14335267 0.037793875 -0.01774578 -1.0024326e-05
-0.00050469604 0.24136743 -0.0011369475 0.2445204 -0.0010726918 0.12102218 -2.2982129e-05 0.12022387
-0.00060004194 0.33084697 0.17622058 -1.5432717e-05 0.17725648 0.0892991 -0.0012838189 0.023334663
0.3040651 -0.2247557 -9.826782e-06 0.2549968 0.049535397 -0.0025255235 0.04087345 -0.11955968
0.06494375 -0.0007262458 -0.12902834 -0.00013047815 0.1961986 -0.18626823 0.06382363 -0.14914162
0.6753213 0.03608086 -0.053929903 -0.000453332 -0.28260788 -0.001764204 -0.0025750299 -0.080498844
0.12151257 -0.0525983 0.051467225 -0.00028629074 -0.0015370636 -0.31832275 -0.052485682 0.19487423

1.conv2.weight f4 [64, 64, 3, 3]
00000000: b128 0dbe 7b6c b5bd 2230 02be 1df7 ac3c
00000010: bfb6 013e d8ca a43d 3b4a 97bd 1eb0 763d
00000020: dafc 4f3d 6576 083c f780 46bc 4cc0 b9bc
00000030: fde8 75bd 3049 82bd 4659 b7bd 7b3d 56bd
00000040: b78b 38bd a1b0 6dbd a4f5 6fba ae47 6eba
00000050: ce37 6eba 6223 70ba 9d13 6eba b932 6eba
00000060: f125 6fba eafc 6dba 778e 6dba 2fe0 583d
00000070: 1e72 1c3d ce51 353e 8b47 e73b 1ad8 14bd
00000080: d577 96bb 50ef 873d f13b 813c a41c c2bd
00000090: 0e14 72ba 168b 73ba dea3 72ba 6fd2 72ba
000000a0: 31eb 72ba 01fd 71ba 1348 70ba bfe9 6fba
000000b0: 3c94 6fba 274d a53d a8ca afbd 0c73 b23c
000000c0: e944 efbc e7c6 e7bd d967 8cbb ac31 4d3d
000000d0: 0872 a93c 1c0d 083d 1bda 8bbb 9823 09ba
000000e0: 14d1 25b9 578d 76bb 4f44 91bb cd00 62bb
000000f0: d319 adbb 948f edbb 1acc 05bc 4169 783d
00000100: 7597 8fbd 95e5 38be 92cb 2ebd 7204 98bc
00000110: 0eb9 8dbd ef5c f4bd bde2 a03b 5aa8 be3d
00000120: 8841 ce3d 7881 c03c 6ba7 0e3b 512e cbbc
00000130: a523 a5bd 16f6 abbd 5c9e 37bd 1ac9 65bd
00000140: 55b8 78bd 0193 3cbd 7caf 223d 64e7 293c
00000150: e5a2 833c 21b5 c23d 9947 b93d f308 49bd
00000160: db99 f43b 1c9c d83b 33db 493d 5658 4abc
00000170: 9126 2dbd 9ecb a43c f14b 01bd 2a58 edbc
00000180: 95c4 a93c d363 163c 82a2 2b3d 5c14 c9bc
00000190: 0db1 b5bc 23de 97bc 84d8 85bb fb13 fd3c
000001a0: 46d5 1a3d 3347 163c 5ff7 a63d bd67 be3d
000001b0: 61e2 7abc efbf aa3d 5a3a 253e 3d3a edbc
000001c0: ef86 b8bc b674 f0bd 5a82 313d 2908 093d
000001d0: 22cb abbd 215e a2bc 2204 803d bce0 b23d
000001e0: e85d 943d 2cbf e73d bcfc 4f3d fd1e 8dba
000001f0: 91d7 8f3d 580a b13d b0dc 943d 4bc1 b13d
00000200: ba56 103e c62b 003d a98a 563d 4ebf 4a3d
00000210: bcbd 013d cb5b cc3d 4a44 a13d f3e7 6fba
00000220: 39bd 6dba fbb9 6dba ee3b 6eba 8a75 6bba
00000230: 1985 6bba 92ca 6eba a505 6cba afd8 6cba
00000240: 9e48 4bba d78a e8b7 3e12 9039 d9e7 c8ba
00000250: ecb7 61ba d1e7 dab9 adee a7ba 34d4 b7ba
00000260: 3be5 84ba c8f6 933c d721 20be b119 57be
00000270: 215b e13c d3be c33c d89b 573d a4f0 c3bd
00000280: 08ed 3b3c da1c 003e 0722 86b8 abbc 39b9
00000290: c156 14b9 dc38 2fba d554 6aba 0432 43ba
000002a0: 7e13 5eba d448 a1ba 1389 8cba 0980 c5bd
000002b0: bf6a 813d 2623 8e3d fc6d ca3c 8d58 263e
000002c0: ad81 143d cded 76bd fe38 25bc e23c b3bd
000002d0: 7ba5 b3bb 692c 70bb 7df5 413b c854 ddbb
000002e0: dc6d fdb7 03a0 053c c52a 0eba e928 573b
000002f0: 76cd 0a3c 9e3d 9abc 80a7 26be 9da3 943d
00000300: c648 4abd c844 03be 51c0 25bd 0133 fc3c
00000310: 2518 df3d 83df 213d 8197 6fba 5b23 6fba
00000320: 6ecd 6eba 8b66 70ba 0ef3 6eba 6b07 6fba
00000330: b28c 71ba b601 70ba ec50 70ba 51ce 8fbd
00000340: 7385 8a3b af2b 96bb 290f 6cbc 039e 0a3d
00000350: 00aa 83bb 982f c1bb 410e 063e e5ee f93d
00000360: baba 97ba 769f 85ba 89c6 51ba f242 c5ba
00000370: 42d3 5d3a 3dd7 463a 52a8 f4ba 4b13 e639
00000380: c8b5 bd3a 5df8 15bd 6299 823c 0486 b43d
00000390: 1d73 b1bc e99b 283d 94ae 023e 41ca 8bba
000003a0: de76 a03d 8b55 1a3e f1c2 f63b fc96 37bc
000003b0: 58d4 33bd 899c 14bc 11bc 89bd 209c 56bd
000003c0: 9f9f 8ebd 2cad 32bc a2c5 073c 74c9 6dba
000003d0: 9412 6eba 8657 71ba 9d79 66ba eee0 64ba
000003e0: 8843 6aba d297 6cba 705b 6bba 2c8d 6dba
000003f0: 23ec 5d3c 31f8 113c a4ca 95bc 25b9 5c3d
-0.13785054 -0.08858582 -0.12713674 0.021113927 0.12667368 0.08046502 -0.07387205 0.060226552
0.050778247 0.008329009 -0.012115709 -0.022674702 -0.060036648 -0.06361616 -0.089525744 -0.052304726
-0.045055117 -0.058029775 -0.000915373 -0.00090896606 -0.0009087295 -0.0009160546 -0.0009081902 -0.0009086538
-0.000912278 -0.00090785197 -0.00090620614 0.052948173 0.038194768 0.17706987 0.007058089 -0.036338903
-0.004591922 0.06637442 0.015775653 -0.09478119 -0.0009234556 -0.000929044 -0.00092559855 -0.00092629244
-0.00092666136 -0.0009231121 -0.00091660133 -0.00091519573 -0.0009139215 0.08071356 -0.085835755 0.021783374
-0.029207664 -0.113172345 -0.0042848405 0.0500962 0.020684257 0.033215627 -0.0042679436 -0.0005231439
-0.00015813514 -0.0037620866 -0.004433192 -0.003448534 -0.0052826195 -0.007249782 -0.008166337 0.060647253
-0.0701131 -0.18056329 -0.04267461 -0.018556807 -0.06920062 -0.11931788 0.004909842 0.09309454
0.10071093 0.023499236 0.002176727 -0.024802359 -0.08063439 -0.083965465 -0.044828758 -0.05609999
-0.060722668 -0.04603863 0.039718136 0.010370109 0.016068885 0.09507204 0.09046859 -0.0490808
0.00746463 0.0066104066 0.04928131 -0.0123501625 -0.042273108 0.020116623 -0.031566564 -0.028972704
0.02072362 0.009179073 0.041903026 -0.02454584 -0.022179151 -0.01853854 -0.0040846486 0.030893316
0.03780105 0.009172249 0.08152651 0.0929713 -0.015312762 0.0833739 0.1613554 -0.028958434
-0.022525279 -0.11741011 0.043337204 0.033455048 -0.08388354 -0.019820275 0.06250788 0.08734271
0.07244474 0.1131576 0.050778136 -0.0010766682 0.07023538 0.08644551 0.07268655 0.08679446
0.14095584 0.031291746 0.05237833 0.04949885 0.031675085 0.099784456 0.07874353 -0.00091516896
-0.0009069029 -0.0009068546 -0.000908791 -0.0008982053 -0.00089843717 -0.0009109165 -0.00090035266 -0.0009034974
-0.0007754656 -2.7721208e-05 0.00027479412 -0.0015327885 -0.00086104753 -0.00041752917 -0.001281222 -0.0014025033
-0.0010139117 0.01806201 -0.15637909 -0.21005894 0.027509274 0.023894703 0.05263886 -0.09567383
0.011470087 0.12511006 -6.395956e-05 -0.00017713259 -0.00014146698 -0.0006684193 -0.00089390326 -0.00074461126
-0.00084715325 -0.001230503 -0.0010722004 -0.096435614 0.06319188 0.06940298 0.024710648 0.16244717
0.03625648 -0.06028538 -0.010084389 -0.08751847 -0.0054823733 -0.0036647564 0.0029595785 -0.0067544915
-3.0211108e-05 0.008155826 -0.0005423243 0.003283078 0.008471837 -0.01882821 -0.16274834 0.07257769
-0.04938581 -0.12819207 -0.04046661 0.03078604 0.10893277 0.039519798 -0.00091397023 -0.0009122395
-0.0009109591 -0.00091705535 -0.00091151975 -0.0009118232 -0.00092143856 -0.00091555284 -0.0009167332 -0.070217736
0.004227334 -0.004582844 -0.014407911 0.033842098 -0.0040180683 -0.005895566 0.13091375 0.12203769
-0.0011576035 -0.0010194618 -0.00080023013 -0.0015049858 0.0008461961 0.00075851736 -0.0018665886 0.00043883393
0.0014473731 -0.03661381 0.01594228 0.08814624 -0.021661336 0.041164313 0.12761909 -0.0010665135
0.07835172 0.15071695 0.007530563 -0.011205431 -0.04390368 -0.009070524 -0.06725324 -0.052394986
-0.06964039 -0.010905545 0.008286865 -0.00090708514 -0.0009081748 -0.00092064624 -0.00087919255 -0.0008731027
-0.00089364545 -0.00090253085 -0.0008978164 -0.0009061869 0.013545069 0.008909271 -0.018285103 0.053887505

1.bn2.weight f4 [64]
00000000: 1b35 833f b46b 89bb f99c daba c344 babc
00000010: 4292 3abd 714d 243e 361e 2b3b bc6d c93f
00000020: 73f7 133c 0f47 e6bc dfd7 b43f ef5e fe3b
00000030: de6a a83e 2b1c 8bbc 37a1 1b3f a2b3 093d
00000040: e900 89be d8dd 103f a7e1 ca3c 7e0a 1c3f
00000050: dcd7 0c3f 6225 81bb 45b8 103d fffa fa3c
00000060: 9fef 523d c491 9cbb a5ad 033f 9eee d2bc
00000070: bea9 f03e 843a 43bc 77c0 963d d44f a0bd
00000080: 41eb 513c 69b3 1c3f c215 e4bb deb1 4fbc
00000090: 9c1f ab3c 498c 8dbd 9d35 273f caf0 7b3c
000000a0: 5ffa c6bb 76e9 943d e198 bc3e 0c50 043d
000000b0: 64b0 58bd fe10 ff3e 5725 a63c 872c 773d
000000c0: 30da 093e b5b7 853f b49f 913b ee72 ef3b
000000d0: e7e7 4fbd 0ee1 c53f bdc5 8c3c 8c25 f0bc
000000e0: d5e2 ccbd e6c8 143f cf13 c1bc 0af9 00bd
000000f0: cdf2 53bd e201 703d d70b d13e 92ad 64bd
1.0250582 -0.0041937474 -0.0016678862 -0.022737866 -0.04554964 0.16045167 0.0026110536 1.5736613
0.009031164 -0.028110055 1.4128379 0.007762782 0.32894033 -0.016981205 0.6079287 0.033618577
-0.26758507 0.56588507 0.024765803 0.6095351 0.55016875 -0.003941224 0.035331983 0.030637262
0.05149805 -0.004778119 0.51436836 -0.025748547 0.47004503 -0.011915807 0.073609285 -0.07827726
0.012812437 0.6121126 -0.0069606015 -0.012676684 0.020889096 -0.06911523 0.6531618 0.015377233
-0.006072327 0.07271092 0.36835387 0.0323029 -0.052902594 0.49817652 0.020281477 0.0603452
0.13462138 1.0446688 0.004444087 0.007307402 -0.05075827 1.5459306 0.017184133 -0.029314779
-0.10004202 0.58119047 -0.023569016 -0.031487502 -0.051745225 0.058595546 0.40829346 -0.055829592

1.bn2.bias f4 [64]
00000000: 497c 813f 9852 d63c 499b 283d 7a59 653c
00000010: 25b6 5fbd 6983 e2bd b0cb f33c a572 be3f
00000020: 2aa7 09bd 6ebc b63b 51fa 643f c9af 813c
00000030: bb7c 883d 3091 203d f971 813e 897e f53c
00000040: d570 b7bb 19d8 1d3e c6e3 fe3c 828c 963e
00000050: 8f20 1c3e 539c 193d c979 1e3d 9176 113d
00000060: 72a6 043d 21b7 f93b 5d29 643e e0fe b93c
00000070: fe4d 303e 1aae 7c3c 51dc 89bc 7390 3cbd
00000080: 1db4 09bc 774c ae3e 510d 4c3c d863 2fbd
00000090: ba18 b3bc 76a5 8ebd fc6e 853e 759a 083d
000000a0: 0c4f c43c d1c7 4fbd ad44 5a3e 13d4 333d
000000b0: 789a 0cbd f322 7e3e 1ffd 383b 6b8d a9bd
000000c0: 16d5 f03c ec46 0b3f e0b9 77bd be28 9a3c
000000d0: 9b88 0c3d c37c 313f 7e1f 05bd 1ff6 183d
000000e0: 9470 113d aa90 2d3e 1efe d53c e7c0 03bd
000000f0: 7e91 a3bd c8cd 47bd b3d4 5b3e dfd4 24be
1.0116054 0.02616243 0.041163716 0.013998384 -0.054617066 -0.11060221 0.029760212 1.4878737
-0.033606686 0.005576662 0.8944445 0.015830891 0.066644154 0.03920096 0.25282267 0.029967563
-0.0055981674 0.15414466 0.03111447 0.29404074 0.15246795 0.037502598 0.038690362 0.035513464
0.032385297 0.0076207076 0.22281404 0.022704542 0.17217252 0.015422368 -0.016828688 -0.046036195
-0.008404759 0.34042713 0.012454347 -0.042819828 -0.021862376 -0.06965153 0.26061237 0.033350427
0.023963474 -0.05072767 0.2131526 0.04390342 -0.034327 0.2481802 0.0028227044 -0.082789265
0.029398482 0.54405093 -0.06048 0.018818256 0.034309965 0.69330996 -0.032500736 0.037344094
0.035507753 0.16949716 0.02612215 -0.032166388 -0.07986735 -0.048780233 0.21467857 -0.16096829

2.weight f4 [4, 64, 3, 3]
00000000: e086 ea3d d75d 2e3e 79dc 13bc ea5d a13e
00000010: b992 383f bfc5 1e3f 724e 6a3e a447 393f
00000020: 2ef5 563f ffce 83bd 42cb 1dbd ae07 4abd
00000030: 41a8 64bd 7247 13bd f3b6 debc 0df4 0ebd
00000040: daf9 e4bc d4e6 5ebc 4ea9 41bc 9c43 ef3b
00000050: 41b5 073c 4767 463c 4302 f13c e0ce 003d
00000060: 47de 2c3c ec5f e23c 2991 ef3c 0fa6 23bd
00000070: eb29 b6bc 9c5e 69bb 50e8 dcbc 55db 61bd
00000080: 4959 76bc a248 7dbc 8312 1ebd a271 c43c
00000090: 0fec 4e3b 04c6 b5bb 2c1c aebc 9955 bd3c
000000a0: 6163 933b 097b adbc f037 583d a81b f539
000000b0: d685 8abd 7d25 1fbd 42ea 0ebb 9576 c9bd
000000c0: 25cb 81bc d5e4 3e3c 5046 13bd 0b24 d93c
000000d0: 7de9 b4bc 79f9 96bc 43cc 9cbc c14c eabb
000000e0: d977 15ba d3a5 173b 09eb 173c 71a9 853c
000000f0: 716e 943a 42e2 183c f1c2 803c e2b0 3c3e
00000100: 4e3e 7b3e 3d8c 993d c31e cc3e f296 7b3f
00000110: 7394 873f 5542 5e3e 1636 7d3f 20bd a73f
00000120: c317 a83a 33af 19bc 1715 2bbd e8d2 273c
00000130: 1ce1 5b3b dbc2 40bc aefe 8c3c 4ed2 1d3d
00000140: 7edd 0e3d bc4a dc3b a07a e33a 05dc 96bc
00000150: 5033 dfba f3c9 cdbc 6dd8 63bd 0f2d 4bbc
00000160: bbba 67bd 50e7 34bd 6d85 b33d 19df 353e
00000170: a9f2 fb3d 4cc8 3f3e 31aa 9a3d a570 873d
00000180: f0ef 873c c86c 233d 6889 3fbe 2103 3ebd
00000190: 79e7 1b3d 4c3d 3dbc d8c9 2cbc 6f95 ccbb
000001a0: 3d9c dcbc f400 7fbd 3bbf 20bd cae2 99bb
000001b0: 0094 f03c 8023 a4bc 4160 423d 2736 173d
000001c0: c310 cd3d 52df 103e a63c f3bb a45b b83d
000001d0: 5e44 013e 93a2 26bc 0768 563b eb52 693b
000001e0: 0004 563c 2e36 b23c a209 bd3c 9284 483c
000001f0: 8de6 a93c 1176 b63c d8c8 2f3e 569b 203e
00000200: d9c5 0d3e f350 083e 9f50 e03c 4872 b83d
00000210: 75fc 9f3c f229 26bd 61b4 1cbd 84b5 63bd
00000220: fb6e eebc c07e 89bc e438 0c3a 0efc 633d
00000230: 971c 983d f885 893c 624f c03d 71e3 b23d
00000240: ec3d 4fbd 788d 6fbd f5af 223d 90cd 153d
00000250: 71cd 663d 5952 0a3e 9aa8 0f3d 8a5d e03d
00000260: 6e78 1e3e ba89 e1bd b683 8ebe 670d 6abe
00000270: 319c d33c ea0a 0d3c 8074 d3bd bcfb 90bd
00000280: 44f9 0e3d 3f07 6b3d 70c5 8abc 9e7c 28bc
00000290: 9474 b4ba a8ba 4a3b 2f64 353c 9af3 963c
000002a0: a0f4 353a e595 323c e737 8d3c c6d1 833c
000002b0: 7c52 ad3c 0eae 2f3e 4731 32bd 1f12 0d3d
000002c0: f593 7a3e acdd ecbd 9792 883d 5c96 183e
000002d0: cc62 b43d b6fd 353d 1fee 843d 905b 1a3e
000002e0: 6e47 5e3e 5842 313e f9c9 a53d 3b9d 2f3e
000002f0: 4530 123e 1b4e 81bc c6e6 de3c 118b be3c
00000300: e9cd 883c aa6d 163d 319b fc3c 45e9 78bc
00000310: 235e 563d 2657 793d 020d a5bc 3210 b13c
00000320: d7c1 873c 49c4 813c 9a7e 143d 06a1 0e3d
00000330: 2dcc f0bb 4236 2b3d 696d 403d 862a bdbd
00000340: 25b9 46bc 83f6 14bc 0624 873d 6fff 3f3d
00000350: 3187 e43d 5101 e63c 2f41 8c3d dddb 523d
00000360: 8490 c9b7 323d adbc d9a8 b1bc bd8e 7d3d
00000370: d6cf ba3d 487a cb3d 534d da3c 0979 a53d
00000380: acdc aa3d bf40 95bc 25f7 c5bc 6fd3 a73c
00000390: a0f7 66bc 7de1 b1bc 4adc 8f3b ab49 84bc
000003a0: 4386 20bc 81c6 5abc 57ca 3f3d 03cf 583d
000003b0: 5212 873d 0d67 cc3d 1156 593e 9287 0f3e
000003c0: 13b0 203d 29a1 123e 952d 103e df53 583d
000003d0: 88ef 183d 5149 cbbc 89ef 4a3c 363e 5f3c
000003e0: 698f 483d 6fed 80bc 7cf8 fc3c ee0a 00bd
000003f0: dd84 733d f3b9 853d b2db db3d f412 873d
0.114515066 0.17027985 -0.009024733 0.31516963 0.7209888 0.62020487 0.22881487 0.7237494
0.83967865 -0.06435966 -0.03852392 -0.04932373 -0.055824522 -0.035956807 -0.027186846 -0.034900714
-0.02795117 -0.013604838 -0.011820151 0.007301761 0.00828296 0.012109584 0.029420024 0.03144729
0.010551042 0.02763363 0.029244022 -0.039953288 -0.022236785 -0.003560937 -0.026966244 -0.055140812
-0.015035936 -0.015459212 -0.038591873 0.023979966 0.0031573807 -0.005547287 -0.021253668 0.023112105
0.004497931 -0.021176832 0.05278772 0.00046750647 -0.067638084 -0.03885411 -0.002180711 -0.09837071
-0.015843937 0.0116512375 -0.035955727 0.026506444 -0.022083992 -0.018429505 -0.019140368 -0.007150263
-0.00057017576 0.002313961 0.009272345 0.016316148 0.0011324418 0.009331288 0.015717955 0.1842685
0.24535486 0.074974515 0.3986722 0.982772 1.0592178 0.21704991 0.98910654 1.3104591
0.0012824464 -0.00938015 -0.04176816 0.010243155 0.0033550924 -0.011765207 0.017211284 0.03853064
0.0348792 0.006722776 0.0017355271 -0.01841546 -0.0017028842 -0.025120711 -0.05562632 -0.0124008795
-0.056574564 -0.04416591 0.08765683 0.17760886 0.12302143 0.18728751 0.07551993 0.06613282
0.016593903 0.039898664 -0.1870476 -0.046389703 0.038062546 -0.011550259 -0.01054617 -0.0062434
-0.026929969 -0.06225677 -0.03924487 -0.004696225 0.029367447 -0.020036459 0.047455076 0.036916878
0.10012963 0.1414769 -0.0074230013 0.09001854 0.12623736 -0.010170597 0.0032715814 0.0035602401
0.013062477 0.02175435 0.023075882 0.0122386385 0.020739818 0.022273095 0.1716646 0.15684256
0.13845004 0.1331213 0.027382193 0.090061724 0.01952956 -0.040567346 -0.03825796 -0.05559303
-0.029105654 -0.016784072 0.00053490535 0.0556603 0.07427328 0.016787514 0.09390141 0.08734787
-0.050596163 -0.058484524 0.039718587 0.036572993 0.056348268 0.13507976 0.0350729 0.10955341
0.15475628 -0.110125974 -0.27834862 -0.22856675 0.025831314 0.008608559 -0.10324955 -0.070792645
0.034905687 0.057379957 -0.016939849 -0.010283617 -0.0013767653 0.003093401 0.011071249 0.018426705
0.0006941054 0.010899995 0.01723857 0.016091239 0.021157496 0.1715624 -0.043504026 0.03444111
0.24470504 -0.11565718 0.06668585 0.14901108 0.088079065 0.04443141 0.064907305 0.15073991
0.21706936 0.17310464 0.08095164 0.17149822 0.14276226 -0.015784314 0.02720965 0.023259671
0.016699748 0.036725678 0.03083572 -0.015192335 0.05233587 0.060874127 -0.020147804 0.021614168
0.016571922 0.015840666 0.03625355 0.034821533 -0.0073485584 0.04179979 0.04697934 -0.09236626
-0.012129103 -0.009091976 0.06598668 0.04687446 0.11158598 0.0280768 0.0684837 0.05147921
-2.4028363e-05 -0.021147344 -0.021686958 0.061903704 0.09121673 0.09935433 0.0266482 0.08079726
0.08342871 -0.01821935 -0.0241657 0.020486562 -0.014097124 -0.021713967 0.004390274 -0.016148409
-0.0097976355 -0.013352991 0.046823826 0.052931797 0.06595291 0.09980593 0.21224238 0.1401656
0.039230417 0.1431929 0.14079888 0.05281436 0.03733781 -0.024815233 0.012386211 0.013625672
0.04896489 -0.015738217 0.030880205 -0.031260423 0.05945288 0.065296076 0.10735263 0.06595412

2.bias f4 [4]
00000000: b547 803d fcc3 193e 21f9 acb4 2318 beb4
0.06263677 0.15016168 -3.2218762e-07 -3.540782e-07
