expert_target_aware/mocosflV2_ResNet18_cifar10_cut2_bnlC4S2_expert_batchsize128_ressfl_2.0_SSIM0.6_data_proportion_0.005_aux_svhn/checkpoint_c_best.tar (torch, 316626 bytes, 11 tensors)

0.conv1.weight f4 [64, 3, 3, 3]
-0.09550603 -0.32803237 -0.08412315 -0.12899792 -0.21080515 -0.17395355 0.20419815 -0.06855182
-0.15957081 -0.13331081 -0.22759376 0.0648859 -0.037017047 -0.1880028 0.01721305 -0.06509178
0.1335445 -0.12810974 0.13039218 -0.13538674 0.011510907 0.07335033 0.19563946 0.116324104
0.14616367 0.16728441 0.18579458 0.19841312 0.29159108 0.1497194 0.13167347 0.045017567
0.20724753 0.27584293 0.19109055 0.2646901 -0.03319306 -0.21636268 -0.20319565 -0.29003862
-0.1882263 -0.30058688 -0.04946636 -0.14524876 -0.08535468 0.04326191 0.06488821 0.046897493
0.016411737 -0.1246998 -0.018100617 -0.121716 0.024038186 0.04212533 -0.11383741 -0.052933734
-0.060487494 0.20316346 0.079136774 -0.009654101 -0.01162689 -0.115516424 -0.06425985 0.0812734
-0.0054516266 0.06952658 0.19241294 0.121646956 0.18476145 0.14696251 -0.018588185 0.061313245
-0.11499902 -0.21542247 -0.056171697 0.014438007 -0.07255767 -0.077557184 -0.19392987 -0.24567348
-0.049177628 0.0001898344 0.11390787 0.09972687 -0.0055388254 -0.041471757 0.17230235 0.07576386
0.042081 -0.066255674 -0.009081884 -0.09855471 -0.11482283 0.0012787159 -0.10272305 0.17885074
-0.1516639 0.15520605 0.059731312 -0.09817857 0.017628344 -0.13110855 0.06630579 -0.094362736
-0.041125648 0.09297622 -0.10246577 -0.1521627 -0.15810615 -0.11089304 -0.0606459 -0.14783573
-0.09805985 0.052562743 0.0018023065 0.18013898 -0.039641075 0.061018348 0.11664607 0.07236497
-0.037974082 0.046600867 -0.015929485 0.09098522 0.0714833 -0.0618986 0.2707845 0.09589939
0.061208904 -0.07024618 -0.030574793 -0.019573662 -0.04910429 -0.16417447 -0.11644887 -0.06938563
-0.06778328 -0.19163704 -0.18540213 -0.16249499 0.05247792 0.070192315 0.03977684 -0.12622954
0.07210304 0.049890414 -0.099812046 -0.092342466 -0.08397546 0.0425619 -0.049626105 -0.031469163
-0.03747458 0.24524044 0.037545405 0.191352 0.0018507688 0.06634471 0.18094537 -0.06519777
0.113862514 -0.095919475 0.048742626 0.18510507 0.13075393 -0.1248408 -0.0036698868 -0.1877828
-0.08524096 -0.11260672 -0.16888693 0.2059819 0.1637561 0.22296582 -0.17867914 -0.19684991
-0.19259171 -0.1901526 -0.0586677 -0.20512876 0.10717883 0.24194008 0.18730205 0.06062812
-0.05886581 0.07258323 -0.1799277 -0.14952993 -0.120521076 0.2951108 0.24436595 0.25187162
0.0928752 0.081990756 0.14305289 0.052997317 -0.07334983 -0.0706498 -0.18606153 -0.14372899
-0.23244788 -0.29762885 -0.18440406 -0.32062742 -0.056106456 -0.24119397 0.0034856459 -0.11064269
0.012693946 -0.107191995 -0.018401941 -0.030038862 0.0786614 0.18297617 0.03839177 0.13770251
0.041071985 0.050660063 -0.018445326 -0.116027094 -0.119430885 0.013920735 -0.020964796 -0.038717974
0.024365688 -0.03318052 0.20117405 0.15462163 0.105760366 0.22657095 0.070476346 -0.08259089
-0.036285296 -0.10633111 -0.025598595 0.03241896 -0.13782819 -0.05534433 -0.17292696 -0.2237631
-0.04707648 -0.0067475927 -0.21875535 -0.18143643 -0.1925968 -0.16124456 -0.049771555 -0.043871537
0.029307652 -0.06361929 -0.071667686 0.022238864 0.10981211 0.07874631 -0.0012699595 0.17491035
00000000: aa98 c3bd dcf3 a7be c248 acbd 0818 04be
00000010: 4edd 57be e120 32be 5219 513e e664 8cbd
00000020: 8866 23be a182 08be 570e 69be e6e2 843d
00000030: 309f 17bd ce83 40be 6202 8d3c d74e 85bd
00000040: e4bf 083e 332f 03be 8785 053e d2a2 0abe
00000050: 3e98 3c3c b338 963d b655 483e 553b ee3d
00000060: eeab 153e 9b4c 2b3e ef40 3e3e cf2c 4b3e
00000070: 6d4b 953e 0b50 193e 69d5 063e 5764 383d
00000080: b238 543e 493b 8d3e 3ead 433e 7685 873e
00000090: 72f5 07bd 2e8e 5dbe 8512 50be f17f 94be
000000a0: 65be 40be 86e6 99be 3d9d 4abd 17bc 14be
000000b0: 6fce aebd 6733 313d 1ce4 843d 9617 403d
000000c0: e871 863c 9c62 ffbd bf47 94bc 3d46 f9bd
000000d0: bbeb c43c 9c8b 2c3d 9723 e9bd 0bd1 58bd
000000e0: bcc1 77bd 150a 503e 7612 a23d 3c2c 1ebc
000000f0: b67e 3ebc e093 ecbd ab9a 83bd ab72 a63d
00000100: 8fa3 b2bb f463 8e3d e607 453e 0a22 f93d
00000110: 1b32 3d3e 577d 163e 4046 98bc 9923 7b3d
00000120: 9b84 ebbd b597 5cbe 4b14 66bd 648d 6c3c
00000130: 1e99 94bd 4dd6 9ebd 8d95 46be d491 7bbe
00000140: 7b6e 49bd 490e 4739 8848 e93d 9a3d cc3d
00000150: 097f b5bb 4ade 29bd 0770 303e 152a 9b3d
00000160: 205d 2c3d 0eb1 87bd 2fcc 14bc 0dd7 c9bd
00000170: 3b28 ebbd 969a a73a 7660 d2bd a624 373e
00000180: c84d 1bbe 56ee 1e3e d2a8 743d d911 c9bd
00000190: 5169 903c 5241 06be 54cb 873d 4041 c1bd
000001a0: 5e73 28bd 516a be3d 93d9 d1bd 8ad0 1bbe
000001b0: 94e6 21be e41b e3bd d667 78bd 4062 17be
000001c0: 9ad3 c8bd 084c 573d 5f3b ec3a 5a76 383e
000001d0: ae5e 22bd 60ee 793d 22e4 ee3d 1634 943d
000001e0: b68a 1bbd 8de0 3e3d 8d7e 82bc 7656 ba3d
000001f0: d665 923d 6389 7dbd 44a4 8a3e e666 c43d
00000200: 30b6 7a3d 3bdd 8fbd fd77 fabc f258 a0bc
00000210: 9421 49bd 5a1d 28be bf7c eebd 0e1a 8ebd
00000220: f6d1 8abd 803c 44be 0eda 3dbe 1665 26be
00000230: 16f3 563d fdc0 8f3d 0aed 223d 5142 01be
00000240: c2aa 933d e459 4c3d 426a ccbd 0c1e bdbd
00000250: 53fb abbd 6355 2e3d be44 4bbd cfe5 00bd
00000260: f27e 19bd 4f20 7b3e 36c9 193d c7f1 433e
00000270: 7f95 f23a bcdf 873d be49 393e 6986 85bd
00000280: c030 e93d 6e71 c4bd 59a6 473d 2f8c 3d3e
00000290: 5ce4 053e 89ac ffbd 7c82 70bb 224a 40be
000002a0: d092 aebd 5a9e e6bd b2f0 2cbe ebec 523e
000002b0: aeaf 273e 2751 643e aaf7 36be 0693 49be
000002c0: c336 45be 5db7 42be 8b4d 70bd 460d 52be
000002d0: 9380 db3d 24bf 773e 1ccc 3f3e 3155 783d
000002e0: 471d 71bd 84a6 943d f83e 38be 601e 19be
000002f0: c1d3 f6bd c318 973e 113b 7a3e 51f5 803e
00000300: 5a35 be3d c5ea a73d 757c 123e b713 593d
00000310: 7038 96bd d8b0 90bd ea86 3ebe b12d 13be
00000320: d106 6ebe cf62 98be 6bd4 3cbe 4729 a4be
00000330: e2cf 65bd 8dfb 76be 6f6f 643b a298 e2bd
00000340: 45fa 4f3c 7a87 dbbd abbf 96bc 0f14 f6bc
00000350: 3a19 a13d 1b5e 3b3e b040 1d3d e301 0d3e
00000360: 193b 283d ed80 4f3d a71a 97bc 9d9f edbd
00000370: 2e98 f4bd cb13 643c 5dbe abbc bd96 1ebd
00000380: 8d9a c73c 4ce8 07bd 9200 4e3e 2255 1e3e
00000390: e498 d83d 3702 683e e755 903d 6a25 a9bd
000003a0: e49f 14bd 20c4 d9bd 25b4 d1bc bec9 043d
000003b0: d522 0dbe bcb0 62bd c413 31be 2722 65be
000003c0: 44d3 40bd e91a ddbb 6701 60be 79ca 39be
000003d0: 1838 45be 4b1d 25be 42dd 4bbd a4b2 33bd
000003e0: 9a16 f03c d54a 82bd 82c6 92bd 472e b63c
000003f0: 2ce5 e03d bf45 a13d c574 a6ba b31b 333e

0.bn1.weight f4 [64]
0.686381 0.7492327 0.7754287 0.71245384 0.7808883 0.7496142 0.7912301 0.77903014
0.7122125 0.8499045 0.6047219 0.76003397 0.815986 0.7373595 0.82146764 0.6756408
0.86162513 0.7808519 0.8645871 0.74974155 0.80754215 0.7024854 0.7365651 0.7903311
0.6843242 0.75304276 0.75087607 0.80078787 0.8263002 0.7162761 0.68554044 0.81000006
0.7600092 0.6525025 0.69242895 0.7938922 0.7584995 0.815365 0.7841546 0.6703226
0.7459277 0.759355 0.61401665 0.8068709 0.63490355 0.86821693 0.6554221 0.6841236
0.7374649 0.83021164 0.77765745 0.7510662 0.7653379 0.7537093 0.58984715 0.7871209
0.68432283 0.6661931 0.82251567 0.79909205 0.74299973 0.7362201 0.7751601 0.7067334
00000000: aab6 2f3f b7cd 3f3f 7f82 463f 6063 363f
00000010: 4ce8 473f b7e6 3f3f 0e8e 4a3f 856e 473f
00000020: 8f53 363f 5793 593f 0ecf 1a3f 9691 423f
00000030: 75e4 503f 98c3 3c3f b44b 523f ccf6 2c3f
00000040: 7793 5c3f e9e5 473f 9555 5d3f 10ef 3f3f
00000050: 15bb 4e3f 15d6 333f 888f 3c3f 2453 4a3f
00000060: df2f 2f3f 69c7 403f 6a39 403f 6f00 4d3f
00000070: 6988 533f df5d 373f 947f 2f3f 2a5c 4f3f
00000080: f78f 423f 670a 273f 0643 313f 853c 4b3f
00000090: 062d 423f c3bb 503f 5bbe 483f 439a 2b3f
000000a0: 1ef5 3e3f 1765 423f 3230 1d3f 178f 4e3f
000000b0: 0a89 223f 7743 5e3f bec9 273f b922 2f3f
000000c0: 80ca 3c3f c088 543f 8f14 473f e045 403f
000000d0: 2fed 433f 18f3 403f 3900 173f c180 493f
000000e0: c82f 2f3f a28b 2a3f 6390 523f 4c91 4c3f
000000f0: 3b35 3e3f ec78 3c3f e470 463f 7bec 343f

0.bn1.bias f4 [64]
-0.021987338 -0.07482819 -0.06960033 -0.049572635 0.19218652 0.008796087 -0.0016656044 -0.11839826
-0.011756903 0.009611759 -0.08548903 0.05265063 -0.09784443 -0.026675051 -0.14597754 -0.07827864
-0.046326365 -0.010237391 0.09845094 -0.11400273 0.14661936 0.016221767 -0.029577583 0.0060168114
0.012389442 -0.06686912 0.038696058 -0.06553692 -0.109286144 0.016103182 -0.06675428 -0.0071792626
-0.026468469 -0.019128188 -0.09131301 -0.02892459 -0.01714116 0.009408777 -0.022012416 0.060053095
-0.052514546 -0.017100424 0.026283232 0.07758683 -0.08053536 -0.009951599 -0.030549828 -0.050428946
0.08146632 0.18611127 0.013626169 -0.09944158 -0.12999009 -0.033782985 0.05623896 -0.080779694
0.010576077 -3.2139546e-05 -0.065566406 0.022861347 0.09702625 0.020061336 0.013032705 -0.09781813
00000000: ca1e b4bc 863f 99bd 9e8a 8ebd ad0c 4bbd
00000010: 8bcc 443e 761d 103c 6950 daba c97a f2bd
00000020: 06a0 40bc a47a 1d3c df14 afbd 30a8 573d
00000030: a962 c8bd a385 dabc 237b 15be 8d50 a0bd
00000040: b7c0 3dbd bbba 27bc a5a0 c93d 437a e9bd
00000050: 6323 163e 83e3 843c b04c f2bc ac28 c53b
00000060: 16fd 4a3c adf2 88bd c27f 1e3d 3938 86bd
00000070: 6ad1 dfbd d2ea 833c 78b6 88bd 0540 ebbb
00000080: 67d4 d8bc b8b2 9cbc 5102 bbbd 43f3 ecbc
00000090: 9e6b 8cbc 4527 1a3c 6253 b4bc 3cfa 753d
000000a0: 7e19 57bd 3016 8cbc ef4f d73c d8e5 9e3d
000000b0: b9ef a4bd 080c 23bc a243 fabc 958e 4ebd
000000c0: d0d7 a63d f493 3e3e 4c40 5f3c 07a8 cbbd
000000d0: 1f1c 05be 0760 0abd d35a 663d d36f a5bd
000000e0: 4847 2d3c 93cd 06b8 ae47 86bd b847 bb3c
000000f0: b3b5 c63d ac57 a43c 2087 553c df54 c8bd

1.conv1.weight f4 [64, 64, 3, 3]
0.002919796 0.020699533 0.026216658 0.03659969 0.03572159 -0.017429458 0.020360038 0.013583376
-0.012916488 -0.0030405067 -0.025540158 -0.002686129 -0.026769353 0.007331478 -0.023769828 0.010078861
-0.008293795 -0.021649422 0.022417331 0.009040325 0.010069822 0.025903992 0.03201888 0.024858307
0.007871579 0.015124143 0.056904394 0.020840835 -0.0009000494 -0.027648339 0.022759058 0.012730974
-0.011729565 -0.014335909 8.841009e-05 -0.019592028 0.010835053 -0.03939741 -0.010764224 0.0050107483
0.009332446 0.022876576 -0.03059769 0.02696372 0.008455605 -0.042015105 -0.003997992 -0.024184395
0.009554333 0.011128054 0.012001563 -0.00030418884 0.007772137 -0.03810098 -0.0040194783 0.03587361
0.02767864 0.0022489538 0.005137789 -0.0124919275 -0.052343257 -0.016209492 -0.032243304 0.0009915753
-0.04570054 -0.014573222 -0.014712381 -0.022975529 -0.030189293 -0.023538293 -0.020988075 0.00521461
-0.0077132927 -0.025149768 0.024800299 -0.020364374 0.017169258 0.031263664 -0.023888107 0.0008623354
-0.033500087 0.015927313 0.04146475 0.014938185 -0.0023315367 -0.0215213 0.016077913 0.0065157637
-0.012254478 0.019520009 -0.009485623 0.0070966175 -0.016082942 -0.031177044 0.022226527 -0.0063941036
-0.014157955 -0.018381046 0.011463278 0.03513515 -0.019241659 0.0011041388 0.030544074 0.022292186
-0.005721527 -0.0129125845 -0.032618523 -0.033975326 -0.007268095 0.015291489 0.00900776 -0.01283212
0.01594437 0.044462807 -0.0039175213 -0.04165772 -0.02385619 -0.007267918 -0.0063512325 -0.004377383
0.012517579 -0.02490182 0.017295057 0.008708616 -0.017227435 0.0227309 0.0014913238 -0.0014063588
-0.023689482 0.042481504 -0.022239802 -0.015473089 0.012992227 -0.018291371 0.009137638 0.0062982664
-0.04145603 0.015025186 -0.008480483 0.016253926 -0.037477877 0.018829951 -0.0010442667 -0.005315799
0.025321653 -0.030069195 -0.0016857754 0.010905023 -0.019364815 -0.034500774 0.039025106 0.020941626
-0.02693224 -0.043430198 -0.0070498185 -0.040036406 0.009945587 0.05458833 0.028725252 -0.028188381
0.018922186 -0.015844382 -0.0124776615 -0.0051473225 -0.023338484 0.0052706855 -0.030623505 -0.007302994
-0.044603657 -0.026262986 -0.001087733 -0.0029946172 0.010074638 0.04008221 0.00086970034 0.053002756
0.043650515 0.014969898 0.0025278663 0.020529907 -0.055769876 -0.052524813 -0.016920507 0.0009584413
0.037631933 0.03658151 0.012249096 -0.015705418 -0.030601148 -0.026279138 -0.016853206 -0.0020284823
-0.03880168 -0.033098944 -0.04719 0.01562982 0.004497504 0.014249618 0.016238417 0.0028791497
0.039226286 0.004849668 0.02427764 0.042759236 0.03982044 -0.009107372 0.0053331 -0.03985034
-0.050440144 -0.053468466 0.019324383 -0.004846487 -0.015779654 0.018957902 -0.011919316 -0.019040115
-0.04755589 0.012595345 -0.015146842 -0.01355074 0.010582321 0.0071927556 -0.00867474 0.00974151
-0.013016209 0.02292498 -0.031470496 -0.036655985 -0.039703015 -0.00078191754 -0.008838127 0.015952101
0.002546434 -0.02113984 0.009433545 -0.016088795 -0.009804443 -0.039106425 -0.0071106185 -0.009279168
0.006479047 0.015613172 -0.008640345 0.033445287 0.030896861 0.0047695437 -0.011461162 -0.0024104796
-0.02202097 0.038604196 -0.016335765 -0.0011853805 0.055125814 0.04633443 0.031911347 0.05698623
00000000: 0c5a 3f3b 1192 a93c 51c4 d63c 8ee9 153d
00000010: cd50 123d 39c8 8ebc 18ca a63c cf8c 5e3c
00000020: ad9f 53bc 3d43 47bb 9839 d1bc c409 30bb
00000030: 674b dbbc e53c f03b f1b8 c2bc cf21 253c
00000040: b3e2 07bc 215a b1bc 8da4 b73c df1d 143c
00000050: e5fb 243c 9c34 d43c 3b26 033d a6a3 cb3c
00000060: ccf7 003c 41cb 773c 9514 693d 66ba aa3c
00000070: 4bf1 6bba c57e e2bc 3471 ba3c 9395 503c
00000080: 5d2d 40bc 29e1 6abc ce68 b938 767f a0bc
00000090: 8285 313c 2e5f 21bd 6e5c 30bc 3431 a43b
000000a0: 1ee7 183c a867 bb3c 02a8 fabc 05e3 dc3c
000000b0: 6189 0a3c 0818 2cbd 9601 83bb 5a1e c6bc
000000c0: c789 1c3c 7152 363c 34a2 443c 897b 9fb9
000000d0: 69ad fe3b c60f 1cbd d4b5 83bb 35f0 123d
000000e0: 51be e23c 2f63 133b e65a a83b f1aa 4cbc
000000f0: e265 56bd c5c9 84bc 8e11 04bd bff7 813a
00000100: 7d30 3bbd 86c4 6ebc 330c 71bc 2d37 bcbc
00000110: 894f f7bc 61d3 c0bc 2fef abbc 52df aa3b
00000120: cabf fcbb e306 cebc ff29 cb3c 30d3 a6bc
00000130: 8ba6 8c3c 540e 003d feb0 c3bc 590e 623a
00000140: 6337 09bd ff79 823c f1d6 293d 4abf 743c
00000150: b2cc 18bb 704d b0bc d4b5 833c 3082 d53b
00000160: 02c7 48bc 6de8 9f3c 9669 1bbc be8a e83b
00000170: 60c0 83bc 0067 ffbc 6814 b63c a185 d1bb
00000180: c4f6 67bc d993 96bc 79d0 3b3c e0e9 0f3d
00000190: afa0 9dbc c0b8 903a 9137 fa3c 1a9e b63c
000001a0: a67b bbbb 4e8f 53bc 009b 05bd b629 0bbd
000001b0: 3329 eebb 2789 7a3c 4995 133c d03d 52bc
000001c0: c49d 823c a21e 363d 8d5e 80bb 49a1 2abd
000001d0: 0e6e c3bc b727 eebb 001e d0bb 2670 8fbb
000001e0: 8816 4d3c e7fe cbbc 5dae 8d3c 95ae 0e3c
000001f0: 8d20 8dbc 2736 ba3c 8678 c33a 9255 b8ba
00000200: 7210 c2bc 1601 2e3d 3f30 b6bc d782 7dbc
00000210: 5add 543c c9d7 95bc 08b6 153c b061 ce3b
00000220: cccd 29bd 332c 763c b9f1 0abc f426 853c
00000230: 6782 19bd 4541 9a3c c7df 88ba 2730 aebb
00000240: 5b6f cf3c ac53 f6bc 3cf5 dcba fbaa 323c
00000250: f6a2 9ebc af50 0dbd cad8 1f3d c68d ab3c
00000260: 00a1 dcbc dde3 31bd 2a02 e7bb 37fd 23bd
00000270: d1f2 223c 0398 5f3d 3851 eb3c 52eb e6bc
00000280: b302 9b3c 14cc 81bc 1b6f 4cbc dfaa a8bb
00000290: 5930 bfbc b7b5 ac3b 25de fabc f44d efbb
000002a0: 53b2 36bd 7925 d7bc 4392 8eba 5741 44bb
000002b0: 1810 253c 3e2d 243d 9afc 633a 6b19 593d
000002c0: e2ca 323d 4e44 753c 8faa 253b 562e a83c
000002d0: f46e 64bd 4224 57bd e09c 8abc e83f 7b3a
000002e0: f123 1a3d 7ed6 153d 6fb0 483c a6a8 80bc
000002f0: 42af fabc 5947 d7bc bc0f 8abc 49f0 04bb
00000300: 83ee 1ebd c292 07bd 4d4a 41bd 1c0a 803c
00000310: cc5f 933b 3b77 693c 6e06 853c 1eb0 3c3b
00000320: beab 203d f7e9 9e3b e7e1 c63c 4f24 2f3d
00000330: c21a 233d 1637 15bc 49c1 ae3b 1c3a 23bd
00000340: 539a 4ebd c001 5bbd 2b4e 9e3c 48cf 9ebb
00000350: 5544 81bc 9a4d 9b3c 3c49 43bc 04fa 9bbc
00000360: f7c9 42bd b55c 4e3c 762a 78bc ec03 5ebc
00000370: 7961 2d3c 35b1 eb3b 7f20 0ebc db9a 1f3c
00000380: f041 55bc 2bcd bb3c 35e7 00bd 9624 16bd
00000390: a19f 22bd 99f9 4cba cbcd 10bc fbad 823c
000003a0: 13e2 263b 752d adbc 288f 1a3c a6cc 83bc
000003b0: d1a2 20bc 0f2e 20bd 3100 e9bb a707 18bc
000003c0: 2f4e d43b 64ce 7f3c 3c90 0dbc edfd 083d
000003d0: 6a1b fd3c d549 9c3b 99c7 3bbc 23f9 1dbb
000003e0: 5265 b4bc 6f1f 1e3d 95d2 85bc c55e 9bba
000003f0: 9bcb 613d 2cc9 3d3d 79b5 023d 656a 693d

1.bn1.weight f4 [64]
0.78060275 0.69027907 0.83102435 0.776709 0.7160168 0.876831 0.71526015 0.7168632
0.7895394 0.8812933 0.7244634 0.6288286 0.80144686 0.7755443 0.73653966 0.6921723
0.783392 0.7547768 0.74398 0.735801 0.7087645 0.7408409 0.76547223 0.7577104
0.7145039 0.72927624 0.81291157 0.69280887 0.7314873 0.72309834 0.686594 0.80100983
0.7221925 0.76383 0.7648693 0.7792928 0.7302294 0.6382051 0.7827816 0.96304166
0.708177 0.76575845 0.73289746 0.8750855 0.7367538 0.72438586 0.75938916 0.72395444
0.75135154 0.7152333 0.73033994 0.734036 0.6879434 0.84947634 0.7177846 0.7584745
0.73698086 0.7187316 0.80922174 0.7810627 0.72851497 0.70823467 0.73717254 0.73869175
00000000: 95d5 473f 21b6 303f 03be 543f 67d6 463f
00000010: e14c 373f ff77 603f 4a1b 373f 5984 373f
00000020: 411f 4a3f 709c 613f 6f76 393f e9fa 203f
00000030: 9f2b 4d3f 128a 463f dd8d 3c3f 3432 313f
00000040: 618c 483f 0d39 413f 7975 3e3f 745d 3c3f
00000050: 9771 353f c0a7 3d3f fdf5 433f 4ff9 413f
00000060: bae9 363f d9b1 3a3f f91a 503f ec5b 313f
00000070: c042 3b3f f91c 393f a0c4 2f3f fb0e 4d3f
00000080: 9ce1 383f 5d8a 433f 79ce 433f bc7f 473f
00000090: 50f0 3a3f 6961 233f 6064 483f e689 763f
000000a0: 164b 353f bf08 443f 2b9f 3b3f 9a05 603f
000000b0: e69b 3c3f 5a71 393f 5467 423f 1455 393f
000000c0: 9358 403f 8819 373f 8ff7 3a3f c9e9 3b3f
000000d0: 0f1d 303f 4877 593f bbc0 373f 632b 423f
000000e0: c7aa 3c3f cbfe 373f 2829 4f3f baf3 473f
000000f0: f57f 3a3f de4e 353f 57b7 3c3f e71a 3d3f

1.bn1.bias f4 [64]
-0.017384486 -0.03680926 -0.048642628 -0.035785787 -0.098812535 0.02771218 -0.15105148 -0.047278117
-0.05752909 0.023574093 -0.0821461 -0.055172328 0.025298717 -0.007822549 -0.03371265 -0.117884554
-0.16297683 -0.07114732 -0.003421832 -0.020333914 -0.031201424 -0.11533779 -0.029225755 -0.03071508
-0.0044477396 0.005611049 0.025826447 -0.032749657 -0.039077695 -0.067531265 -0.08083473 0.047864195
-0.031665694 -0.0816831 -0.088205725 -0.05834714 -0.050536647 -0.044008695 -0.104931824 -0.0042453334
-0.026858678 -0.05413209 -0.20749639 0.09610745 0.018530931 -0.021377757 -0.07376297 -0.016144773
-0.0017321156 0.05462733 -0.02827166 -0.027224565 -0.018271497 -0.017628971 0.04833753 0.03747017
0.016638067 -0.009368156 -0.0048813997 -0.08257667 -0.15096846 -0.086552486 -0.0064179334 -0.060386896
00000000: e969 8ebc 4ec5 16bd 7e3d 47bd 1e94 12bd
00000010: 3a5e cabd a704 e33c 3dad 1abe b3a6 41bd
00000020: a0a3 6bbd 751e c13c 373c a8bd 61fc 61bd
00000030: 413f cf3c 262a 00bc 4716 0abd 756d f1bd
00000040: 66e3 26be b0b5 91bd d140 60bb 4f93 a6bc
00000050: 219a ffbc 3836 ecbd da6a efbc 319e fbbc
00000060: 58be 91bb e4dc b73b fc91 d33c 8124 06bd
00000070: ef0f 20bd d54d 8abd ae8c a5bd 3f0d 443d
00000080: e3b3 01bd 7849 a7bd 34a5 b4bd 69fd 6ebd
00000090: 84ff 4ebd 7642 34bd 7fe6 d6bd 701c 8bbb
000000a0: bb06 dcbc 9cb9 5dbd ef79 54be fcd3 c43d
000000b0: 2ece 973c 6820 afbc 0a11 97bd 0b42 84bc
000000c0: 2808 e3ba e8c0 5f3d f899 e7bc 0d06 dfbc
000000d0: 1bae 95bc a26a 90bc 93fd 453d 527a 193d
000000e0: 8e4c 883c e57c 19bc 26f4 9fbb f51d a9bd
000000f0: 7a97 1abe 6e42 b1bd 874d d2bb 4058 77bd

1.conv2.weight f4 [64, 64, 3, 3]
0.010445582 0.033685036 0.040713895 0.004526121 -0.0030502225 0.01391695 0.010542974 -0.013509693
-0.006748131 -0.011094725 -0.0028214569 -0.021475233 -0.002621606 -0.02924014 -0.0107367765 -0.001905814
-0.0010568305 -0.030837279 0.039339874 0.042047895 0.074986495 0.041006606 0.050156996 0.050396703
0.021352341 0.014346957 0.03934682 -0.043096162 -0.041236818 -0.03352706 0.002468243 0.014564142
0.006091235 -0.0559571 -0.011402013 -0.042205855 -0.00541787 -0.04434517 -0.029645436 -0.01938474
-0.022754623 -0.017671306 -0.026046893 -0.016720286 -0.017220031 0.06430054 0.06443297 0.06324165
0.07170285 0.03999857 0.04141656 0.018017426 -0.003628859 0.0010993796 -0.026948292 -0.0066697015
-0.024261942 -0.011204869 -0.032508563 -0.027944233 0.019325197 0.03816594 0.009245464 -0.010943411
-0.031399243 -0.01501761 0.024134826 -0.020553403 -0.029889714 -0.017193586 -0.02178749 -0.010860976
-0.015633292 -0.0018930617 0.023672517 -0.009208089 -0.029139096 -0.048948172 0.02723095 -0.025116727
-0.0031400814 -0.011317877 0.02085377 0.026003378 -0.007980976 -0.012733868 -0.010560284 -0.01711337
0.022036394 -0.018689381 0.0004399296 0.00640751 0.026248861 -0.0024228413 0.0034096825 0.0039311633
0.012876357 0.013804912 0.023180341 -0.0056392667 0.03168407 0.0060102707 -0.0332269 -0.048056465
-0.03380317 0.024320181 -0.021213587 0.0023396248 -0.019600317 0.01528466 0.0009830483 0.03322901
0.035952184 0.039539628 0.014711648 -0.027876552 0.0032297836 -0.028472984 0.015667671 0.0045152334
-0.0019534656 0.0057835984 0.01082456 -0.015744027 -0.020581761 -0.018269148 0.016094161 -0.01017351
0.048287082 0.03865204 0.004874871 0.010238659 0.0030438022 -0.03376096 0.0032956137 -0.028980149
-0.01714831 -0.0547129 0.006886845 0.0040427777 0.022840774 -0.061296083 -0.031784557 -0.0147762885
-0.038689878 -0.022285486 -0.034574375 -0.04227128 -0.007870349 -0.026165701 0.032545153 0.031120446
0.046820506 -0.0033865443 0.027835764 0.029818717 0.008670673 0.007077481 0.0039264294 0.01391575
-0.01469782 0.006301258 0.028714921 0.011888253 0.018884681 -0.009829619 -0.0028093304 0.021113977
-0.045673538 -0.033418767 -0.049123365 -0.034122296 -0.0493221 -0.02501242 0.003956783 0.027435588
0.012244992 0.023879377 0.020953437 0.027345624 0.0040463246 0.019338202 0.055800255 0.034044623
-0.018985907 0.016191984 0.022416793 -0.0028108964 -0.0027655228 -0.0119249625 0.008395147 -0.006585456
0.013498333 0.024825659 0.02385942 -0.048486162 -0.05368339 -0.027733946 -0.019887695 -0.03226683
0.020147363 -0.0044680964 -0.026926687 0.008107085 0.020837797 -0.0092631895 -0.018453863 -0.0030418762
0.0019668085 0.024109028 0.0092640165 0.0013376399 0.008666447 -0.021665659 -0.046182595 -0.010447321
0.0063079675 -0.017246256 0.0011036485 -0.033368398 -0.010105756 -0.03492037 -0.007101305 -0.036038637
-0.048061248 0.054437283 0.060743604 0.06518033 0.01910633 0.04696678 0.02434859 0.03715857
0.0070579825 0.01229229 0.035371657 0.03763205 0.060165163 0.06216172 0.030715138 0.025165677
0.047978137 0.03757112 0.03718869 -0.0022208563 -0.014361783 0.00299969 0.0019519693 -0.006880274
0.0020570813 0.026683424 0.013307393 -0.0084489295 0.020294446 -0.015468451 0.004026866 -0.0077890204
00000000: f223 2b3c 52f9 093d 9dc3 263d db4f 943b
00000010: 3ee6 47bb eb03 643c 70bc 2c3c c257 5dbc
00000020: 6d1f ddbb a6c6 35bc 31e8 38bb d4ec afbc
00000030: 40cf 2bbb 0589 efbc 4ee9 2fbc 82cc f9ba
00000040: 5985 8aba 769e fcbc d922 213d 6a3a 2c3d
00000050: 8592 993d 8bf6 273d 6c71 4d3d c66c 4e3d
00000060: 1beb ae3c 800f 6b3c 222a 213d 9a85 30bd
00000070: f0e7 28bd ac53 09bd 3fc2 213b 709e 6e3c
00000080: fc98 c73b 4633 65bd 82cf 3abc 0ce0 2cbd
00000090: 6388 b1bb 48a3 35bd fcda f2bc bfcc 9ebc
000000a0: e767 babc 6ac3 90bc 4b60 d5bc fbf8 88bc
000000b0: 0611 8dbc 00b0 833d 6ff5 833d d784 813d
000000c0: f2d8 923d 8ad5 233d 69a4 293d 4899 933c
000000d0: 27d2 6dbb 0f19 903a aac2 dcbc 838d dabb
000000e0: fbc0 c6bc a094 37bc b327 05bd 4eeb e4bc
000000f0: e04f 9e3c e453 1c3d 497a 173c fe4b 33bc
00000100: 7e9c 00bd 6c0c 76bc 66b6 c53c 9c5f a8bc
00000110: 46db f4bc 90d9 8cbc ae7b b2bc 3cf2 31bc
00000120: 6411 80bc 9c20 f8ba deec c13c 86dd 16bc
00000130: 1db5 eebc e17d 48bd 7113 df3c 98c1 cdbc
00000140: d3c9 4dbb 9e6e 39bc 87d5 aa3c 0905 d53c
00000150: a4c2 02bc b7a1 50bc 0b05 2dbc 5731 8cbc
00000160: ab85 b43c 791a 99bc 5aa6 e639 17f6 d13b
00000170: da07 d73c 88c8 1ebb fb74 5f3b fdd0 803b
00000180: 5bf7 523c ff2d 623c b3e4 bd3c 99c9 b8bb
00000190: 28c7 013d cef1 c43b ee18 08bd dbd6 44bd
000001a0: 3175 0abd 1e3b c73c 1ec8 adbc 6454 193b
000001b0: d890 a0bc 836c 7a3c a1d9 803a 241b 083d
000001c0: 9942 133d 4ef4 213d 2009 713c 5e5d e4bc
000001d0: c7aa 533b 2d40 e9bc 7d59 803c 86f4 933b
000001e0: b705 00bb 5784 bd3b 7f59 313c 9ef9 80bc
000001f0: 159b a8bc 2ea9 95bc e7d7 833c cbae 26bc
00000200: adc8 453d 9a51 1e3d 62bd 9f3b 0cc0 273c
00000210: 877a 473b ef48 0abd 39fb 573b c767 edbc
00000220: 9d7a 8cbc a21a 60bd 0bab e13b 4779 843b
00000230: 931c bb3c 9a11 7bbd 8630 02bd 3f18 72bc
00000240: 4779 1ebd 0d90 b6bc dc9d 0dbd a624 2dbd
00000250: a3f2 00bc 7459 d6bc 114e 053d 4ef0 fe3c
00000260: dcc6 3f3d c9f0 5dbb d407 e43c 6246 f43c
00000270: 700f 0e3c 37ea e73b 47a9 803b e3fe 633c
00000280: 20cf 70bc c97a ce3b 8e3b eb3c f2c6 423c
00000290: 0cb4 9a3c 690c 21bc be1c 38bb 38f7 ac3c
000002a0: 2d14 3bbd 1ee2 08bd 9535 49bd d2c3 0bbd
000002b0: f805 4abd d9e6 ccbc e7a7 813b 99c0 e03c
000002c0: 389f 483c af9e c33c 8ba6 ab3c ee03 e03c
000002d0: 0897 843b 266b 9e3c cf8e 643d 6072 0b3d
000002e0: 5588 9bbc 0da5 843c 6ca3 b73c 0437 38bb
000002f0: c63d 35bb eb60 43bc cc8b 093c cfca d7bb
00000300: 1d28 5d3c 2e5f cb3c d574 c33c 6d99 46bd
00000310: 1de3 5bbd 4d32 e3bc 85eb a2bc 392a 04bd
00000320: 150c a53c 1c69 92bb 5b95 dcbc 94d3 043c
00000330: 07b4 aa3c a2c4 17bc 8e2c 97bc 375a 47bb
00000340: 92e5 003b 4c80 c53c 1ac8 173c bf53 af3a
00000350: b7fd 0d3c 2e7c b1bc f629 3dbd 3e2b 2bbc
00000360: 11b3 ce3b 0548 8dbc 4ca8 903a 4dad 08bd
00000370: 9d92 25bc a908 0fbd 10b2 e8bb 409d 13bd
00000380: dfdb 44bd a1f9 5e3d 49ce 783d 447d 853d
00000390: e184 9c3c 3d60 403d b276 c73c 9633 183d
000003a0: a646 e73b 9a65 493c dfe1 103d 1124 1a3d
000003b0: bf6f 763d 4a9d 7e3d 509e fb3c 4028 ce3c
000003c0: b984 443d 2de4 193d 2b53 183d c98b 11bb
000003d0: af4d 6bbc 7296 443b 39d9 ff3a ec73 e1bb
000003e0: 19d0 063b 3297 da3c 4007 5a3c 616d 0abc
000003f0: 8a40 a63c 636f 7dbc cdf3 833b 0a3b ffbb

1.bn2.weight f4 [64]
0.7814166 0.85935587 0.7618776 0.77465206 0.79576147 0.7818576 0.75891364 0.91066885
0.7485485 0.7778513 0.8223413 0.7901528 0.73594785 0.81966925 0.77014196 0.90513295
0.7805965 0.8403879 0.75341594 0.8049444 0.8024471 0.8496719 0.7766876 0.8531824
0.83790636 0.7510712 0.8445929 0.7742944 0.7654877 0.79223883 0.7594648 0.7732443
0.80568737 0.74068254 0.75408524 0.77194154 0.763612 0.7926051 0.7358599 1.0375426
0.76428664 0.835506 0.85177034 0.7467453 0.8038654 0.8387187 0.79111516 0.74163723
0.76717246 0.7689268 0.84567153 0.9807298 0.7920649 0.7574006 0.8976869 0.7966634
0.7614479 0.80502367 0.76941675 0.91738594 0.8451444 0.80734295 0.8237868 0.7639721
00000000: eb0a 483f bffe 5b3f 690a 433f 994f 463f
00000010: 06b7 4b3f d227 483f 2a48 423f 9821 693f
00000020: e0a0 3f3f 4321 473f f684 523f 7447 4a3f
00000030: 1467 3c3f d8d5 513f 0628 453f cbb6 673f
00000040: 2cd5 473f a923 573f dedf 403f d610 4e3f
00000050: 2c6d 4d3f 1984 593f 00d5 463f 296a 5a3f
00000060: 0881 563f 3446 403f 3e37 583f 2838 463f
00000070: 00f7 433f 2ad0 4a3f 496c 423f 57f3 453f
00000080: 8741 4e3f 5f9d 3d3f bb0b 413f f69d 453f
00000090: 137c 433f 2be8 4a3f 5061 3c3f 32ce 843f
000000a0: 4aa8 433f b9e3 553f 9f0d 5a3f b32a 3f3f
000000b0: 1fca 4d3f 45b6 563f 8686 4a3f f0db 3d3f
000000c0: 6a65 443f 63d8 443f ee7d 583f 1c11 7b3f
000000d0: c4c4 4a3f 01e5 413f cfce 653f 22f2 4b3f
000000e0: 40ee 423f 0816 4e3f 7ff8 443f ced9 6a3f
000000f0: 625b 583f 07ae 4e3f b1e3 523f ad93 433f

1.bn2.bias f4 [64]
0.039636713 0.0724709 -0.041663364 -0.011177335 0.038140323 -0.040685024 0.021981955 0.016750539
0.007648441 -0.011773553 -0.089337215 0.031072538 -0.011150251 -0.042371437 0.10076083 -0.036432635
-0.006574613 -0.094413936 0.0818873 -0.010963077 0.089568645 -0.07098775 0.035675455 0.0060803294
0.0727665 -0.025855023 0.0970113 0.012053569 -0.028465243 -0.015518669 0.03884998 -0.01750847
-0.003927703 -0.026660278 -0.058367766 -0.040490847 0.01586438 0.046706587 -0.025929991 0.104979396
0.065981135 -0.027242515 0.036670424 0.029904984 -0.005184087 -0.056229897 -0.047748856 0.0209562
-0.032936182 0.07702157 0.052840356 -0.064831264 -0.052924186 0.0010789316 0.057729505 -0.006671918
-0.038518816 -0.06787334 -0.024516024 0.0763644 0.06649064 -0.023740934 0.042794783 -0.030104427
00000000: 1b5a 223d a06b 943d 34a7 2abd 2421 37bc
00000010: 0739 1c3d 57a5 26bd 8013 b43c 6d38 893c
00000020: c69f fa3b dce5 40bc 6ef6 b6bd d68b fe3c
00000030: 8baf 36bc ac8d 2dbd b25b ce3d 633a 15bd
00000040: da6f d7bb 185c c1bd 87b4 a73d 7a9e 33bc
00000050: c46f b73d 0762 91bd 6d20 123d 803d c73b
00000060: 9a06 953d eacd d3bc dcad c63d 557c 453c
00000070: f12f e9bc 0442 7ebc 2821 1f3d ec6d 8fbc
00000080: f6b3 80bb a866 dabc 0a13 6fbd bbd9 25bd
00000090: 04f6 813c 684f 3f3d 226b d4bc 70ff d63d
000000a0: 1e21 873d b22b dfbc ba33 163d 4cfb f43c
000000b0: 46df a9bb 5251 66bd 4e94 43bd 56ac ab3c
000000c0: 17e8 06bd 7cbd 9d3d 216f 583d 41c6 84bd
000000d0: 08c7 58bd f06a 8d3a c675 6c3d 1ba0 dabb
000000e0: e8c5 1dbd 2d01 8bbd d4d5 c8bc f064 9c3d
000000f0: 3f2c 883d 597c c2bc 9549 2f3d 8f9d f6bc

2.weight f4 [4, 64, 3, 3]
-0.076805465 0.023961432 0.051312633 -0.0412861 0.030066643 0.053426847 0.018362397 -0.0869181
0.013849715 -0.03625373 0.005072895 0.009300898 0.050827235 -0.032830704 -0.08013134 -0.06434039
0.025604928 -0.067422025 -0.046328988 -0.070284285 0.04769606 0.026969515 -0.0805405 -0.030649964
-0.063924186 0.041345492 0.008065874 0.066504605 -0.024744026 -0.008276594 0.037671704 0.046550583
-0.016293379 -0.061295968 -0.011147901 0.0150696235 -0.01120976 -0.00017999997 -0.07291563 -0.007142122
-0.05134548 -0.058151476 0.06039737 -0.04118002 -0.0004272513 -0.06852426 -0.009455399 -0.06888861
-0.05433862 -0.0643167 -0.06147514 -0.010426032 0.023683228 0.039632626 -0.09098525 0.045218837
0.03644797 0.002036562 -0.07203818 0.0050350903 -0.04287355 0.034067057 0.031062946 0.036369134
0.034401648 0.0300909 0.029824099 -0.01800975 0.0072511625 0.051044747 0.031786438 -0.07051116
0.021967648 0.0510569 0.0044989916 0.03506894 -0.010130865 0.03881227 0.039239272 -0.012906951
-0.03704011 0.054045387 -0.033068676 -0.01950312 0.048287198 -0.007802614 -0.05027805 0.07213482
-0.06707373 0.021839611 -0.07176077 -0.013829475 -0.059613608 -0.048395034 -0.050135016 -0.012986037
-0.06545493 0.046753246 -0.013687185 -0.058737356 0.02817927 0.023796866 -0.05687644 -0.043501094
-0.07986297 -0.018396454 0.044846736 -0.0061872327 0.013936383 0.016739076 -0.06592798 0.0075293607
-0.011712031 0.03213722 -0.08770518 0.021131754 -0.038440958 0.01033779 -0.0746498 0.058303375
0.07050187 0.009312883 -0.07014781 -0.011580539 0.05684368 -0.06471581 -0.044001482 0.063042305
-0.0005941891 -0.049918868 0.031311072 -0.047391962 -0.05150305 -0.05671816 -0.03737281 -9.511613e-05
-0.07886769 0.033876773 0.031489324 -0.024384908 0.0060460763 -0.053584237 0.046479184 0.037492834
0.04885628 0.04845647 0.036365394 0.034096412 -0.0044575795 -0.07392706 0.016394336 0.029887456
-0.060051516 -0.04928068 0.018227853 0.041618176 -0.076615736 -0.027395302 0.043887697 -0.08590071
0.010657633 -0.018985301 0.046233412 -0.0263347 0.05812703 -0.009496281 -0.038126826 0.023019768
0.013238423 -0.006750855 -0.058160264 0.05335545 -0.038739346 0.040209588 0.018701307 -0.035411578
0.0017726506 0.058234427 0.061579052 -0.023413429 -0.027402317 -0.024985813 -0.04312408 -0.05164572
-0.03646238 -0.026191793 -0.05640789 -0.04392708 -0.06076256 0.021975653 0.0012281861 -0.010299413
0.06097434 0.048447754 -0.05775547 0.022779118 -0.012494977 -0.05930465 0.049848724 0.014696436
-0.050388727 -0.032239284 -0.0362729 -0.035823774 -0.024791447 -0.07374996 0.03742012 -0.027039235
0.0060690935 0.053885818 -0.027361155 -0.0074327164 0.024093706 -0.07001221 0.061721135 -0.054986108
-0.07232218 -0.07695417 -0.036718342 0.022989979 -0.011531657 0.048443634 -0.03646928 0.056189436
-0.049213063 -0.07135325 0.054434367 -0.00353861 0.02981046 0.027653037 0.017904058 0.06513405
0.011135605 0.017939443 0.04721596 1.0570176e-06 -0.06163592 -0.0451836 0.055647768 0.026534231
0.04578955 0.007213677 -0.017492615 -0.07250349 -0.021533718 -0.081619814 -0.03668396 -0.024622016
-0.07948154 -0.070255645 0.05007227 0.007243005 0.03901357 0.048212558 -0.059344634 0.009775173
00000000: 2f4c 9dbd c44a c43c 322d 523d 9d1b 29bd
00000010: 524e f63c 1cd6 5a3d bd6c 963c 1e02 b2bd
00000020: eae9 623c cb7e 14bd 873a a63b cb62 183c
00000030: 3830 503d 7d79 06bd e61b a4bd e5c4 83bd
00000040: 6dc1 d13c 8f14 8abd 77c3 3dbd 35f1 8fbd
00000050: f25c 433d 2cef dc3c 6bf2 a4bd a215 fbbc
00000060: afea 82bd e459 293d ba26 043c 9133 883d
00000070: fcb3 cabc 8d9a 07bc a54d 1a3d d3ab 3e3d
00000080: b179 85bc 7b11 7bbd b0a5 36bc 95e6 763c
00000090: 24a9 37bc 60be 3cb9 ca54 95bd 7608 eabb
000000a0: a34f 52bd 3e30 6ebd 3c63 773d 61ac 28bd
000000b0: b300 e0b9 7256 8cbd d1ea 1abc 7915 8dbd
000000c0: 2c92 5ebd 79b8 83bd 5bcd 7bbd f3d1 2abc
000000d0: 5403 c23c d255 223d 7a56 babd 6337 393d
000000e0: 774a 153d d777 053b c188 93bd 66fd a43b
000000f0: 2d9c 2fbd e689 0b3d b877 fe3c cdf7 143d
00000100: bee8 0c3d 3181 f63c ab51 f43c 2f89 93bc
00000110: 299b ed3b 4c14 513d 7f32 023d 2868 90bd
00000120: 7ff5 b33c 0a21 513d 476c 933b 73a4 0f3d
00000130: edfb 25bc 9df9 1e3d 5cb9 203d ad77 53bc
00000140: 5fb7 17bd b25e 5d3d 0573 07bd 02c5 9fbc
00000150: ccc8 453d 12ad ffbb 5bf0 4dbd 6cbb 933d
00000160: f45d 89bd fce8 b23c 50f7 92bd 0695 62bc
00000170: 662d 74bd df39 46bd 605a 4dbd 63c3 54bc
00000180: 3c0d 86bd 5580 3f3d 3740 60bc 9596 70bd
00000190: 36d8 e63c a5f1 c23c 45f7 68bd 342e 32bd
000001a0: 328f a3bd 29b4 96bc 36b1 373d 45be cabb
000001b0: 6d55 643c 6320 893c 4005 87bd dbb8 f63b
000001c0: d2e3 3fbc 51a2 033d c69e b3bd 801c ad3c
000001d0: 4474 1dbd d55f 293c ffe1 98bd 85cf 6e3d
000001e0: 4963 903d 1095 183c a8a9 8fbd 4dbc 3dbc
000001f0: ebd4 683d b989 84bd e63a 34bd 531c 813d
00000200: 5bc3 1bba ba77 4cbd 0a40 003d 131e 42bd
00000210: ddf4 52bd 4d51 68bd 3b14 19bd 1579 c7b8
00000220: 6285 a1bd 5fc2 0a3d f3fa 003d dcc2 c7bc
00000230: 2a1e c63b 257b 5bbd f560 3e3d 1692 193d
00000240: 861d 483d 4b7a 463d e1f3 143d aea8 0b3d
00000250: e310 92bb 1267 97bd 6a4d 863c 8ad6 f43c
00000260: 94f8 75bd 8ada 49bd 9452 953c d277 2a3d
00000270: b6e8 9cbd 1d6c e0bc 96c3 333d b6ec afbd
00000280: 5a9d 2e3c 1087 9bbc 3f5f 3d3d debb d7bc
00000290: 9c16 6e3d 4a96 1bbc e02a 1cbd f493 bc3c
000002a0: f8e5 583c 4736 ddbb 7539 6ebd 3f8b 5a3d
000002b0: 26ad 1ebd cfb2 243d 7c33 993c bb0b 11bd
000002c0: 4958 e83a 3987 6e3d 513a 7c3d 85cd bfbc
000002d0: d37a e0bc 0caf ccbc e0a2 30bd 768a 53bd
000002e0: 9459 15bd 2c90 d6bc f60b 67bd e2ec 33bd
000002f0: 2ae2 78bd 4906 b43c 16fb a03a dfbe 28bc
00000300: 3bc0 793d 2771 463d 0091 6cbd 469b ba3c
00000310: bbb7 4cbc 6fe9 72bd 2d2e 4c3d 52c9 703c
00000320: 6964 4ebd 570d 04bd e492 14bd f3bb 12bd
00000330: 6f17 cbbc 380a 97bd d745 193d 6381 ddbc
00000340: 3fdf c63b 60b7 5c3d 8024 e0bc 258e f3bb
00000350: 2a60 c53c 9062 8fbd 4dcf 7c3d 1d39 61bd
00000360: a71d 94bd 269a 9dbd f965 16bd 7b55 bc3c
00000370: 46ef 3cbc d56c 463d d060 15bd e526 663d
00000380: a393 49bd a721 92bd 92f6 5e3d 06e8 67bb
00000390: 1135 f43c 9f88 e23c 88ab 923c 0065 853d
000003a0: 1d72 363c bdf5 923c 8665 413d d9de 8d35
000003b0: f275 7cbd 7012 39bd eaee 633d 515e d93c
000003c0: d38d 3b3d b560 ec3b ac4c 8fbc b67c 94bd
000003d0: 7b67 b0bc 4a28 a7bd ec41 16bd 1cb4 c9bc
000003e0: 38c7 a2bd 31e2 8fbd 9518 4d3d bb56 ed3b
000003f0: b1cc 1f3d 887a 453d 5c13 73bd 0c28 203c

2.bias f4 [4]
-0.018584821 0.040856656 -0.10001836 0.05344547
00000000: 323f 98bc 4f59 273d 6dd6 ccbd a3e9 5a3d
