expert_target_aware/mocosflV2_ResNet18_cifar10_cut2_bnlC4S2_expert_batchsize128_ressfl_2.0_SSIM0.6_data_proportion_0.005_aux_cifar100/checkpoint_c_best.tar (torch, 315844 bytes, 11 tensors)

0.conv1.weight f4 [64, 3, 3, 3]
00000000: 7cf6 8d3d 7e75 0d3c 3f8b a23d 81b3 f93b
00000010: 1767 72bd 22ae bd3c a88d 28bd e819 eabd
00000020: cd19 c7bc ca9a af3d 0a40 e33c 65a6 d13d
00000030: 898e c53c 8549 24bd 5ddc 3a3d 4ac0 febc
00000040: 7af3 cebd b249 febb af31 863d 3bca 6ebb
00000050: b37f 9c3d d953 0e3c c810 8abd b539 d03c
00000060: 2833 06bd 5512 e9bd d60c 57bc dfd2 19bb
00000070: ba74 5bbd bafe d93d 1360 e0bd ab6e 75be
00000080: 1ba2 0c3c 2df8 953c d6bb 8b3c 7f87 1d3e
00000090: 241a 243d 5d77 42bc 0315 a03d 986f adbc
000000a0: e4ae 25be 426b 183b a4ec bc3c 09bf 7ebb
000000b0: b21f 833d 14fd 7f3d 8dc2 a3bc 4853 c6bb
000000c0: e5a0 e13d 9445 afbd 38b7 c9bc dc17 c33d
000000d0: 7597 52bc 5bc4 dbbc e250 083e 04b3 51bd
000000e0: 0e0a 5d3d b9bd 383c 2fbe 59be 6792 8ebd
000000f0: 49aa 963d 68d0 17bd 622d b43c 1099 3c3d
00000100: 73f1 88bd 91f6 063d 3c45 d5bc 3f8d 24be
00000110: 50ae c8bc 022f 0e3d d629 f23b 3034 7e3d
00000120: 4d11 183d 7a24 39bd e063 bd3d 941d ac3c
00000130: b27f d4bd 7824 a23d 3501 d53c 3da5 e0bc
00000140: 6ca0 bc3d fe45 d63d 7fb9 fe3b bab9 e73d
00000150: 7308 a4bd 69a0 8bbe 69bd aabd e8cf 993d
00000160: 9431 463d d1bd be3d cd56 bd3d a4ed b8bc
00000170: 1165 643d 4206 6abd b7fd 6dbe 1d6f 8ebd
00000180: 88d9 8a3d e163 813d 7fa4 923d dc23 933d
00000190: bbfe 333d 05d4 513d 7ec6 37bd 2250 0dbe
000001a0: f028 87bd 1ad9 073d 164f 803d 0882 323c
000001b0: 9463 a8bd d819 6ebd 8e47 9cbd 4552 68bd
000001c0: 4960 b7bd 2506 b5bd 89a0 e9bd 3256 a1bd
000001d0: edc0 95bd f87e 6b3d fefb bf3d fabf 793d
000001e0: 41d6 2f3e 3c07 123e 2f9e 153e 058a b13d
000001f0: 07d2 0c3e 4c84 1d3e 91c7 fb3b 038d 55bd
00000200: a82a 65bd b91d a03d caa8 9abd 5f8a 7abd
00000210: eb3b 94bc c42b c3bd 342b 7abd d6bc 883d
00000220: c3c7 083d 8899 7a3c 6117 043d b9f3 b2bb
00000230: 30aa 59bc 1edf c7bc 5781 a2bd 44b6 9fbd
00000240: cac9 62bd c3ac 71bd 6c23 56bd 525a 4bbd
00000250: 2366 39bd bd12 c6bc b0c0 90bd 1203 9fbd
00000260: 89b0 40bd 7ab2 79bb 63a3 de3c b1bf 7a3c
00000270: 4ebf 973d 50ea e03d 2834 d53d 8023 5b3d
00000280: 2f6f 9c3d 854b 9e3d d3d2 2abd d46a 24bc
00000290: 2cb3 80bc ce6c 02bd 3759 8a3c 559d bb3b
000002a0: 5833 c7bc 718f ac3c 2abd ff3c f1bf 813d
000002b0: d8fd 9f3d 52c3 a53d d261 8f3d 8ce0 b23d
000002c0: 7178 a33d 102d 943d 2456 b33d 3b54 b93d
000002d0: bc60 923c 3e4f 9dbd f34b 19bd 7eca afbc
000002e0: 9b35 0dbe e4a8 eabd efaa 04bd 80ae 14be
000002f0: 6f2c e8bd ea8a 903d 2956 a43d 321c ba3c
00000300: a751 c23d f7fb 193e bf99 ae3d 6c44 873c
00000310: e253 3d3d 6010 3cbd e9e2 89bd 671f ccbd
00000320: cd57 c2bd 44b8 f6bd c788 e4bd 2d3c e0bd
00000330: 2a77 87bd 8303 98bd be10 cbbd 95a4 f7bb
00000340: 045e f0bb 2448 48bb 5dbe e13c 6953 943d
00000350: 2cb4 823d e4d1 543d 2b7a aa3d ca15 283d
00000360: d60f ed3c 8766 38bc 19f1 d13c 0316 a9bc
00000370: bc13 1ebd 2e21 ccbc df62 94bd 82e0 87bd
00000380: e591 8cbd dfd5 c43c e2b8 273c 7a83 173d
00000390: b14c 833d e723 6e3d 8487 403d e0d8 48bc
000003a0: 8565 343c 8757 8bbb 0b36 b9bd 816e 07be
000003b0: 51d2 39be cf22 d73d dd39 4c3d 511f 2cbd
000003c0: 4a8d 1e3e f2f4 f93d 6290 e23c fae1 bc3d
000003d0: b155 033e ae85 d23d 6a85 c53c e005 093d
000003e0: aa66 43bb 4075 cfbd acf5 22be 0f28 e9bd
000003f0: 8eb0 ec3d aa63 3a3e 8257 203e 0c8f f33c
0.06931779 0.008633969 0.07936715 0.0076202755 -0.059180345 0.023154322 -0.04115072 -0.114307225
-0.024304295 0.085744455 0.027740497 0.10236815 0.024115818 -0.040109176 0.04562031 -0.03109755
-0.10105033 -0.00776025 0.06552445 -0.0036436457 0.07641544 0.008686983 -0.06741482 0.025418142
-0.03276363 -0.1138045 -0.013125619 -0.0023471636 -0.053578116 0.10644288 -0.10955825 -0.23967998
0.008583571 0.018306816 0.01705734 0.15383719 0.040063992 -0.011869279 0.07816508 -0.021171376
-0.16179997 0.002325729 0.023062058 -0.003887119 0.0640253 0.062497213 -0.01999023 -0.0060524084
0.11017016 -0.08558193 -0.024623498 0.09526035 -0.012853493 -0.026827028 0.13312104 -0.051196113
0.053964667 0.011275702 -0.21263956 -0.06961518 0.07356698 -0.037063986 0.021994296 0.04604441
-0.06686678 0.032949988 -0.02603399 -0.16069506 -0.024497181 0.0347128 0.007390241 0.06206149
0.037125874 -0.045200802 0.09247565 0.021010198 -0.103759184 0.07917112 0.026001552 -0.027422542
0.092102855 0.10462569 0.0077735777 0.113147214 -0.08009424 -0.2727082 -0.08336908 0.07510358
0.048387125 0.09313548 0.092450716 -0.022574253 0.055760447 -0.057134874 -0.23241316 -0.06954787
0.06779772 0.063178785 0.071602814 0.07184574 0.0439441 0.05122759 -0.04486703 -0.138001
-0.06599605 0.03316603 0.062650844 0.01089526 -0.08222118 -0.058130115 -0.076308355 -0.056719083
-0.08953912 -0.088390626 -0.11407573 -0.078777686 -0.07312188 0.057494134 0.093742356 0.0609741
0.17171575 0.14260572 0.14611124 0.08668903 0.13751994 0.15382499 0.0076837023 -0.052136432
-0.055948883 0.07818169 -0.07551725 -0.061167117 -0.018094977 -0.09529832 -0.061076358 0.066766426
0.033393633 0.015295394 0.03224886 -0.005461183 -0.013285205 -0.024398383 -0.07934826 -0.07798436
-0.055368222 -0.05900265 -0.052279875 -0.049646683 -0.04526342 -0.024178857 -0.07068002 -0.077642575
-0.047043357 -0.0038100765 0.027177518 0.015304492 0.07409535 0.109821916 0.10410339 0.053500652
0.07638394 0.07729248 -0.041704964 -0.010035235 -0.015710436 -0.031842045 0.016888244 0.0057255425
-0.024316475 0.021064492 0.03121813 0.06335438 0.07812089 0.08093895 0.070010796 0.08734235
0.07981957 0.072351575 0.087566644 0.09049269 0.017868392 -0.0768113 -0.037425946 -0.02145886
-0.1378998 -0.114579946 -0.032389577 -0.14519691 -0.113366 0.07057746 0.08024246 0.022718523
0.0948823 0.15037523 0.085254185 0.016512118 0.046222575 -0.045914054 -0.06732733 -0.09966927
-0.09489403 -0.12046865 -0.11158901 -0.109489776 -0.066145256 -0.07422545 -0.09915303 -0.0075574615
-0.0073354263 -0.0030560577 0.027556593 0.07242472 0.06382021 0.05195798 0.08324083 0.041036405
0.028938215 -0.011254913 0.02562766 -0.020640379 -0.03859304 -0.024918165 -0.07245421 -0.06634618
-0.06863765 0.024027763 0.010236951 0.03699062 0.06411112 0.058139708 0.047004238 -0.012258738
0.011010532 -0.0042523774 -0.09043511 -0.13225748 -0.18146636 0.10504686 0.04985987 -0.042022053
0.15483585 0.12204923 0.027656738 0.09222789 0.12825657 0.102794036 0.024111468 0.03345287
-0.0029815831 -0.101297855 -0.15914029 -0.11384594 0.11557113 0.18202081 0.15658382 0.029731296

0.bn1.weight f4 [64]
00000000: 2bc9 e737 0b3c ab3e d8ff 763e db46 a43e
00000010: 1ed3 783e 75fc e73d daf0 7b3e b58c 583e
00000020: 888a e5bd 41c2 bc3e ae66 c139 6717 b83e
00000030: 34ad 0a3e 20c9 113e 3de3 a63e c4b2 6e3e
00000040: 513f 0d3e fa64 9e3e db7b 8a3b 0c64 963e
00000050: c910 9d3d 416d d43d 7678 4c3e c2cf d93d
00000060: f7bb 6f3e 8aec f1b8 2c4a 803e 4d53 993e
00000070: 78af bbbc faba ad3d 77e9 5b3e e2bd 973e
00000080: 3511 be3e 4fa8 a53e 299d 4e3d 599d 6d3e
00000090: e061 723e 0950 183e cc21 723e e23f 373e
000000a0: 5106 513e d4a1 fc3d a6e4 a13e 599d 723e
000000b0: 5c84 203e 5788 4e3e 2866 cc3c 4c24 9a3e
000000c0: 6849 253e a586 9c3e 5891 623e a240 b73e
000000d0: a03e b03e 4f39 853e ed42 493d 6e37 723e
000000e0: 0d9e b33d 2b37 b13e 4eb4 613e 539e 403e
000000f0: c549 e13e 536d ccbb 810b cebb 9f87 a33e
2.7631022e-05 0.33444247 0.24121034 0.32085308 0.24299285 0.11327449 0.24603596 0.21147425
-0.11208063 0.36866954 0.0003688833 0.35955355 0.13542634 0.1423688 0.32595244 0.23310381
0.13793685 0.30936414 0.0042261905 0.29373205 0.07669217 0.10372401 0.19967827 0.1063533
0.23411547 -0.00011535834 0.2505659 0.29946366 -0.022910818 0.084829286 0.21475779 0.29637057
0.37122503 0.32354972 0.05044285 0.23204555 0.23670149 0.14874281 0.23645705 0.17895463
0.20412566 0.12335554 0.31619757 0.23692836 0.15675491 0.20169197 0.024951056 0.30105817
0.16141284 0.30571476 0.22125757 0.35791498 0.3442278 0.26020285 0.04913609 0.23653957
0.0877038 0.34612402 0.22041437 0.18810396 0.44001594 -0.0062386184 -0.0062879925 0.31939408

0.bn1.bias f4 [64]
00000000: b6da 75ba 5f28 1fbd eb92 383d e37e 163e
00000010: 6ccd 163d 28f2 633c 923f c43d bda8 923d
00000020: f01a ef3d dd07 633c 4bbd b73d f778 1cbb
00000030: 4cdd 31be 30b7 aa3d c3fb 32be f9ea a23d
00000040: 4a3e 9c3d 2024 d0bd 2992 db3d 1d6e 98bb
00000050: a521 173e 4b26 1b3e 9ef3 78bd 2587 053e
00000060: 5cca 1d3e 78db 45bb cb05 d23d d843 0d3e
00000070: 7121 843d 2973 ca3d 80e6 57bd 5eb2 21be
00000080: 9b70 8b3d 1731 053d c78a 0b3e 1848 bc3b
00000090: 71f5 9c3c 48d0 c73d 5d0e e23d e9ff 9a3d
000000a0: 37f7 553c 6f62 313e 5c4c 063d 14e9 1fbd
000000b0: ae70 0e3e ff00 1e3e 73f3 bc3d b5e7 9e3d
000000c0: adb2 0a3e 427f 2d3d 5816 9d3b 74c0 da3c
000000d0: 303b d33d 6ea5 a33d bda2 cf3d c197 ae3d
000000e0: 33a3 ed3d 3568 62bd 0ca9 a93d cbb6 e73d
000000f0: 4ba0 c0bd 8ffd cb3d f526 133e 9184 f93b
-0.0009378599 -0.03885686 0.045061987 0.14696841 0.036817 0.013912715 0.095824376 0.071610905
0.1167506 0.013856855 0.08971652 -0.0023875812 -0.17369574 0.083357215 -0.17478852 0.07954974
0.07629068 -0.1016314 0.10721237 -0.0046517984 0.14758928 0.15151326 -0.060779206 0.13039835
0.15409225 -0.0030190628 0.10255011 0.13795412 0.06451691 0.09885246 -0.052710056 -0.15790698
0.06808587 0.03251752 0.13627158 0.005745899 0.019160004 0.09756523 0.11037896 0.07568342
0.013059429 0.17322706 0.032787666 -0.03904064 0.13910171 0.15430067 0.09226122 0.07759038
0.13544722 0.04235769 0.0047939233 0.026703097 0.103140235 0.079905376 0.10138462 0.085250385
0.116033934 -0.05527516 0.08284196 0.11314162 -0.094055735 0.09960472 0.1437033 0.00761468

1.conv1.weight f4 [64, 64, 3, 3]
00000000: f939 2339 2cdc 1339 80b3 2c39 c555 2a39
00000010: d7a7 2239 6a65 3739 9c22 3939 b588 3d39
00000020: ebda 4539 a5fd 27bd 7dde b8bd 732e cbbc
00000030: 95f3 03bb 2084 26bb b1fd 293d ceac af3c
00000040: 3d59 2a3d 27c1 123d 1716 abbc a01a 93bd
00000050: 33a6 893c 6373 cfba 2915 f4b9 1423 823d
00000060: 3f51 083b 5ef3 2e3d 1977 553d 503e 4fbd
00000070: 88bb fabd 7286 5cbd e90c 833c bdeb 8c3c
00000080: 5706 963d 45d2 8fb9 d4a3 293d 08bd 9c3c
00000090: 54fb ecbc ebea d2bc 6b53 723b 67a2 16bc
000000a0: 9127 02bc c798 5c3a 2941 083d 175c 0a3d
000000b0: ffa7 093d ea91 bdbb 0acc 863b eed6 6e3c
000000c0: e29d 2bbc 5c3b 63bb 9e6f 87b9 5297 c7bc
000000d0: e619 8cbc 414b 13bc 4abf af3b 0119 063b
000000e0: a9cb 883a 7df1 23ba faeb 7a3a 4bf3 383b
000000f0: da84 1ebc a8e2 2bbc ee55 2db9 7069 653d
00000100: 2892 743d d47c fc3c 5e4d 2ebb 3763 29bc
00000110: 7813 0abd 21c9 2bbd ebec 52bd 58a1 5fbd
00000120: bd44 50bc af2c 803b 025c dcbb e11b 7fbc
00000130: fb2a 893c bc3c d73b 6092 3ebc 8ee0 803c
00000140: 8ff7 443c 5c0e 8c3d 2f85 d43d 0c12 573d
00000150: ed8d ad3b 0936 ae3d bccc 813b 1060 5bbc
00000160: 6aab 35bc 7584 5abb 9b91 013b 7e56 ed3b
00000170: a43a 273c f279 2fbb 3930 b93b d3de ed3b
00000180: 3284 cdbb f9ab 9b3a b7e0 65b9 c2b8 81bd
00000190: a4b9 a5bc e2d0 42bd 1dfe 26bd b365 30bc
000001a0: 70a6 11bd 0c37 c7bc d5c4 f5bc 6ab2 9dbd
000001b0: b310 04bc 27b5 e0bc 606e 00bb 8eed 8f3b
000001c0: 2773 bcbb 880d 663c cf59 8b3c e561 883c
000001d0: c6ae b43c f1d3 25bd 3de1 90bd 6212 74bd
000001e0: 7fe6 42bd d738 77bd e60c 08bd ed8b 22bd
000001f0: d6df 4ebd 148b 0abd 718d 81bd 7a57 2abd
00000200: 7cac 6bbb a779 47bd fcd1 4cbc 07bf ab3c
00000210: 52e0 d43b f1eb 4e3d 9392 7e3d d9a9 6f3d
00000220: 243e 9b3d cdae 8e3d 658c c73c 155f 953d
00000230: bc78 283d 08c6 f33b 2813 103d 61ff e93c
00000240: 2dc4 22bd c3ce 88bd 4abf 87bd 6388 06bd
00000250: 24d4 2fbd eabe 1bbd 38b7 04bd f025 4dbd
00000260: d535 32bd bf3d 7d3d b214 363d bfe5 493c
00000270: f13d 6c3d 7586 f0bb 72b4 45bd 6530 7c3d
00000280: e6c2 77bc b3db 7abc 8087 313c 669d c03c
00000290: 5478 a23c ae83 e9bb 0183 ce3b d479 c63b
000002a0: c448 70bc 9f90 87bb 481e f23a cb38 70bd
000002b0: 6862 7fbd f92e 06bb 9143 a0bc 0a12 1a3b
000002c0: 19eb 663d 155c 673c d050 1b3d e2e5 4b3d
000002d0: 348b 113d 83eb 373d 8062 1b3d 3c26 243c
000002e0: ff10 6d3c 65c1 8b3b ea9c b8bc 7c52 c8bc
000002f0: efdd efbc 8354 c73b c9f0 903c d5d0 a63c
00000300: a7d2 5f3c 3052 b23c a097 aa3c fac8 89bc
00000310: 1f9c 8fbc dd16 42bc 9278 643d dd54 7c3d
00000320: 6023 fe3c 505e ca3c 1bcd d33b 5fed fabc
00000330: 0c50 5f3c d89b 9ebc 9f51 32bd 025a 703c
00000340: 76fc 2f3b d144 aebc e0ca 2ebc 8ce9 e7bc
00000350: 59ae 26bd 94a4 2ebd cc09 72bd bc78 4fbd
00000360: b609 043d 55b4 123d 1e9b 143c cc4b ebbc
00000370: a4ad 02bd 75b2 5dbd bf0d 47bd 38dd b5bc
00000380: 720f 80bc 7cb4 eeb9 e806 6237 4e5c 2ab9
00000390: d356 6abb 0d78 33bb 0770 32bb 2a20 e8ba
000003a0: 8c8a e1ba 497a 9bba 8cc5 f5bb 968a 233d
000003b0: 24bd cf3c 343d 173d ca2b ff3b c9fc 8fbd
000003c0: d45e 743d 77b2 afbc bbc7 c23c e134 9c3d
000003d0: 4b37 983d 6834 8f3d f11e b13c d736 c4bd
000003e0: af6c 0cbe 56d1 fb3d f765 25bd 42d0 45bc
000003f0: e30d c2bc 91f6 93bc b1eb 0bbc 8997 29bc
0.00015566488 0.00014101033 0.00016470067 0.00016244415 0.00015512049 0.0001749002 0.00017655868 0.00018075372
0.00018868937 -0.04101338 -0.09026811 -0.024802422 -0.00201342 -0.0025408342 0.041501705 0.021444704
0.04158901 0.035828736 -0.020884557 -0.07182813 0.016802883 -0.0015827235 -0.00046555072 0.06354347
0.002080038 0.04271256 0.052115534 -0.050596535 -0.122428 -0.053839155 0.015997367 0.017202253
0.07325428 -0.00027431748 0.041416004 0.019133106 -0.028928436 -0.025746783 0.003697599 -0.009193993
-0.007944004 0.00084150996 0.033265267 0.03377923 0.03360748 -0.0057852166 0.004113679 0.01457761
-0.010474654 -0.0034672832 -0.00025832368 -0.024364147 -0.017102193 -0.00899011 0.0053633796 0.002046168
0.0010436672 -0.0006253941 0.00095719064 0.0028221186 -0.009675229 -0.010491051 -0.00016530577 0.056008756
0.059709698 0.030821241 -0.0026596407 -0.010338596 -0.033709973 -0.04193986 -0.051495474 -0.05459723
-0.012711701 0.0039115767 -0.0067248354 -0.015570612 0.016744127 0.0065685194 -0.011631578 0.015732076
0.012021913 0.06838676 0.10376965 0.052507445 0.00529646 0.085064 0.003961174 -0.013389602
-0.011088232 -0.003334311 0.0019770626 0.0072429767 0.010206852 -0.0026775566 0.0056515005 0.0072592287
-0.0062718624 0.0011876813 -0.00021922855 -0.06334068 -0.020230122 -0.047562487 -0.040769685 -0.0107664345
-0.035559118 -0.02431824 -0.030001083 -0.077000454 -0.008060622 -0.02743013 -0.0019597039 0.0043923324
-0.005751032 0.014041312 0.017010598 0.016648242 0.022055995 -0.040485326 -0.07074211 -0.059587844
-0.0475831 -0.06035694 -0.033215426 -0.039684225 -0.050506435 -0.03382404 -0.06325806 -0.04158733
-0.0035960963 -0.0487 -0.012501236 0.020965112 0.0064964676 0.05051798 0.062151503 0.05851159
0.07580212 0.06966934 0.024358938 0.07293526 0.041130766 0.0074393786 0.03517452 0.028564157
-0.03973787 -0.06680062 -0.06628282 -0.032844912 -0.042926922 -0.038023867 -0.032401294 -0.05008501
-0.04350837 0.061826464 0.04445333 0.012322842 0.05767626 -0.0073402473 -0.04826779 0.06156959
-0.015122151 -0.015311169 0.010835528 0.023512553 0.019832768 -0.007126293 0.006302238 0.0060570035
-0.014665786 -0.004137113 0.0018472159 -0.058647912 -0.062349707 -0.0020474775 -0.019563468 0.0023509287
0.05637655 0.014121075 0.037918866 0.04977978 0.035533145 0.044902336 0.037935734 0.010018881
0.014469384 0.004264998 -0.02253576 -0.024453394 -0.02928063 0.0060830726 0.01769294 0.02036325
0.013661063 0.021767706 0.020824254 -0.016819466 -0.017530499 -0.011846271 0.055779047 0.06160437
0.031022727 0.024703175 0.0064636595 -0.030630765 0.0136299245 -0.019361421 -0.04353487 0.014669897
0.002685336 -0.021273049 -0.010668486 -0.028309606 -0.040693615 -0.042637423 -0.059091374 -0.05065225
0.032235824 0.03581651 0.009070186 -0.028722666 -0.031903878 -0.054125268 -0.048597094 -0.022200212
-0.015632365 -0.0004552937 1.3472258e-05 -0.0001624685 -0.0035757318 -0.0027384788 -0.0027227418 -0.0017709781
-0.0017207428 -0.0011862005 -0.007500356 0.039927088 0.025358744 0.036923602 0.0077872025 -0.07030637
0.059660748 -0.021447403 0.02377688 0.07627273 0.07432421 0.069924176 0.0216212 -0.09580772
-0.13713335 0.12295787 -0.040380444 -0.012073578 -0.023688262 -0.018061908 -0.00854008 -0.01035107

1.bn1.weight f4 [64]
00000000: e2b9 913e 747e 713e 5e98 c73e a028 ae3e
00000010: 954c 8b3e 279d c53e e9b1 4b3e 694c da3d
00000020: eb59 b83e 8ffd bb3e 9b68 643d 594f 783e
00000030: fd26 733e 4aff db36 63f3 b83e 65b5 41be
00000040: 8393 4a3e 6493 cf3d 6d0b f93e 15ce 3f3e
00000050: 28f1 cd3e 23a5 d63a e3de c4ba 9e25 c83e
00000060: 8e52 8fba 621a a03e f958 ab3b 71f8 283e
00000070: 95b4 1836 4132 173f f80f 773e 4b3a 583e
00000080: 62ac db3a 883e 983e 6c05 953e 0c00 47bc
00000090: c943 f53d 196d 903e eb42 323e 8807 14bd
000000a0: a2a5 233f 265e 023e 2d2a bfb8 df6c 853e
000000b0: c7f8 163f 63ec f03d 64bd d33d 8c89 3b3e
000000c0: 79c7 153e 6d0d 9e3e 779a 983e 5cc1 953e
000000d0: 7f4b 463e bea9 2a3e 82b7 ba3e 6b5f 293e
000000e0: bc8d 013e 33a9 413e 4e60 953e 4d84 723e
000000f0: 2615 3137 81d9 ee3e 5448 983e c2d2 373e
0.2846213 0.23583394 0.38983434 0.3401537 0.27206865 0.3859646 0.19892086 0.10659105
0.36006102 0.36716887 0.055763822 0.24249019 0.23745342 6.556428e-06 0.3612319 -0.18916853
0.19782834 0.101355344 0.4864153 0.18730958 0.4022305 0.0016376119 -0.0015020039 0.390912
-0.0010934637 0.31270128 0.005229112 0.16501023 2.2754878e-06 0.59061056 0.24127185 0.21115987
0.0016759748 0.29735208 0.291057 -0.012146007 0.119758196 0.28208235 0.1740834 -0.036139995
0.6392461 0.12731227 -9.1154456e-05 0.26059625 0.58973354 0.11763837 0.10338858 0.18314189
0.14626874 0.30869618 0.29805347 0.29249084 0.19364737 0.16666314 0.3646813 0.16540305
0.12651724 0.189122 0.29175037 0.23683281 1.0554946e-05 0.46650317 0.29742682 0.17951491

1.bn1.bias f4 [64]
00000000: 96c7 1f3b d534 193c 7f18 05be f6f0 1c3d
00000010: b977 113e b356 d4be 002f 81bd 74a7 833e
00000020: 89cc 6dbd aecc 2ebe 56ea 833e 40f3 cb3c
00000030: 331f b23c db31 23b9 9d71 8dbd 5686 573b
00000040: 7a47 42bd 9017 e6bd 9a58 9fbe 2618 b23c
00000050: 426b fa3b 2e06 a4bc c985 97bc 5b9c 0e3a
00000060: b6be 61bc cd61 57be 708b febc 81b7 70bd
00000070: d090 27b8 58ce 7a3e 66bc 9abd 2487 87bd
00000080: dfd9 a1bc fbb5 87bd 3878 673c ba9f cdbc
00000090: 1b1a ff3d 7349 133e 0522 1bbc 64bb d93e
000000a0: 15ca d53c b56d dd3d ad89 ffba c423 e43d
000000b0: bcf0 77be 0510 093e 7a0b f13d 602c 4fbd
000000c0: 585f 963e c187 03be 5868 20be fc20 2a3d
000000d0: 4c6e 78bd fd48 07bd d59a 1cbd 90ff 03bb
000000e0: 2e18 d4bd 4ef7 d3bc 11e2 58bd d929 423e
000000f0: 4331 dfb9 2239 fcbd 3c38 a0bd cb3a 83bd
0.0024380437 0.009350975 -0.12997626 0.038315736 0.14205827 -0.41472396 -0.06307793 0.25713694
-0.058056388 -0.17070267 0.25764722 0.024896264 0.021743393 -0.00015563464 -0.06906436 0.0032886467
-0.047431447 -0.11234963 -0.31122285 0.02174003 0.0076421807 -0.020022478 -0.01849641 0.0005440169
-0.013778379 -0.21033402 -0.031072348 -0.058768753 -3.995077e-05 0.24492776 -0.075554654 -0.06617573
-0.01975721 -0.06626507 0.0141277835 -0.025100578 0.12456151 0.14383487 -0.00946856 0.4252578
0.026097337 0.108119406 -0.0019495987 0.11139634 -0.24212927 0.13385017 0.11769767 -0.05057943
0.29369617 -0.12844755 -0.15664804 0.041535363 -0.060652062 -0.03302859 -0.038233597 -0.002014134
-0.103561744 -0.02587476 -0.05294997 0.18961276 -0.00042570577 -0.12315585 -0.07823226 -0.06407698

1.conv2.weight f4 [64, 64, 3, 3]
00000000: 3bf2 dfbd 20e0 823d f188 3e3d 4f94 103e
00000010: c5b5 d63d 0785 b2bc 0741 073e 727c 8b3b
00000020: 9196 e6bd 2420 c73d d255 113d c364 983d
00000030: ba70 a53d e33b c6bc ab9e 113d 7dcd 3b3d
00000040: 0c8b 49bd 2731 8b3d 508c d6bb 2ca5 b43a
00000050: a3c6 153e 7a0b 9a3d ce0c 14bc 480f 693d
00000060: ff01 073e 6af7 1d3e 25b1 a63d 271f 48be
00000070: 5d52 febd d3cf 5bbe 60ee e2bc 875f 953d
00000080: 20e2 ccbd 01e2 96bc 45da b53d 0f6e 93bd
00000090: 4273 2ebd ca01 5abd 3971 143e ab5d f7bb
000000a0: dd73 96bc 0f8e 0fbd 778e 07bc c412 9f3d
000000b0: 59dc d0bd 5d67 53bd e970 05be 1a22 093d
000000c0: ebfd 95bd dc11 873d 2fe2 b43b 5588 23bd
000000d0: fcfa 95bd 0767 5fbd 6be5 123d f0fb 2b3d
000000e0: edb7 533c 6c95 bdbc fac5 a5bc 9255 1abd
000000f0: 0bf9 bebd e0bd b0bd 68a5 82bd 9254 a4bd
00000100: cfa1 7ebd 1de3 04bb 024e 2bbd 71bf a53c
00000110: df20 9a3d ccf6 bebd bb48 873b d500 a43d
00000120: fd89 d53d a8da 84bd 7865 39bd d937 3d3e
00000130: 2aa8 babc 1e08 a6bd 57d7 963d 6d6b 1e3e
00000140: cfee 803d 6a82 113e ed5f dc3c 01e3 1f3d
00000150: 758e 2a3e 0717 bebc 28db ae3a e54b f0bc
00000160: acae 89be 16d1 0fbe d7b0 bbbc 986a 273d
00000170: 4ee9 3c3d 2673 dcbb 948e 3d3d bba8 583d
00000180: fa2c febc 8faa bf3c 8679 eb3c 955e 55b9
00000190: 694a f23d c508 f53d 078e 123e eafe 263d
000001a0: 944f febc 4f4e 643e 5f86 593d 269f 303b
000001b0: d8c4 d83d 6ef9 053d fa94 803b 6f25 d93d
000001c0: 8138 853d 90f3 8f3d 3f17 263c b1d1 70bb
000001d0: c1be 173d 92cd 5fbc 31fa 5fbc b558 60bc
000001e0: f1c8 5fbc 5fff 5fbc 24d6 5fbc ea8e 5fbc
000001f0: 0cc1 5fbc 8ea9 5fbc ce60 c03d 4247 0b3e
00000200: 63ca f53c 52cf c23d c1ca 8b3d e3ee 60bd
00000210: f09e ff3c 2a3e 963d 4b31 d9bc afde fbbd
00000220: 1c3f 383d e5ac c73c a6a8 7abd d403 da3d
00000230: b4ed 043e 87c8 9237 9fb3 973d 4ece 003d
00000240: b093 273d c7a5 3a3d 0672 983d 04fb afbd
00000250: 6837 78bd a53b 0e3d b586 64bd 26c9 f5bc
00000260: 78ed e93c 1a79 89bc 0ae7 f4bc fb1d 55bc
00000270: e0f3 c8bc 729c edbb 3290 7f3b a0b7 9a3c
00000280: c54e 543d d04b 433d 7a86 843d ddbc 733d
00000290: 596a 133e 2dd6 1c3d f7f5 7e3d d80e 5c3e
000002a0: 8b0e 1a3d 1d98 9d3d 1dc9 1c3e 1a02 4d3c
000002b0: 4e21 433d e22e 6fbd 3a70 e3bc 52f1 1b3d
000002c0: 7174 97bd ac51 90bd 8ced 11bd 2f7c adbd
000002d0: 2e1e 123d 218f 43bd 5a29 c8bd 2864 4cbd
000002e0: c345 20bd b541 9abd 3ad7 0abe 057c 17be
000002f0: 2c9c 46bd 049e d03c e1ef 733c 9aea 2ebc
00000300: 10bf b63c f84b c53b ec35 a5bc 2b1b 53bc
00000310: b9e9 5ebc faf3 b7bc 7b42 3a3c 539c 2f3d
00000320: 4664 4e3d bf88 2c3c 8baf 2c3d 001b 6b3d
00000330: 3e4c 1a3d f428 793d 9978 bb3d 397b 00be
00000340: 4b62 97bd f451 04be 0f95 21bd 5ca2 023d
00000350: 35bc 5cbd 7bb6 7cbd 4bd4 b53b 3d86 77bd
00000360: efeb 8b3c edec 9f3c e012 ee3b cb5f 443d
00000370: 67bd 303d e2d6 0b3d 79d3 2c3d 6462 153c
00000380: 2355 963c 1b78 333c bed1 9c39 a550 10bd
00000390: 35df edbc fc82 103c 4d5d 293b b541 be3d
000003a0: b5c7 4f3d f9e3 3f3d 6e27 29bc cc02 33bc
000003b0: 0ab6 3abc 50a8 ffba 7531 10bc a5cb fcbb
000003c0: dbdc cd3b dd57 9fbb b244 30bc 6d7b 8dbd
000003d0: 4a93 a0bd ab24 56bd 52e7 96bd fc46 86bd
000003e0: 9841 02bd 21a1 5dbc af2c b8bc fd4d 30bd
000003f0: ad78 57bc 2a25 5abc 511a 59bc 5e70 53bc
-0.10934874 0.06390405 0.046517316 0.14119075 0.104838885 -0.021791948 0.132084 0.0042567784
-0.11259187 0.09722927 0.035482235 0.07441094 0.080781415 -0.024198478 0.03555171 0.045850266
-0.04920487 0.067964844 -0.0065474883 0.0013782135 0.14626555 0.0752172 -0.009036256 0.05689934
0.13184355 0.15426412 0.081392564 -0.19543134 -0.12418053 -0.21465997 -0.027701557 0.07293611
-0.100040674 -0.018418314 0.08879522 -0.071987264 -0.042590387 -0.053224362 0.14496316 -0.007549008
-0.018365795 -0.035047587 -0.008273712 0.07767251 -0.10198278 -0.051612247 -0.13031353 0.033479787
-0.07323822 0.06595203 0.0055201272 -0.03992494 -0.07323262 -0.054541614 0.03586332 0.041988313
0.012922269 -0.023142539 -0.020236004 -0.037679262 -0.09324845 -0.08629966 -0.06379205 -0.08023943
-0.06216603 -0.0020276972 -0.04182244 0.020232888 0.07525801 -0.093244165 0.004128543 0.08007971
0.1042671 -0.06487018 -0.045262784 0.18478335 -0.022785265 -0.08107017 0.073652916 0.15470667
0.06295549 0.14209905 0.02690121 0.039034847 0.16655906 -0.02320434 0.001334046 -0.029333064
-0.26891077 -0.14044604 -0.022911472 0.04087314 0.046120934 -0.006727594 0.04627855 0.05289529
-0.031027306 0.023396758 0.02874447 -0.00020348497 0.11830599 0.11964563 0.14311992 0.04077045
-0.031043805 0.22295497 0.053106662 0.0026950329 0.1058442 0.032708578 0.0039240094 0.10602843
0.06504918 0.07028878 0.010137378 -0.003674608 0.03704715 -0.013659852 -0.01367049 -0.013693024
-0.013658748 -0.013671725 -0.013661895 -0.013644913 -0.013656866 -0.013651265 0.09393464 0.13601401
0.030003732 0.095121995 0.068257816 -0.05491532 0.031203717 0.073360756 -0.026512763 -0.12298333
0.04498206 0.024374435 -0.061195992 0.106452614 0.12981302 1.7497934e-05 0.07407307 0.031446747
0.04091233 0.045568254 0.07443623 -0.08592799 -0.060599715 0.03472485 -0.05579253 -0.030003142
0.028555617 -0.016781379 -0.029895324 -0.013007636 -0.024530351 -0.0072513158 0.003899586 0.018886387
0.051832933 0.047679722 0.06470962 0.059506286 0.14396037 0.03829019 0.06224629 0.21490037
0.037611526 0.07695029 0.15311094 0.012512708 0.047639184 -0.05839432 -0.027763475 0.038071938
-0.07395256 -0.07046828 -0.035626933 -0.08470952 0.035673313 -0.04774392 -0.09773512 -0.049900204
-0.03912903 -0.07532064 -0.13558665 -0.14793403 -0.04848878 0.025465973 0.014888735 -0.010676051
0.022307903 0.006021019 -0.020167314 -0.012884895 -0.0136055285 -0.022455204 0.011368389 0.04287369
0.050388597 0.01053065 0.0421596 0.057398796 0.037670366 0.06083007 0.091538616 -0.12547006
-0.07391795 -0.12921888 -0.039448794 0.03189312 -0.053890426 -0.061697464 0.005548989 -0.060430754
0.017080275 0.019522155 0.0072654337 0.047942918 0.04314938 0.034140475 0.042193864 0.009117696
0.018351143 0.010953928 0.0002991091 -0.03523316 -0.029037097 0.008820292 0.0025842965 0.09289876
0.050727565 0.04684827 -0.010324342 -0.01092596 -0.011395941 -0.0019505117 -0.008800854 -0.007714706
0.0062824315 -0.004862769 -0.010758566 -0.06908307 -0.07840593 -0.052281063 -0.073683396 -0.06556508
-0.031800836 -0.013527186 -0.022482244 -0.043043125 -0.01315133 -0.013314525 -0.013250903 -0.012905208

1.bn2.weight f4 [64]
00000000: 44ce 923f 19a3 f33c bbc5 213d 896e 9c3c
00000010: c202 053f c57b 32bc 5479 a7bc 6695 d53d
00000020: c30d 91bd 4896 c4bd c5aa 493f 4d18 63bd
00000030: 5ed5 363f 8377 483f e709 e3be e129 e83e
00000040: 7b11 943d 74a0 3d3e 1a3b 093f 34d8 ac3c
00000050: d170 013f 3513 f83c c523 c53d 911e 653e
00000060: 50f8 2bbc 45f5 0540 00b6 96bd 971a 0e3d
00000070: 737a 823f 705c 193f 6df7 0ebc 6dbb 433d
00000080: 4e2e f03e b3c1 e93e 29c8 2d3f a1a6 8fbe
00000090: 4a56 7e3b 6084 b43d 8e3e 173f c42a 913d
000000a0: 441e 8e3d 912b 523e 2420 25bd d6fa 4bbe
000000b0: b924 0b3f d6d2 6bbd b12f 293e 9643 febc
000000c0: 1ffd 0c3e bf63 91bd 59df 243e 2683 0e3f
000000d0: 9aab 793a 12de 2a3c 4a73 523f 99e0 afbd
000000e0: 3162 403f 0a25 073f ce55 d83b aa14 c53d
000000f0: 7b02 303e 8e61 f63d 37d2 813f 6597 d43c
1.1469197 0.029740857 0.03949521 0.019095676 0.51957333 -0.010893767 -0.020443596 0.10428886
-0.07082703 -0.095989764 0.787762 -0.055443097 0.7141932 0.7830736 -0.44343492 0.4534445
0.07229897 0.1851824 0.53605807 0.021099187 0.5056277 0.030282596 0.09625963 0.22374941
-0.010496214 2.093095 -0.073589325 0.034693327 1.0193619 0.59906673 -0.008725983 0.047786165
0.46910328 0.45655593 0.67883545 -0.28056815 0.0038808757 0.08814311 0.59079826 0.07088235
0.069393665 0.20524432 -0.040313855 -0.19919905 0.5435291 -0.057574116 0.16522099 -0.031038087
0.13768433 -0.07099103 0.16100825 0.55668867 0.0009524167 0.010428922 0.8220717 -0.085877605
0.7514983 0.5279089 0.0066020256 0.09623082 0.17188446 0.12030326 1.0142277 0.025951097

1.bn2.bias f4 [64]
00000000: adb6 9a3f 622c a93c af73 01bd 4352 f7bc
00000010: 50f7 823e 418a 49bd 1fc3 0d3e 7533 8b3c
00000020: fdf3 9e3d c646 3e3d 97e1 a1bd 7744 103d
00000030: 45ed ca3e faec 813e 2cbb 523e d890 153c
00000040: 7dae 993d 87b7 a73c cb46 ec3e b650 b83b
00000050: 6bdc 873e b933 a0bc 2ab4 353c 9df4 053d
00000060: 8754 173e 9292 0740 df9b 14be d7b4 8ebd
00000070: 41fe 083f ad8d 283e c4b0 1a3d c729 94bc
00000080: b737 663e 357e 9f3e fb52 103e 7c02 cc3c
00000090: b036 47bd 485a ef3c 0042 753e ccc8 f93c
000000a0: e164 41bd 380a efbc cec3 aebd 7412 b23b
000000b0: 1fc7 943e 7e06 8cbd 3a3c c53d bc5b 68bd
000000c0: 0f42 df3c d482 acbd 434d 45bd 48b9 6a3e
000000d0: 0273 91bc 6f44 d23d 5184 f53e c300 263d
000000e0: fa49 183f 6601 583e 8a57 4bbd 353b 893d
000000f0: 1987 103d ea1b c93d fbc8 3b3f 59c4 693d
1.2086998 0.020651046 -0.031604465 -0.030190593 0.2557931 -0.049204115 0.13843964 0.01699231
0.07761381 0.046454214 -0.07904356 0.035221543 0.39634147 0.2537611 0.20579213 0.009128772
0.07503984 0.020473255 0.4614776 0.005624856 0.26535353 -0.019555913 0.011090318 0.032703985
0.14778338 2.118321 -0.14512585 -0.06968086 0.5351296 0.16460295 0.037766233 -0.018086327
0.22482191 0.31150976 0.14094155 0.024903528 -0.04863614 0.029217854 0.23950958 0.030491255
-0.047215346 -0.029179677 -0.085334405 0.0054343287 0.29058167 -0.06837176 0.09630628 -0.05672811
0.027253179 -0.08423391 -0.048169386 0.22922242 -0.017755035 0.10266959 0.47952512 0.04052807
0.5948788 0.21094283 -0.04964403 0.06700746 0.03528509 0.09819777 0.73353547 0.057072017

2.weight f4 [4, 64, 3, 3]
00000000: 715b fa3c 7094 233d 913c 193e 4bde 86bc
00000010: e6d7 0cbe 72be a03d ce52 2c3d 2fa5 17be
00000020: 4f6b 18bd e397 5cba 01a1 dfbc 5485 e9bb
00000030: d7af a53a 54ce d23b 70e0 ac3c 1793 00bb
00000040: a08d b7ba 7a0b 9fbb f7c8 90bb c35f 23bd
00000050: ed7d 44bc fd26 a03b b1c3 9db9 ed47 9a3c
00000060: cccf ca3c 922f 353c 917b 3a3c 02b7 783c
00000070: 151f d3bc 7e65 58bc 1c53 36bb ae14 a43c
00000080: 70cd d43c caae c03c 7c04 4c3c 25fa d63c
00000090: 6632 e93d e989 933d 26c0 803d 130f 7e3d
000000a0: 681b 553d c7d8 a73d 7960 8d3d 65d4 9e3d
000000b0: 4775 953d 5fd4 8abc 9bc0 04bd de0b f4bc
000000c0: 01bc 27bc bd2b 8dbc 368d 82bc 4f68 383c
000000d0: 8daa 9bbb 2ad1 0bbb e8f3 86bb bee3 ff3b
000000e0: e29c 403c f2d8 7f3c 073d 0cb9 0477 7dbc
000000f0: 1bfe 0d3d 9174 7b3c db50 143b a7d4 babb
00000100: 7ce7 8b38 ac97 bf3c 34f1 35bd 037b e9bb
00000110: f5b0 f33c d79a a4bd 44b5 21bc bc76 c33b
00000120: 1f64 34bd 9203 7abc fae8 89bc 6089 debc
00000130: 1916 51bc c789 6c39 f43f 493c 1378 653c
00000140: 733b 503d 5f72 be3c aae4 563d fe43 a63d
00000150: 07a8 0a3d e57c 1a3d 1d6b 283d d399 853c
00000160: 088f abbc 7d39 febb eda6 90bb 8c34 09be
00000170: 4db9 963d b6a1 1e3d 80f4 50be bbd0 423d
00000180: 8d51 5e3d 3cbe 36be e550 3e3d f7eb 243b
00000190: 5d10 243d e9ba 1b3c 499c 8bbc cd29 ed3c
000001a0: 49a0 05bc 8fd0 a23b f3a8 853c aba2 433b
000001b0: 63f4 a33c 31de d53d 991e 083d 44fc 4a3d
000001c0: 8937 f03d afe5 bf3b 9558 373e 3814 e73d
000001d0: 2cf8 98bc 5fdf cf3c 9f8f 033e d88c 2b3e
000001e0: 7c38 c5bd e018 11be c783 6b3c 0d57 dabc
000001f0: 00bf 7abe deaa 41be d0e0 563c fcf8 67bd
00000200: 66bd db3d 56c7 eebc 4be6 afbd dbde c03d
00000210: e03f 92bc 9039 583d 4bf2 a73c 8bfe 523d
00000220: e579 593d 2809 033e d042 ab3c b80b da3d
00000230: 5876 373d c10b bd3d 67c6 d13d 9da9 bb3d
00000240: 16db 303b de56 32bc 40ab baba f3bc 1b3c
00000250: 868f 39bd 31dc d5bc 2ab0 10ba 6082 7f3b
00000260: b0e0 a7b9 fae6 aa3c 2219 eebc 8899 f2bc
00000270: 34d3 243b e611 2b3c c31e a1bc 79e4 02bd
00000280: 2687 5abd a942 5dbd 6d4b 7b3d c11d 043e
00000290: 70f3 e53d 96b0 ad3b 1f48 793e e579 863e
000002a0: 2f0f cc3c 4bdf 273e 94a4 063e 4efa 30bc
000002b0: 03ef 23bd 7cde 3e39 2d39 c2bb 3496 25bc
000002c0: 7ceb 86bc 383d 013b 7965 6b3b d9f7 bc39
000002d0: 572a e03c 485a 883c a3eb 8bbd 553e e73d
000002e0: d19f 6d3e 9aaa e53d 43a1 e33c 5f22 d53d
000002f0: 6815 aa3d 0c68 3a3d 7dbf 7abb 52b0 d63b
00000300: 0053 113c 5821 babc 0120 9bbc 0ea0 20ba
00000310: bc34 12bd f076 e1bc 39d3 8a3c 3ae7 0ebc
00000320: affc 4a3c 896c 4c3d 7a6e 1d3c a08f 1ebc
00000330: 94a5 c3ba 63bc 8abd 5e0f a4bd bd29 d43a
00000340: a17b af3b 3177 163d b905 7abc 7bb4 11bd
00000350: 0e12 9a3c 830f 2bbc 53e1 a0bd c6b5 acbc
00000360: 1cb4 9fbb 3491 1f3d abe4 023d bf95 3d3d
00000370: 44d6 2b3d 1afb 813b d81a 883c 31db 723c
00000380: 3693 90bc 9410 8c3e bd73 9a3e b461 473e
00000390: 046e 383e ee4a 143f e2fe f93e 6b39 923e
000003a0: bbb2 de3e 30d5 e93e 6e3f c6bc 5aac 84bc
000003b0: c021 e73c 0e16 cebb 76d8 193d 8447 bb3c
000003c0: 794c da3c 8bba 0b3d 0aec 11bd 5a38 f83b
000003d0: bd24 92bc 3a87 abbc 6bba 83bc 3a25 03bd
000003e0: a1d7 19bd 7c3c acbc cfda 12bc e754 ccbb
000003f0: 5c2b ca3c 7e19 67bc b8e6 0d3d 68eb 4c3e
0.03056118 0.039936483 0.1496451 -0.01646342 -0.13754234 0.078488246 0.042071156 -0.14809106
-0.037211712 -0.0008414967 -0.027298452 -0.0071264897 0.0012640905 0.0064332876 0.021103114 -0.0019618922
-0.0014004 -0.004853663 -0.004418488 -0.039886247 -0.011992914 0.0048874603 -0.00030091175 0.018833125
0.024757288 0.011058705 0.011382 0.015180351 -0.025771657 -0.013207791 -0.0027820533 0.020029392
0.025976866 0.023520846 0.012452241 0.026242325 0.11386566 0.07204039 0.062866494 0.062026095
0.05202809 0.08195644 0.06903166 0.07755355 0.072977595 -0.01694697 -0.032410245 -0.029790815
-0.010237695 -0.01723277 -0.015936475 0.011255338 -0.004750556 -0.0021334388 -0.0041184314 0.0078091314
0.011756154 0.015615689 -0.00013374175 -0.01547027 0.034666162 0.015347616 0.0022631201 -0.0057016197
6.671154e-05 0.023387752 -0.044419482 -0.00712526 0.029747466 -0.08037346 -0.009869877 0.005965082
-0.044040795 -0.01525964 -0.016834725 -0.027165115 -0.012761616 0.0002255804 0.012283314 0.014005679
0.050837945 0.023247896 0.052464165 0.08118437 0.03385165 0.037716765 0.041117776 0.0163087
-0.020942226 -0.007758318 -0.0044144304 -0.13398951 0.07359562 0.03872844 -0.2040577 0.047562342
0.05427699 -0.17846006 0.046463866 0.002516506 0.040054668 0.009505012 -0.017042296 0.028950596
-0.008155891 0.00496871 0.016315913 0.0029851596 0.020013994 0.1044277 0.033232305 0.049556985
0.117293425 0.005856238 0.17904885 0.11283153 -0.018673025 0.025375066 0.12847756 0.16752946
-0.09629914 -0.14169645 0.01437468 -0.026652837 -0.24486923 -0.18912837 0.013115123 -0.056633934
0.10729484 -0.029147785 -0.08588847 0.09417506 -0.017852724 0.05278927 0.020501276 0.051512282
0.053094763 0.12796462 0.020905882 0.106467664 0.044790596 0.092307575 0.1024292 0.091632105
0.0026986054 -0.010884969 -0.001424171 0.009505498 -0.04530289 -0.026105972 -0.00055194146 0.0038987622
-0.00032020127 0.020862091 -0.029064719 -0.029614225 0.00251503 0.010441279 -0.019667989 -0.03195617
-0.053351544 -0.05401865 0.06135123 0.12901975 0.11228073 0.0053005917 0.24343918 0.26264873
0.024909584 0.16393773 0.13148719 -0.010801865 -0.04002286 0.00018202694 -0.005927226 -0.010106612
-0.01646971 0.0019720327 0.0035918637 0.00036042815 0.02736394 0.016644612 -0.068320535 0.11291186
0.23205496 0.1121418 0.027786857 0.104069464 0.08304864 0.045509383 -0.0038261109 0.0065517807
0.008869886 -0.022720978 -0.01893616 -0.00061273656 -0.035694823 -0.027522534 0.016946422 -0.008722121
0.012389346 0.049908195 0.009608859 -0.009677798 -0.0014926665 -0.06774213 -0.080107436 0.0016186755
0.005355314 0.036734764 -0.015260153 -0.03557251 0.018807437 -0.01044071 -0.07855477 -0.02108277
-0.0048737656 0.038956836 0.031956356 0.046285387 0.041952386 0.003966701 0.016614363 0.014822767
-0.01764832 0.27356398 0.30166426 0.19470865 0.18010718 0.57926834 0.48827273 0.2855943
0.43495736 0.45670462 -0.024200168 -0.016195465 0.028214335 -0.00628925 0.03755995 0.02286125
0.026647793 0.034113448 -0.035625495 0.007575077 -0.017839784 -0.020938504 -0.016080102 -0.032017924
-0.037559155 -0.021024935 -0.008963301 -0.006235707 0.024678878 -0.014105199 0.03464386 0.20011675

2.bias f4 [4]
00000000: 4e3a a83d d19a 1e3e 8e9e 69b7 6bed 603e
0.08214246 0.15488745 -1.3924799e-05 0.21965568
