expert_target_aware/mocosflV2_ResNet18_cifar10_cut1_bnlC4S2_expert_batchsize128_ressfl_2.0_SSIM0.6_data_proportion_0.00_aux_svhn/checkpoint_c_best.tar (torch, 18780 bytes, 5 tensors)

0.conv1.weight f4 [64, 3, 3, 3]
000000 ef 17 99 be b5 39 21 bf 25 89 91 be 2e 87 9d 3d
       -0.29901072 -0.6297868 -0.28424945 0.07691799
000010 be 0f 65 bd 34 af f5 3d 84 c1 29 bd e4 4e f8 3d
       -0.055923216 0.11996308 -0.041444317 0.12124422
000020 c6 28 3e 3e a3 48 3e 3e 89 36 41 3e 66 db cf 3e
       0.18570241 0.18582396 0.1886846 0.40597075
000030 35 4b 51 3e 53 54 d0 bc d8 f7 f1 bb 0a ce 53 3e
       0.20438845 -0.025430834 -0.0073842816 0.20684066
000040 a4 48 3b 3b 31 de ce 3c bf dd 48 3d bb aa bc 3e
       0.0028577233 0.025252433 0.0490396 0.36849007
000050 c2 a1 cf 3e 3f 48 36 be b4 9d 9c bb a0 7e e0 be
       0.405531 -0.17800997 -0.004779542 -0.43846607
000060 4e f7 77 be 83 09 3c bc eb 64 9b be 7f 86 2c 3e
       -0.24215433 -0.011476877 -0.30350432 0.16848181
000070 49 20 29 3e 81 48 26 3e c2 4d 7c 3d 05 5e f9 3d
       0.16516222 0.16238596 0.061597593 0.12176136
000080 e0 c8 25 3e 0d 43 c5 3d 48 a0 1e 3e fc f2 40 3e
       0.16189909 0.096319295 0.1549083 0.18842691
000090 00 17 21 3d 86 92 4a bd 9b 6f dd bc f8 d1 d0 bd
       0.039328575 -0.049456142 -0.027030757 -0.10196298
0000a0 d9 7f 7e be 63 19 0f be 21 4a a8 3d 3b 76 dd bc
       -0.24853458 -0.13974528 0.08217264 -0.027033916
0000b0 ed 9a ad 3d 77 d2 34 bd d6 a5 f0 bc 12 16 d2 bd
       0.084768154 -0.044146027 -0.029375952 -0.10258116
0000c0 81 25 31 be 76 f0 25 be ef b1 62 be 86 3a aa bc
       -0.17299463 -0.1620501 -0.22138189 -0.02077986
0000d0 55 c7 32 bd 09 13 17 be d6 7e b7 3d 6a 6c af 3d
       -0.04364713 -0.14753355 0.08959739 0.085656
0000e0 be 65 11 3e b8 76 aa 3d 48 41 9f 3d d8 5e 09 3e
       0.14198968 0.08323425 0.07776123 0.13415086
0000f0 01 be 0a 3e 12 25 06 3e 78 3f 3d 3e c5 ca 0b be
       0.13549043 0.13100079 0.18481243 -0.13651569
000100 47 5d 14 be 53 d6 95 bd 51 a9 18 be d4 96 21 be
       -0.14488707 -0.0731627 -0.14908339 -0.15780193
000110 b4 03 b0 bd b1 a9 aa bd 44 12 bb bd 4d b7 b4 bc
       -0.08594456 -0.08333147 -0.09134343 -0.02206006
000120 a9 0a 36 bd 1a 16 50 bd f7 04 86 3c cc 8f 5c bd
       -0.04444376 -0.050802328 0.01635979 -0.053848073
000130 29 31 78 bd d9 ff dc 3b 8f 5c 06 3c 72 c4 3e 3b
       -0.060593758 0.0067443666 0.008200779 0.002910879
000140 01 c8 8d 3d f1 a2 54 3e 50 b9 3d 3e 9e 14 3f 3e
       0.06922913 0.20765282 0.18527722 0.18660209
000150 18 bc fc 3d 67 2f 2c 3d f7 f1 d3 3d 89 f4 eb 3d
       0.123405635 0.042037394 0.103488855 0.11521251
000160 11 c3 83 3d 89 47 9d 3d 00 9a 67 3d 37 90 8a 3d
       0.0643369 0.0767966 0.05654335 0.06765788
000170 ed 92 27 3e 2a 4b 72 3c 6b 46 19 bd 82 00 5e 3e
       0.16364641 0.014788428 -0.03742067 0.21679881
000180 c9 e5 fd 3c 09 71 3a 3b 46 85 4b 3e 4d 1f 81 be
       0.03099336 0.0028448722 0.19875059 -0.25219193
000190 db 77 7c be 27 1b 3c be c3 9b 64 be 57 54 5b be
       -0.24655096 -0.18369733 -0.22325043 -0.21418892
0001a0 17 69 fe bd 87 a3 54 be c7 31 41 be 04 44 1b be
       -0.12422388 -0.20765506 -0.18866645 -0.15162665
0001b0 f8 ef 42 be 27 d1 20 be b0 4c 6c 3d da 77 5e be
       -0.19036853 -0.15704785 0.057690322 -0.21725407
0001c0 dd 76 23 be c4 ac 6b 3d a1 30 64 bd 8e 92 33 bd
       -0.15963311 0.05753781 -0.05571044 -0.043840937
0001d0 b6 7c c8 3c cc 9b c1 3c 47 d4 1c 3a 83 0b 62 3d
       0.02447353 0.02363386 0.00059825595 0.05518676
0001e0 68 f9 89 3d 11 ac 42 3c 12 97 09 bd 88 da 11 3e
       0.067370236 0.011881844 -0.033591338 0.1424352
0001f0 1e 95 2f 3d 95 9a fb bd 42 ee a7 bd 3a 5f 8c bc
       0.04286682 -0.122853436 -0.08199741 -0.017135251
000200 2d ef 87 bd 26 9d 21 3e f3 c0 46 3e d1 44 77 3d
       -0.06637416 0.15782604 0.19409542 0.060368363
000210 29 0e 1d 3e 43 49 24 3e 14 78 58 bd 2c 2c 20 bd
       0.15337433 0.16043572 -0.05284889 -0.039104626
000220 ef ed eb bd 25 fc 95 be bb e9 a0 3d a9 41 3f 3e
       -0.115199916 -0.29293934 0.078570805 0.18677391
000230 bd cf be be e1 9a 57 bc 63 f0 22 3e 48 a8 d8 be
       -0.37267867 -0.013159485 0.15912013 -0.42315888
000240 dc 20 11 3e a4 d4 7b 3a bc 3a 87 3e 3a 70 57 3d
       0.14172691 0.0009606576 0.26411998 0.052597262
000250 80 9f 42 bd d1 6d 95 3e f3 28 40 bc e3 09 66 bc
       -0.047515392 0.29185346 -0.011728513 -0.014040443
000260 2d ab 80 3e 75 16 5d 3a 7a a8 71 3c 1e 53 2b 3e
       0.25130597 0.00084338273 0.014749641 0.16730925
000270 76 43 40 be 47 c4 92 bd 58 05 24 bd f5 8f 19 be
       -0.18775734 -0.07166343 -0.04004416 -0.14996321
000280 10 99 97 3c 8a 40 2c 3d 07 ab ec bd 3c 41 f4 bd
       0.018505603 0.042053737 -0.115560584 -0.11926505
000290 7e 36 b3 bd 3d 83 b7 bd 0f 74 aa bd 49 ea f2 bc
       -0.08750628 -0.089605786 -0.08322918 -0.029652731
0002a0 f5 27 0d be af fc f4 bd a2 52 9b bd d3 43 a5 3d
       -0.13784774 -0.11962258 -0.0758412 0.08069577
0002b0 a6 f3 a8 3d 54 f0 eb 3d 77 30 f2 3d 85 e7 05 3e
       0.08249597 0.11520448 0.1182565 0.13076599
0002c0 8e e0 26 3e 8d 66 49 3d 2f 09 92 3d 56 ef c0 3d
       0.16296598 0.049170066 0.07130658 0.0942065
0002d0 26 46 1d bd 95 39 e9 bc 82 02 63 bc 14 79 92 3c
       -0.038396977 -0.02846984 -0.013855578 0.01788
0002e0 00 3d 4f 3d ed dd 66 3d 7e 1d 4b bd 4a 9e 34 bc
       0.050595284 0.05636399 -0.049588673 -0.011024067
0002f0 9b 53 46 bc db b2 dd bd 56 be e4 bc 2c 4d 18 bd
       -0.012104894 -0.108251296 -0.02792279 -0.03718297
000300 39 2d 1a be fa 68 af bd 20 f4 0f be 2d 4f 4f be
       -0.15056314 -0.085649446 -0.1405797 -0.20245047
000310 fb fe 07 be 62 62 4d be 60 18 b6 3d 16 fe 27 3e
       -0.13280861 -0.20057061 0.08891368 0.1640552
000320 af ac 1b 3e fa ef f4 3d 27 9b d8 3d d4 db f5 3c
       0.15202592 0.119598344 0.10576468 0.030012049
000330 64 f2 56 3e 07 de 47 3e 3f cc 2d 3e 02 70 9d bd
       0.20990902 0.1951829 0.16972445 -0.076873794
000340 0a 49 f5 3c 80 5b 8f bd 8a dd 06 bd 1d 3f 01 3e
       0.029942054 -0.06999874 -0.03292612 0.12621732
000350 83 e1 ab 3a db ae 71 bc c1 6a 99 3d f3 a5 ed bd
       0.0013113472 -0.014751161 0.07491065 -0.11603918
000360 79 c2 24 3e 4c 9b a4 3d 8c ee 4c 3d 27 1f 71 bd
       0.1608981 0.08037433 0.050032184 -0.0588676
000370 60 99 5b be e1 b3 ad bd 6b 68 a8 3b 1a 8e cd bc
       -0.21445227 -0.08481575 0.0051394007 -0.025092173
000380 6f 67 42 3d 99 b3 6b 3e ef 5a e7 3d 90 21 0b 3c
       0.047461923 0.2301773 0.11296641 0.008491889
000390 09 90 30 bb af 25 51 be f2 24 64 be 81 60 3c 3d
       -0.002694132 -0.20424531 -0.22279719 0.04599047
0003a0 c6 d3 8c bd 98 f6 42 bd e2 cf 4b 3e 2e e9 8e 3d
       -0.0687633 -0.04759845 0.1990352 0.06978069
0003b0 1d 74 44 bd 64 c3 cd 3d 3c b5 32 bc 10 39 18 be
       -0.047962297 0.100470334 -0.010907467 -0.14865518
0003c0 5f 1a f7 3d ec 72 8a bc 4f 6b 9d bd 1e 1b 40 3e
       0.12065577 -0.016900502 -0.07686483 0.18760344
0003d0 73 78 0d bd 3f df 44 3e 34 2f c4 bd 80 83 89 be
       -0.034538697 0.19225787 -0.09579316 -0.2685814
0003e0 96 1e 12 bd 12 b7 0f 3d 03 d3 98 bd 10 67 16 3e
       -0.0356737 0.0350867 -0.07462122 0.14687753
0003f0 ab 58 4c 3d 16 0c a2 bd 93 dd 9a 3d ac cc e2 bd
       0.049889248 -0.079124615 0.07561793 -0.11074194

0.bn1.weight f4 [64]
000000 90 7a 0f 3f a9 a2 c5 3d 19 64 0c 3e 6b 45 b0 3e
       0.5604639 0.096501656 0.13710059 0.34427962
000010 bc 21 ab 3e 18 3f d0 3e 8a f7 ae 3e a5 87 ce 3e
       0.33424175 0.40673137 0.34173232 0.40337864
000020 c1 48 f5 3e 54 fb c8 3e d1 a1 07 3f 03 cb fe 3e
       0.4790707 0.39254248 0.5298129 0.4976426
000030 a8 b1 43 3f 94 95 44 3f 91 ef 63 3c f6 72 a0 3e
       0.76442957 0.7679074 0.013912098 0.31337708
000040 a5 53 0e 3f a0 a4 1b 3f 77 65 ab 3e 74 8b a2 3e
       0.5559638 0.6079807 0.3347585 0.3174702
000050 d6 74 65 3f eb 8a a4 3e eb 7b 3d 3f 10 85 3c 3e
       0.896314 0.32137236 0.7401721 0.18410134
000060 4b 68 24 3e 40 f2 00 3f 84 9b 20 3d 13 2b 54 be
       0.1605541 0.50369644 0.03921081 -0.20719557
000070 dc 91 3b 3f c2 f6 c7 3e 58 d3 e9 3e 66 36 74 3f
       0.7326944 0.3905545 0.45669055 0.95395505
000080 bc 89 1a 3f 76 be 64 3f f3 99 e1 3e 4c fc c7 bc
       0.60366416 0.8935312 0.44062766 -0.024412297
000090 9c fb ee 3e b7 78 8b 3e f9 e4 de 3e 3e e8 0d 3f
       0.46676338 0.27240536 0.43534067 0.554325
0000a0 60 32 a4 3c 11 2a 49 3e 20 38 9d 3e f9 4a a0 3e
       0.020043552 0.19644953 0.30706882 0.313072
0000b0 d9 32 22 3f 1e af 01 3f 33 f0 19 3f 2b 22 3a 3c
       0.6335884 0.5065783 0.6013214 0.011360685
0000c0 07 88 3e be 14 df 3d 3e 9a 2b db 3c 70 f6 ef 3d
       -0.18606578 0.18542129 0.02675419 0.11716926
0000d0 7d 74 33 3e 61 5b 5c 3e 34 b8 31 bc 93 fd 54 3e
       0.17524906 0.21519233 -0.01084714 0.20799856
0000e0 df 17 47 3f df 84 e1 3e b7 16 61 3f c9 78 8f 3e
       0.777708 0.44046685 0.87925285 0.2802184
0000f0 da 97 d6 3e a6 b4 af 3e bc 48 0d 3f b5 de 04 3f
       0.4191273 0.3431751 0.5518911 0.51902324

0.bn1.bias f4 [64]
000000 22 00 a4 3f 9b f9 62 3e 72 6e 27 be e5 c9 f6 3d
       1.281254 0.2216553 -0.16350725 0.12050227
000010 83 99 be 3e fb 84 08 3f 1e 6c 25 be b0 aa 4a 3e
       0.37226495 0.5332791 -0.16154525 0.19791675
000020 ca 94 53 be 5b e5 33 bf 18 1d 4a be f6 0d 10 be
       -0.20662227 -0.70271844 -0.19737661 -0.14067826
000030 92 4f 99 39 66 27 6c 3c ce 22 70 bd e3 08 6e 3e
       0.0002924172 0.01441369 -0.058626942 0.23245578
000040 57 58 0b 3e 40 e2 97 3d 0d e7 95 3e d0 b4 cc 3d
       0.13607918 0.07416201 0.2927784 0.09995425
000050 97 9f 31 3b 22 9a 3e 3e 08 cf 01 bc 61 fc 05 be
       0.002710318 0.18613485 -0.007922895 -0.13084556
000060 fb f3 57 3e 39 76 66 3e 0d 2f 8e 3e 11 63 13 3d
       0.21089165 0.22506036 0.27770272 0.03598315
000070 e2 c7 19 3d 9d d6 c0 bd 20 eb 7a bd 84 16 0b 3d
       0.03754414 -0.09415934 -0.06125939 0.03395702
000080 ed 27 23 bc 83 b2 80 3e 17 5d 8d 3d 76 67 ef 3d
       -0.0099582495 0.25136194 0.06902521 0.116896555
000090 1d 9d 02 3e d7 fe 86 be 39 43 81 bd ef 64 93 bc
       0.12755246 -0.26366302 -0.0631165 -0.017992465
0000a0 a7 97 45 3e f8 c7 7b 3e ea 37 8f 3e 0c ee b0 bc
       0.19296132 0.24588001 0.27972347 -0.021597885
0000b0 8d 76 bd 3a 56 ac d3 bc 06 d8 0a bc a7 46 74 bd
       0.0014454887 -0.025839012 -0.008474356 -0.05963769
0000c0 14 de 20 3d 11 d6 ec 3e 44 cf b4 3e 53 ed 2d 3e
       0.03927429 0.4625707 0.3531438 0.16985063
0000d0 1e e3 ec bd 74 32 ef 3f 0b 82 8a 3d 2d eb f3 bd
       -0.11566757 1.8687272 0.06763085 -0.119100906
0000e0 f1 d0 d9 3b 47 f7 49 3f e9 70 72 3d 02 5a 9f be
       0.006647222 0.7889294 0.05918971 -0.31123358
0000f0 c3 05 7f bd 6a 84 d6 be c0 74 07 3e 91 aa 58 bd
       -0.062261354 -0.418979 0.1322813 -0.05289704

1.weight f4 [4, 64, 3, 3]
000000 6f b1 50 be 7d bd ba 3e 29 e0 80 3e 69 aa 5a 3e
       -0.20380186 0.36472693 0.2517102 0.21354069
000010 50 f3 2d 3f e9 2f 1b 3f 25 b8 7b 3e 11 d5 45 3f
       0.6794939 0.6061998 0.24581964 0.7727824
000020 a2 57 3d 3f b5 67 c7 bd a5 a1 0f bd 86 a1 00 be
       0.7396184 -0.097365774 -0.035066266 -0.12561616
000030 b1 f0 b2 bd 8d 64 ce bd 97 f0 00 bd 20 66 e0 3b
       -0.087373145 -0.10077772 -0.031479444 0.0068481117
000040 e5 a3 06 3d fc 57 d1 3d f7 22 a5 3d 78 c1 6c 3c
       0.032871146 0.1022186 0.0806331 0.014450423
000050 51 6d e3 3d 29 88 1a 3d d8 d6 c3 bd fe de 8b bd
       0.11104835 0.03772751 -0.095624626 -0.06829642
000060 e7 c3 49 3d 39 81 22 3d dd 0e 91 3d 9b 94 99 3d
       0.049259093 0.039674018 0.07082913 0.07499047
000070 41 dc 2e 3b 0a bb 20 3c 3a 17 e7 bc 4c 8f da bd
       0.0026681575 0.009810219 -0.028209317 -0.10671863
000080 06 c6 67 3b 0e 10 d8 3b 7c fb 19 3d 88 d5 9b 3c
       0.0035365834 0.0065937107 0.03759335 0.019022718
000090 17 62 56 bd a6 38 6c 3e b9 78 98 3d 10 8e dd bc
       -0.05233964 0.23068485 0.07444901 -0.02704528
0000a0 d1 b0 66 be 5e f2 25 be 5a 1b 7a be 95 5c 8e be
       -0.22528388 -0.16205737 -0.24424496 -0.2780501
0000b0 64 dd 56 be 17 ee 56 be 6e 6e 99 3c 33 88 af bd
       -0.20982891 -0.20989262 0.018729415 -0.085709
0000c0 0e dc df bd 58 f4 93 be 37 61 2a be a1 53 f8 bc
       -0.10930644 -0.28897357 -0.16638647 -0.030313315
0000d0 8b f0 41 be af 11 15 3d bc fb f7 3d 4c a7 46 3c
       -0.18939416 0.036393818 0.121085614 0.012124848
0000e0 23 2a e2 3c 51 5f c5 3d 76 63 25 be 7e 92 7e bd
       0.027607983 0.09637321 -0.16151223 -0.062151425
0000f0 57 ea 04 bd 95 f9 87 be 4d 80 d2 3d b0 b4 0e be
       -0.032450046 -0.26557603 0.10278378 -0.13936114
000100 d7 f7 c7 bd 34 40 d3 bd 91 30 13 3c 24 f6 87 be
       -0.097640686 -0.1031498 0.008983747 -0.26554978
000110 88 84 8b bd 39 e5 52 3d 2d bb b5 bd 43 90 3d 3d
       -0.06812388 0.051488135 -0.088735916 0.046280157
000120 8b 30 9b be a0 e0 c9 bd 4a 8a 85 3d d5 05 95 be
       -0.30310473 -0.09857297 0.06520517 -0.29106012
000130 8f e1 46 be fb ae 14 be f4 0b 96 bb 5f 1e 82 3d
       -0.19421981 -0.14519875 -0.0045790616 0.06353449
000140 17 7c 8e 3e 83 09 47 bd 93 3c 75 be 95 33 fe bd
       0.27829048 -0.048593055 -0.23948888 -0.12412182
000150 8a af 73 be 2d 22 e5 be bf ff 82 be 3e f2 00 be
       -0.23797432 -0.44752637 -0.25585744 -0.12592408
000160 ef 25 a3 be a8 1e fb bd 32 0e cf bc 3d 2f a0 3d
       -0.3186488 -0.122617066 -0.025275324 0.0782151
000170 53 04 89 bd a5 2f d8 bd 14 18 18 be b5 c4 a2 be
       -0.06690278 -0.105559625 -0.14852935 -0.317907
000180 f6 57 a5 bd 0a 5b 55 be f0 8b 47 3c f3 a5 80 3d
       -0.08073418 -0.2083551 0.01217936 0.06281652
000190 16 f8 53 bc ff a2 68 3e da 0d ae 3d 7d 48 4e be
       -0.012937566 0.22718428 0.08498736 -0.2014484
0001a0 d9 73 8a be 9b e7 65 3c 0b e3 33 be ba 01 6a be
       -0.2704151 0.01403227 -0.17567079 -0.22852221
0001b0 14 48 b1 3e 50 21 c1 3e c7 e7 6b 3c 3e 3b c6 3e
       0.34625304 0.37720728 0.014398522 0.38717073
0001c0 34 76 68 3e a5 21 4c 3d d1 ba 47 3e 90 a8 8e be
       0.22701341 0.049836773 0.19504859 -0.27862978
0001d0 9b 5b 13 bf e4 1b 02 3f d5 80 12 3f b3 e7 a0 3c
       -0.57561654 0.5082381 0.5722783 0.019641733
0001e0 e2 d4 4d 3e a5 4a 7c 3e 5a 4d 8e be a9 c6 9c bb
       0.2010074 0.2463785 -0.2779339 -0.0047844243
0001f0 99 d5 0a 3f 56 17 95 3e 12 12 ab bc 47 83 37 3c
       0.54232174 0.29119366 -0.02088264 0.011200733
000200 9d 2a 42 3a 96 df 65 bc 76 35 c9 bc 7b 18 55 bc
       0.00074068626 -0.014030358 -0.024561625 -0.013006325
000210 cd 12 b9 bb f2 54 6f bb a2 c7 ee 39 58 fa bd bd
       -0.005647993 -0.0036519137 0.00045543635 -0.09276265
000220 67 55 cf 3d 2d 1e 4f 3e a9 ec a4 bc b2 9b fb 3d
       0.10123711 0.20226355 -0.02013238 0.12285556
000230 7c 3b f5 3d 3b 42 1c be 8c 36 10 bc 66 42 68 3e
       0.11974236 -0.1525964 -0.0088020675 0.22681579
000240 7d 40 e0 3d d5 61 25 3d 70 1b 0a 3d f5 dd 55 be
       0.109498 0.040376503 0.033717573 -0.20885451
000250 d6 91 99 be 42 07 7c be 66 8e 82 be 5d 87 98 be
       -0.29994076 -0.24612144 -0.25499266 -0.29790774
000260 28 ed 81 be b4 6c 94 3e 2d 37 c5 bd dc 16 ca be
       -0.25376248 0.28989184 -0.096296646 -0.39470565
000270 57 97 68 3c 82 dc 99 be e7 e9 4f be e4 0a 37 bc
       0.0141962385 -0.30051047 -0.2030407 -0.01117203
000280 00 5a 85 bd 84 bf 9e 3e 3b d4 b5 3e 44 be 1c 3e
       -0.06511307 0.3100549 0.35513481 0.15306956
000290 51 37 15 3e 9d 3a 4e 3d 71 0c 7d be e5 67 35 bd
       0.14571883 0.050348867 -0.24711777 -0.044288535
0002a0 a6 d5 9c 3e dd 37 84 bd 4b 4d cb 3d e1 ca 04 3e
       0.3063175 -0.064559676 0.09926852 0.12968017
0002b0 35 0b b3 bc 11 39 8f bd 3b 1d 27 bd e3 fb 4a be
       -0.02185593 -0.069933064 -0.04079936 -0.1982265
0002c0 59 c1 3f be e0 be 5e bc c4 ea 00 be 40 62 0f be
       -0.187261 -0.013595313 -0.12589556 -0.14002323
0002d0 3e a3 c5 3e 5f e8 4c 3e 2e 04 12 3d f9 f8 c0 3e
       0.38601106 0.20010518 0.035648517 0.3768995
0002e0 db 3f 00 3f 12 91 82 3e ce 6a fc 3e 4f 7e 89 3e
       0.50097436 0.25501305 0.49300236 0.26854178
0002f0 14 bf 5b 3e a2 69 0e be 5c c8 f1 bd d7 51 18 be
       0.2145961 -0.13907483 -0.11805794 -0.1487497
000300 22 41 06 bc 18 e9 8e bd 4e 74 0d be 5d a4 3d 3e
       -0.00819424 -0.06978053 -0.13813898 0.18519731
000310 6e 8a 49 3e f5 9e 7c bd a4 44 6f 3e 9a 58 11 3f
       0.19681713 -0.06167503 0.23366028 0.5677582
000320 77 6e 77 3e d5 b8 29 3e 00 b4 eb 3e 05 cd 5b 3e
       0.24163233 0.16574414 0.46035767 0.21464927
000330 6d 25 74 3d 45 80 13 3c 64 64 84 be 91 81 9f 3c
       0.059606005 0.00900275 -0.25857842 0.019470962
000340 e3 86 d4 3b 32 e5 0e bd 48 47 d8 bd 11 3c cc bd
       0.0064858063 -0.034886546 -0.10560471 -0.09972394
000350 a6 fc 01 be 1b a6 da 3c 81 58 64 3d 62 e5 c0 3c
       -0.12694034 0.026690533 0.055748466 0.023546878
000360 a1 18 0c bd 1b fd fc 3b 3d d5 c1 3d 72 72 6a 3d
       -0.034203175 0.007720602 0.094645 0.05723805
000370 5a 48 a8 3b df f5 9f 3d 44 5e 1e 3d b5 ea 09 3b
       0.005135578 0.07810568 0.038664117 0.0021044437
000380 40 64 5c 3d 44 0d cd 3d 5d 3d e6 3c 03 a8 41 3e
       0.053806543 0.10012296 0.028105432 0.18911748
000390 cd 61 03 3e a2 22 c4 3b 37 43 eb bd 73 a9 3b 3e
       0.12830277 0.005985574 -0.114874296 0.18326358
0003a0 12 e9 ca 3d e1 b4 ba 3d b1 47 ab 3c c2 9a ea 3d
       0.09907736 0.09116531 0.020908209 0.11455299
0003b0 96 48 37 bc 3a dc e4 bc 9d e2 b0 3d 95 b3 ed 3d
       -0.011186739 -0.027937043 0.08636973 0.11606518
0003c0 16 02 1f bd 40 95 43 3c f8 05 cd 3c 16 52 c7 bc
       -0.03882035 0.011937439 0.02502726 -0.024331134
0003d0 6b c5 1f bd cb a9 4a 3d 90 8c 7c bc fa a3 b0 bd
       -0.03900663 0.049478333 -0.015414372 -0.08625026
0003e0 0f 89 bf 3d 2d fe 84 3d 9a dd 41 3d f3 ef d2 3d
       0.09352314 0.06493793 0.047330476 0.10299673
0003f0 d7 45 d2 3e 8d 16 b1 3e ff 0a a2 3e d6 ad a8 3e
       0.4106891 0.34587517 0.31649014 0.32945126

1.bias f4 [4]
000000 ba 9d 80 3f 16 18 ee bb 10 86 e9 3d 07 ba dc 3d
       1.0048134 -0.007266055 0.114025235 0.107776694
