expert_target_aware/mocosflV2_ResNet18_cifar10_cut2_bnlC4S2_expert_batchsize128_ressfl_2.0_SSIM0.6_data_proportion_0.01_aux_cifar100/checkpoint_c_best.tar (torch, 315844 bytes, 11 tensors)

0.conv1.weight f4 [64, 3, 3, 3]
0	0xbac4e4cd	-0.0015021801
1	0xbd6b197b	-0.057397347
2	0xbd8b2323	-0.06793811
3	0x3c950672	0.01819155
4	0xbd9252c7	-0.07144695
5	0xbdac96a7	-0.08427172
6	0x3dc5c7e6	0.09657268
7	0x3d042205	0.032259006
8	0xbbaf1af5	-0.0053437897
9	0xbd373435	-0.044727523
10	0xbcb94645	-0.022616515
11	0xbb73849b	-0.0037157896
12	0xbd933d8a	-0.07189472
13	0xbd82c955	-0.06386057
14	0xbccc75bf	-0.02495849
15	0xbd933a02	-0.071887985
16	0xbd6d0b19	-0.05787191
17	0xbd2915bd	-0.041280497
18	0x3cdb64cf	0.026781468
19	0x3dea9fb6	0.11456244
20	0x3de2a459	0.11066503
21	0x3c46d6f1	0.012136207
22	0x3d845796	0.06462018
23	0x3db03e03	0.08605578
24	0xbbaea88f	-0.0053301523
25	0x3d8ea1da	0.069644645
26	0x3d842683	0.06452658
27	0xbc98ea0a	-0.018666286
28	0xbda350c6	-0.07974391
29	0x3d6d042f	0.057865318
30	0xbcbe95a7	-0.02326472
31	0xbdc9ee41	-0.098598965
32	0x3c91619b	0.017746737
33	0x3cc6e966	0.024281215
34	0xbd136999	-0.035989378
35	0x3c1d6861	0.009607405
36	0x3d999596	0.074992344
37	0x3cf493f7	0.029855711
38	0x3dce3ab7	0.10069793
39	0x3d8c9d5e	0.06865953
40	0xbb22e166	-0.0024853586
41	0x3d3747db	0.04474626
42	0x3dc160a7	0.09442263
43	0x3d0c3a69	0.03423539
44	0x3c77adf3	0.015117156
45	0x3cb0446f	0.021517007
46	0xbc90f773	-0.017696118
47	0x3db0c87c	0.08631989
48	0xbcb99c90	-0.022657663
49	0xbdc9cb63	-0.09853246
50	0xbcf345f3	-0.02969644
51	0xbd168263	-0.03674544
52	0xbdf22ca5	-0.118249215
53	0xbdc82616	-0.09772889
54	0xbdc8f5c3	-0.098125
55	0xbd257fb4	-0.04040499
56	0x3d02930b	0.031878512
57	0xbdfb7870	-0.12278831
58	0xbde7684c	-0.1129919
59	0xbd8562b7	-0.06512969
60	0xbc8be59f	-0.017077265
61	0xbad4300f	-0.0016188639
62	0x3d731a14	0.059351042
63	0xba7e79da	-0.00097074884
64	0xbbb1ca23	-0.005425708
65	0xbcdd72e2	-0.02703232
66	0xbb484491	-0.0030558447
67	0xbd16fa1c	-0.036859617
68	0xbd9c3d0c	-0.07628831
69	0xbc52607a	-0.012840385
70	0xbd47453d	-0.048650015
71	0xbd749132	-0.05970878
72	0x3d4fc22e	0.050722294
73	0x3deb4ec1	0.114896305
74	0x3d8d064e	0.06885968
75	0x3dd53f20	0.10412431
76	0x3dd0fc28	0.10204345
77	0x3cd7070b	0.026248476
78	0x3d8a4371	0.06751145
79	0x3d9c71f2	0.07638921
80	0x3cdc7ceb	0.026915034
81	0x3d4a807b	0.049438935
82	0xbc8beed9	-0.017081665
83	0x3d8c5b4d	0.06853352
84	0xbcbc2626	-0.02296741
85	0xbdc7cffb	-0.09756466
86	0xbbea2f54	-0.0071467552
87	0x3d5de4ac	0.054173157
88	0xbcf4e6ce	-0.029895213
89	0x3d71a7d8	0.05899796
90	0x3d6bab92	0.05753667
91	0xbc116cff	-0.008876084
92	0x3d80456b	0.062632404
93	0xbbd43228	-0.0064757057
94	0xbda2bf1e	-0.07946609
95	0xbad65093	-0.0016350917
96	0x3da6109c	0.08108637
97	0xbc47d90e	-0.012197746
98	0x3d852912	0.06501974
99	0x3cbffdd9	0.023436474
100	0xbd607715	-0.054801065
101	0x3c85da24	0.01633937
102	0xbd08b14d	-0.033372212
103	0xbdededec	-0.116176456
104	0xbd2a214b	-0.041535657
105	0x3d0dadbb	0.03458951
106	0xbd74ad72	-0.059735723
107	0x3c8c7b97	0.017148776
108	0xbdc11ff4	-0.09429923
109	0xbddf8b5a	-0.10915251
110	0xbdcb0b8d	-0.099143125
111	0xbe00a314	-0.1256221
112	0xbe28ddbe	-0.16490838
113	0xbe17e6bc	-0.14834112
114	0xbdbfebd5	-0.09371153
115	0xbe0db61d	-0.13839002
116	0xbda47061	-0.08029247
117	0x3ce65443	0.028116351
118	0x3d90d518	0.070718944
119	0x3d8872fa	0.06662555
120	0x3d615aef	0.05501836
121	0x3d86a79b	0.06574937
122	0x3d886558	0.06659955
123	0x3d81d4e8	0.06339437
124	0x3d802948	0.06257874
125	0x3dd4164b	0.103558145
126	0x3d188669	0.03723756
127	0x3d7318ca	0.059349813
128	0x3d0fe38d	0.03512912
129	0x3db4a780	0.088210106
130	0x3da7093a	0.08156057
131	0x3d59eb0f	0.053202685
132	0x3d396b63	0.045268428
133	0x3ce3153b	0.027720084
134	0x3d3387a2	0.04383052
135	0x3a06cb01	0.0005141944
136	0x3d1ca5b2	0.038243957
137	0x3d4df25a	0.050279953
138	0x3d579584	0.052632824
139	0x3dbca8f2	0.09211911
140	0x3dd3e676	0.10346691
141	0x3d7a866e	0.06116336
142	0x3da6e818	0.08149737
143	0x3dda91c0	0.10672331
144	0xbde8f4ca	-0.11374815
145	0xbe1a9b13	-0.15098219
146	0xbe2050c8	-0.15655816
147	0xbdcf88ef	-0.1013354
148	0xbe0fc8c0	-0.14041424
149	0xbe1cc3ee	-0.15309116
150	0xbd8a9af2	-0.06767835
151	0xbe0a37ae	-0.13497803
152	0xbe009d7f	-0.1256008
153	0x3db719e3	0.089404844
154	0x3dfec71d	0.124403216
155	0x3dc2cb9b	0.09511491
156	0x3d2d5290	0.042315066
157	0x3dae0c73	0.08498468
158	0x3d678a2e	0.056528263
159	0xbc0d77bb	-0.008634503
160	0x3d29a39f	0.041415807
161	0x3d03c84f	0.03217345
162	0xbdee0e5d	-0.11623833
163	0xbe003683	-0.12520795
164	0xbdea4b25	-0.11440114
165	0xbe220c8c	-0.15825099
166	0xbe2820d2	-0.1641877
167	0xbe3456c9	-0.17611231
168	0xbe16bdef	-0.14720891
169	0xbe10a869	-0.14126743
170	0xbdcbe096	-0.09954946
171	0x3d1e3106	0.03862097
172	0x3d49054d	0.04907732
173	0x3d938f87	0.0720511
174	0x3d4bafe6	0.049728297
175	0x3d6a48e7	0.05719843
176	0x3d673b9a	0.056453325
177	0x3d239585	0.039937515
178	0x3d5eb70b	0.054373782
179	0x3dcb6674	0.09931651
180	0x3dad0d42	0.08449794
181	0x3d949d67	0.072565846
182	0x3d69006c	0.056885168
183	0x3df85cea	0.12127097
184	0x3de042cb	0.1095024
185	0x3d5abdb2	0.053403564
186	0x3da0a8c4	0.078446895
187	0x3da7316e	0.08163725
188	0x3d8a1f57	0.06744259
189	0x3d28c341	0.041201834
190	0x3cdbc61c	0.026827864
191	0x3d785d39	0.06063578
192	0x3d53df93	0.05172689
193	0x3c37be49	0.011214801
194	0xbc27a0e5	-0.010231231
195	0x3d59a325	0.053134102
196	0x3c365266	0.011128044
197	0x3d152331	0.036410514
198	0xbe5358df	-0.2063937
199	0xbe4009d5	-0.1875375
200	0xbe16534b	-0.14680211
201	0xbe23ed69	-0.16008534
202	0xbe247226	-0.16059169
203	0xbe2eb608	-0.17061627
204	0xbe3b60b5	-0.1829861
205	0xbe44cc2b	-0.19218509
206	0xbe220637	-0.15822683
207	0x3de185d5	0.110118546
208	0x3e09d399	0.13459624
209	0x3e0b3c2a	0.1359717
210	0x3e33a8aa	0.17544809
211	0x3e283a18	0.16428411
212	0x3ddab6d1	0.10679401
213	0x3e2a3d92	0.1662505
214	0x3e20a61c	0.15688366
215	0x3e0849b4	0.13309366
216	0x3c53de92	0.012931483
217	0x3d34d241	0.044145826
218	0x3cfb7b77	0.030698521
219	0x3dc48f42	0.09597637
220	0x3db43f45	0.0880113
221	0x3d457277	0.048204865
222	0x3c7c8bc1	0.015414179
223	0x3c965e75	0.018355587
224	0xbcba00b4	-0.022705413
225	0x3d26cb97	0.040721502
226	0x3d9f90df	0.07791304
227	0x3d9347e2	0.07191445
228	0x3db61ab9	0.08891816
229	0x3da28b90	0.07936776
230	0x3d3aa4e3	0.045567404
231	0x3d8e6caa	0.0695432
232	0x3da0a38f	0.07843696
233	0x3d5fdc19	0.05465326
234	0xbde1ff8e	-0.11035071
235	0xbe0b08d3	-0.13577585
236	0xbd476b3c	-0.04868625
237	0xbdff78eb	-0.12474235
238	0xbe485ab7	-0.19565855
239	0xbe0005e5	-0.12502249
240	0xbd401f2d	-0.04690473
241	0xbde789c0	-0.113055706
242	0xbd1b2907	-0.037880924
243	0x3da177f3	0.078842066
244	0x3e0da0f1	0.13830926
245	0x3d754424	0.059879437
246	0x3e189344	0.14899927
247	0x3e511f6f	0.20422147
248	0x3df3145c	0.118691176
249	0x3d7fc569	0.062444124
250	0x3df3b312	0.11899389
251	0xbbd405b8	-0.0064704083
252	0x3d352720	0.044226766
253	0x3c7fe951	0.015619592
254	0xbcf8ee92	-0.030387197
255	0x3d2e20c0	0.0425117

0.bn1.weight f4 [64]
0	0x3e14f89f	0.14547966
1	0x3e57550c	0.21028537
2	0x3e259536	0.161702
3	0x3e1400be	0.14453408
4	0x3df37a87	0.118886046
5	0x3e57fb19	0.2109188
6	0x3e3882dd	0.1801867
7	0x3ea52020	0.32251072
8	0x3daf4ef5	0.08559982
9	0x3e3dc983	0.18533902
10	0x3ddb95f2	0.10721959
11	0x3e522d55	0.20525105
12	0x3ede9998	0.43476558
13	0x3ebd54a5	0.3697864
14	0x3ec14350	0.37746668
15	0x3ecb4e0a	0.39707977
16	0x3ec518c1	0.38495448
17	0x3dab015e	0.0834987
18	0x3e1bd164	0.15216595
19	0xbc954fd0	-0.018226534
20	0x3dfebd5b	0.124384604
21	0x3dd87886	0.10569863
22	0x3e1d6c33	0.15373306
23	0x3e906a08	0.28205895
24	0x3e8fe397	0.28103325
25	0x3893c087	7.045367e-05
26	0x3ec18522	0.37796885
27	0x3eae7cce	0.34079593
28	0x3e61b5d3	0.22042017
29	0x3e8c6b76	0.27425736
30	0x3da5186f	0.08061301
31	0x3d017ca4	0.031613007
32	0x3ec3f956	0.38276166
33	0x3ce0d27e	0.02744412
34	0xbc9e6c2b	-0.019338688
35	0x3ecd698d	0.4011959
36	0x3da04287	0.07825189
37	0x3e371962	0.17880777
38	0x3e60aa51	0.2193997
39	0x3e61365c	0.21993393
40	0x3ea3cf28	0.31993985
41	0x3e2d6970	0.16934752
42	0x3dccacca	0.099938944
43	0x3e92246c	0.28543413
44	0x3e658f58	0.22417963
45	0x3ec1a501	0.378212
46	0x3edb681a	0.4285286
47	0x3eaa19f4	0.33222926
48	0x3e7b6240	0.24549198
49	0x3edbb737	0.4291322
50	0xbc705ba9	-0.014670291
51	0x3daf5abc	0.08562228
52	0x3e97dd4e	0.2966103
53	0xbcfa692f	-0.030567734
54	0x3e8d87f3	0.27642784
55	0x3eadea6d	0.33967915
56	0x3d5248c5	0.05133893
57	0x3e16e6d1	0.14736487
58	0x3e37614f	0.17908214
59	0xbc2897ab	-0.010290067
60	0x3ec2d736	0.38054818
61	0x3d0cfe74	0.034422353
62	0xbc981109	-0.01856281
63	0x3e43a4c2	0.19105819

0.bn1.bias f4 [64]
0	0x3de0e6bf	0.10981511
1	0x3dc58fd8	0.09646577
2	0x3dae5d1e	0.085138544
3	0xbe363b99	-0.17796172
4	0x3df8bcf7	0.12145417
5	0x3e4e4d30	0.20146632
6	0xbb9e95f4	-0.004839653
7	0xbdad1958	-0.084520996
8	0x3e5d0450	0.21583676
9	0xbcecc820	-0.02890402
10	0x3e70737f	0.23481558
11	0x3ce25b8a	0.02763154
12	0x3cbd5b31	0.023114773
13	0x3bedc671	0.007256322
14	0x3e2ff868	0.17184603
15	0x3c5e1f8c	0.013557326
16	0x3d39b1d8	0.04533562
17	0x3deb6fe8	0.11495954
18	0x3e006211	0.1253741
19	0x3e833454	0.2562586
20	0x3e4ded5f	0.20110081
21	0x3e76cde6	0.24101982
22	0x3d3d9fd1	0.04629499
23	0x3deba5a1	0.115062006
24	0xbd8901de	-0.06689809
25	0xbafe3e87	-0.0019397297
26	0x3da9feb7	0.08300536
27	0x3d8a2f66	0.06747322
28	0x3e15e860	0.14639425
29	0x3c756335	0.014977266
30	0x3e0a84a4	0.13527161
31	0x3e9d17da	0.3068226
32	0x3c8beeaa	0.017081577
33	0x3e1b6ede	0.15179011
34	0x3e502772	0.20327547
35	0xbcd85aea	-0.026410539
36	0x3e092e89	0.13396658
37	0x3df465d1	0.119334824
38	0x3e2dfb1e	0.16990325
39	0x3db451cc	0.08804664
40	0xbafe8961	-0.0019419604
41	0x3e7f742a	0.24946657
42	0x3e2c21fd	0.1680984
43	0x3cb75b91	0.02238253
44	0x3e4c01a4	0.19922501
45	0x3e47055f	0.19435643
46	0x3ca3279f	0.019916354
47	0x3b00d754	0.0019659596
48	0x3e17b979	0.14816846
49	0xbdac1f89	-0.08404452
50	0x3e839e50	0.2570672
51	0x3e8a9d65	0.27073207
52	0x3dd2066e	0.102551326
53	0x3e4ca254	0.19983798
54	0x3e42f20c	0.19037646
55	0x3da16c97	0.0788204
56	0x3e39639b	0.18104403
57	0x3d181fd2	0.03713972
58	0x3dd4825e	0.10376428
59	0x3e303401	0.17207338
60	0xbd7ba4ea	-0.06143657
61	0x3e89c252	0.26906067
62	0x3e17e451	0.1483319
63	0x3e1f1642	0.15535834

1.conv1.weight f4 [64, 64, 3, 3]
0	0xbb2daa7a	-0.0026499317
1	0xba0e09cb	-0.00054183294
2	0xbb3a9452	-0.0028469753
3	0x3ad6ad90	0.001637863
4	0x3b79a3f8	0.0038092118
5	0x3a9eb087	0.0012107053
6	0xba2e634d	-0.000665237
7	0x3ad03b7f	0.0015886872
8	0xb9e88f15	-0.00044357093
9	0x3bd57406	0.006514075
10	0x3bb6a246	0.0055735437
11	0xbaf82c87	-0.0018934169
12	0x3c81d861	0.015850248
13	0x3c6c5dfd	0.014426705
14	0x3bbdf1bd	0.0057966397
15	0x3c9a15ab	0.01880916
16	0x3c87c01d	0.016571099
17	0x3bdb0727	0.0066842022
18	0x3c2c6205	0.010521417
19	0x3c860a13	0.016362226
20	0x3c848594	0.016176976
21	0x3c766625	0.015039002
22	0x3cace6e9	0.0211062
23	0x3caad0ca	0.020851512
24	0x3c373af6	0.011183491
25	0x3c87d7cf	0.016582398
26	0x3c85fa7c	0.016354792
27	0xbc73b89c	-0.014875557
28	0xbc94007f	-0.018066643
29	0xbcb1cf5b	-0.02170532
30	0xbc826468	-0.015917018
31	0xbc9d84e3	-0.019228404
32	0xbcbaa00f	-0.0227814
33	0xbc7644f6	-0.01503109
34	0xbc973e0e	-0.018462207
35	0xbcb3be59	-0.02194135
36	0x3b39c1fd	0.0028344386
37	0x3bc71a5d	0.006076141
38	0x3aea5b52	0.0017879999
39	0x3bd82513	0.0065962165
40	0x3c288561	0.010285706
41	0x3bc8a23f	0.006122857
42	0x3af64ef3	0.0018791839
43	0x3bbcee49	0.0057657105
44	0x3b180bb3	0.0023200333
45	0x3bdb7640	0.006697446
46	0x3c0fb0cd	0.00877018
47	0x3c2a81dc	0.010406937
48	0x3bb5f8c4	0.005553337
49	0x3bf83235	0.0075743445
50	0x3c18a8e3	0.0093176095
51	0x3b470b64	0.003037178
52	0x3ba2cfcd	0.0049686194
53	0x3bd4bf75	0.00649255
54	0xbb96e392	-0.004604765
55	0xbaa3d76e	-0.0012500116
56	0xbb96d8c1	-0.004603476
57	0xbb4d1465	-0.0031292674
58	0x3a9d5fae	0.0012006664
59	0xbad2a60b	-0.0016071213
60	0xbc17aeae	-0.0092579555
61	0xbb916e59	-0.0044382033
62	0xbbd0efac	-0.0063762274
63	0xbbd781d3	-0.0065767555
64	0xbb3cc97f	-0.0028806624
65	0xbb7ecc51	-0.0038879106
66	0xbc3cefc0	-0.01153177
67	0xbbfdd41f	-0.007746234
68	0xbc0e0932	-0.0086691845
69	0xbca73fdf	-0.020416198
70	0xbc8ae95d	-0.01695698
71	0xbc92928d	-0.017892146
72	0xbaa57aee	-0.0012625137
73	0x39f9ab95	0.0004762082
74	0xb9049f3c	-0.0001264782
75	0x3abcad33	0.0014394879
76	0x3b3f7257	0.002921244
77	0x3b162f61	0.0022916424
78	0x3bccc9f4	0.0062496606
79	0x3bed90df	0.007249936
80	0x3bbf2b80	0.005834043
81	0xbd42bda5	-0.04754414
82	0xbd339bf5	-0.043849904
83	0xbd273bed	-0.040828634
84	0xbd3f1025	-0.046646256
85	0xbd3062e6	-0.043063067
86	0xbd24b90f	-0.040215548
87	0xbd2811ae	-0.041032486
88	0xbd1ac4f4	-0.037785485
89	0xbd0fcda0	-0.03510821
90	0xbbd8f224	-0.0066206623
91	0xbbabc369	-0.0052418006
92	0xbbd2819c	-0.006424142
93	0xbaf49d5e	-0.0018662622
94	0xb994f485	-0.0002841094
95	0xbafce40b	-0.0019294036
96	0x3b2a1706	0.0025953664
97	0x3b9a8d61	0.0047165607
98	0x3b341210	0.0027476586
99	0xbc913b97	-0.01772861
100	0xbcad1291	-0.021127017
101	0xbcbe8ed0	-0.023261458
102	0xbca272f8	-0.019830212
103	0xbcbd27dd	-0.023090297
104	0xbcc8a001	-0.024490358
105	0xbc919e6a	-0.017775733
106	0xbca0deab	-0.019637426
107	0xbca7f3f6	-0.020502072
108	0xbba4a281	-0.005024255
109	0xb9fad6da	-0.00047843793
110	0x39e71b9d	0.00044080327
111	0x3bf71727	0.007540602
112	0x3c19183e	0.009344159
113	0x3c02bb7e	0.007979272
114	0x39ef9848	0.0004569909
115	0xba5ba79e	-0.0008379164
116	0xbad370de	-0.001613166
117	0x3c84b69f	0.016200362
118	0x3c23b5c3	0.009992066
119	0xbc26be51	-0.010177211
120	0x3c8f4465	0.017488668
121	0x3c7c763b	0.015409048
122	0xbb4e8077	-0.0031509676
123	0x3b66e8bc	0.0035233935
124	0x3b5c9aa4	0.003366151
125	0xbc3c9178	-0.011509292
126	0xbbdcb848	-0.006735835
127	0xbbe34e53	-0.006936827
128	0xbc0fbab6	-0.008772543
129	0x3caa7c28	0.020811155
130	0x3cb03108	0.021507755
131	0x3c90dfaa	0.017684776
132	0x3d0dce5a	0.03462062
133	0x3d14ffb6	0.036376677
134	0x3d00eceb	0.031475943
135	0x3cc9465d	0.024569685
136	0x3cb8abbf	0.022542832
137	0x3c125a81	0.008932711
138	0x3cda3f5c	0.02664154
139	0x3cb2efd7	0.02184288
140	0x3b930ada	0.0044873776
141	0x3cc0a0c6	0.023514163
142	0x3c6b341f	0.014355688
143	0xbbbfcae3	-0.0058530434
144	0xbca4db5b	-0.020124128
145	0xbcb8cdbb	-0.022559037
146	0xbce2069a	-0.027591038
147	0xbca5e77f	-0.020251988
148	0xbcb151cc	-0.02164545
149	0xbce2b904	-0.027676113
150	0xbcc4e739	-0.024036037
151	0xbcd66b47	-0.0261742
152	0xbd044aec	-0.032298014
153	0xbc5f479e	-0.013627915
154	0xbc3034da	-0.010754788
155	0xbc15f024	-0.009151492
156	0xbc560f92	-0.013065236
157	0xbc26d15b	-0.01018175
158	0xbc084701	-0.00831771
159	0xbc4a8943	-0.012361827
160	0xbc159bf6	-0.009131422
161	0xbbddebf2	-0.0067725116
162	0x3ced65b9	0.02897917
163	0x3d176462	0.036960967
164	0x3d1a710c	0.037705466
165	0x3ce43309	0.027856367
166	0x3d13da54	0.036096886
167	0x3d175a62	0.03695143
168	0x3cb27473	0.021784043
169	0x3cf01953	0.02930895
170	0x3cf64c1d	0.03006559
171	0xbb2ae6e7	-0.002607757
172	0xb98a44a0	-0.0002637254
173	0xbb26ccf8	-0.002545176
174	0x3a6c7721	0.0009020437
175	0x3b60f1d2	0.0034323824
176	0x3a8c058f	0.0010682809
177	0x3a021e0f	0.00049635855
178	0x3b4fe558	0.0031722393
179	0x3a86066a	0.00102253
180	0xbcfd0db7	-0.030890329
181	0xbd073bad	-0.033015896
182	0xbd147030	-0.036239803
183	0xbcfc74d6	-0.03081743
184	0xbd07a26f	-0.033113893
185	0xbd155e68	-0.036466986
186	0xbce3acfb	-0.027792444
187	0xbcf5956f	-0.029978482
188	0xbd09f785	-0.03368332
189	0xbc609a56	-0.013708672
190	0xbc3828a5	-0.011240159
191	0xbc5015c5	-0.012700503
192	0xbc39aa9c	-0.01133218
193	0xbc1b4ee0	-0.0094792545
194	0xbc363fe3	-0.01112363
195	0xbc2d19b9	-0.010565215
196	0xbc13bd15	-0.009017249
197	0xbc2eaeba	-0.010661775
198	0x3c16fc14	0.009215374
199	0x3c382a73	0.011240589
200	0x3c69335d	0.014233437
201	0x3be438da	0.006964785
202	0x3c2553ab	0.010090749
203	0x3c66c32d	0.0140846195
204	0x3b78f577	0.0037988105
205	0x3c0020f7	0.007820359
206	0x3c58f3e2	0.01324174
207	0x3ba24226	0.004951733
208	0x3b66aa7a	0.0035196827
209	0xba2750c0	-0.0006382577
210	0x3ae9ea41	0.0017846302
211	0x3a890229	0.0010452914
212	0xbb060bd4	-0.0020453827
213	0xbaee0962	-0.0018160755
214	0xba79e09c	-0.00095320656
215	0xbb29c385	-0.0025903892
216	0x3ca61641	0.020274283
217	0x3c3a4ecc	0.011371326
218	0xbb05a2bc	-0.0020391187
219	0x3cab5b57	0.020917578
220	0x3c42c3de	0.011887519
221	0x395f0c81	0.00021271595
222	0x3ca9a6ac	0.020709358
223	0x3c428116	0.011871597
224	0x3b0bbc83	0.0021322079
225	0xbcaf1382	-0.021371607
226	0xbcafa3bf	-0.021440385
227	0xbcafb30e	-0.021447685
228	0xbcaee2ec	-0.02134844
229	0xbcaf7ae0	-0.021420896
230	0xbcafa080	-0.021438837
231	0xbcaebde1	-0.021330776
232	0xbcaf82c1	-0.021424653
233	0xbcafc9f7	-0.021458609
234	0x3c13095c	0.008974399
235	0xba9e02d3	-0.0012055285
236	0xbc493ff3	-0.012283313
237	0x3c6c0de6	0.0144076105
238	0x3b59ac61	0.0033214318
239	0xbbf9da95	-0.007624934
240	0x3c751cf2	0.014960514
241	0x3b667d5d	0.0035169937
242	0xbc040b4a	-0.008059332
243	0xbad6456f	-0.0016347597
244	0xba9ad2e3	-0.0011812117
245	0xbafa6ae4	-0.0019105342
246	0xbc42ba4f	-0.01188524
247	0xbc466eae	-0.012111349
248	0xbc50ec1b	-0.012751604
249	0xbc7e7de9	-0.015532949
250	0xbc827223	-0.015923565
251	0xbc8829b8	-0.016621456
252	0xbcb3e5c5	-0.021960149
253	0xbca52f2c	-0.020164095
254	0xbc939618	-0.018015906
255	0xbca3f1c3	-0.020012742

1.bn1.weight f4 [64]
0	0xb9ac0c69	-0.00032815643
1	0x3e8523cc	0.26003873
2	0x3da4cd41	0.080469616
3	0x3f005bf8	0.50140333
4	0xbaaf4f21	-0.0013375023
5	0x3ea17d14	0.3154074
6	0x3e2c753f	0.16841601
7	0xb946b80e	-0.00018951317
8	0x3e6a7484	0.2289601
9	0x3eee3379	0.46523646
10	0x3ec78528	0.38968778
11	0x3e348113	0.17627363
12	0x3e4b8bd2	0.19877556
13	0x3df8e8ce	0.12153779
14	0xbb00eafb	-0.001967131
15	0xba852297	-0.0010157403
16	0x3e592b8b	0.21208017
17	0x3ef252c4	0.4732877
18	0xbba830c0	-0.0051327646
19	0xb92009de	-0.00015262465
20	0xbbcc3f51	-0.006233134
21	0x3e8b3200	0.27186584
22	0x3eb08455	0.3447596
23	0x3b3e7f03	0.0029067404
24	0x3e520a9e	0.20511863
25	0x3eca2955	0.3948466
26	0x3e6c4aa4	0.23075348
27	0x3e21693e	0.15762803
28	0x3e5c4c78	0.21513546
29	0x3f03b0e7	0.51441807
30	0x3ec1c6de	0.37847036
31	0xb9fe5ca7	-0.00048515687
32	0x3e420254	0.189462
33	0x3ed526c1	0.4163113
34	0xb7b55f07	-2.1621132e-05
35	0x3e7082b2	0.23487356
36	0x38e022a8	0.000106876076
37	0x39782ada	0.00023667086
38	0x3b70f050	0.003676433
39	0x3f0261d6	0.50930536
40	0xb8bd24d8	-9.019085e-05
41	0x3e73d073	0.23809986
42	0x3bf9a2a9	0.0076182676
43	0x3b8fc124	0.004387038
44	0x38d9dd6b	0.00010388609
45	0x3e90c265	0.2827331
46	0x3e29f5a7	0.16597615
47	0x3e2653d1	0.16242911
48	0xba4941dd	-0.0007677356
49	0xba5c173f	-0.0008395798
50	0x3ee86d1f	0.45395753
51	0x3ad1f17c	0.0016017403
52	0x3f18640d	0.59527665
53	0x3e3981ba	0.18115893
54	0x3eaa14f3	0.33219108
55	0x3e7e958e	0.24861738
56	0x3b245890	0.0025077201
57	0x3d6a32d0	0.057177365
58	0xba8085e6	-0.000980553
59	0x3e89c99b	0.26911625
60	0x3ebf82ac	0.37404382
61	0x3e8ac607	0.27104208
62	0x3ead7bee	0.33883613
63	0x3eab042e	0.33401626

1.bn1.bias f4 [64]
0	0xbb619f6e	-0.0034427303
1	0x3e8e0919	0.27741316
2	0x3e067a4f	0.13132595
3	0xbe6dbf1f	-0.23217438
4	0xbca34671	-0.01993105
5	0x3d1e8e99	0.03871021
6	0x3e137066	0.14398345
7	0xbb545637	-0.003240002
8	0x3dc3e4e1	0.095651396
9	0xbee0556f	-0.4381518
10	0xbe67ac65	-0.22624357
11	0x3e1e8dc3	0.15483765
12	0x3e0057c3	0.12533478
13	0x3c6bd76b	0.014394621
14	0xbcb6fa1a	-0.022336055
15	0xbc1327fe	-0.008981703
16	0x3b1993e9	0.0023434109
17	0x3d49e8b3	0.049294185
18	0xbcc3d7b8	-0.023906574
19	0xbaf29524	-0.0018507582
20	0xbd1a9242	-0.03773714
21	0xbd095825	-0.033531327
22	0x3e41b712	0.18917492
23	0xbcbb9455	-0.022897879
24	0xbe32f9ed	-0.17478152
25	0x3e5c6abf	0.21525095
26	0x3dc8dd56	0.098078415
27	0x3d487f16	0.048949324
28	0x3e4d71b8	0.20062912
29	0xbdbeb459	-0.09311742
30	0xbcb93beb	-0.022611579
31	0xbbc64e2b	-0.006051799
32	0x3d6d3c1b	0.05791865
33	0xbdbd3228	-0.09238082
34	0xba2959d0	-0.00064602215
35	0x3bb1134e	0.0054039126
36	0xbad78410	-0.0016442556
37	0xbb70c527	-0.0036738606
38	0xbd14890e	-0.036263518
39	0x3de49438	0.11161083
40	0xbb5a08e7	-0.0033269466
41	0x3d5b1b69	0.053492937
42	0xbd154782	-0.03644515
43	0xbc926325	-0.017869541
44	0xbad06905	-0.0015900439
45	0x3dec9744	0.11552289
46	0x3e5d438c	0.21607798
47	0x3e0d0eb9	0.13775147
48	0xbc0d4116	-0.008621475
49	0xbbf6f096	-0.0075360043
50	0xbd9247dc	-0.07142612
51	0xbc2829d4	-0.010263879
52	0xbee89b65	-0.45431057
53	0xbdf5f950	-0.12010443
54	0xbdd9e747	-0.10639816
55	0x3e73c7b5	0.23806651
56	0xbc9fff23	-0.019530838
57	0x3c080cee	0.008303864
58	0xbbb5f8ef	-0.005553357
59	0x3e44e2cf	0.19227146
60	0x3e418923	0.1889997
61	0xbda1aae2	-0.078939214
62	0xbbcbd991	-0.0062210043
63	0xbd90053d	-0.07032249

1.conv2.weight f4 [64, 64, 3, 3]
0	0xbb80a08e	-0.0039253896
1	0xbb9fa1dc	-0.00487159
2	0xbb8bf4f5	-0.0042711445
3	0xbb7f54c6	-0.003896044
4	0xbb9bdcba	-0.0047565373
5	0xbb80adf4	-0.003926987
6	0xbb7d3284	-0.0038634846
7	0xbb9e5d1b	-0.0048328764
8	0xbb669f3d	-0.0035190128
9	0xbd370184	-0.04467918
10	0xbd0da838	-0.034584254
11	0xbd6b2e0b	-0.057416957
12	0xbbf77866	-0.0075521944
13	0x3bb5f817	0.0055532563
14	0xbca70a60	-0.02039069
15	0x3c3681f6	0.011139384
16	0xbbc47797	-0.0059957015
17	0xbd304818	-0.043037504
18	0xbc105d36	-0.008811286
19	0xbc40991f	-0.011755257
20	0xbd27fa46	-0.041010164
21	0x3c5f8963	0.013643595
22	0xbb6e9e59	-0.00364103
23	0xbcdfc03b	-0.027313342
24	0x3c7a5477	0.015278927
25	0x3bc5983f	0.006030112
26	0xbbb7516b	-0.0055944226
27	0x3c5bfd0c	0.01342703
28	0x3c542b8a	0.012949834
29	0x3adb9209	0.0016751896
30	0x3c971fa2	0.0184477
31	0x3cdf9627	0.027293278
32	0x39abc13d	0.00032759635
33	0x3b5ff4a7	0.0034172924
34	0x3cf002a5	0.029298136
35	0xb8955c83	-7.122105e-05
36	0xbc16f3df	-0.009213417
37	0xbb0dd161	-0.0021639692
38	0xbb69af9f	-0.0035657657
39	0xbc1c45db	-0.009538139
40	0xbab82bc0	-0.0014051124
41	0xba93ad3a	-0.0011266835
42	0xbbd970e5	-0.0066357725
43	0xbb2641f5	-0.0025368903
44	0xbb81a62b	-0.0039565763
45	0xbcb95b36	-0.0226265
46	0xbb08a753	-0.0020851686
47	0x3c18c3ee	0.009324057
48	0xbb914ec3	-0.004434438
49	0x3cb1c00d	0.021698022
50	0x3c0112f3	0.007878053
51	0xbb9f4559	-0.004860562
52	0x3c19b6f5	0.009381999
53	0xbd0221fa	-0.031770684
54	0xbd0f7ee4	-0.03503312
55	0xbd13e6f5	-0.03610893
56	0xbcffa26e	-0.031205382
57	0xbc8c565c	-0.017131023
58	0xbc2c4d43	-0.0105164675
59	0xbc116b84	-0.008875731
60	0xbc9f7243	-0.019463664
61	0x3b830e55	0.0039995112
62	0x3a516b31	0.000798869
63	0xbbce73d3	-0.0063004284
64	0xbbb0bbf3	-0.005393499
65	0xbb8a7b37	-0.004226114
66	0xbbb98120	-0.005661145
67	0xbb9f10c3	-0.004854293
68	0xbb8159de	-0.0039474806
69	0xbba23be4	-0.004950987
70	0xbb91b784	-0.0044469256
71	0xbb827e77	-0.003982361
72	0x3c944202	0.018097881
73	0xbcaf2559	-0.021380113
74	0x3b6f8bf0	0.0036551915
75	0x3ce5c649	0.028048651
76	0xbcd8d2a9	-0.026467638
77	0xbcc75402	-0.02433205
78	0x3d0ddfe2	0.03463734
79	0x3c041464	0.008061502
80	0xbb4a7ec4	-0.0030898312
81	0x3b7ea7f4	0.0038857432
82	0x3ce30826	0.027713846
83	0x3cd7d461	0.026346387
84	0x3d265952	0.040612526
85	0x3c9564a2	0.018236462
86	0x3b66c559	0.0035212843
87	0xbd4475d8	-0.047963947
88	0xbd0fc423	-0.03509916
89	0xbbb1b5f1	-0.0054233004
90	0x3c8d63b7	0.017259462
91	0x3cc137b6	0.023586135
92	0xba7180fe	-0.0009212642
93	0x3d46ecbd	0.048565615
94	0x3cd02312	0.025407348
95	0x3cd1d0e6	0.025612306
96	0xbca3c476	-0.01999114
97	0xbc9bf01d	-0.019035393
98	0xbc85d1df	-0.016335426
99	0x3cb4cabf	0.022069333
100	0xbc1033c3	-0.008801403
101	0xbc36d7e2	-0.011159869
102	0x3b49afef	0.003077503
103	0xbc90c0b7	-0.017670019
104	0xbc9f3ae2	-0.019437257
105	0x3c6ab94e	0.014326407
106	0x3bf3db30	0.0074419007
107	0x3bd688a0	0.0065470487
108	0xbb99cd30	-0.0046936497
109	0xbc77b276	-0.015118232
110	0xbd096855	-0.033546764
111	0x3d0be894	0.03415735
112	0x3ca52b72	0.020162318
113	0x3c08eaae	0.008356733
114	0x3d22404d	0.039612103
115	0x3c25d1c4	0.010120813
116	0x3c45db7b	0.012076254
117	0x3cd7dd6f	0.026350705
118	0x3cd926c8	0.02650775
119	0x3cb9be48	0.022673741
120	0x3cb38bff	0.021917341
121	0x3cb09760	0.021556556
122	0x3c72f09b	0.014827873
123	0x3ccc46ad	0.024936045
124	0x3ca88b1d	0.020574147
125	0x3c5824d5	0.013192375
126	0x3ccef5ee	0.025263753
127	0x3c9efde3	0.019408172
128	0x3c603b42	0.013686003
129	0x3cf8debf	0.030379651
130	0x3ca1a19a	0.019730378
131	0x3c5f1627	0.013616121
132	0x3d0ed8c6	0.0348747
133	0x3cb920f2	0.022598717
134	0x3cb4d5b7	0.022074563
135	0xba407d77	-0.00073429145
136	0xb917b98d	-0.00014469605
137	0xb9b0301b	-0.00033605177
138	0xbb1bad99	-0.0023754595
139	0xbb35ba8a	-0.0027729594
140	0xbaf9393a	-0.0019014247
141	0xbb0c3255	-0.0021392305
142	0xbaf2f4ec	-0.0018536127
143	0xba84f8c8	-0.0010144943
144	0x3beb7eb6	0.007186736
145	0xbc464f8d	-0.012103927
146	0xbd3e2fcd	-0.046432305
147	0x3cd90902	0.026493553
148	0x3ccf8bcc	0.025335215
149	0xbbf10d5f	-0.0073563303
150	0x3c10cea4	0.008838329
151	0x3c29da39	0.01036697
152	0xbbe0a88f	-0.0068560313
153	0x3d4e9508	0.050435096
154	0x3d551991	0.052026335
155	0x3ce7c1ed	0.028290713
156	0xbcc6a5e2	-0.024249021
157	0xbc3435c8	-0.010999151
158	0x3bd33d73	0.0064465343
159	0xbca3fe96	-0.020018857
160	0xbbbf6ff5	-0.0058422037
161	0x3c907ead	0.017638529
162	0xbbd9689a	-0.006634784
163	0xbc03a459	-0.008034789
164	0xbc2deddf	-0.010615795
165	0xbbc694f6	-0.006060238
166	0xbbc8ac24	-0.0061240364
167	0xbc10675c	-0.008813705
168	0xbbde45b4	-0.0067832116
169	0xbbc65737	-0.0060528773
170	0xbc033ac4	-0.008009616
171	0xbbcb438e	-0.0062031215
172	0xbbabd688	-0.00524408
173	0xbba41295	-0.005007098
174	0xbbbb7bea	-0.005721559
175	0xbb91abaf	-0.004445515
176	0xbb96b9f9	-0.0045998064
177	0xbbb8356c	-0.0056216028
178	0xbb9318b3	-0.0044890284
179	0xbb9e9514	-0.004839549
180	0xbbcda5b4	-0.006275857
181	0xbbeb8420	-0.0071873814
182	0xbb905903	-0.0044051423
183	0xbc181ca2	-0.00928417
184	0xbc25810c	-0.010101568
185	0xbbd5c03e	-0.006523161
186	0xbc0573e5	-0.008145307
187	0xbbf1dd74	-0.0073811356
188	0xbba6399e	-0.0050727865
189	0x3c039148	0.008030243
190	0xbc883dd1	-0.016631039
191	0x3c690814	0.014223117
192	0x3bc3a2cb	0.005970334
193	0xbc920f4f	-0.017829565
194	0xbc36cde6	-0.011157488
195	0xbc8fed8b	-0.017569324
196	0xbbf37b96	-0.007430504
197	0x3c323a01	0.010878087
198	0x3d003cb3	0.031307887
199	0xbc23897f	-0.009981512
200	0xbc6d4bfb	-0.014483447
201	0x3ce96db7	0.028494699
202	0x3ab9db37	0.0014179711
203	0x3ca79d54	0.020460762
204	0xbb3795af	-0.0028012802
205	0xbc664746	-0.014055079
206	0x3cae8022	0.021301333
207	0x3b733af8	0.0037114006
208	0xbc1cc1a2	-0.00956765
209	0xbc60b95a	-0.013716066
210	0x3b0e4e49	0.0021714142
211	0xbc32e53e	-0.010918913
212	0xbc0dac85	-0.008647089
213	0x3c1a6ab0	0.00942485
214	0x3a8a71c9	0.0010562475
215	0x3bd441d4	0.006477574
216	0xbcb81042	-0.02246869
217	0xbc768bd2	-0.015047984
218	0xbc5d0a6a	-0.013491252
219	0xbcc0b058	-0.023521587
220	0xbc959b67	-0.018262578
221	0xbc0a6dc7	-0.0084490245
222	0xbca99417	-0.020700498
223	0xbc580b43	-0.013186279
224	0xbb78520f	-0.0037890708
225	0x3b68c62f	0.0035518517
226	0x3c09b38c	0.008404624
227	0x3cf373f6	0.02971838
228	0x3cafd0cf	0.021461872
229	0x3cec14f4	0.028818585
230	0xbb001ca7	-0.0019548328
231	0x3c9b95d0	0.018992335
232	0x3bb095b2	0.005388939
233	0xbc2c7870	-0.010526761
234	0x3d13966b	0.03603212
235	0x3d29aa44	0.041422144
236	0xbc93bb81	-0.018033745
237	0x3d2a835a	0.041629173
238	0x3d38d43b	0.045124274
239	0xbbb889a3	-0.005631642
240	0xbb9f2e4f	-0.0048578153
241	0xbb9ad883	-0.0047255172
242	0xbc835c5e	-0.016035255
243	0x3c92404d	0.017852927
244	0x3c001ca8	0.007819332
245	0xbb5b380a	-0.003345015
246	0x3cd03650	0.025416523
247	0x3cc8351f	0.024439393
248	0x3c510c2b	0.012759249
249	0x3a024e56	0.00049707794
250	0x3c390780	0.011293292
251	0x3c1c7b94	0.009550948
252	0xbd3c04c8	-0.045902997
253	0x3bd6e46f	0.006557993
254	0x3cfa166b	0.030528268
255	0xbd607956	-0.054803215

1.bn2.weight f4 [64]
0	0x3ebb5e71	0.3659549
1	0x3eb5db63	0.3551894
2	0xbd7a2926	-0.0610744
3	0x3f0d1cd3	0.5512211
4	0x3f1ebd21	0.6200734
5	0x3d3cc1e2	0.04608334
6	0x3ee3ade0	0.44468594
7	0x3dc24cd6	0.094873115
8	0x3f802460	1.0011101
9	0x3da69053	0.081329964
10	0x3eb61486	0.35562533
11	0xbd9bdd7a	-0.07610603
12	0xbcac566a	-0.0210373
13	0x3fb6f6de	1.4294088
14	0x3e5b0afd	0.2139091
15	0x3c9bdab5	0.019025186
16	0xbc90c463	-0.01767177
17	0x3d89a3c9	0.06720693
18	0x3be64379	0.0070270863
19	0x3f22e5de	0.63632
20	0x3e000c3b	0.12504666
21	0x3fa3f300	1.2808533
22	0x3b252150	0.0025196858
23	0x3cae1ee1	0.021254959
24	0x3cc33ca1	0.023832621
25	0x3f1a71f2	0.60330117
26	0x3d5965cf	0.053075608
27	0x3d9d5603	0.07682421
28	0x3cb80421	0.022462906
29	0xbc0de15d	-0.008659688
30	0x3b9dc30a	0.0048145102
31	0x3f562073	0.83643264
32	0x3c9751c9	0.018471615
33	0x3eecf3d0	0.46279764
34	0x3f26d353	0.65166205
35	0x3e063666	0.13106689
36	0x3cdd3a92	0.027005468
37	0x3d3bd1a5	0.04585423
38	0x3f1181b7	0.56838554
39	0x3d58428d	0.052797843
40	0x3e36ca0b	0.17850511
41	0x3f9a9c52	1.2078955
42	0x3c607c08	0.013701446
43	0x3d8c5158	0.068514526
44	0x3edf6402	0.43630987
45	0x3e2a8fbf	0.16656397
46	0x3e44103a	0.19146815
47	0x3f8fd86f	1.1237925
48	0x3f0cc453	0.54987067
49	0x3f037cdf	0.51362413
50	0x3f4a6348	0.7905774
51	0x3f062c9e	0.5241183
52	0x398b922b	0.0002662105
53	0x3f4fb1a4	0.81130433
54	0x3dd593c2	0.10428573
55	0x3c912427	0.017717434
56	0x3d2fe1bf	0.042939898
57	0xbdb32cf9	-0.08748812
58	0xbd345c01	-0.044033054
59	0x3f17a891	0.59241587
60	0xbc46635e	-0.012108652
61	0x3fc3454f	1.5255526
62	0x3c98457d	0.018587822
63	0x3cd4b4f9	0.0259652

1.bn2.bias f4 [64]
0	0x3dcec701	0.10096551
1	0x3da11ed4	0.07867208
2	0x3e163bb1	0.14671208
3	0x3de9cd92	0.114161626
4	0x3e474d1c	0.19463009
5	0x3d724020	0.059143186
6	0x3ea9a9ad	0.33137265
7	0x3db77249	0.08957345
8	0x3eb4d715	0.35320345
9	0x3d1dc729	0.038520012
10	0x3d80c38b	0.06287297
11	0xbd2b0d5a	-0.04176078
12	0x3d495d35	0.049161155
13	0x3f748f7a	0.9553143
14	0x3e255926	0.16147289
15	0x3d544d33	0.051831435
16	0xbca00586	-0.019533884
17	0x3dac2b3b	0.08406683
18	0x3d87a4fb	0.066232644
19	0x3f1b76ab	0.6072795
20	0x3d84e6ec	0.06489357
21	0x3f4579d4	0.7713902
22	0xbbc7add0	-0.006093718
23	0x3c64ca95	0.013964315
24	0x3cf70198	0.030152127
25	0x3e822317	0.25417396
26	0x3c6afa56	0.014341911
27	0x3cc50659	0.024050878
28	0x3d1abbb3	0.03777666
29	0x3c88914c	0.016670845
30	0xbb9d1bc2	-0.0047945688
31	0x3f61f84e	0.8826951
32	0x3d23dc3b	0.04000495
33	0x3e34a3d1	0.17640616
34	0x3ecaf786	0.3964197
35	0x3d80cbb2	0.06288852
36	0x3d473d5a	0.048642494
37	0x3d288702	0.04114438
38	0x3e0fa030	0.1402595
39	0xbd44f5c7	-0.048085954
40	0x3e6dfa3d	0.2323999
41	0x3f212ef7	0.6296229
42	0x3ddab132	0.106783286
43	0x3d2f3e2f	0.042783912
44	0x3f049281	0.5178605
45	0x3daa61a6	0.08319406
46	0x3e10781f	0.14108323
47	0x3f54d19c	0.8313234
48	0x3e12b40d	0.14326496
49	0x3ec5e99f	0.386548
50	0x3f495c79	0.7865673
51	0x3f26143c	0.64874625
52	0x3d887dae	0.066645965
53	0x3f0876ac	0.5330608
54	0x3da691e5	0.08133296
55	0xbdb8aff3	-0.09017935
56	0x3e08b572	0.13350466
57	0x3dbf5e57	0.09344166
58	0xbd4fb3c6	-0.050708555
59	0x3eb1f517	0.347573
60	0x3e1ce835	0.15322955
61	0x3f6ec869	0.9327455
62	0x3cf94195	0.03042678
63	0x3d47d19d	0.048783887

2.weight f4 [4, 64, 3, 3]
0	0xbd22ab62	-0.039714225
1	0x3cda88ea	0.026676614
2	0x3ddc11c1	0.10745574
3	0x3d8c9783	0.06864836
4	0xbc84dcb9	-0.01621853
5	0x3d0302d4	0.03198512
6	0x3d12180c	0.035667464
7	0xbd777006	-0.06040957
8	0xbd287894	-0.041130617
9	0x3dee420f	0.116336934
10	0x3cc2cb4e	0.023778584
11	0x3cbdc9f4	0.023167588
12	0x3d842a57	0.06453388
13	0x3d717713	0.05895145
14	0x3da3b327	0.07993155
15	0x3cdec54d	0.02719369
16	0x3d09cff4	0.033645585
17	0x3dd3f93c	0.10350272
18	0x3d4cd24d	0.050005246
19	0x3d198a58	0.03748545
20	0x3d3220a8	0.043488175
21	0x3cd9db35	0.026593784
22	0x3d475fe9	0.04867545
23	0x3db4bac4	0.08824685
24	0x3d126c5d	0.035747875
25	0x3d83d4ce	0.06437074
26	0x3d57e05d	0.052704204
27	0xbdb55369	-0.088538
28	0xbe06c334	-0.13160402
29	0xbd94413f	-0.07239007
30	0xbdeaea9b	-0.11470529
31	0xbe159589	-0.14607824
32	0xbd235fca	-0.039886273
33	0xbda45256	-0.08023517
34	0xbdcce860	-0.100052595
35	0xbd9c6896	-0.07637136
36	0xbc254b9b	-0.0100888265
37	0xbcf8afb2	-0.030357216
38	0xbdf333c9	-0.118751116
39	0xbd2cee4c	-0.042219445
40	0xbdea83ef	-0.114509456
41	0xbd2ba670	-0.041906774
42	0xbdf7de43	-0.1210294
43	0xbe257561	-0.16158058
44	0xbd636c0b	-0.05552296
45	0x3d55e46f	0.052219804
46	0x3d410e14	0.047132567
47	0x3b05b6e9	0.0020403212
48	0x3ce2409e	0.027618703
49	0x3ccadd7a	0.024763811
50	0x3c06b3bd	0.008221564
51	0xba9ce18d	-0.0011969075
52	0x3bdbb1c7	0.0067045423
53	0xbc49f14f	-0.012325599
54	0x3d9a6466	0.07538681
55	0x3da0cdc1	0.078517444
56	0x3dc994b8	0.09842819
57	0x3d78c7a9	0.060737286
58	0x3e283a19	0.16428412
59	0x3e888797	0.26665947
60	0x3d7de824	0.061988965
61	0x3d24c366	0.04022541
62	0x3da2527a	0.079258874
63	0x3d26da6c	0.040735647
64	0x3cb9268e	0.022601392
65	0x3d0560fc	0.032563195
66	0x3cdf2792	0.027240548
67	0x3be8fa75	0.007109935
68	0x3d2d37e3	0.042289626
69	0x3b9a147c	0.004702149
70	0x3b384621	0.0028117972
71	0x3c509e92	0.012733119
72	0x3d35972f	0.044333633
73	0x3d5c6139	0.053803656
74	0x3cfc2605	0.030779848
75	0x3d0f842d	0.035038162
76	0xbddb0ae5	-0.10695437
77	0xbd225742	-0.039633997
78	0xbd68d369	-0.05684224
79	0xbdb964e0	-0.090524435
80	0x3d2acb23	0.041697633
81	0xbcb2d88d	-0.021831775
82	0x3cfbeb9c	0.030751996
83	0x3a11ac93	0.00055570266
84	0xbd31e873	-0.04343457
85	0x3d2c753f	0.042104002
86	0xbc17b979	-0.009260529
87	0xbd576b4d	-0.052592564
88	0x3c92dae2	0.017926637
89	0xbbabf2b0	-0.0052474365
90	0x3c41bc19	0.011824631
91	0x3d9b6d3a	0.07589193
92	0x3ca06285	0.019578228
93	0x3c21a204	0.009865288
94	0x3da44bc8	0.080222666
95	0x3caa6c37	0.020803554
96	0xbcbf2693	-0.023333823
97	0x3d9b4809	0.07582099
98	0x3be9e084	0.00713736
99	0xbd4b1454	-0.049579933
100	0x3bb0700f	0.005384452
101	0x3bb29e8d	0.0054510296
102	0xbdc5737e	-0.09641169
103	0xbcb365f2	-0.021899197
104	0xbd613c99	-0.05498943
105	0xbd8d935b	-0.069128715
106	0xbcbe6c77	-0.02324508
107	0xbd08cf41	-0.033400778
108	0xbd82cfe7	-0.063873105
109	0xbd72d4ea	-0.059285082
110	0x3d8216f6	0.06352036
111	0xbc977f19	-0.018493222
112	0x3c887e56	0.016661804
113	0x3d714354	0.0589021
114	0x3d3b4224	0.045717373
115	0x3d406800	0.046974182
116	0x3c708c2e	0.014681859
117	0x3d008f68	0.031386763
118	0x3e42203d	0.1895761
119	0x3e7e84e4	0.24855381
120	0x3e456436	0.19276509
121	0x3f1b9907	0.60780376
122	0x3ebcb704	0.3685838
123	0x3e99c38b	0.30032
124	0x3eff276e	0.4983477
125	0x3e70bc58	0.23509347
126	0xbbf0c526	-0.0073477207
127	0x3cd39b21	0.025830807
128	0xbd37f63e	-0.04491257
129	0xbc494398	-0.012284182
130	0x3c2ce239	0.010551983
131	0xbbd4de3f	-0.0064962204
132	0x39d3e116	0.00040412758
133	0x3c6259a7	0.01381532
134	0x3d3d0127	0.046143677
135	0xbd030b92	-0.031993456
136	0x3cd9e54d	0.026598597
137	0x3c7676cf	0.015042975
138	0x3d08aad0	0.033366024
139	0x3db90937	0.09034961
140	0x3d8cbd6f	0.06872069
141	0x3d327447	0.043567922
142	0x3db7cb02	0.089742675
143	0xbcbaa812	-0.02278522
144	0xbc8426ba	-0.016131748
145	0x3d23fffc	0.040039048
146	0xbb3ad33c	-0.0028507253
147	0x3d19cb86	0.03754761
148	0x3b006750	0.001959283
149	0xbca58b49	-0.020208018
150	0x3d9eec28	0.07759887
151	0x3d9d704b	0.07687434
152	0xbc1f69d6	-0.009729823
153	0x3cfb1979	0.030651795
154	0x3d4b1c4d	0.049587537
155	0x3d33ad12	0.043866225
156	0x3d2bab31	0.041911308
157	0x3d768fdd	0.060195792
158	0x3d0e92a9	0.034807835
159	0x3d370aab	0.04468791
160	0x3d87d1ef	0.066318385
161	0x3cd5184a	0.026012558
162	0x3c14671a	0.009057784
163	0xbb7e4f34	-0.0038804533
164	0xbbf5cccc	-0.0075012203
165	0x3cc9b06d	0.02462026
166	0x3c2a0c63	0.01037893
167	0x3cbe8052	0.023254547
168	0x3cc7aa5c	0.024373226
169	0x3cb67ee2	0.0222773
170	0x3c77ebd7	0.015131912
171	0x3dd4466a	0.10364993
172	0x3e57367c	0.21016878
173	0x3e17da01	0.14829256
174	0x3e22c12c	0.15894002
175	0x3e7b5953	0.24545793
176	0x3ea491b8	0.32142425
177	0x3de2c876	0.11073391
178	0x3e4c0afe	0.19926068
179	0x3e82e31f	0.25563905
180	0xbd85beb0	-0.065305114
181	0xbca69d90	-0.020338804
182	0xbd322369	-0.0434908
183	0xbd2dc478	-0.042423695
184	0x3b9619d2	0.0045807147
185	0xbc781c43	-0.015143457
186	0xbd71134c	-0.058856294
187	0xbcf868b6	-0.030323368
188	0xbd045839	-0.0323107
189	0xbd2d1f5a	-0.042266227
190	0x3e01b1fb	0.1266555
191	0x3e1fc0a8	0.15600836
192	0x3da84aaf	0.0821737
193	0x3e433fab	0.19067256
194	0x3e32c1b2	0.17456701
195	0x3e1110b0	0.14166522
196	0x3e1ea7ee	0.15493748
197	0x3e10ac4a	0.14128223
198	0xbbf01373	-0.0073265373
199	0x3d1ffb29	0.039057884
200	0x3d1cfa59	0.038324688
201	0x3b76e43e	0.0037672664
202	0x3d0c903e	0.034317248
203	0x3cc53115	0.024071256
204	0x3b165301	0.0022937658
205	0x3cc8736c	0.0244691
206	0xbbb20569	-0.005432774
207	0xbca257fc	-0.019817345
208	0x3cfdc372	0.030976985
209	0x3c978cdf	0.01849979
210	0x3c35239c	0.011055853
211	0x3d278fba	0.040908553
212	0xbc4df770	-0.012571201
213	0x3bf3ab4a	0.0074361907
214	0xbb90e516	-0.0044218404
215	0xbd5c7654	-0.053823784
216	0xbc1f5997	-0.00972595
217	0xbc4177f0	-0.0118083805
218	0x3c481a6b	0.01221333
219	0x3d2f872c	0.04285352
220	0x3d03b2cb	0.032152932
221	0x3ccff183	0.025383716
222	0x3c98233c	0.018571489
223	0x3bdaddfa	0.0066792937
224	0x3c164281	0.009171129
225	0x3d564c2e	0.052318744
226	0xbb8cc003	-0.0042953505
227	0x3d1fb508	0.038991004
228	0x3dd6cc21	0.10488153
229	0xbd94656e	-0.07245909
230	0xbda80e13	-0.082058094
231	0x3d6000d7	0.0546883
232	0x3c6163c4	0.013756696
233	0x3beb94bf	0.007189363
234	0x3c4a5c80	0.012351155
235	0xba789bb6	-0.0009483652
236	0x3c049a83	0.008093479
237	0x3c2dcf48	0.010608502
238	0x3c22976c	0.009923797
239	0x3d1358d4	0.035973385
240	0xbb301a0b	-0.0026870992
241	0xbc3cf73e	-0.0115335565
242	0xbc682803	-0.014169696
243	0x3ca3b8ed	0.01998564
244	0x3ac6f2ea	0.0015178595
245	0xbc5fcca1	-0.013659627
246	0xbb2614fc	-0.0025342098
247	0x3d09baff	0.0336256
248	0x3b9102cc	0.0044253822
249	0xbcabf886	-0.020992529
250	0x3cc256aa	0.023722965
251	0xbd3bf9eb	-0.045892637
252	0x3cfa1e37	0.030531986
253	0x3d468f1d	0.048476327
254	0x3d2e114f	0.042496976
255	0xbb701eaf	-0.0036639383

2.bias f4 [4]
0	0x3e329028	0.17437804
1	0xbd544347	-0.051821973
2	0x3d2346a5	0.039862294
3	0x3dc23e05	0.094844855
