expert_target_aware/mocosflV2_ResNet18_cifar10_cut1_bnlC4S2_expert_batchsize128_ressfl_2.0_SSIM0.6_data_proportion_0.00_aux_cifar100/checkpoint_c_best.tar (torch, 18780 bytes, 5 tensors)

0.conv1.weight f4 [64, 3, 3, 3]
0.22356096 -0.024033865 0.17912664 0.14387597 -0.08832218 0.14683923 0.1730256 -0.093360424
0.13739039 -0.01387592 -0.20885657 -0.045955244 -0.062516846 -0.22553638 -0.04999842 0.05481879
-0.17323835 0.02101707 0.036751434 -0.15143928 0.029942682 0.02186232 -0.14873102 0.055597503
0.09761389 -0.14260328 0.10108237 0.19408345 0.25376344 0.008128777 -0.07548233 -0.18839175
0.24341644 -0.1189028 -0.14327978 -0.10230467 -0.26367363 -0.1498693 -0.3951425 0.13745856
0.4536072 -0.009950497 0.11739929 0.24276772 0.062723316 0.10072969 0.01108053 0.30807328
-0.07821746 -0.36416277 -0.1128512 0.0598622 -0.19870214 0.0074551627 -0.013472688 0.035019
0.012239172 0.019059064 0.06473311 0.03333203 0.011011778 0.07240532 0.030576553 -0.040340696
-0.019027106 -0.071673594 -0.042182487 -0.011360667 -0.08551935 -0.07707952 -0.042313136 -0.11956533
0.16293885 0.0878848 -0.011403654 0.14731613 0.076499425 -0.05988609 0.039305035 -0.03632938
-0.1481597 0.12717317 0.10326706 0.10907344 0.09821716 0.07285502 0.08647567 0.09424426
0.09907152 0.09906973 -0.016979346 -0.003971923 0.031794585 -0.08489199 -0.057469577 -0.03285683
-0.09583413 -0.05927187 -0.042197246 -0.02119974 -0.016494067 0.06338729 -0.09682265 -0.08319352
-0.034977783 -0.14700334 -0.1385504 -0.0586212 0.15483718 0.035441678 0.15274721 0.03511191
-0.066733725 0.08947749 0.024126288 -0.032570623 0.04069387 -0.046768945 -0.1695596 -0.016361702
-0.0984715 -0.17182969 0.025717106 -0.06287155 -0.058104344 0.08153351 -0.0056003733 -0.11499963
-0.023852395 0.023814177 -0.043351315 0.06873904 0.019190362 0.04020576 0.1284015 -0.18002315
-0.030682376 -0.030384667 -0.17068608 0.09504893 0.11673148 -0.13107803 0.12026864 0.102735505
0.0618724 -0.06508762 -0.13751227 0.06343712 0.08589232 0.028743556 0.07386866 0.10479931
0.05471416 0.076516025 -0.23851313 -0.22565302 0.040290568 -0.11174167 -0.06797817 0.12265433
0.0863711 0.13634507 0.14232317 0.06379869 -0.029675685 0.16793314 0.014129828 -0.09658225
0.02882285 -0.08730413 -0.21405914 0.013683322 -0.051889487 0.011644889 0.08625831 -0.1089642
-0.009966855 0.084020406 -0.049956024 0.0011340089 -0.23775223 0.0044971723 -0.008421221 -0.047986507
-0.004121954 0.2326798 0.017592605 -0.05208916 0.111916535 0.0848324 0.110735156 -0.0036222995
0.0707585 -0.11194771 0.005827513 0.06764695 -0.05119999 0.1360227 -0.025198491 0.08950539
-0.019956775 -0.07510836 -0.023876047 -0.057047073 0.063490495 0.08615639 0.16044253 0.081669174
0.014839068 0.07441288 -0.12376254 -0.22750902 -0.22894657 0.008305748 -0.167789 0.070241585
-0.058913905 -0.05371506 -0.02446664 0.055052165 -0.04714985 -0.047429353 0.14119531 0.091008276
0.068472266 -0.0073364414 0.007916526 0.08586238 0.018048067 -0.087847054 -0.057695113 0.039058283
-0.006987593 0.0028114421 0.1163173 0.120924436 0.26115644 -0.032355346 -0.11166727 -0.050339866
-0.13863498 -0.15342464 -0.12238987 0.07196923 -0.09549921 0.038170334 0.19777255 -0.111764096
-0.057458535 0.03411852 -0.18086061 -0.037677065 0.05781093 -0.057699777 0.1207258 0.13583067
00000000: 2aed 643e abe2 c4bc f96c 373e 3954 133e
00000010: 42e2 b4bd 065d 163e 9f2d 313e c033 bfbd
00000020: 11b0 0c3e d457 63bc 7fde 55be 913b 3cbd
00000030: d508 80bd 02f3 66be 25cb 4cbd ab89 603d
00000040: 6565 31be fe2b ac3c ac88 163d e612 1bbe
00000050: 5b4a f53c 9c18 b33c f24c 18be 35ba 633d
00000060: cbe9 c73d 9806 12be 4604 cf3d d0bd 463e
00000070: 48ed 813e 902e 053c 7b96 9abd c4e9 40be
00000080: 2942 793e 5083 f3bd efb7 12be 1c85 d1bd
00000090: 3b00 87be 5677 19be 1e50 cabe f0c1 0c3e
000000a0: 343f e83e 6907 23bc 0a6f f03d 1a98 783e
000000b0: 1575 803d 5e4b ce3d 1c8b 353c c8bb 9d3e
000000c0: 7a30 a0bd 8b73 babe 881e e7bd 1132 753d
000000d0: 9378 4bbe 704a f43b 8dbc 5cbc 1570 0f3d
000000e0: cf86 483c c121 9c3c cb92 843d 2b87 083d
000000f0: bf6a 343c 3e49 943d ae7b fa3c 493c 25bd
00000100: bcde 9bbc 9bc9 92bd 8bc7 2cbd 1722 3abc
00000110: c524 afbd dedb 9dbd 8a50 2dbd abde f4bd
00000120: 71d9 263e f2fc b33d 64d6 3abc 0ada 163e
00000130: bbab 9c3d 1e4b 75bd 51fe 203d 1ece 14bd
00000140: 2db7 17be af39 023e ae7d d33d e561 df3d
00000150: 1426 c93d 0335 953d 281a b13d 2203 c13d
00000160: 02e6 ca3d 12e5 ca3d 4518 8bbc e826 82bb
00000170: 0a3b 023d dadb adbd 3865 6bbd e294 06bd
00000180: af44 c4bd 0fc7 72bd 05d7 2cbd 14ab adbc
00000190: 911e 87bc 32d1 813d f44a c6bd 5d61 aabd
000001a0: dd44 0fbd 0b88 16be 28e0 0dbe c91c 70bd
000001b0: a38d 1e3e 4b2b 113d c469 1c3e 82d1 0f3d
000001c0: b1ab 88bd f93f b73d 7ea4 c53c c668 05bd
000001d0: 9eae 263d cb90 3fbd 08a1 2dbe fa08 86bc
000001e0: 6dab c9bd 1ff4 2fbe aeac d23c cdc2 80bd
000001f0: d2fe 6dbd 0afb a63d 5683 b7bb ed84 ebbd
00000200: 1966 c3bc f315 c33c 2691 31bd 0ec7 8c3d
00000210: 1b35 9d3c ccae 243d af7b 033e fd57 38be
00000220: 9b59 fbbc 44e9 f8bc 55c8 2ebe 03a9 c23d
00000230: ea10 ef3d 5239 06be 684f f63d fe66 d23d
00000240: ea6d 7d3d a84c 85bd 04d0 0cbe 52eb 813d
00000250: 50e8 af3d 9b77 eb3c 7448 973d 05a1 d63d
00000260: f41b 603d 6fb4 9c3d c93c 74be 9611 67be
00000270: b907 253d d1d8 e4bd 2438 8bbd 3232 fb3d
00000280: 55e3 b03d 0b9e 0b3e 2abd 113e e3a8 823d
00000290: 6c1a f3bc aaf6 2b3e cb80 673c eacc c5bd
000002a0: e61d ec3c 82cc b2bd 5232 5bbe 0330 603c
000002b0: 128a 54bd 34ca 3e3c 32a8 b03d 9f28 dfbd
000002c0: 054c 23bc e412 ac3d b09e 4cbd 06a3 943a
000002d0: 5275 73be 045d 933b 29f9 09bc 808d 44bd
000002e0: 7511 87bb 9d43 6e3e 5e1e 903c 715b 55bd
000002f0: 7f34 e53d 9cbc ad3d 1dc9 e23d 1a64 6dbb
00000300: d5e9 903d d744 e5bd b9f4 be3b 7c8a 8a3d
00000310: 15b7 51bd 8949 0b3e 116d cebc 9a4e b73d
00000320: 647c a3bc 69d2 99bd b397 c3bc 31aa 69bd
00000330: 4e07 823d c372 b03d 0c4b 243e 2b42 a73d
00000340: 901f 733c c865 983d 3777 fdbd 20f8 68be
00000350: f870 6abe d514 083c e1d0 2bbe d2da 8f3d
00000360: b54f 71bd 5304 5cbd 436e c8bc 617e 613d
00000370: 3320 41bd 4845 42bd 8195 103e 8c62 ba3d
00000380: 303b 8c3d 8866 f0bb 51b4 013c 9ed8 af3d
00000390: 8ad9 933c 28e9 b3bd b651 6cbd 94fb 1f3d
000003a0: 2ef8 e4bb 2c40 383b c437 ee3d 3ba7 f73d
000003b0: 4cb6 853e 0a87 04bd cfb1 e4bd 2d31 4ebd
000003c0: 54f6 0dbe 591b 1dbe 8aa7 fabd 9b64 933d
000003d0: 1795 c3bd 7f58 1c3d e384 4a3e 93e4 e4bd
000003e0: a459 6bbd dcbf 0b3d 8633 39be 4453 1abd
000003f0: 27cb 6c3d 9a56 6cbd 173f f73d 3217 0b3e

0.bn1.weight f4 [64]
0.80471617 0.778406 0.052461307 0.10037685 0.4404589 0.6935213 0.56942797 0.13185965
0.34906295 0.7809062 0.9725265 0.71294457 0.63615584 0.10472734 -0.018451337 0.53244007
0.2564554 0.116799526 1.0291462 0.39094195 0.059455246 0.5427552 0.8396422 0.78887564
0.5060237 0.4369879 0.077451505 0.19007918 0.779856 -0.2088159 0.6828806 0.51892614
1.2682385 1.0137416 0.92985606 0.67441905 0.9331682 0.263563 0.14963655 0.20136486
0.9751339 1.0039002 -0.092068315 0.38567093 0.6283261 0.97752297 0.46518493 0.42313454
0.064280875 0.7163236 0.40085408 0.60935396 0.626175 -0.23299304 0.533252 0.35582307
0.25043318 0.52144647 0.15328826 0.0960952 0.8955283 0.5286548 1.2588286 0.4028603
00000000: e101 4e3f 9e45 473f abe1 563d 6192 cd3d
00000010: d483 e13e 9d8a 313f 08c6 113f 3706 073e
00000020: 61b8 b23e 78e9 473f 7ff7 783f 8983 363f
00000030: 1cdb 223f 4a7b d63d 4227 97bc fe4d 083f
00000040: 1f4e 833e 9734 ef3d 10bb 833f 8b29 c83e
00000050: 5887 733d 01f2 0a3f cbf2 563f c1f3 493f
00000060: c58a 013f e1bc df3e e59e 9e3d 1ea4 423e
00000070: a5a4 473f d6d3 55be 43d1 2e3f 58d8 043f
00000080: a455 a23f 49c2 813f 0c0b 6e3f baa6 2c3f
00000090: 1ce4 6e3f bbf1 863e 533a 193e 9732 4e3e
000000a0: 60a2 793f cd7f 803f 508e bcbd a976 c53e
000000b0: fbd9 203f f23e 7a3f b82c ee3e 17a5 d83e
000000c0: b1a5 833d fc60 373f bf3c cd3e 9ffe 1b3f
000000d0: 014d 203f ba95 6ebe 3483 083f 712e b63e
000000e0: c738 803e 847d 053f 99f7 1c3e 8fcd c43d
000000f0: 5841 653f ec55 073f 4c21 a13f b543 ce3e

0.bn1.bias f4 [64]
0.011526105 0.17706169 0.56893057 0.7389635 -0.20689058 0.45087987 -0.0044173417 0.7365615
0.102342725 -0.09518231 -0.09989945 -0.3771363 -0.4538464 0.4207327 0.40236562 -0.21564025
0.1201942 0.33241752 1.534036 0.14306086 0.55667055 -0.03360017 -0.31612033 0.08995895
0.08416963 0.2631615 0.51001453 0.89470285 -0.21328163 2.272453 -0.17178556 0.09657639
-0.017526109 -0.09369087 -0.0053492743 0.008752616 1.5530119 0.03293433 0.71596146 0.46877983
-0.027143518 -0.082940646 0.5239098 -0.10149728 0.24428958 0.06711098 0.25574186 -0.08682932
0.7035448 0.42131948 0.6981474 0.03520693 0.015450807 0.73075527 0.19440405 -0.018954119
-0.05174177 0.8128637 0.8684023 0.50816035 0.07779439 0.14258651 0.050974686 0.16721927
00000000: fdd7 3c3c a94f 353e 6fa5 113f b62c 3d3f
00000010: 20db 53be bad9 e63e 59bf 90bb 4b8f 3c3f
00000020: 1099 d13d f1ee c2bd 1598 ccbd 0218 c1be
00000030: 8e5e e8be 476a d73e de02 ce3e ccd0 5cbe
00000040: 6028 f63d a132 aa3e 4b5b c43f 8c7e 123e
00000050: f681 0e3f 55a0 09bd 86da a1be 663c b83d
00000060: 2161 ac3d 1bbd 863e 5090 023f 3f0b 653f
00000070: 8066 5abe df6f 1140 8ee8 2fbe d8c9 c53d
00000080: ea92 8fbc 00e1 bfbd f748 afbb 2267 0f3c
00000090: 18c9 c63f 26e6 063d 4049 373f e903 f03e
000000a0: 155c debc c9dc a9bd f41e 063f cedd cfbd
000000b0: 0c27 7a3e 7b71 893d 99f0 823e 92d3 b1bd
000000c0: 831b 343f 30b7 d73e cab9 323f 2435 103d
000000d0: 6225 7d3c c712 3b3f db11 473e ab45 9bbc
000000e0: 2eef 53bd d617 503f 9d4f 5e3f cc16 023f
000000f0: aa52 9f3d 3302 123e d5ca 503d 873b 2b3e

1.weight f4 [4, 64, 3, 3]
0.00076954666 -0.0022778814 0.0004975092 0.0006905808 -0.0018193221 -0.002249988 -0.0026529245 -0.0022347874
0.00071156427 -0.0022659872 0.00012156654 -0.00016729337 -0.0012480902 0.0013198007 0.0006048954 0.0016399554
0.00011637173 0.0011023782 -0.00057588116 0.0007643774 -0.0006991943 0.0009905823 0.0008409183 0.00044722826
0.0011045699 0.0009758846 -5.1987005e-05 0.0008682767 -0.00040700528 2.0699319e-05 0.00045872075 -0.0005365341
-0.0022251522 -0.0014623785 -0.00020412116 -0.00019222133 0.00078116835 -0.003088396 -0.0018532233 -0.0022728872
0.00010194284 -0.0021615294 -0.0008318566 -0.0018857236 0.00026341126 -0.0007701162 -0.00076923444 0.000791598
-0.0012190451 3.3257682e-05 0.0011687628 0.0015433902 0.001625339 -0.00039188037 -0.0017713975 -5.4216784e-05
-0.00034039875 0.0006395287 5.2265805e-05 -0.0013967094 0.0014641447 -0.0023080183 -0.0010408413 -0.0004963561
0.000830433 -0.0015674699 -0.0009926655 6.834908e-05 -0.00199883 -0.0017799184 -0.0009531806 0.00040464062
-0.00096517836 -0.00121814 -0.00054938765 -0.0007763376 -0.00039060882 0.00029590566 -0.0017871248 0.0010774652
-0.0008649849 -0.00036297986 -0.0018771992 0.00015697787 -0.0016080326 -0.00029879247 0.0013840027 -0.00046227168
0.00087255356 0.000113079834 -0.0031682942 -0.0035430398 -0.0020506172 -0.0015738268 -0.0023422926 -0.0018461646
-0.0010831738 -4.883741e-05 -0.0019365128 -0.0022268351 0.00010837613 -0.0005421584 -8.1401704e-05 0.00042346696
0.00098147 0.00082721305 -0.00075632246 -0.0011125304 0.0014122459 0.00014348511 -0.0013013376 -0.00019664188
-0.002003991 -0.0015260028 -0.0003620414 -0.0012154046 -0.0006501114 -0.00069463 -0.00033651592 -0.0017327948
-0.001714955 0.0013649194 0.00015129836 -0.0008071821 -0.001890378 -0.0009459124 0.0008534948 0.0018387588
-0.00041932476 0.0007685136 -0.0017961634 0.0011256154 -4.3360506e-05 -0.0013259498 0.00061313336 -0.0013574625
-0.0017780664 -0.0004756603 0.0010645936 -0.0018124266 -0.00029804124 0.0016714109 0.0019459628 0.0019236769
-0.0005652298 0.0021925552 -0.00020239518 0.0010072587 -0.0010498142 -0.00028129958 0.0016256885 0.0006888646
0.0018357387 -0.0010330672 1.9971567e-05 0.00024824895 -0.00031500377 -0.00091933395 -0.00047004694 -0.0011898143
-0.000824449 0.00045869165 -2.1889722e-05 -0.0019917593 -0.0014770273 0.0005389317 -0.0013333979 -0.000977806
-0.0023940003 -0.00016026554 0.000299078 0.00032888947 -0.0020604325 -0.00010219213 -0.0003315702 -0.00012513628
0.0011809829 -0.000107579406 -0.000113561546 -0.0013133555 0.0011667258 3.559539e-05 -0.0015118306 -0.0014572771
0.00090955594 -0.001413295 -0.0018819191 0.001192094 0.0014255954 -0.00064226397 0.000974041 -0.0019879965
-0.0010254125 -7.22708e-05 -7.6745884e-05 -7.104565e-05 -0.0004938201 -0.001817882 2.3134982e-05 -0.0014348805
0.00025191277 -0.0016443094 0.0005970312 0.00020773822 -0.00052842253 0.0011981998 -0.0006670793 -0.001767533
-0.00033428465 -0.0011636217 0.0014399189 -0.0011397745 -0.002573998 0.0012994536 -0.0001507339 -7.8996374e-07
-0.00029857006 -0.0009253653 0.00012832163 0.00096274517 -0.0010939862 0.0013446497 0.0019440341 -0.0002723895
0.0015527643 -0.002018524 9.635368e-05 -0.0016003336 0.0006291553 -0.0003728567 0.0004899394 -0.0005292007
0.00020020524 0.0014678227 -0.0005550498 -0.001808451 -0.0012710842 -0.002397019 -0.0017941665 0.00022686184
0.0007809785 -0.00095084606 0.00027225772 -0.0011284052 -0.0012304945 -0.00011912439 -0.00052924827 -0.00083695527
-0.0021204054 0.00029281838 -0.0010801674 -0.00080406567 -0.0020448866 -6.2738955e-06 -4.694077e-05 -0.0020284427
00000000: 67bb 493a 8248 15bb 476b 023a 1808 353a
00000010: 5276 eeba 8974 13bb b0dc 2dbb 8375 12bb
00000020: 4588 3a3a f580 14bb 8af1 fe38 796b 2fb9
00000030: f596 a3ba 2afd ac3a d891 1e3a c6f3 d63a
00000040: 990c f438 ad7d 903a bbf6 16ba 8060 483a
00000050: 234a 37ba 6dd6 813a 1271 5c3a f679 ea39
00000060: 37c7 903a 82d2 7f3a 9f0c 5ab8 109d 633a
00000070: 5363 d5b9 73a3 ad37 7580 f039 32a6 0cba
00000080: dcd3 11bb 48ad bfba 5b09 56b9 058f 49b9
00000090: 52c7 4c3a b066 4abb dbe7 f2ba b8f4 14bb
000000a0: 25ca d538 72a8 0dbb f410 5aba 622a f7ba
000000b0: 761a 8a39 a0e1 49ba 73a6 49ba 3e83 4f3a
000000c0: 5ec8 9fba 2a7e 0b38 2c31 993a 954b ca3a
000000d0: 5409 d53a 4b75 cdb9 3d2e e8ba d466 63b8
000000e0: 8c77 b2b9 0ba6 273a fb37 5b38 ca11 b7ba
000000f0: 8be8 bf3a 1f42 17bb d76c 88ba e51d 02ba
00000100: 6ab1 593a 9073 cdba 541c 82ba a256 8f38
00000110: cdfe 02bb 274c e9ba dede 79ba f225 d439
00000120: 0604 7dba ffa9 9fba c804 10ba 2283 4bba
00000130: a1ca ccb9 c923 9b39 f53d eaba bc39 8d3a
00000140: 27c0 62ba 554e beb9 5a0c f6ba 6d9a 2439
00000150: 9fc4 d2ba 3fa7 9cb9 6d67 b53a 0e5d f2b9
00000160: 14bc 643a 4625 ed38 28a3 4fbb 5832 68bb
00000170: a663 06bb dd48 ceba 2681 19bb 01fb f1ba
00000180: 48f9 8dba c5d6 4cb8 96d2 fdba 18f0 11bb
00000190: fe47 e338 a21f 0eba 35b6 aab8 c604 de39
000001a0: aba4 803a 54d9 583a f143 46ba 53d2 91ba
000001b0: 1c1b b93a 7e74 1639 a591 aaba a731 4eb9
000001c0: 6455 03bb 2804 c8ba 60d0 bdb9 364e 9fba
000001d0: 3d6c 2aba d517 36ba 676e b0b9 f21e e3ba
000001e0: 57c8 e0ba 18e7 b23a d8a5 1e39 1399 53ba
000001f0: 8fc6 f7ba 1bf7 77ba 11bd 5f3a 8202 f13a
00000200: d1d8 dbb9 1376 493a 3e6d ebba 6389 933a
00000210: fddd 35b8 7ecb adba afba 203a e2ec b1ba
00000220: 020e e9ba 0b62 f9b9 d589 8b3a f28e edba
00000230: 6b42 9cb9 3e13 db3a ad0f ff3a e323 fc3a
00000240: ee2b 14ba f9b0 0f3b 0b3a 54b9 fe05 843a
00000250: eb99 89ba 647b 93b9 0e15 d53a ec94 343a
00000260: 2b9d f03a fc67 87ba 9d88 a737 6927 8239
00000270: 1727 a5b9 75ff 70ba a270 f6b9 8bf3 9bba
00000280: d61f 58ba 8d7c f039 d29f b7b7 2d88 02bb
00000290: d098 c1ba 1847 0d3a 69c5 aeba ba29 80ba
000002a0: a9e4 1cbb f40c 28b9 92cd 9c39 cc6e ac39
000002b0: 5208 07bb fb4f d6b8 99d6 adb9 0437 03b9
000002c0: 36cb 9a3a 419c e1b8 e427 eeb8 e624 acba
000002d0: d2ec 983a 424c 1538 9e28 c6ba 1b02 bfba
000002e0: 446f 6e3a 503e b9ba baaa f6ba 0940 9c3a
000002f0: 0bdb ba3a 9b5d 28ba c956 7f3a 0c49 02bb
00000300: 2267 86ba 1790 97b8 a2f2 a0b8 58fe 94b8
00000310: b573 01ba ff45 eeba ff11 c237 9a12 bcba
00000320: 2913 8439 de85 d7ba 1682 1c3a 4ed4 5939
00000330: d685 0aba ea0c 9d3a efde 2eba 91ac e7ba
00000340: ed42 afb9 aa84 98ba a9bb bc3a 7c64 95ba
00000350: 85b0 28bb 6d52 aa3a 530e 1eb9 e50d 54b5
00000360: 6589 9cb9 3794 72ba 138e 0639 bc60 7c3a
00000370: 1664 8fba f53e b03a f6ce fe3a 80cf 8eb9
00000380: 2086 cb3a 3749 04bb 7d11 ca38 49c2 d1ba
00000390: e6ed 243a fb7b c3b9 476f 003a 0fba 0aba
000003a0: 2fee 5139 f563 c03a c380 11ba 8c09 edba
000003b0: 829a a6ba 4e17 1dbb 3d2a ebba c3e1 6d39
000003c0: 94ba 4c3a 3342 79ba d0bd 8e39 ffe6 93ba
000003d0: 8b48 a1ba 6bd2 f9b8 40bd 0aba 1e67 5bba
000003e0: 80f6 0abb 6b85 9939 6794 8dba efc7 52ba
000003f0: 8103 06bb 5a84 d2b6 45e2 44b8 9fef 04bb

1.bias f4 [4]
-0.0007176828 0.36419767 0.29753923 0.42445654
00000000: e122 3cba 1e78 ba3e 1057 983e 5e52 d93e
