expert_target_aware/mocosflV2_ResNet18_cifar10_cut1_bnlC4S2_expert_batchsize128_ressfl_2.0_SSIM0.6_data_proportion_0.01_aux_cifar100/checkpoint_c_best.tar (torch, 18780 bytes, 5 tensors)

0.conv1.weight f4 [64, 3, 3, 3]
0	0xbd87d0f8	-0.066316545
1	0xbda468aa	-0.080277756
2	0xbe1e93ae	-0.15486023
3	0x3c81e585	0.015856514
4	0x3ce6b055	0.028160254
5	0x3d5c1395	0.053729612
6	0x3c7ea8bd	0.01554316
7	0x3dea7e5e	0.11449884
8	0x3e4b74a4	0.19868714
9	0x3d928d6a	0.07155879
10	0x3d061a5a	0.032739975
11	0xbd26dcc5	-0.040737886
12	0xbd1af3e9	-0.037830267
13	0xbd8fb82a	-0.070175484
14	0xbd213854	-0.03936036
15	0xbdd022ab	-0.101628624
16	0xbd3c1c38	-0.04592535
17	0x3d916249	0.070988245
18	0x3e6d2024	0.23156792
19	0x3e0f4681	0.13991739
20	0x3d6a86b6	0.057257377
21	0xbcde16ba	-0.027110446
22	0xbdc6a778	-0.09699911
23	0xbd84f469	-0.0649193
24	0xbde62f21	-0.11239458
25	0xbdcf6751	-0.10127128
26	0x3c17bd71	0.009261475
27	0xbd3d71b3	-0.04625101
28	0x3d78013f	0.060548063
29	0x3d5f693b	0.054543715
30	0xbba7134d	-0.0050987364
31	0xbd33f41a	-0.043933965
32	0xbd980446	-0.0742269
33	0x3e42f804	0.19039923
34	0x3b68231f	0.0035421324
35	0xbd0543ae	-0.032535248
36	0xbe697e1c	-0.22802013
37	0xbd7d2e4a	-0.061811723
38	0x3d2ca42c	0.042148754
39	0xbbb9472a	-0.0056542354
40	0xbc335a1f	-0.0109467795
41	0x3d059a9a	0.032618143
42	0x3e19cf94	0.15020591
43	0xbc963495	-0.01833562
44	0x3c838d5e	0.01605862
45	0xbe86eb5d	-0.26351443
46	0x3c07e3f0	0.008294091
47	0x3d9651a5	0.07339791
48	0x3d3ba435	0.045810897
49	0x3e03c883	0.12869458
50	0x3dd9fdaf	0.106440894
51	0x3d229207	0.039690044
52	0xbd327205	-0.04356577
53	0xbdf2ab86	-0.11849122
54	0x3d02397d	0.031793106
55	0x3e2b2dc2	0.16716674
56	0xbe876248	-0.2644217
57	0x3eb8b02b	0.36071905
58	0x3cc0b8f4	0.023525693
59	0xbe9cccc1	-0.30624965
60	0x3e0f7799	0.14010467
61	0x3d2fe832	0.042946048
62	0xbeb8b08f	-0.36072204
63	0x3ca444a7	0.020052267
64	0x3e359a6f	0.17734693
65	0xbe15a6cd	-0.1461441
66	0x3ea19871	0.31561616
67	0xbcc93e01	-0.024565699
68	0xbe712047	-0.23547469
69	0x3e5b7977	0.21433054
70	0x3e15cdd4	0.14629298
71	0xbe19554f	-0.14973949
72	0x3ce6fa6d	0.028195584
73	0x3e00233c	0.12513441
74	0xbe22e86d	-0.15908976
75	0x3e553d73	0.20824222
76	0xbe030983	-0.12796597
77	0xbe8a00a9	-0.2695363
78	0x3e48daab	0.19614665
79	0x3dca19ea	0.09868224
80	0xbe813acc	-0.2524017
81	0xbe9d89ee	-0.30769295
82	0xbd2ec093	-0.04266412
83	0xbec8f463	-0.39248952
84	0xbd9be706	-0.076124236
85	0x3e77e110	0.24206948
86	0xbdc2fcfe	-0.09520911
87	0xbe2f0ff4	-0.1709593
88	0x3e310553	0.17287187
89	0xbe370e75	-0.17876609
90	0x3d2f3e14	0.04278381
91	0x3de6fc85	0.11278633
92	0xbe0eaf20	-0.13933992
93	0x3e087f0a	0.13329712
94	0x3e8ba75e	0.2727613
95	0x3d511db0	0.051053703
96	0x3dbed104	0.0931721
97	0x3e9542de	0.29152578
98	0x3d58d9ce	0.05294209
99	0x3bf45551	0.0074564596
100	0x3dc56331	0.0963806
101	0xbdb15818	-0.08659381
102	0x3dd0f282	0.10202505
103	0x3e70b949	0.2350818
104	0x3dc052cc	0.09390792
105	0xbe331fda	-0.17492619
106	0xbc167166	-0.00918231
107	0xbea6fbd0	-0.32613993
108	0x3e7230a7	0.23651372
109	0x3da8f948	0.082506716
110	0x3dc201de	0.094730124
111	0x3cdf9ddb	0.027296951
112	0xbdbb153a	-0.09134908
113	0xbdb74ce6	-0.08950214
114	0x3e3feda7	0.18743001
115	0x3d6f81c8	0.05847338
116	0x3ddf983b	0.109177075
117	0x3cf785e3	0.03021521
118	0xbdea3dc4	-0.11437562
119	0xbd2bc826	-0.041938923
120	0xbe663244	-0.22480112
121	0xbea49431	-0.3214431
122	0xbe885013	-0.26623592
123	0xbd32c960	-0.043649077
124	0xbe1bb05c	-0.15203995
125	0xbd905a9d	-0.07048533
126	0x3e210dc1	0.15727903
127	0x3d3e2fee	0.046432428
128	0x3e0d269b	0.13784258
129	0xbd072d02	-0.033001907
130	0xbdb6060f	-0.08887874
131	0x3bd1269f	0.006382778
132	0x3dfd22c0	0.12360144
133	0x3d86fd69	0.06591303
134	0x3e32139d	0.17390294
135	0x3e1e6439	0.1546792
136	0x3d88565f	0.06657099
137	0x3e0d56ec	0.1380269
138	0xbdf6bfdf	-0.12048315
139	0xbe502b28	-0.20328963
140	0xbe0b11d3	-0.13581018
141	0x3dc59cfa	0.096490815
142	0x3d59483e	0.05304741
143	0x3d90be64	0.07067564
144	0xbc7737ad	-0.015088958
145	0xbc8f3ff4	-0.01748655
146	0x3ce6d8ed	0.02817961
147	0xbcf742dc	-0.030183248
148	0xbc2d3b46	-0.010573214
149	0xbc300a81	-0.010744692
150	0x3c960c28	0.018316343
151	0x3d05d0b2	0.03266973
152	0x39f040b4	0.00045824575
153	0xbd6fe10e	-0.05856424
154	0xbdf5970a	-0.11991699
155	0xbd403a00	-0.046930313
156	0x3d2995f6	0.04140278
157	0x3cc41b0a	0.023938674
158	0x3dac4970	0.084124446
159	0x3b25b192	0.0025282842
160	0xbcb52667	-0.022113038
161	0xbca304c4	-0.019899733
162	0x3e08f1af	0.13373445
163	0xbbc36093	-0.0059624403
164	0xbb6c1e25	-0.003602871
165	0x3d8474c4	0.06467584
166	0xbd7e6a38	-0.062113017
167	0x3bd3703a	0.0064525874
168	0x3e2a1640	0.1661005
169	0x3d5186b9	0.051153872
170	0x3d82ec33	0.06392708
171	0xbd049f76	-0.032378636
172	0xbe07992e	-0.13242027
173	0xbcb9ef8b	-0.02269723
174	0x3c9f44ef	0.01944205
175	0x3bbde63d	0.005795269
176	0x3c88c1c2	0.016693953
177	0xbc9a86a8	-0.018863037
178	0x3c437c68	0.011931516
179	0x3c810db7	0.01575361
180	0xbc2ea0f9	-0.010658496
181	0x39f3010c	0.00046349352
182	0x3dda2fd0	0.10653651
183	0xbd9ce89d	-0.07661555
184	0xbe02c4ac	-0.12770337
185	0x3d440d2f	0.047864135
186	0xbdcaea8d	-0.09908018
187	0xbda822b5	-0.08209745
188	0xbd14d3a7	-0.03633466
189	0x3dcfb776	0.10142414
190	0xbdaed179	-0.085360475
191	0x3d76ea4f	0.060282048
192	0xbc2dd85c	-0.010610666
193	0xbe673aca	-0.2258102
194	0xbd652b89	-0.05594972
195	0x3dc10e2d	0.09426532
196	0xbe4031c9	-0.18768992
197	0x3e198e76	0.14995751
198	0x3dfc0c61	0.123070486
199	0xbe066502	-0.13124469
200	0x3db06b4f	0.086142175
201	0xbd95c676	-0.07313244
202	0xbead0cca	-0.3379882
203	0xbd8fab85	-0.07015137
204	0x3d4042a4	0.046938553
205	0xbe8fe288	-0.28102517
206	0x3e30b6c7	0.17257224
207	0x3e58be8f	0.21166442
208	0xbcdf1c20	-0.02723509
209	0x3e370aa0	0.17875147
210	0x3cae297d	0.021260018
211	0xbe56b4c5	-0.20967396
212	0x3d99a5ed	0.07502351
213	0x3e2740ff	0.16333388
214	0xbe04ef3b	-0.12981884
215	0x3eae9c3e	0.34103578
216	0x3df0077b	0.11720177
217	0x3da1471c	0.07874891
218	0x3d386c3e	0.045025103
219	0x3ce23ce2	0.027616922
220	0xbc56d340	-0.013111889
221	0xbd35ec6c	-0.044414923
222	0x3bc85700	0.006113887
223	0xbd11e1da	-0.03561578
224	0xbd845eee	-0.06463419
225	0x3d82cbf2	0.06386556
226	0x3ceb6d71	0.02873871
227	0x3ac443c5	0.001497381
228	0xbc3d8cd5	-0.0115692215
229	0xbd474c86	-0.048656963
230	0xbd981f56	-0.07427852
231	0xbce0083f	-0.027347682
232	0xbd871fff	-0.065979
233	0xbdb8e6be	-0.090283856
234	0x3dde64b1	0.10859049
235	0x3d937738	0.072004735
236	0x3d2a98ce	0.041649632
237	0x3d084084	0.033264652
238	0xbbd5d9b5	-0.006526197
239	0xbd11cb32	-0.035594173
240	0x3aa96cd6	0.0012926112
241	0xbd2592d1	-0.04042322
242	0xbd899b2f	-0.06719052
243	0xbd75e2b8	-0.06003067
244	0xbe91495b	-0.28376278
245	0xbe4c2727	-0.1993681
246	0x3d7d8434	0.061893657
247	0xbda5af25	-0.08090047
248	0xbe14cde2	-0.14531663
249	0xbe8b50a7	-0.2720997
250	0xbeb3aaff	-0.35091397
251	0xbf0b8dd3	-0.5451328
252	0xbceeb30a	-0.029138107
253	0xbd6ffa2c	-0.058588192
254	0x3dab8cf2	0.083764926
255	0x3cc4a868	0.024006084

0.bn1.weight f4 [64]
0	0x36fa8889	7.4664754e-06
1	0x39084613	0.00012996075
2	0x3fa72dc3	1.306084
3	0x3fa2d5e7	1.2721528
4	0x3f64dbba	0.89397776
5	0xb878b7a0	-5.929882e-05
6	0xb623cf4b	-2.4409553e-06
7	0x3f7f3551	0.9969073
8	0x38643ce1	5.4416134e-05
9	0xbef30962	-0.47468096
10	0xb89b9d3e	-7.4202646e-05
11	0x37c31eb8	2.3260116e-05
12	0x3f69d4db	0.91340417
13	0x3e3bae90	0.18328309
14	0x3fd721fe	1.6807249
15	0xbcb63fda	-0.022247244
16	0x3f02d98d	0.51113206
17	0x3f29c0e2	0.6630994
18	0x3f8897f1	1.0671369
19	0x36a903a6	5.037017e-06
20	0xbeda91ae	-0.4268927
21	0xb72b0510	-1.0193573e-05
22	0x3eb623ec	0.3557428
23	0x3f23b0d6	0.63941705
24	0x3e3b371a	0.18282738
25	0x3f0d9c9e	0.55317104
26	0x37ce550d	2.4596719e-05
27	0x34253f9f	1.5389968e-07
28	0x3d47c4b6	0.048771583
29	0x3f211eca	0.62937605
30	0x3f4b9a67	0.79532474
31	0xbb2dace3	-0.0026500754
32	0x398fd8db	0.00027436655
33	0x3f995ea6	1.198201
34	0x3faff0a6	1.3745315
35	0x37828a13	1.5561503e-05
36	0xb844e809	-4.694614e-05
37	0x3e05a5d4	0.1305154
38	0x3f11b96d	0.5692356
39	0x3d7b44fa	0.061345078
40	0xb5d90938	-1.6170443e-06
41	0x3f992e6b	1.1967291
42	0xb5ac4518	-1.2835108e-06
43	0xbbf78a2b	-0.0075543127
44	0x3ffe55ae	1.9869897
45	0xbd87f168	-0.066378415
46	0xbdbcb4df	-0.09214186
47	0x3fa79d53	1.3094887
48	0x3f7ba61b	0.9830033
49	0x3609e6c7	2.054892e-06
50	0x3f85e979	1.0461875
51	0xbc4dfbde	-0.012572257
52	0xbcac5f20	-0.021041453
53	0xbdd92953	-0.10603585
54	0x38d3d4f1	0.000101009275
55	0xb53e0927	-7.0793834e-07
56	0x3af89009	0.0018963824
57	0x361009f3	2.1463463e-06
58	0x3f8d2ff4	1.1030259
59	0x3eb89ebc	0.36058605
60	0xbbb9b5c5	-0.0056674206
61	0x3ff875ce	1.9410951
62	0xbc1523db	-0.009102787
63	0x3f8dfd13	1.1092857

0.bn1.bias f4 [64]
0	0xb8992f54	-7.304424e-05
1	0xbaed5587	-0.0018107154
2	0xbd58cd07	-0.052929904
3	0x3eda57b5	0.4264504
4	0x3e9531c7	0.2913954
5	0xba61d7c5	-0.0008615221
6	0xb881f692	-6.197127e-05
7	0x3e6c3e79	0.23070706
8	0xb960e576	-0.00021447786
9	0x40c2b141	6.0841374
10	0xbda481d0	-0.08032572
11	0xb97caded	-0.00024097385
12	0xbe7903b6	-0.24317822
13	0x406cb504	3.6985483
14	0xbe11c229	-0.14234222
15	0xbc81e8af	-0.015858022
16	0x3f16fe70	0.5898199
17	0x401961f9	2.3966048
18	0x3eca0063	0.3945342
19	0xb8e02e18	-0.00010689738
20	0x3f0f705c	0.5603082
21	0xb9ae7f01	-0.00033282491
22	0x40818adb	4.0482
23	0x40c535a4	6.162798
24	0x40735605	3.8021252
25	0x3e461052	0.19342163
26	0xba998c19	-0.0011714726
27	0xb7ab3512	-2.0409501e-05
28	0xbc4e10e6	-0.012577271
29	0x3e1f5d14	0.1556285
30	0x3f1ec6b5	0.6202195
31	0xbdbbf53c	-0.09177634
32	0xbafc13b3	-0.0019231945
33	0x3ef37787	0.4755213
34	0x3db0f9f8	0.08641428
35	0xb9289060	-0.00016075512
36	0xba0ae585	-0.00052984833
37	0x3fdef540	1.7418594
38	0x40e2d2f4	7.088251
39	0x3e5c8c62	0.21537927
40	0xb7e47eb5	-2.723872e-05
41	0xbe264d52	-0.16240433
42	0xb7bc9d5b	-2.248462e-05
43	0x3ffb9d41	1.9657365
44	0xbe331465	-0.17488249
45	0x40d800c2	6.7500925
46	0x3f66a17c	0.90090156
47	0x3e84d653	0.25944766
48	0x3cca46cc	0.024691962
49	0xb7f16550	-2.8776616e-05
50	0x3fb00226	1.3750656
51	0x3ccc3993	0.024929797
52	0xbdac1da6	-0.084040925
53	0xbcbe162c	-0.023203932
54	0xba95f71d	-0.0011441443
55	0xb856208c	-5.1051888e-05
56	0xbb3c750f	-0.0028756296
57	0xb8295530	-4.0372077e-05
58	0x3f0c9e3e	0.5492896
59	0x3fe6d1c2	1.8032763
60	0xbd7b8f33	-0.061415862
61	0xbdf7fbf2	-0.12108602
62	0xbd117c87	-0.03551915
63	0xbd8348ec	-0.06410393

1.weight f4 [4, 64, 3, 3]
0	0x3676dedd	3.678658e-06
1	0xb837472d	-4.3696888e-05
2	0xb7c3fed2	-2.3364471e-05
3	0x388a867a	6.605401e-05
4	0x384ad40e	4.8358044e-05
5	0x38a6981d	7.94383e-05
6	0x3847664a	4.754056e-05
7	0x380a7475	3.3010223e-05
8	0x389d4f1a	7.501077e-05
9	0xba93fc7e	-0.0011290458
10	0xbadf4e44	-0.0017036875
11	0xbb089793	-0.0020842298
12	0xbacec441	-0.0015775041
13	0x39a3a77f	0.00031214577
14	0x3a6043ed	0.00085550436
15	0xbab55d96	-0.0013837095
16	0x3a6a4e40	0.0008938052
17	0x3a9587ec	0.0011408306
18	0x3da10315	0.07861916
19	0x3de3f2cc	0.11130294
20	0x3e08a444	0.13343912
21	0xbd57a451	-0.05264694
22	0x3cd9ab49	0.026570933
23	0x3cdcd21d	0.026955659
24	0xbd9a96ad	-0.075482704
25	0xbccaa22a	-0.024735529
26	0x3d3eb0e0	0.0465554
27	0x3cbb3d7b	0.022856465
28	0xbce33ef4	-0.02773998
29	0xbc48ba0f	-0.012251391
30	0xbcf55747	-0.029948844
31	0xbddf6ce5	-0.10909442
32	0xbdd93de8	-0.10607511
33	0x3bfb44f5	0.0076681324
34	0xbd25739a	-0.04039345
35	0x3d162f98	0.036666483
36	0x3c9dd6b4	0.019267417
37	0xbd16a1ed	-0.03677552
38	0x3c98e912	0.018665824
39	0xbd05fc47	-0.032711294
40	0xbd6655e9	-0.056234274
41	0xbb04d93c	-0.0020271083
42	0x3d4f5654	0.05061944
43	0x3cdc2f00	0.02687788
44	0x3cd3b48d	0.02584293
45	0xba944494	-0.0011311942
46	0xbaf47b5c	-0.0018652487
47	0xba5b4f91	-0.00083660433
48	0xba8033c2	-0.000978105
49	0x39675dda	0.00022064839
50	0x3998caf5	0.00029142914
51	0x3a89278b	0.0010464055
52	0x3b05a951	0.002039511
53	0x3aabce4d	0.0013107747
54	0x38cd2b37	9.783211e-05
55	0x3896239d	7.159191e-05
56	0x38adfdb8	8.296542e-05
57	0x3947b3e3	0.00019045132
58	0x3952452e	0.00020052932
59	0x39599b7f	0.0002075266
60	0x38ccdc90	9.768561e-05
61	0x389255ad	6.977781e-05
62	0x387acef3	5.979738e-05
63	0x3d9ab9d9	0.07554979
64	0xbda67926	-0.08128576
65	0xbca5af6f	-0.020225255
66	0xbb75d388	-0.0037510116
67	0xbe013c0e	-0.12620565
68	0xbb0b9b93	-0.0021302446
69	0x3d7fad9e	0.062421434
70	0xbce90e2a	-0.028449137
71	0xbc23c60e	-0.00999595
72	0x361084a8	2.1534888e-06
73	0xb85c0e30	-5.24653e-05
74	0xb7c8b054	-2.3923967e-05
75	0x385622e4	5.105407e-05
76	0x382d25c0	4.128157e-05
77	0x38b7748e	8.74783e-05
78	0xb7d685d3	-2.5573105e-05
79	0xb80e13c6	-3.3873854e-05
80	0x372300af	9.715716e-06
81	0xbd5f0464	-0.054447547
82	0xbd242c98	-0.04008159
83	0xbd02c213	-0.031923365
84	0xbdc1408e	-0.09436141
85	0xbc66dd42	-0.014090838
86	0xbbac7e6f	-0.0052640955
87	0xbd9c3774	-0.07627764
88	0x3bcf1249	0.0063193184
89	0x3c556f2f	0.0130269965
90	0xbc26646b	-0.010155777
91	0xbd89565f	-0.06705927
92	0xbda40cb2	-0.08010234
93	0xbe20b9a6	-0.1569582
94	0x3cffded3	0.03123418
95	0x3c397e86	0.011321669
96	0xbe1ac2a4	-0.15113312
97	0x3d2fee42	0.04295183
98	0x3cc70562	0.024294559
99	0xb838dc97	-4.407446e-05
100	0xb83addbb	-4.455236e-05
101	0xb8389b8c	-4.4013883e-05
102	0x38ba635d	8.887679e-05
103	0x3885ba63	6.3766514e-05
104	0x38a7916c	7.9902675e-05
105	0x37b56a58	2.1626402e-05
106	0x35d134fb	1.5587133e-06
107	0x36fe46e7	7.578044e-06
108	0x3ce5b2b3	0.028039312
109	0x3cfece50	0.031104237
110	0x3ccc8710	0.024966747
111	0xbd291970	-0.041284025
112	0xbd3cd59d	-0.046102155
113	0xbd939a5c	-0.07207176
114	0xbba19ff3	-0.0049323975
115	0xbc363fdb	-0.011123623
116	0xbb09959b	-0.0020993713
117	0xbcbbff20	-0.022948802
118	0xbd36e67e	-0.04465341
119	0xbd1dbfd6	-0.038513027
120	0xbd9aa964	-0.0755184
121	0xbc2d6f7a	-0.01058566
122	0xb9de0566	-0.00042347162
123	0xbd7b4107	-0.06134131
124	0x3aeded3f	0.001815237
125	0xbbe9f06c	-0.007139256
126	0x3aec8c38	0.001804716
127	0x3cfc4db8	0.030798778
128	0x39732e10	0.00023191446
129	0xbe2b7c9f	-0.16746758
130	0xbddb405c	-0.10705635
131	0xbdc3e2f1	-0.0956477
132	0xbdfbd0a7	-0.12295657
133	0xbe278caf	-0.1636226
134	0xbcbc7264	-0.023003764
135	0xb9ef4268	-0.0004563511
136	0xba271d9a	-0.00063749554
137	0xbaac2589	-0.0013133745
138	0xbb04f80c	-0.002028945
139	0xba87bf2d	-0.0010356657
140	0xbaa6f256	-0.0012737017
141	0xba423116	-0.0007407827
142	0x39203b81	0.00015280956
143	0xb9de7f2b	-0.00042437887
144	0xbd306409	-0.04306415
145	0xbd22b1db	-0.039720397
146	0xbd677544	-0.056508318
147	0xbdc5ab94	-0.096518666
148	0xbd997183	-0.07492354
149	0xbd616d8b	-0.05503611
150	0xbd39bc04	-0.04534532
151	0xbd5faaf4	-0.054606393
152	0xbdda418b	-0.106570326
153	0xbc88b47e	-0.016687628
154	0xbcb9a1c3	-0.022660142
155	0xbc9a0ec9	-0.018805878
156	0xbcc99f3d	-0.024612064
157	0xbc6f4a8f	-0.0146051785
158	0xbba71c42	-0.005099804
159	0xbc9a0a26	-0.018803667
160	0xbbe94f64	-0.00712006
161	0xbc7512be	-0.014958082
162	0xbb347b8e	-0.0027539465
163	0xbcc3f4c5	-0.023920426
164	0xbd2ab424	-0.0416757
165	0x3c01f451	0.007931785
166	0xbce76f30	-0.02825126
167	0xbdf3d731	-0.11906279
168	0x3c17c593	0.009263414
169	0xbc5de361	-0.013542981
170	0xbd4587f0	-0.048225343
171	0x389aac9a	7.375442e-05
172	0x3884bdcd	6.329604e-05
173	0x389efe5f	7.5814074e-05
174	0x394ac19a	0.00019336343
175	0x391dd70d	0.000150528
176	0x39344ff2	0.0001719592
177	0x390ccd6a	0.00013427963
178	0x37dee81f	2.6572552e-05
179	0x381a0d47	3.6728827e-05
180	0xbc1ce0de	-0.009575097
181	0xbd22819e	-0.039674394
182	0xbd7eb961	-0.06218851
183	0xbd211f44	-0.039336458
184	0xbd6cd4c1	-0.057820085
185	0xbdc41289	-0.09573848
186	0xbc351c0e	-0.011054052
187	0xbc2057a1	-0.009786517
188	0xbd72e575	-0.05930086
189	0x3a118661	0.0005551335
190	0x3a1de309	0.00060229056
191	0x3a1800e3	0.0005798472
192	0x39c926ba	0.0003836656
193	0x3a0cf5f0	0.0005377224
194	0x3a105147	0.00055052753
195	0x39c1dd09	0.00036976513
196	0x3a1370af	0.0005624396
197	0x3a1a427e	0.0005884542
198	0xbc049a9c	-0.008093502
199	0x3ba54ff9	0.005044934
200	0x3c864bbc	0.016393535
201	0xbb9e70e7	-0.0048352364
202	0x3c6bc7c4	0.01439089
203	0x3ad77866	0.001643908
204	0x3ccd60f5	0.025070647
205	0x3c914501	0.017733099
206	0x3c088fa5	0.008335029
207	0xbd494fc3	-0.049148332
208	0xbd3d3f31	-0.046202842
209	0xbbf5e0c4	-0.007503601
210	0xbdc69fd3	-0.09698453
211	0xbd154f81	-0.036452774
212	0x3b0cd552	0.0021489454
213	0xbd917354	-0.07102075
214	0x3bc53a24	0.006018894
215	0x3c5214ef	0.012822374
216	0xbd69946d	-0.057026315
217	0xbd0a4624	-0.033758298
218	0xbc8e2b96	-0.017354768
219	0xbda444b2	-0.08020915
220	0xbc840ee0	-0.016120374
221	0x3b41ff9f	0.0029601825
222	0xbd8016fd	-0.06254385
223	0xbb61db09	-0.003446283
224	0x3a3e36ae	0.0007256073
225	0xbc17fbdc	-0.009276357
226	0x3d08da62	0.03341139
227	0x3bd34d6e	0.0064484393
228	0xbd0c2f92	-0.034225054
229	0x3ce07a45	0.027402053
230	0xbb2ac267	-0.0026055814
231	0xbcadc502	-0.021212105
232	0x3d0d9315	0.034564096
233	0x3dc0b5aa	0.0940965
234	0xba426364	-0.0007415323
235	0xb928e5a4	-0.00016107276
236	0x38f93dc1	0.00011884748
237	0xbaa3b359	-0.0012489363
238	0xba6fc9f2	-0.00091472187
239	0xb88f2e0c	-6.827348e-05
240	0xba66aad3	-0.00087992585
241	0xba279ab9	-0.00063936
242	0x380a0ff9	3.291664e-05
243	0xb78b7964	-1.6626618e-05
244	0xb6ec734d	-7.046771e-06
245	0xb72205e8	-9.657328e-06
246	0x385201fa	5.0069742e-05
247	0x3795ff6a	1.788112e-05
248	0x3707b42b	8.088576e-06
249	0x380683e3	3.207092e-05
250	0x37e8dfac	2.776071e-05
251	0x37c86d32	2.3892706e-05
252	0xbaa7fe7a	-0.0012816929
253	0xbbbbaee8	-0.0057276376
254	0x3ac6b544	0.0015160223
255	0xbbb362b3	-0.0054744123

1.bias f4 [4]
0	0xbd44a188	-0.04800561
1	0x39c80ab9	0.00038154962
2	0x3e7a5f74	0.24450475
3	0x3f703c41	0.9384194
