expert_target_aware/mocosflV2_ResNet18_cifar10_cut2_bnlC4S2_expert_batchsize128_ressfl_2.0_SSIM0.6_data_proportion_0.00_aux_svhn/checkpoint_c_best.tar (torch, 316626 bytes, 11 tensors)

0.conv1.weight f4 [64, 3, 3, 3]
000000 6f 35 24 be 5f f3 c9 3d 5d f5 4f be e1 10 30 bc
       -0.16036008 0.098608725 -0.20308442 -0.010746212
000010 18 9c cd 3e f1 56 4b bb ad d5 2f be 1b 5b 1e 3e
       0.40158153 -0.0031027163 -0.17171355 0.15464441
000020 54 9b 0a be 85 9b af bd cd 41 e8 3d d9 dc 06 be
       -0.13535815 -0.08574585 0.113406755 -0.13170184
000030 af ae f4 bc 40 bb 8c 3e 55 79 03 bd 72 56 05 be
       -0.029868452 0.2748661 -0.032098133 -0.13021258
000040 43 b0 ee 3d 56 b6 dc bd 01 98 95 bd e7 27 6f 3d
       0.11654713 -0.10776965 -0.07304383 0.058387663
000050 36 b4 bc bd 7f d4 eb 3c a4 33 62 3e fa 43 22 3c
       -0.0921406 0.02878785 0.22090012 0.009903902
000060 91 7c a6 bd 72 9d 9d 3d 33 ef b3 bd 76 bf 5d 3d
       -0.08129228 0.07696046 -0.08785858 0.05413767
000070 9a 76 59 3c e2 e1 12 be 8e 4a 81 3d d5 d4 0a 3d
       0.013272906 -0.1434398 0.06313048 0.03389438
000080 7a d1 09 be 56 96 16 3e 5c e6 c5 3d 8a 9e 07 bd
       -0.13458815 0.14705786 0.09663078 -0.03311018
000090 85 ac 04 3e 00 84 c6 bc 90 57 8d bd 79 93 9e 3d
       0.12956436 -0.024232864 -0.06901467 0.07742972
0000a0 20 c2 a2 bd 90 65 38 be 3f 96 19 3e 4f ef 2b ba
       -0.07947183 -0.18007493 0.1499872 -0.0006558792
0000b0 10 c8 11 bd 7f d4 c4 3d 62 38 f5 3b 00 78 e4 bc
       -0.035591185 0.09610843 0.007483528 -0.027889252
0000c0 6d 4d 01 3b 24 a3 8d bd df 78 a0 bd 27 89 8d 3d
       0.0019729987 -0.06915882 -0.07835554 0.06910925
0000d0 0d 67 72 bd 25 7b 2e bd ae c9 6f bc f4 67 02 bd
       -0.059180308 -0.04259791 -0.0146354865 -0.03183742
0000e0 29 35 3e bc 71 2f c5 bd a0 e4 5f bc fd 0e 77 3d
       -0.011609354 -0.09628189 -0.013665348 0.06031703
0000f0 49 89 95 3d be d1 9d 3b 2e 33 4f bd 69 fb a3 3d
       0.07301576 0.004816263 -0.050585918 0.08006937
000100 28 d9 5b bc 23 3f 00 3e d5 7b c1 bd c1 ab 34 be
       -0.013418473 0.12524085 -0.09447447 -0.17643644
000110 8f c1 2d bd 98 a9 37 3e c2 a5 02 be 84 b6 f0 bc
       -0.04242092 0.17935789 -0.12758544 -0.029383905
000120 d2 2f ea bd 3f 5e 82 3d 3e 5a b2 bd ad 41 af bd
       -0.11434902 0.06365632 -0.087086186 -0.085574485
000130 92 08 fe 3d f0 15 70 3d a2 6e 82 3d 38 20 34 3e
       0.124039784 0.05861467 0.06368758 0.17590415
000140 78 46 1c bc 5e 25 de 3c fe 9a 5c 3e 81 1f ca 3d
       -0.009538285 0.027117427 0.215435 0.0986929
000150 05 01 2e bd a5 10 97 bd ff 58 ad bd 8d c7 e0 3c
       -0.04248144 -0.073762216 -0.0846424 0.027438903
000160 f6 fc 39 be b0 f5 70 3d a2 78 4a 3d ca 5b 4d 3e
       -0.18162903 0.058828056 0.04943145 0.20054546
000170 53 53 a1 3d 68 a6 49 3d de dd 87 bc 91 0e 8b 3c
       0.07877221 0.049230963 -0.016585287 0.01697472
000180 5a 2a 11 bd 46 ef 99 be 5b d5 29 bd 95 f0 38 3d
       -0.03544078 -0.30065364 -0.041463237 0.045151312
000190 81 c5 1a 3e 00 b5 71 3d 7a cc 93 3d 23 3f 6a 3c
       0.15114404 0.059010506 0.07216735 0.0142972795
0001a0 4f e7 35 3b 76 4c 8c bd 7d 6e 59 be 1c fb b6 bd
       0.002775628 -0.06850521 -0.21233554 -0.08934614
0001b0 fb 7c ce bd cb 77 a2 bd 0d 55 a3 bd 1a 03 a2 3c
       -0.10082432 -0.07933005 -0.079752065 0.01977687
0001c0 78 71 4c 3d 8d 93 98 bc 40 43 d7 3d 6c 1c 2e bd
       0.0499129 -0.018625045 0.10510874 -0.042507574
0001d0 66 4f d9 bd 18 59 f8 bd 20 b0 a7 3d ff fb d7 3b
       -0.10610847 -0.12126368 0.0818789 0.0065913196
0001e0 88 99 39 3d d9 a6 80 3e bb 3c de 3d 48 fe 6d bd
       0.045312434 0.25127295 0.10851427 -0.05810383
0001f0 16 b8 3a bc b7 66 15 be 22 b0 1a bd fd 0b 49 3e
       -0.011396429 -0.14589964 -0.03776563 0.1963348
000200 85 c2 35 3e 90 18 85 bd 1e 39 21 3e 39 e3 df 3d
       0.17749985 -0.064988256 0.15744445 0.10932011
000210 a3 49 4f be 06 55 bd bd 3d b1 0e be e5 09 ae bc
       -0.20242934 -0.092447326 -0.13934799 -0.021244952
000220 a4 18 86 be 0c ce cf bd 02 43 d5 bd 62 1f a9 be
       -0.26190674 -0.10146722 -0.10413171 -0.33031756
000230 8a 67 85 bc 09 18 06 3e f5 46 4b bd 79 11 85 3d
       -0.016284723 0.13095106 -0.049628217 0.06497473
000240 bf 7c 27 3e 94 b4 6a 3e 36 51 b9 3d d7 cf 91 3d
       0.1635618 0.22920448 0.09048693 0.071197204
000250 6f 58 36 3e 85 3a 22 3e c0 9a 53 bd 9e 5d 0f 3e
       0.17807172 0.15842636 -0.051661253 0.14000556
000260 22 19 63 bd fe 1b c8 bd e3 ea b3 3c 1c f0 dd bd
       -0.05544389 -0.09770964 0.021962589 -0.10836813
000270 a7 00 51 bc 9e 15 e1 3d dc 4d 1d 3c 7a 5c 02 be
       -0.012756503 0.10990451 0.009601083 -0.1273059
000280 a9 d7 80 3c ea b4 00 be 6e 5e 1f be ab 4d dc bd
       0.015727835 -0.12569013 -0.15563366 -0.107570015
000290 46 c3 6c bd bd b8 d4 bc 68 15 b2 3d 8c 3d 65 3d
       -0.057803415 -0.025966996 0.08695489 0.0559669
0002a0 d2 d3 d5 bd 28 6c f5 bc 79 d0 89 bd 25 45 69 bd
       -0.10440792 -0.0299588 -0.06729216 -0.056950707
0002b0 42 c3 b2 3c 4f 15 52 bc 29 9b 39 3d d2 f6 2b 3e
       0.021821622 -0.012822463 0.045313988 0.16793373
0002c0 dd 18 93 3d ac 4c 43 bd 90 e7 3d 3d b7 2a 33 bd
       0.07182477 -0.047680542 0.046363413 -0.043741908
0002d0 09 5b 07 be 8c c2 06 3b c6 76 7d bd ca 76 07 3d
       -0.13218321 0.0020562736 -0.06188085 0.03307227
0002e0 ea 89 5b 3e b0 70 d2 3d c8 63 4e bd d7 64 d6 3d
       0.21439329 0.102754 -0.050388128 0.104684524
0002f0 b9 fb 6f 3c 15 a4 fa bd 1a 17 08 3d 39 f2 b9 3c
       0.014647418 -0.122383274 0.033225156 0.022698509
000300 53 dd 75 bd 90 d3 82 3d 2a bd c2 bd d8 e8 c3 bd
       -0.060025524 0.063880086 -0.095087364 -0.09565896
000310 50 78 dc 39 fb 2e cd bd 11 9e 5c bc d8 df 05 3e
       0.0004205131 -0.100187264 -0.01346542 0.13073671
000320 92 d4 24 bd 15 f7 d5 3d 96 3c 6b 3e 4d cf 83 bd
       -0.040241785 0.10447518 0.2297233 -0.06436024
000330 f3 ba 44 bc f0 9c e4 3d 2c 75 05 be cc ca 02 bd
       -0.012007463 0.11162746 -0.13032979 -0.031931683
000340 bb 24 13 3d bf 60 51 be 1e 0f cf 3d a0 5c 46 3e
       0.0359237 -0.20447062 0.10110305 0.19371271
000350 70 29 10 be aa 9a d5 3d 87 0d 30 3e a4 e7 0f be
       -0.14078307 0.104298905 0.1719266 -0.14053208
000360 2e 28 01 bc 61 65 65 3e da 34 b2 3d 8f 2a 13 3d
       -0.007883115 0.22401954 0.08701487 0.03592926
000370 b6 e1 c7 bc d8 d4 b5 bd 86 62 04 3c b6 1a 1f bc
       -0.02439962 -0.08878487 0.00808013 -0.009710958
000380 98 97 14 bd dd bf dc bc 3d ef 07 3e 8d 46 cc 3d
       -0.036277384 -0.026946956 0.13274856 0.09974394
000390 02 a8 2b 3c be 7f 41 3d 86 9f 99 bd 89 2f 31 bd
       0.010477068 0.047240965 -0.0750113 -0.043258224
0003a0 20 2e 45 bc a4 bb c1 bd e6 b7 3b 3c 92 e8 0c bd
       -0.012034923 -0.09459618 0.011457419 -0.034401484
0003b0 d8 16 28 bd 7b b9 44 3d 09 16 5a bc 4e 30 0b be
       -0.04103741 0.04802845 -0.013310918 -0.13592646
0003c0 dc 34 d7 3d 20 3f aa bd 0a f7 a8 bd 84 0d 9e 3d
       0.10508129 -0.083128214 -0.08250244 0.07717422
0003d0 19 79 cb 3d ce fa d0 bc 70 dc 87 3d b1 85 70 3e
       0.09935207 -0.025510218 0.06633842 0.23488499
0003e0 f9 c7 58 3d 2e 25 2c 3d bc 96 0b 3e 1e f1 c3 bd
       0.052925084 0.042027645 0.1363172 -0.09567474
0003f0 06 3b a5 3c 74 ad 20 be b5 d8 0c 3d 17 a7 14 be
       0.020169746 -0.15691167 0.034386355 -0.14516865

0.bn1.weight f4 [64]
000000 08 5d 2f 3f 43 9b a3 3d a9 50 52 3e 95 00 3b 3e
       0.6850133 0.07988598 0.20538582 0.18261941
000010 1c 56 64 3e 8b fc b4 3e f6 91 27 3e a3 7b 3a 3e
       0.22298473 0.35348925 0.16364273 0.18211226
000020 1a 55 80 3e f8 03 d3 3e 18 2e 0f 3e 6a 6d ae 3e
       0.25064927 0.41213965 0.13982427 0.3406785
000030 a7 32 8c 3e 4c 03 75 3e 57 48 35 3c e9 d6 70 3e
       0.27382395 0.23927039 0.01106461 0.23519482
000040 dc d8 8d 3e a3 31 06 3e 19 87 07 3e 8a 4d 1c 3e
       0.27704513 0.13104872 0.1323513 0.15263954
000050 e6 9b c1 3e 17 1b bd 3e c4 bd a0 3e 7b 90 a5 3e
       0.37814254 0.3693473 0.3139478 0.32336792
000060 96 23 70 3e f0 d3 c0 3e 11 ca bd 3e 3a e0 6b 3e
       0.23451075 0.37661695 0.37068227 0.23034754
000070 de 54 86 3e 0e 37 5e 3d c9 4a 86 bb da b2 a0 3d
       0.26236624 0.054251723 -0.0040982706 0.07846613
000080 e3 ee 41 3e c6 04 0d 3e 36 09 6b 3e c7 79 ac 3e
       0.18938784 0.13771352 0.22952732 0.3368666
000090 81 a8 64 3e 95 d4 42 3e 29 26 da 3d a2 44 7d 3e
       0.22329904 0.19026406 0.1065181 0.24733213
0000a0 80 a4 96 3e 2f 82 a3 3e 31 6e 26 3f 5f 79 ad 3e
       0.2942238 0.3193526 0.6501189 0.3388166
0000b0 11 f5 a2 3e 83 e4 a0 3b b0 d7 a4 3e 8c fc 8f 3e
       0.31827596 0.004910053 0.32195807 0.28122365
0000c0 10 0e 71 3e 0a 16 5b 3e df 91 84 3e 06 89 52 3e
       0.2354052 0.21395126 0.2589254 0.20560083
0000d0 59 9a b1 3d 03 91 94 3e 6a da 8d 3e 5d 55 23 3e
       0.086720176 0.29016885 0.277057 0.15950532
0000e0 3f 1e 5b 3e e2 34 b4 3e 87 fe 72 3e b1 d3 0c 3f
       0.21398257 0.35196596 0.23729907 0.55010515
0000f0 10 f3 99 3e 19 5f d3 3d 1c d4 4b 3e 6d 27 2f 3e
       0.30068254 0.10320873 0.19905132 0.17104883

0.bn1.bias f4 [64]
000000 58 76 09 be 18 8a d8 3d 69 32 39 3e 35 f4 49 3e
       -0.13424051 0.10573214 0.18085636 0.19722064
000010 2b b3 eb 3c aa 81 da 3d 14 36 53 3d f0 c3 51 3e
       0.028771957 0.10669263 0.051565245 0.204849
000020 8b fb 47 bd 26 a2 0d be 1a 11 d2 3c 34 f3 70 bd
       -0.048823874 -0.13831386 0.02564292 -0.058825687
000030 37 16 e3 3d 89 cb 64 3e 9d 01 9b bd 86 a8 3e 3e
       0.110882215 0.22343268 -0.07568667 0.18618974
000040 d2 a0 8b bc 84 92 e4 3d 09 0f e0 3d 0d 1c 9b 3d
       -0.017044459 0.11160758 0.10940368 0.0757371
000050 04 2f 65 3c f3 4a 22 3e b8 9c 9c 3d f2 b0 85 3d
       0.01398826 0.15848903 0.07647079 0.0652789
000060 bc b6 a2 3d 88 86 37 3d ad 29 cb 3d 96 fb 74 3d
       0.0794501 0.044806033 0.099200584 0.059810244
000070 4e 5b 04 be 04 a1 92 3d d7 79 13 3e 53 c0 3a 3e
       -0.12925455 0.071596175 0.14401947 0.18237428
000080 03 86 30 bc 4f ae b7 3d 0f df 3a bc 7c 1d 92 3d
       -0.010774138 0.089687936 -0.01140572 0.0713453
000090 37 b3 bb bd 29 22 cf 3c f0 11 26 3e 4b 8c f9 bc
       -0.09165042 0.025284844 0.1621778 -0.030462405
0000a0 4d 49 ac 3d 82 1a c4 3d 66 43 b7 bd f4 93 83 3a
       0.084124185 0.095753685 -0.08948402 0.00100386
0000b0 02 8e 70 3e 0c 66 2c bd 44 42 92 3c 4b 98 bd 3d
       0.23491672 -0.042089507 0.017853864 0.09257563
0000c0 c4 b0 b0 3d 87 4a 38 3c 1c c6 ed bc cd dc 10 3d
       0.08627465 0.011248237 -0.02902513 0.035366822
0000d0 5d 3c bd 3c ab 20 2f 3e 40 ca db 3d fa 5f 7c 3d
       0.023100073 0.17102306 0.107319355 0.061614968
0000e0 a6 a2 b9 3c b1 22 7e bd 95 02 cb 3c c1 1b 0f 3e
       0.022660565 -0.062044803 0.024781505 0.13975431
0000f0 c5 03 ef 3c b8 4d 02 bd 5d 2d 59 bd eb 35 b1 bc
       0.029176602 -0.0318124 -0.053021777 -0.021632155

1.conv1.weight f4 [64, 64, 3, 3]
000000 8d 58 36 be 8d d7 bf bd db b4 6b be 9a 3e df bd
       -0.17807217 -0.09367285 -0.2301821 -0.10900612
000010 5c 11 83 bb 48 1e 2e be 40 4b 33 be 4a be d2 bd
       -0.003999872 -0.17003739 -0.17509174 -0.10290201
000020 20 f1 4a be 4c a5 a5 bc 5c e5 12 bc 10 c6 39 3d
       -0.19818544 -0.020220421 -0.008965816 0.045354903
000030 5e b7 85 bb 13 be 8d 3b cf fa 77 3d 22 35 5a bc
       -0.004080697 0.004325637 0.060541924 -0.013318332
000040 7f 66 46 bc c0 39 54 3d 78 f8 b1 3c b5 00 95 bc
       -0.012109398 0.051812887 0.021724924 -0.018188814
000050 ca b2 55 bb 7d 37 2a bc ff 20 0a bd e9 b7 69 bc
       -0.0032607787 -0.010389206 -0.033722874 -0.014265039
000060 c9 53 a8 bc 85 45 0e bd 13 5f 88 3b 4d 10 d5 bc
       -0.020547764 -0.034734268 0.0041617244 -0.02600875
000070 ce e9 3d bd b8 66 9b 39 03 65 3c bb 28 70 a1 bc
       -0.04636555 0.00029640435 -0.002874673 -0.0197068
000080 5d 25 50 3d 8e e8 82 3d 5b 82 74 bc 24 83 f2 3c
       0.050816882 0.063920125 -0.014923657 0.029603548
000090 f5 82 42 3c 2d 92 dc bc 49 88 78 bd 27 36 73 3d
       0.011872043 -0.02692517 -0.060676847 0.059377816
0000a0 52 66 cc 3c a9 58 ac bb 95 43 25 3d d3 87 cb ba
       0.024951134 -0.0052595926 0.040347654 -0.001552815
0000b0 16 ba 29 bd 9f 84 c7 bc 8d dd 96 bc ce 70 99 bb
       -0.04143723 -0.02435523 -0.01841619 -0.004682637
0000c0 65 a5 8d bc f7 60 10 bc ca 80 a9 39 75 2f 1a bd
       -0.01729078 -0.008812181 0.00032330147 -0.037642915
0000d0 9a 25 cd bc 75 f1 68 bc ab f0 20 bc ba ac 9c bc
       -0.025042344 -0.014217724 -0.009823005 -0.019125331
0000e0 51 aa c0 bb 2e 3e c3 3c d4 e3 2f 3c 2e 19 0a 3c
       -0.0058796783 0.02383336 0.010735471 0.008428855
0000f0 9c 7f 73 3c 62 57 00 bb 92 1e 48 bb 69 10 b3 bd
       0.014861967 -0.0019583334 -0.00305358 -0.08743364
000100 82 b4 19 bc 89 5b f2 bc c4 32 87 bd 0d e1 d2 3c
       -0.009381415 -0.029584663 -0.0660148 0.025742078
000110 24 a5 2e 3b 94 76 e8 bd 59 32 18 bc 08 a5 b9 bb
       0.0026648724 -0.11350742 -0.009289348 -0.005665425
000120 0d 66 5a bd f0 8e 82 bb 1d a3 06 3d 42 d4 a4 bc
       -0.05331998 -0.0039843246 0.0328704 -0.020120744
000130 2e 55 23 3d 44 eb 68 3d 8d 04 e1 3c 32 67 e5 3c
       0.039876156 0.05686499 0.02746799 0.028003309
000140 28 1c cf bb 77 f0 9f 3c d0 47 ac bb 4e 6c 20 3d
       -0.006320495 0.019523842 -0.005257584 0.039165787
000150 f7 a8 9b bc 6c 12 36 bd 87 a1 25 ba fe 44 00 bd
       -0.019001467 -0.044451162 -0.000631832 -0.031315796
000160 43 1c 32 bd b9 72 2b 3a 79 b5 b4 3c 22 85 af 3c
       -0.043483984 0.00065402273 0.02205919 0.021425787
000170 d1 c3 0d 3c 2e 73 df bc 6d 20 54 3a c5 61 67 3c
       0.008652643 -0.027276602 0.000809199 0.014122431
000180 1a d6 e7 bc ff 2c ee bc f5 ca 5f bc 3d d8 3d bd
       -0.028300334 -0.02907419 -0.013659229 -0.0463488
000190 5c 97 ed bc 3b 61 f0 bc 09 5a 20 3d 8f 62 70 3d
       -0.029002838 -0.029343238 0.039148364 0.058687743
0001a0 fa 84 1d 3b 1c bc 65 3c 2a 67 f9 3b 64 2d 13 bd
       0.002403556 0.0140219 0.007611175 -0.03593196
0001b0 e8 c7 a5 bd 30 51 21 bc c7 2e 0f 3d 4c 7a aa bc
       -0.0809477 -0.009846017 0.03495672 -0.020810269
0001c0 f3 b6 52 3d c2 be 8e 3d 63 ae 3d bd f1 f8 1d 3b
       0.051444005 0.06969978 -0.046308886 0.002410468
0001d0 a3 0b 46 3d 30 57 85 3d 79 56 4a bc fa 52 db bd
       0.04835094 0.0651077 -0.012349718 -0.10709186
0001e0 4c f0 b2 3d 2b 60 9b bb 4a 27 a1 bd 23 0b 8d 3d
       0.08737239 -0.0047416887 -0.07868822 0.0688689
0001f0 d8 6a e0 bc 39 21 df bd 1d 40 4e 3c d0 db 84 3c
       -0.027394697 -0.108950086 0.012588528 0.016218096
000200 e7 af 72 3c ab 85 41 3c 97 f9 66 3c 8d 0c 6d 3c
       0.014812446 0.011811654 0.014097593 0.014468324
000210 c3 ef 12 3c 72 ea 28 3c fc 51 40 3c ad 05 31 3d
       0.008968296 0.010309802 0.011738297 0.043218303
000220 8b 59 20 bc de a5 f7 3a 70 1f 4b bb bb b9 f1 bc
       -0.009786974 0.0018894037 -0.003099408 -0.029507509
000230 17 90 0f 3c 9b b0 67 bd 77 5c 3b bd 96 48 ab 3c
       0.008762381 -0.05656491 -0.04574248 0.020908635
000240 c8 4e 02 3d 4f a9 11 37 6a 5d 21 bb e2 15 ba 3c
       0.031813413 8.682094e-06 -0.002462233 0.022715513
000250 04 c5 1a bc cc c6 5a bc 87 64 fa bb ae 68 b5 bc
       -0.009446386 -0.013353061 -0.0076413783 -0.022144642
000260 31 84 07 bd eb e4 da 3c 08 eb f6 3b e3 82 4b 3b
       -0.033085052 0.026720485 0.007535342 0.0031053356
000270 3d 2b dd 3c ca cd 64 ba 27 bb 96 3b 0e 35 10 3d
       0.026998157 -0.0008728175 0.004599947 0.035206847
000280 5d 39 de 39 40 09 85 3c 09 61 b6 3c ce c0 48 3c
       0.0004238588 0.016239762 0.022263067 0.0122529995
000290 51 2a 6d bc 2c 13 fe 3c 45 e2 9c 3c 36 50 b8 ba
       -0.014475421 0.031015001 0.019150862 -0.0014061991
0002a0 7c 8e e7 3c b5 e9 88 3c d3 68 f5 3b 32 b1 9a bb
       0.028266184 0.016713003 0.0074893027 -0.0047208304
0002b0 bf b7 c4 bc fb 77 c7 3c 9a eb ef bb 50 cd 04 bb
       -0.024013398 0.024349203 -0.007321787 -0.0020263977
0002c0 a9 7e 26 3d 6f 15 b5 3c a4 6c 6c 3c f6 e1 7b 3d
       0.040648136 0.022104947 0.014430199 0.06149479
0002d0 61 91 cf bd c9 53 c5 3c 56 ac c2 3d 81 a4 bd bd
       -0.10135151 0.024087803 0.09505527 -0.09259892
0002e0 c8 0d 6d 3d be 7e 05 3e 74 56 f8 bd a6 37 49 bc
       0.05787447 0.1303663 -0.121258646 -0.012281334
0002f0 f5 89 0b 3e 18 21 69 bc 40 75 0d 3d 1e ee e5 bd
       0.13626845 -0.014229082 0.034535646 -0.11227058
000300 63 dd 08 3c f3 d7 62 3d ef 01 c9 bd cd 39 e2 bc
       0.008353564 0.055381726 -0.09814822 -0.027615452
000310 32 d4 f7 3c c9 35 da bd 90 f0 5a 3d cb db 36 3c
       0.03025255 -0.1065479 0.053452075 0.011160801
000320 fe 78 c3 3c ed a8 a5 bb 10 81 1c bc df bf 07 3d
       0.023861405 -0.005055538 -0.009552255 0.033141967
000330 52 7f 85 bd e0 61 f3 bc 57 52 66 3c cb 27 0d bb
       -0.06518425 -0.029709756 0.014057717 -0.002153861
000340 94 a9 4e bd cf 9d 95 bc 69 bc 3c bc 83 09 36 bd
       -0.05045469 -0.018263726 -0.01151953 -0.044442665
000350 8d 9c df bc 5b 62 93 3d c0 55 d7 bc bf 05 04 bd
       -0.027296329 0.07196494 -0.026286006 -0.032232042
000360 20 c1 1d bd e0 43 ba bc b1 58 cc 3c dd c7 f2 bc
       -0.038514256 -0.022737443 0.024944635 -0.029636318
000370 c0 70 a5 bc 76 c2 85 3d 31 b6 90 3d 26 3f fa 3b
       -0.020195365 0.06531231 0.07066 0.0076369224
000380 a2 91 11 3d 6a fa ba 3d 98 d7 94 bc 8f 77 4a bd
       0.035539277 0.09129794 -0.01816921 -0.049430426
000390 97 05 69 3c 41 2a 77 bd 2c 01 b6 bd 1e 0d 3a 3d
       0.014222524 -0.06034303 -0.08886942 0.045422666
0003a0 79 03 46 bd 7b 96 95 bd d8 66 80 bd 74 82 33 bd
       -0.048343156 -0.073040925 -0.06269616 -0.04382558
0003b0 29 7b ca 3d 60 2c 6d bd 07 bd 67 bd 2d c8 9c 3d
       0.09886772 -0.057903647 -0.056576755 0.07655368
0003c0 b2 43 c3 3b e9 1a 73 bc 0c fb 13 3e a3 15 30 3d
       0.0059589976 -0.014837959 0.14451236 0.042989384
0003d0 cf e5 02 3c 37 03 f3 3c 93 1f 80 3c e0 95 1c 3c
       0.007989361 0.029664619 0.015640056 0.009557217
0003e0 a8 16 06 3d 07 9e 25 bd 2c 12 e0 bc 47 ae 0a bc
       0.03273645 -0.04043391 -0.027352415 -0.0084644025
0003f0 64 f3 89 3b 8b 74 5f 3c 1c 7c d9 b9 d1 7a 9c 3b
       0.0042099226 0.013638626 -0.00041481934 0.004775383

1.bn1.weight f4 [64]
000000 85 df cd 3e 9a 6c cc 3e 2f 10 a6 3e 28 4f 71 3e
       0.40209594 0.39926606 0.32434222 0.23565352
000010 01 78 57 3e 65 9d 8a 3e 4f fe cf 3e ba 37 cc 3e
       0.21041872 0.27073207 0.4062371 0.39886266
000020 f9 9c 92 3e fc 97 d2 3e e8 6f 53 3e fd eb 7b 3e
       0.28635386 0.4113158 0.20648158 0.24601741
000030 4b 03 f5 3e c6 03 cc 3e cf b6 3c 3e 85 e0 aa 3e
       0.47854075 0.3984663 0.18429111 0.3337442
000040 68 54 3b 3e dd 62 dc 3e 1a 49 5a 3e 8e 15 20 3e
       0.18293917 0.43044177 0.21316949 0.15633222
000050 3c 38 70 3e 34 4c d1 3e 5a 24 b0 3e d4 2d 31 3e
       0.23458952 0.4087845 0.34402734 0.17302638
000060 8a 29 8e 3e 9a bd 64 3e 76 47 d8 3e b8 ca 24 3e
       0.27766067 0.22337952 0.4224202 0.16092956
000070 c5 62 c6 3c 3d 59 d1 3e dd 2a a6 3e 36 ba b2 3d
       0.024217019 0.40888396 0.32454577 0.08726923
000080 83 1a 4f 3e 62 44 67 3d 9b 81 06 3f eb 49 46 3e
       0.20224957 0.0564617 0.5254151 0.19364135
000090 5c c3 57 3e f3 06 b4 3e 9c 97 b2 3e 30 aa 91 3e
       0.21070617 0.35161552 0.34881294 0.28450155
0000a0 cf 9c c7 3e a5 51 58 3e 56 cb 7f 3d af 33 af 3d
       0.38986823 0.21124895 0.062449776 0.0855478
0000b0 de 86 04 3e c9 fd 43 3e 9b 52 a4 3e 97 df 6f 3d
       0.12942073 0.1913978 0.32094273 0.05856284
0000c0 3e 1e ab 3e 0f 22 a8 3e 36 f1 25 3e 16 dc 92 3e
       0.3342151 0.32838485 0.16205296 0.28683537
0000d0 98 06 bc 3e c0 6c b1 3e 59 0d 81 3e 94 bf 11 3e
       0.3672378 0.34653282 0.25205496 0.14233238
0000e0 61 8e 08 3f 9e 16 c7 3e 9a 54 cf 3e 6e 15 0e 3c
       0.5334225 0.38884443 0.40494233 0.008672101
0000f0 58 f7 c7 3e 53 e0 01 3e ce 9b c8 3e 06 6b 2e 3e
       0.39055896 0.12683229 0.3918137 0.17033014

1.bn1.bias f4 [64]
000000 22 96 15 be 91 f5 28 be 7d 64 46 be de 10 a9 3c
       -0.14608052 -0.16499926 -0.1937427 0.020637926
000010 c5 d5 a4 bd 70 9b b0 bd 4b 5b 44 be 07 24 22 be
       -0.08048586 -0.08623397 -0.1917545 -0.15834056
000020 65 67 2f bd 9c 98 42 bd a6 46 0b be cc d7 a3 3d
       -0.042823214 -0.04750882 -0.13601169 0.08000144
000030 83 8e 39 be 01 6d 92 be aa d3 6c bd 4a 65 3b bd
       -0.1812077 -0.28598788 -0.057819046 -0.045750894
000040 75 73 80 bc dd 04 ff bd 11 00 96 bc 4e fb 37 3c
       -0.015680054 -0.124520995 -0.018310579 0.011229349
000050 17 a2 13 bd 89 5b b9 bd 7a 38 f7 bd 95 f3 c9 3d
       -0.036043253 -0.09050662 -0.12071319 0.09860913
000060 29 00 d3 bd 52 b9 ef 3d e2 b9 76 be 7e 53 b2 bd
       -0.10302765 0.11705269 -0.24094346 -0.08707331
000070 db 25 9f bd a8 32 a5 be 25 af 8d 3d 37 1c 36 3d
       -0.07770892 -0.3226521 0.06918172 0.0444605
000080 b6 bb c3 bd 66 5f 43 3e 89 37 f8 3d b7 44 38 3b
       -0.095572874 0.1907936 0.121199675 0.002811713
000090 c4 47 35 3e 1f 77 4c be a7 57 f1 bd bb 44 2d be
       0.17703158 -0.19967316 -0.117842965 -0.1692075
0000a0 0c 9b 0c bf 86 2b 92 bd 41 49 81 3d 6b 0c b9 3b
       -0.5492408 -0.07137208 0.063128 0.0056472323
0000b0 58 35 d1 bd f5 4e 85 3e e8 25 9a be 25 8c 9e 3d
       -0.10215253 0.26036802 -0.30107045 0.07741574
0000c0 13 12 da bd 3c 68 2b be b8 52 c2 3a b0 5d 85 3c
       -0.10647979 -0.16738981 0.0014825677 0.016280025
0000d0 89 e8 30 be 6e 1c 09 be 07 38 73 be 88 23 84 3d
       -0.17276205 -0.13389751 -0.23751841 0.064520895
0000e0 9c 93 75 be 55 13 06 be 95 10 c1 bc f1 27 ad bd
       -0.2398209 -0.13093312 -0.023567477 -0.08454884
0000f0 85 28 11 be 2b eb 6d be 57 d2 36 be 39 1f 95 bb
       -0.14175613 -0.2323424 -0.17853676 -0.004550841

1.conv2.weight f4 [64, 64, 3, 3]
000000 94 54 81 3a ad 34 40 bb e2 4b 61 3b b7 b6 b8 bb
       0.0009867125 -0.0029328272 0.0034377505 -0.0056370157
000010 36 fa 4a bc b8 ea c2 bb 99 dc 90 bb e3 a8 d4 bb
       -0.0123887565 -0.005948391 -0.0044208285 -0.0064898594
000020 20 19 b0 ba 62 f6 1e 3c ba 20 6e 3c 2d 1e 8b 3c
       -0.0013435222 0.009702297 0.01453417 0.016982162
000030 9c bd a5 bc 7a 89 bd bc 55 39 a3 bc a6 e7 b9 bc
       -0.020232014 -0.023136843 -0.019924799 -0.022693466
000040 62 a2 d6 bc b2 25 bf bc 48 c6 d1 bc 50 31 aa bc
       -0.026200477 -0.023333404 -0.025607243 -0.020775467
000050 48 99 45 bc 4e a8 7a bc eb 8a a6 bc 4f ed 68 bc
       -0.012060471 -0.015298916 -0.020329913 -0.014216735
000060 fe a7 41 bc ef 1a 3a bc 09 90 21 bc 7f 0d 28 bb
       -0.011819838 -0.0113589605 -0.009861001 -0.002564281
000070 ea 0c a4 bb d7 3f c0 ba fa 9d 18 bb 71 19 bc bb
       -0.0050064223 -0.0014667463 -0.002328752 -0.0057403375
000080 56 8b 2e 3b 29 9e 38 bc bf 58 92 bc c0 ff 03 bc
       0.0026633344 -0.011268177 -0.017864583 -0.008056581
000090 c1 df 57 3c 03 08 c2 3c 42 69 ec 3c d1 f0 00 3c
       0.013175906 0.02368546 0.028858785 0.007869915
0000a0 fb 37 99 3c d3 7b ee 3c 99 f0 57 3b 7d 50 18 3c
       0.018703451 0.029111778 0.0032949804 0.009296534
0000b0 9b 12 85 3c 3b d5 01 bb 56 3f ba ba 98 7f e9 bb
       0.016244223 -0.0019810933 -0.0014209549 -0.007125806
0000c0 39 d3 16 3c f1 42 26 3c 39 f6 26 bb 33 96 53 3b
       0.009205633 0.010147796 -0.002547635 0.003228557
0000d0 47 8f 3d 3c 31 3e 45 3b f4 d6 95 3b 77 ab a0 3c
       0.0115698045 0.0030096883 0.0045727435 0.01961301
0000e0 dd 32 0d 3c cd e8 0b bb 23 1d 44 3c 05 79 8c 3b
       0.008618084 -0.0021348477 0.011969837 0.0042868876
0000f0 2d 0e d7 bc b8 26 ab bc 95 29 b3 bc 1f a4 a2 bb
       -0.026251877 -0.020892486 -0.021870414 -0.0049634124
000100 d7 b1 4c bb d8 82 73 bc 59 d5 6f 3b 55 1f 67 3c
       -0.003123393 -0.014862739 0.003659567 0.014106591
000110 69 75 68 3a c8 2f 17 bc 44 d2 57 3b 6f 65 2d bb
       0.0008867593 -0.0092277005 0.0032931725 -0.0026458164
000120 aa 23 79 bb cb 99 80 bc 9b 82 73 bb 34 72 19 3a
       -0.0038015642 -0.015698334 -0.0037156704 0.00058535044
000130 96 ff 41 bc cd 8d 9f 3a d1 3d 60 3c 29 05 8e ba
       -0.011840722 0.0012172997 0.013686613 -0.0010835278
000140 a7 0e 30 3c f0 34 cf b9 4e 73 22 ba 18 37 2a 3b
       0.010745681 -0.00039521558 -0.00061969913 0.002597278
000150 f2 2d 93 3c 56 7d 96 3c 6b 7e b0 3c 66 bb c0 3c
       0.017966244 0.018370312 0.021544656 0.023526859
000160 82 02 cd 3c c9 ab d4 3c b2 c7 28 bc 98 64 2a bc
       0.02502561 0.02596082 -0.010301517 -0.01039996
000170 80 2f cf bb 28 5f 61 bc 4d fe 20 bc 1b 21 9c bb
       -0.006322801 -0.013755597 -0.009826255 -0.0047646887
000180 d2 82 a7 bc 7b 52 98 bc 85 7a 59 bc 7f bb b6 3b
       -0.020448122 -0.018594017 -0.01327384 0.0055765505
000190 06 3b 60 3c 36 af 09 3c be 83 4f 3c da 81 b0 3c
       0.013685947 0.00840359 0.012665687 0.021546293
0001a0 1e b8 a5 3c 31 83 02 3c 62 bf 45 3c 11 33 28 3c
       0.020229395 0.007965849 0.012069555 0.010266081
0001b0 3c 5f fd bb 38 27 ef bb 1a ea 08 bc 30 5b bb 3c
       -0.0077323 -0.0072983764 -0.008356595 0.02287063
0001c0 40 d0 c1 3c cc da 8e 3c a9 28 ba 3c aa 76 af 3c
       0.023658872 0.017438315 0.022724466 0.021418888
0001d0 94 46 4f 3c 05 10 82 bb 88 93 24 bc 30 b3 c5 ba
       0.0126511045 -0.003969195 -0.01004494 -0.0015083309
0001e0 3e 4f 0e 3c 50 bc c8 bb ca 43 c3 bb e3 ee 0a 3c
       0.008685885 -0.006125964 -0.005959009 0.008479807
0001f0 75 ec bb bb 89 ae 2b bc 7f 19 34 bc 46 c3 13 bc
       -0.005734975 -0.010478624 -0.010992407 -0.009018725
000200 2a 97 6d bb 40 c9 38 bc f2 f3 03 bc 05 22 4d bb
       -0.003625343 -0.0112784505 -0.008053767 -0.0031300795
000210 68 bc 3e bc 7d f7 42 bc 01 5d 08 bc 5e 37 0c 3b
       -0.011641599 -0.011899826 -0.008322955 0.0021395306
000220 7c 64 52 3c 7a 1e bb 3b d8 b3 9a 3b 00 35 15 3c
       0.01284134 0.00571042 0.004721146 0.0091068745
000230 ca a4 08 bb 79 78 34 3c 06 39 2e 3c e1 f1 da bb
       -0.0020850175 0.011015051 0.010633713 -0.0066816662
000240 f0 66 52 3c f3 99 ce 3b e8 55 41 3c b8 4c b4 3b
       0.012841925 0.0063049733 0.011800267 0.0055023097
000250 69 c2 39 bb bd 4a 1a 3a 74 39 15 3c d0 cf 0f 39
       -0.0028344637 0.00058857707 0.009107936 0.00013714959
000260 31 dd 81 3b 3c f2 cf bc b7 ca d1 bc e7 b0 91 bc
       0.0039631356 -0.025384061 -0.025609357 -0.017784549
000270 7b 28 c4 bc de 30 a3 bc 67 8c 6e bc 77 89 7f 3c
       -0.023945084 -0.019920763 -0.014559842 0.015596739
000280 85 e0 99 3c 1d a4 9e 3c 5e 20 2a bc a2 c6 07 bc
       0.018783817 0.019365365 -0.0103836935 -0.008287104
000290 02 15 2a bc 4d 77 79 3a 07 2b 17 bb b6 5e c2 bb
       -0.010380985 0.00095163734 -0.0023066418 -0.0059317006
0002a0 35 d8 5e 3b a7 e2 58 39 e9 6e a8 bb 34 99 0d bc
       0.003400338 0.000206838 -0.0051401746 -0.0086424835
0002b0 76 4e 23 bc a8 d9 13 bc 7b 52 4a bc 86 03 a5 bc
       -0.009967437 -0.009024061 -0.012348766 -0.020143282
0002c0 e2 a0 6f bc b3 d9 9f bc 64 b9 c1 bc 3c 6a 93 bc
       -0.01462576 -0.019512987 -0.023647971 -0.017994992
0002d0 f2 94 a1 39 78 a1 f7 b9 de 4e 60 3b 95 2d 64 3b
       0.00030819286 -0.00047231815 0.0034226696 0.0034817208
0002e0 14 05 04 3a bf c8 5c 3b 58 08 18 3b 66 33 98 ba
       0.0005036157 0.003368899 0.0023198333 -0.0011611998
0002f0 1b 53 43 3b db eb af 3c 31 32 e8 3c 96 f2 cc 3c
       0.0029804173 0.02147477 0.028344246 0.025018018
000300 33 ca 4a bb c0 ba 97 39 e9 97 53 3b f9 13 99 bc
       -0.0030943274 0.00028940104 0.003228659 -0.018686282
000310 c9 8e a2 bc d3 a9 75 bc 36 ab 49 bb 51 3e 2e bb
       -0.019843476 -0.0149941025 -0.0030772216 -0.0026587436
000320 f6 cc 88 3b a0 b9 8a 3b 64 86 9a b9 4c 23 c8 3a
       0.004174824 0.004233554 -0.00029473298 0.0015269308
000330 99 e7 cb 3b ac 9c 07 3b 30 b3 3b bb 05 87 ed 3b
       0.006222677 0.002069275 -0.002864074 0.0072487616
000340 24 e7 38 3c da bd 64 3c 3d 63 bc 36 3d 15 27 b8
       0.011285577 0.01396128 5.6143895e-06 -3.9835682e-05
000350 01 2d 7b 3a f7 e3 b0 ba 22 c6 0a bb 47 52 05 bb
       0.0009581596 -0.0013495673 -0.0021175225 -0.002034323
000360 03 be db ba ea 48 be 3a 45 e6 84 bb 69 f6 6e bc
       -0.0016765002 0.001451758 -0.0040557706 -0.014585116
000370 18 d1 c4 bb a2 8f 12 bc fe f8 62 bc 1e 4a 00 bc
       -0.006006371 -0.008945378 -0.01385331 -0.007830171
000380 b1 f5 56 bc f9 2c d1 bb b0 d5 45 bc a8 99 85 bb
       -0.013120101 -0.006383535 -0.012074873 -0.004077155
000390 1b 2f dc 3a dd 22 f9 ba 11 02 f0 3b eb ad ae 3b
       0.0016798706 -0.0019007582 0.007324465 0.005330791
0003a0 47 26 9a 3b a2 95 74 3c 25 32 61 3c e1 66 2f 3c
       0.00470427 0.014928253 0.013744866 0.010705681
0003b0 6d 60 00 3d f2 c9 d1 3b 09 e7 f6 3a c1 a0 c7 3c
       0.03134196 0.0064022476 0.0018837164 0.024368646
0003c0 6d 2d 91 3c 19 27 50 3c d4 2a f4 3c 7a 59 34 bc
       0.017721856 0.012704634 0.029805578 -0.011007661
0003d0 17 2e 85 bc 3e 27 73 bc d9 e5 65 bc 7d 5a 9d bc
       -0.016257329 -0.014840899 -0.014031851 -0.019208187
0003e0 4a e2 86 bc 8d ef 5e bc 98 a8 8b bc 54 ba 62 bc
       -0.016465325 -0.013606918 -0.017048165 -0.013838369
0003f0 4c 65 73 b8 a2 f1 f4 39 b2 9b 27 ba 8f 72 78 3a
       -5.8030055e-05 0.00046719337 -0.0006393745 0.000947752

1.bn2.weight f4 [64]
000000 cb de 02 3e 0e 3c 3c 3e d2 36 20 3f 91 fb df 3e
       0.12780301 0.18382284 0.6258365 0.43746617
000010 10 e7 de 3e a5 55 94 3d 42 cf f1 3d 7d fa 13 3f
       0.43535662 0.07242898 0.118071094 0.5780409
000020 fc 9e f0 3d 58 98 03 3e 47 98 b9 3f c5 8b e8 3e
       0.11749074 0.12851083 1.4499596 0.45419136
000030 56 93 0a 3e 89 4a 01 3f e2 fc 95 3e 38 a0 f0 3c
       0.13532767 0.50504357 0.29294497 0.029373273
000040 47 0f 2e 3f 31 2a cf 3e 52 f5 7b 3e 19 14 8c 3e
       0.6799206 0.40461877 0.24605301 0.27359083
000050 e9 ba 2a 40 fd c9 b6 3e e9 a1 c7 3c 27 0d 39 3f
       2.667658 0.3570098 0.024369197 0.72285694
000060 f1 99 a9 3e 50 d0 29 3f a2 14 aa 3c 00 02 dd 3f
       0.3312526 0.66333485 0.020761792 1.7266235
000070 99 a0 c2 3e 8f 3e 06 3f c8 10 c3 3d 8f 7c fa 3e
       0.3801315 0.52439207 0.09524685 0.48923156
000080 3e 40 8d 3d 65 d3 9f 3f cd f1 7d 3e d5 e2 ed 3e
       0.06897019 1.2486387 0.24799271 0.46462122
000090 e5 39 15 3f 35 c5 d4 3e 0b 0c be 3e ac 0f a9 3e
       0.58291465 0.41556707 0.37118563 0.3301977
0000a0 21 e9 c1 3e e6 5c 28 3f 07 af eb 3e e0 38 37 3f
       0.37873176 0.6576675 0.46031973 0.7157116
0000b0 53 4f 3a 3d 9f a4 96 3f cb 29 eb 3e 1d 2f 6f 3f
       0.045485806 1.1768988 0.45930323 0.93431264
0000c0 46 c6 65 3f 31 0a c4 3e 55 3b 8b 3e c2 a9 b2 3b
       0.89755666 0.38289025 0.27193704 0.0054523656
0000d0 f1 48 e8 3e cd bb e0 3e e0 b8 81 3e 42 22 e2 3e
       0.4536815 0.4389328 0.2533636 0.44166762
0000e0 82 7d f6 3f ef 95 f1 3e 8a 85 08 3e 3b 05 8c 3f
       1.9257052 0.47184703 0.13332191 1.0939096
0000f0 ac ba 1e 3d ce 94 50 3f 6c e1 1c 3e 45 01 95 3d
       0.038752243 0.8147706 0.15320367 0.07275633

1.bn2.bias f4 [64]
000000 f0 d3 66 bd 6d 38 35 bd 9e e5 8c bd d3 7f c6 3e
       -0.056354463 -0.044243265 -0.068797335 0.38769397
000010 47 c1 b2 3e 67 2f 75 bd a0 69 b1 bd b0 5c f6 3e
       0.34913084 -0.05985966 -0.086627245 0.4811759
000020 80 86 3b bd 1a c8 d3 bc 54 66 27 be 8b 0e 1e 3e
       -0.045782566 -0.025852252 -0.16347629 0.15435235
000030 03 a3 8f bd d3 d0 5c 3f 4b 6f 39 3e 1d 47 1b 3f
       -0.07013514 0.8625614 0.18108861 0.60655385
000040 f8 c3 b1 bd 4f bd 53 3d 1d c1 b0 bd 61 82 c3 3d
       -0.08679956 0.05169421 -0.086305834 0.09546352
000050 1c a7 2b 3c a9 74 18 be 6d 68 51 3e a2 74 79 3e
       0.010476854 -0.14888252 0.20449992 0.24360898
000060 3c ff 89 bc db b8 45 3e 54 8f c9 3d 3e 7f 6b bc
       -0.016845338 0.19308798 0.09841791 -0.014373599
000070 c7 a7 70 3c 15 59 c0 bc 09 73 92 3e 5b 69 76 3e
       0.014688439 -0.023479978 0.2860339 0.24063627
000080 01 b8 b3 bd df f7 27 3e 2f 7e 14 bd b3 4b 62 3e
       -0.0877533 0.16403149 -0.03625315 0.2209919
000090 05 db a8 bd 97 e4 0f 3e b8 e5 12 be e2 57 4e 3c
       -0.082449 0.14052044 -0.14345443 0.012594195
0000a0 42 94 73 3d 06 1b be bd bb 8e fc bd fe 98 63 bd
       0.05946756 -0.09282498 -0.12331911 -0.055565827
0000b0 1a 37 89 bc 2b d9 27 3d e3 87 0a 3b 33 b4 01 3e
       -0.016749907 0.040978592 0.0021138124 0.12666397
0000c0 dc af 03 3d d6 bc fb 3b 67 00 98 3d f1 d1 98 3e
       0.032150134 0.007682423 0.07421952 0.29847673
0000d0 ea f4 86 3d 58 94 f8 bc 18 00 e5 bd f3 40 7b bd
       0.065896824 -0.030344173 -0.111816585 -0.061341237
0000e0 9a ed eb bc 3f fa 1c be db c6 e6 3b e8 7b 9e be
       -0.02879982 -0.15329836 0.0070427484 -0.30953908
0000f0 46 69 0d 3c 61 87 b5 be 33 90 9a 3e 34 57 16 bd
       0.008631056 -0.35454848 0.3018814 -0.036704257

2.weight f4 [4, 64, 3, 3]
000000 e5 ac b9 3c 74 4c ce 3c a1 11 52 3d 7c fe f7 bb
       0.02266545 0.02518294 0.051286343 -0.0075681787
000010 e5 50 48 3c c2 43 91 3c 74 de 90 bc cd 10 a1 3b
       0.012226318 0.017732505 -0.017684199 0.004915333
000020 72 a7 ab 3c 2f 99 e6 3b 3b 69 c6 bc 08 f7 a7 bc
       0.020953868 0.007037304 -0.0242201 -0.020503536
000030 e2 2e 93 3c 05 cf ea 3c 04 da 1d 3d 8d 76 0c 3d
       0.017966691 0.028663168 0.038537994 0.034292746
000040 83 b5 b1 3d 31 cf a7 3d 6a e5 50 3d 13 36 87 3e
       0.08677199 0.081938155 0.051000036 0.26408443
000050 54 f9 46 3b 5e b4 db 3c 5f d3 c5 3e 65 44 c3 bc
       0.0030361013 0.026819404 0.38637826 -0.023836324
000060 3e de aa 3d bd 1c b2 3e 58 57 7a bd bb d8 82 3e
       0.083431706 0.3478755 -0.061118454 0.25555977
000070 ef f3 83 3e 76 d3 06 3e 4c 58 7e 3e 37 dc 38 3e
       0.25772044 0.13166603 0.2483837 0.18052755
000080 27 b8 c2 39 6d 48 95 3e 07 69 51 3e 75 c1 2f bd
       0.00037139768 0.2915682 0.20450221 -0.042909104
000090 40 51 4f 3e 41 36 8a 3e a0 36 eb 3d 2f 65 83 3e
       0.20245838 0.26994517 0.11485028 0.25663134
0000a0 4d 0a 84 3e 8f cc f2 3d 79 b7 36 3d e4 19 e7 bb
       0.2578911 0.11855423 0.044608567 -0.007052647
0000b0 13 5c c6 bd f7 f6 0c bd 83 72 af bc ac 2c df ba
       -0.096855305 -0.03441521 -0.021416908 -0.0017026863
0000c0 7a dc 6d bc 16 55 df 3b f9 50 b0 3c e3 af e0 ba
       -0.014517898 0.006815563 0.021522986 -0.0017142262
0000d0 ec 44 a0 3c 52 37 d2 3c 2d 16 f3 3b 52 76 c8 bc
       0.019564115 0.025661144 0.007418415 -0.024470482
0000e0 cb db c4 3b 45 d4 21 bd cf 5a 9b bd ae 71 46 bd
       0.0060076467 -0.039509077 -0.0758568 -0.048448257
0000f0 59 c5 94 bc 5f 37 1d bd ac 9f 33 bb 0c 1e c1 3e
       -0.018160509 -0.038382884 -0.0027408404 0.37718236
000100 e1 d7 44 3e e9 40 b4 3e 41 8d c5 3e 7c 9b 37 3e
       0.19222976 0.35205773 0.3858433 0.17930406
000110 95 37 a8 3e b8 14 d6 3e a9 f1 ff 3d 15 81 79 3e
       0.32854906 0.41812682 0.12497265 0.24365647
000120 53 a2 00 bd 58 4b 1b bd e7 29 91 bc 5d 44 95 bd
       -0.031404804 -0.03791365 -0.017720176 -0.0728843
000130 ae df 92 bd f8 6e 8a bd c0 20 78 3c 08 fd 05 3c
       -0.0717157 -0.06759447 0.015144527 0.008178003
000140 d2 dd a0 3b 2c e3 d4 bb 29 93 1d bd 59 24 31 bc
       0.0049092555 -0.0064968076 -0.03847042 -0.010811889
000150 dc a9 6a bd b8 99 36 bd 9d 90 3d bc 23 be 8f 3c
       -0.057290897 -0.04458019 -0.011570123 0.017546719
000160 26 6a 1e 3d 4d 2f 2f 3d d3 54 cb 3e 54 db f0 3e
       0.03867545 0.04276972 0.39713153 0.47042334
000170 09 7b c5 3e 7a 1e 1f 3d f6 37 ae 3c 2d 3e 46 bd
       0.3857043 0.038847424 0.021266919 -0.04839914
000180 64 b0 a4 be 6e 50 12 bf 3c ce c0 be 84 d7 45 3e
       -0.32165825 -0.57153976 -0.37657344 0.19320494
000190 0b 72 2f 3d 8c cf 5e 3e 40 14 0f be 30 75 a5 be
       0.04283337 0.2175886 -0.13972569 -0.3231597
0001a0 d1 1d 5c bd a2 50 e9 3d ec fb 2e bd fd 0a 86 3e
       -0.053739373 0.113923326 -0.04272072 0.26180258
0001b0 43 ea 79 3c 06 d3 d9 bb 1b 9d 76 3d b5 38 1d bb
       0.015253606 -0.0066474704 0.06020842 -0.00239901
0001c0 c1 de 8a 3c b2 61 9f 3d 5a c2 00 bd c6 89 80 bc
       0.01695192 0.07782306 -0.031435348 -0.015690695
0001d0 7e 37 3d 3d d1 5a ea 3e 63 ac c6 3e ad f1 de 3e
       0.0461955 0.45772412 0.38803396 0.4354376
0001e0 0f ae ba 3e ee 48 6a 3e c6 99 7b 3e 9c f4 da 3e
       0.3646092 0.22879383 0.24570379 0.42764747
0001f0 d8 13 98 3e 7c 0c 9a 3e 19 e9 a6 3d af 5f c6 3d
       0.2970264 0.3008765 0.081499286 0.09686219
000200 48 0b 85 3d 1f dd c6 3d aa 06 b3 3d 3e 4f 0e bd
       0.06496292 0.09710144 0.087415054 -0.03474354
000210 68 2d cf 3d 6e fe be 3d 73 a0 18 bd 95 98 87 3e
       0.101160824 0.09325872 -0.03726239 0.26483598
000220 1a 5b 44 3e 9a be 41 3e 67 5f 52 3e 46 35 1d 3e
       0.19175377 0.18920365 0.20544206 0.15352353
000230 39 10 25 3e dc ee f1 3d 7d ce 93 3d c3 0c a7 3d
       0.1611947 0.11813137 0.07217119 0.08156731
000240 c6 71 12 bc 1e 9b d5 3d 6f a7 f7 3d 53 32 e4 3d
       -0.0089382585 0.10429977 0.12092482 0.11142411
000250 f9 08 b0 bc be f0 92 bd 1b 8c 34 3e e1 d1 58 3d
       -0.021488653 -0.07174824 0.17631571 0.05293453
000260 7e b6 93 3c 41 ae 1d 3d 05 68 57 3e 4f f2 88 3d
       0.018031355 0.03849626 0.21035774 0.06686842
000270 18 1b 9e 3d 57 fd 35 3e 39 d9 71 bd 6a ed 7c 3d
       0.077200115 0.17772423 -0.05904505 0.061749853
000280 6e aa 0f 3e 49 72 9a bd ae 4f e9 bb 01 3e 2e bc
       0.14029858 -0.075413294 -0.0071200943 -0.0106349
000290 f2 e3 b1 bc a2 bc ac 3d ba f1 b4 3d ae fd 59 3d
       -0.021715138 0.08434416 0.08835168 0.053220443
0002a0 3f 11 0c 3d d4 8e aa 3d 81 4d ba 3c 4a 8c cf 3d
       0.034196135 0.083280236 0.022742035 0.1013418
0002b0 ec 09 46 bc 34 ea bc 3d db a6 75 3d 0d 83 1f bd
       -0.0120873265 0.09224358 0.05997358 -0.03894334
0002c0 78 19 a6 3d dd cb 32 3e 72 71 c8 3d 47 76 1c 3e
       0.081103265 0.1746058 0.09787263 0.15279494
0002d0 b7 57 b4 3c 91 42 47 3e 8c 1a e7 bd 92 db a3 be
       0.022014482 0.19458987 -0.1128436 -0.32003456
0002e0 28 53 d6 bd 38 a3 e1 3d 45 a9 be be 7d 2d 32 be
       -0.104650795 0.1101746 -0.37238517 -0.17400165
0002f0 1e 65 e3 bb 27 f0 f7 3b dd 7c a1 3d e6 7b 0d 3e
       -0.0069395443 0.00756647 0.07885144 0.13816795
000300 c9 15 c5 bd 02 99 69 bd 05 68 13 3d 10 b1 af 3b
       -0.09623296 -0.057030685 0.035987873 0.0053616837
000310 6b 60 97 3d 37 71 1d 3e ba 94 2f 3e 8d 3f f4 3d
       0.07391437 0.1537522 0.17146578 0.11926184
000320 35 d4 ec 3d 62 97 5e 3d 99 49 c8 3c ec d6 1f 3d
       0.11563913 0.05434359 0.024449157 0.039023325
000330 5c ef 2d 3c 0f 5c 4c bb 8e 06 73 bc 1d 78 9a 3e
       0.01061615 -0.00311828 -0.014833106 0.30169764
000340 41 00 14 3d c2 ae 58 3e 1a 70 d8 3d e4 16 9c be
       0.036133055 0.21160415 0.10568257 -0.30486214
000350 21 14 88 bd 1f 2c 16 3e 63 fa ae be b3 79 79 3c
       -0.06644464 0.14665268 -0.34175405 0.015226769
000360 c2 a2 a2 3d 5d d4 16 3e 98 26 22 3d ca e8 e9 3c
       0.079412 0.14729448 0.039587587 0.028553385
000370 cc 82 5d 3c 1d 56 73 bd aa fb 88 3d 8e 9c 08 bc
       0.013519954 -0.059408296 0.06688626 -0.008338107
000380 d9 74 8a bd 43 07 ed bc 90 6d 24 bc 66 2b 32 3e
       -0.06760568 -0.028934127 -0.010035887 0.17399368
000390 f4 d2 b9 3d 98 2a 83 3d 65 60 82 3e 5f 85 6d bc
       0.09073439 0.064046085 0.25464168 -0.01449713
0003a0 82 c9 41 be 93 15 c9 bd db 5a 05 3d 99 ba d5 3c
       -0.18924525 -0.09818568 0.03255735 0.026089953
0003b0 60 db 06 3d 34 0b 35 3d c1 44 96 3d 1e 39 63 3d
       0.032924056 0.044200137 0.073373325 0.055474393
0003c0 f8 56 36 3d 66 a6 a5 3c 1d c1 60 3c 80 ba ee 3d
       0.044516534 0.020220947 0.013717917 0.11656666
0003d0 6d 32 cb 3e 1a f6 a2 3e af 13 6e bd a4 19 ef 3d
       0.3968691 0.31828386 -0.05812424 0.116748124
0003e0 2b 02 92 3e 38 ec 1e bd d5 da 5a 3e 85 6a 38 3e
       0.2851728 -0.038799495 0.2137254 0.18009384
0003f0 56 af 83 3d 73 fe 6d 3d 79 6c 92 3c 79 cc 67 bd
       0.06429927 0.05810399 0.01787399 -0.056591485

2.bias f4 [4]
000000 14 12 ec 3d 72 7d a2 3e c6 75 83 bd e7 86 72 bb
       0.11526886 0.31736332 -0.06418948 -0.0037006678
