expert_target_aware/mocosflV2_ResNet18_cifar10_cut2_bnlC4S2_expert_batchsize128_ressfl_1.0_SSIM0.6_data_proportion_0.01_aux_cifar100/checkpoint_c_best.tar (torch, 316626 bytes, 11 tensors)

0.conv1.weight f4 [64, 3, 3, 3]
0	0x3bd5cac7	0.006524417
1	0xbd834602	-0.06409837
2	0xbdcc107e	-0.09964083
3	0x3d8d0a10	0.06886685
4	0x3d4c3c1f	0.049862023
5	0x3c67973d	0.014135179
6	0x3c1799fb	0.00925302
7	0x3bbb41d2	0.0057146335
8	0xbcda10a0	-0.026619256
9	0x3cfb5ba4	0.030683346
10	0x3cd0c760	0.025485694
11	0xbd1044d3	-0.035221886
12	0x3d138294	0.0360132
13	0x3dc65669	0.0968445
14	0x3d2d4f62	0.042312033
15	0xbdb6ef03	-0.089323066
16	0xbcae7b7c	-0.021299116
17	0xbd7ddda3	-0.061978947
18	0xbd336e55	-0.043806393
19	0x3d3835e1	0.044973258
20	0x3cf9c3df	0.030488906
21	0xbccae348	-0.02476658
22	0x3e1070b0	0.14105487
23	0x3e015419	0.12629737
24	0xbe48bb5b	-0.1960272
25	0xbd060edf	-0.032729026
26	0xbd073604	-0.033010498
27	0xbda20807	-0.07911687
28	0x3c17f0ac	0.009273689
29	0xbcc750fa	-0.024330605
30	0xbcf832af	-0.030297605
31	0x3ccb9b47	0.024854315
32	0xbcee0308	-0.02905418
33	0xbc57e591	-0.0131772915
34	0x3c7d5e3e	0.015464364
35	0xbd56467f	-0.052313324
36	0x3c8cceec	0.017188512
37	0x3c9f524c	0.019448422
38	0xbd51ffb2	-0.05126924
39	0x3db0c0de	0.086305365
40	0x3d798dd7	0.060926285
41	0xbce056b5	-0.027385095
42	0x3d8a57d6	0.067550346
43	0x3cf6fa54	0.030148663
44	0xbd8d53ed	-0.06900773
45	0x3d90296c	0.070391506
46	0x3c06b0b3	0.008220839
47	0xbdd82532	-0.105539694
48	0x3e0cd567	0.13753282
49	0x3d810739	0.06300206
50	0xbdaffcd5	-0.08593146
51	0x3dab2521	0.08356691
52	0x3c1531c6	0.009106105
53	0xbe0ad221	-0.1355672
54	0x3c643cd1	0.013930515
55	0x3d6295d6	0.055318676
56	0x3b875a3b	0.0041306294
57	0x3c3fc0ad	0.011703652
58	0x3ceed0d3	0.02915231
59	0x3c6ca211	0.0144429365
60	0xbd1e04a1	-0.038578633
61	0xbbb563c8	-0.0055355765
62	0xbb3ca0f0	-0.002878245
63	0xbcbc3f08	-0.022979274
64	0x3cae0f66	0.021247577
65	0xbd58f6be	-0.052969687
66	0xbc927b36	-0.017881017
67	0x3c41873e	0.011812029
68	0xbc8cc964	-0.017185874
69	0xbd132210	-0.035921156
70	0x3cb77e0a	0.022398967
71	0x3c1f670e	0.00972916
72	0xbdad9d2d	-0.084772445
73	0xbc8e1833	-0.017345523
74	0xbd9af08d	-0.07565413
75	0xbc8651cb	-0.016396424
76	0x3d422efa	0.04740808
77	0x3cda6fab	0.026664576
78	0xbc8baa84	-0.017049082
79	0x3d929aab	0.07158407
80	0x3d866004	0.06561282
81	0xbda8041c	-0.08203909
82	0xbd816bd4	-0.06319395
83	0xbdb561e3	-0.08856561
84	0xbd5c1e00	-0.053739548
85	0xbce022bc	-0.027360313
86	0xbd37a685	-0.04483654
87	0xbd9e8b22	-0.07741381
88	0xbd6bdb9d	-0.057582486
89	0xbdb86d00	-0.09005165
90	0xbc7a8a59	-0.015291774
91	0x3cfa9e83	0.030593162
92	0x3c219333	0.009861755
93	0x3d76906f	0.060196336
94	0x3de9ef5e	0.11422609
95	0x3dc8e074	0.09808436
96	0x3cf0270c	0.029315494
97	0x3d9cf9d8	0.076648414
98	0x3d16b55f	0.036794063
99	0xbc8c2e4a	-0.017111916
100	0x3c956999	0.01823883
101	0xbd043b0b	-0.03228287
102	0x3d1ef08c	0.038803622
103	0x3dc9e83f	0.098587506
104	0x3d4efbb9	0.05053303
105	0xbc8d90da	-0.017280985
106	0x3d0abe0c	0.03387265
107	0xbced7432	-0.02898607
108	0x3d80fe45	0.06298498
109	0xbda8b7f4	-0.08238211
110	0x3d192dc4	0.03739716
111	0x3e056ea0	0.13030481
112	0xbe1d8915	-0.15384324
113	0xbe1e6640	-0.15468693
114	0x3e8013cd	0.25015107
115	0xbc16ca2c	-0.009203475
116	0xbdbd39a1	-0.092395075
117	0xbe0abcce	-0.13548586
118	0x3ce286c3	0.02765215
119	0x3e3603e2	0.17774919
120	0xbd9588bf	-0.07301473
121	0xbd44cb1e	-0.04804527
122	0xbc11270c	-0.008859407
123	0x3d6444f9	0.05572984
124	0x3d42806f	0.047485765
125	0xbc87ade8	-0.016562417
126	0xbe1a0ed1	-0.15044715
127	0x3d447bdc	0.047969684
128	0x3e36ff87	0.17870913
129	0xbdc677ce	-0.0969082
130	0xbc923530	-0.017847627
131	0x3d0bb613	0.034109186
132	0xbb92178c	-0.0044583734
133	0x3ca5f410	0.02025798
134	0xbcd82b45	-0.02638782
135	0x3d81ccc3	0.06337883
136	0xbb82b97a	-0.0039893957
137	0x3e020ea5	0.12700899
138	0xbe082f55	-0.13299306
139	0xbe4397a3	-0.19100814
140	0x3d03f00f	0.03221136
141	0x3d0be3eb	0.034152906
142	0xbce15b72	-0.027509425
143	0x3ddf7fd9	0.10913057
144	0x3dccad07	0.0999394
145	0xbcdaa9df	-0.026692329
146	0x3d9fc1ff	0.07800674
147	0xbd8e5aa3	-0.06950881
148	0xbe3b1226	-0.18268642
149	0x3cf59022	0.029975954
150	0x3d386520	0.045018315
151	0xbd8cda79	-0.06877608
152	0x3d8fea3d	0.07027099
153	0x3cd0fe37	0.025511844
154	0x3be61850	0.0070219412
155	0x3da3c5a8	0.07996684
156	0xbdd314ab	-0.103066765
157	0xbe05bbfb	-0.1305999
158	0x3d35cfc0	0.04438758
159	0x3bddde41	0.0067708795
160	0xbc95db5c	-0.018293075
161	0x3dd1b38f	0.10239326
162	0x3b870f9d	0.0041217343
163	0xbdfce964	-0.12349203
164	0xbd3280ef	-0.043579992
165	0xbc895959	-0.016766237
166	0xbdc456ec	-0.095868915
167	0xbc6dce5c	-0.014514532
168	0x3de4e70c	0.11176881
169	0x3d9ce857	0.07661503
170	0x3dc5ddaa	0.0966142
171	0x3bf78d0c	0.007554656
172	0xbe2975ca	-0.16548839
173	0xbd9c2bf7	-0.07625573
174	0x3cdc1315	0.026864568
175	0xbe0a36d1	-0.13497473
176	0xbd8df0a3	-0.069306634
177	0x3e6ebff4	0.23315412
178	0x3de47f7b	0.111571275
179	0x3dab4bd7	0.08364075
180	0xbcc80d20	-0.024420321
181	0xbe1d3eec	-0.15356034
182	0xbd3fccf9	-0.046826337
183	0xbc2f05ce	-0.010682536
184	0xbe0c574e	-0.13705179
185	0xbd21abe8	-0.039470583
186	0x3e49ea25	0.19718225
187	0x3dd08f04	0.10183528
188	0x3dcf84b4	0.10132733
189	0x3e2bb88f	0.16769622
190	0xbc83e6b7	-0.016101224
191	0x3d72fe23	0.059324395
192	0xbdafd889	-0.08586223
193	0xbe530bd6	-0.20609984
194	0xbdbe99b3	-0.093066595
195	0x3dca596f	0.09880339
196	0xbaf206a9	-0.001846512
197	0x3dbe8592	0.0930282
198	0x3d5645b2	0.05231256
199	0x3d8f913d	0.07010124
200	0x3d415555	0.04720052
201	0xbdfa9248	-0.12234932
202	0xbd9f5494	-0.07779804
203	0xbd624088	-0.055237323
204	0xbc339b94	-0.010962386
205	0x3d22cff0	0.039749086
206	0x3d5cc59e	0.0538994
207	0x3e12f212	0.14350155
208	0xbc3a5104	-0.011371855
209	0xb9c96383	-0.0003841185
210	0xbd23ec47	-0.040020254
211	0xbe148562	-0.14504007
212	0xbd7d159e	-0.061788194
213	0x3d8bba01	0.06822587
214	0xbd004b73	-0.031321954
215	0x3d85f7fe	0.065414414
216	0x3d0ac7bb	0.033881884
217	0x3cb6e577	0.022326214
218	0x3d1b10ce	0.037857823
219	0xbd90c4a9	-0.0706876
220	0xbd7bd533	-0.06148262
221	0x3cc97f6a	0.024596889
222	0xbcc6b728	-0.024257258
223	0xbc6b3de0	-0.014358014
224	0x3d62d4a5	0.055378575
225	0x3d31248b	0.04324774
226	0xba0b9e9c	-0.0005326064
227	0xbb19615a	-0.0023403973
228	0xbcc1d128	-0.023659304
229	0xbd4351ef	-0.04768556
230	0x3cb912cf	0.022591976
231	0x3ced76a8	0.028987244
232	0x3c1e1443	0.009648385
233	0x3d8dd87e	0.06926058
234	0x3c18c6cc	0.009324741
235	0xbda48fec	-0.080352634
236	0xbdc1b0b2	-0.0945753
237	0xbb643203	-0.0034819848
238	0xbdae7508	-0.08518416
239	0xbd36e15c	-0.044648513
240	0x3dc95566	0.098307416
241	0x3cf7a322	0.030229155
242	0x3d8a7068	0.06759721
243	0xbd2b9bfd	-0.04189681
244	0xbe12896a	-0.14310232
245	0x3b8a34e2	0.00421773
246	0xbd28c97d	-0.04120778
247	0xbe11fe52	-0.14257172
248	0xbb11af2a	-0.002222965
249	0x3db33309	0.087499686
250	0xbb77b143	-0.0037794865
251	0x3e0d29fc	0.13785547
252	0xbd05b0ef	-0.03263944
253	0xbcad92a8	-0.021188095
254	0xbc1d472c	-0.009599488
255	0xbcc88275	-0.02447627

0.bn1.weight f4 [64]
0	0x3e1edcf6	0.15513977
1	0x3e2edc1b	0.17076151
2	0xbc764e0b	-0.015033255
3	0x3dc5587d	0.096360184
4	0x3ec238cf	0.37933967
5	0x3e308e62	0.17241815
6	0x3e3707e7	0.17874108
7	0x3e4830b7	0.19549833
8	0x3e1ac414	0.1511386
9	0x3d81daff	0.06340598
10	0x3cd5d5f1	0.026102992
11	0x3e041a60	0.12900686
12	0x3ea47bf6	0.32125825
13	0xbcef6946	-0.029225003
14	0x3e9467d7	0.28985474
15	0x3e8c34c4	0.27384007
16	0x3da68708	0.08131224
17	0x3e8960c7	0.26831648
18	0x3d6f2ee2	0.05839432
19	0x3e2121ff	0.15735625
20	0xbb8b2069	-0.004245807
21	0x3e83847c	0.25687015
22	0x3e6ade27	0.22936307
23	0x3deea294	0.11652103
24	0x3e54630c	0.20740908
25	0x3e4b7a38	0.19870842
26	0x3ea77e8f	0.32713744
27	0x3d54ecfa	0.05198381
28	0x3e010866	0.1260086
29	0x3e0cbd8c	0.13744181
30	0x3d904491	0.07044328
31	0x3d78c6bc	0.060736403
32	0x3e9632cc	0.2933563
33	0x3dd6917b	0.10476967
34	0xbc9e48ca	-0.019321818
35	0x3e468974	0.19388372
36	0x3ecb5575	0.39713636
37	0x3ec964a7	0.39334604
38	0x3eb77fd2	0.35839707
39	0x3ec5e7b2	0.38653332
40	0x3e9f855d	0.31156436
41	0x3e68cad0	0.22733617
42	0x3837263a	4.36662e-05
43	0x3e533d9f	0.20628975
44	0x3e6a76ce	0.22896883
45	0x3efc5604	0.49284375
46	0x3cfc85d3	0.030825531
47	0x3e78fff1	0.24316384
48	0x3e6f8451	0.23390318
49	0x3eaf7135	0.34266058
50	0x3e3d5d07	0.18492518
51	0xbc9cb657	-0.019129915
52	0x3b4d962f	0.0031370034
53	0x3ded6d43	0.11593106
54	0x3e0831c2	0.13300231
55	0x3c82da88	0.015973344
56	0x3e70f637	0.23531424
57	0xbd19f9b4	-0.03759165
58	0x3eaba5d1	0.33524945
59	0x3e52ea4f	0.20597194
60	0x3e07338b	0.13203256
61	0xbda8cedc	-0.0824258
62	0x3d958ad3	0.07301869
63	0x3dd75240	0.10513735

0.bn1.bias f4 [64]
0	0x3e1d9f98	0.15392911
1	0x3d7957cd	0.06087475
2	0x3e0fb676	0.14034447
3	0x3da02bdb	0.07820865
4	0x3d695b6f	0.056971963
5	0x3dc4f330	0.09616697
6	0x3dadd402	0.08487703
7	0x3da3ccf8	0.07998079
8	0x3d80a4b4	0.06281415
9	0x3e486228	0.19568694
10	0x3dbe93f7	0.09305566
11	0xba4e5fba	-0.0007872541
12	0xbd71ef90	-0.059066355
13	0x3e3d6b4b	0.1849796
14	0x3c97f24a	0.01854815
15	0x3d1961f1	0.03744692
16	0x3e683aae	0.22678635
17	0x3cbf2147	0.023331298
18	0x3e21f938	0.15817726
19	0xbd33fae0	-0.043940425
20	0x3dfccb91	0.12343515
21	0x3d0fe201	0.035127643
22	0x3c59e0ae	0.013298197
23	0x3e324a88	0.17411244
24	0x3dda75a1	0.10666967
25	0x3d773b0b	0.060359042
26	0x3e100710	0.14065194
27	0x3e0d2873	0.13784961
28	0x3e3119b8	0.17294967
29	0x3d66f1fd	0.05638312
30	0x3e00a3fa	0.12562552
31	0x3e542a6d	0.20719309
32	0xbcca725f	-0.02471274
33	0xbe69ec95	-0.22844155
34	0x3e225e9f	0.15856408
35	0x3d5125d1	0.051061455
36	0x3b9b03c1	0.004730672
37	0x3c3e5d15	0.011618872
38	0x3dcb5b31	0.09929503
39	0x3b99ca42	0.0046933005
40	0xbd65f671	-0.056143228
41	0x3d3261e9	0.043550406
42	0xba8bf6c6	-0.0010678403
43	0xbe351d91	-0.1768706
44	0x3c43d769	0.011953213
45	0x3dce2c7e	0.1006708
46	0x3e13fcb3	0.14451866
47	0x3de0eb7b	0.10982414
48	0x3da3abb1	0.07991732
49	0x3bae3d63	0.0053173765
50	0x3e00f823	0.12594657
51	0x3df419a8	0.11918956
52	0xbcd51bd1	-0.02601424
53	0x3caa270e	0.020770576
54	0x3d45bbbd	0.048274744
55	0x3e26de33	0.162957
56	0x3c94eb81	0.018178703
57	0x3e2d6253	0.16932039
58	0xbd0a4815	-0.03376015
59	0x3e181def	0.14855169
60	0x3e5992a8	0.21247351
61	0x3e6427d8	0.22280824
62	0x3ddb641f	0.10712456
63	0x3d369a9a	0.044581033

1.conv1.weight f4 [64, 64, 3, 3]
0	0xbcec70ca	-0.028862376
1	0x3c3729b3	0.011179375
2	0x3c89036f	0.01672527
3	0xbd207fc0	-0.039184332
4	0x3c65e01d	0.014030484
5	0x3cae0c6d	0.02124616
6	0xba67601c	-0.0008826272
7	0x3ca77145	0.020439753
8	0x3b794070	0.0038032793
9	0xbbdcaa1e	-0.0067341467
10	0x3be0e044	0.006862672
11	0xbbb4451b	-0.005501402
12	0x3ba5cb03	0.0050596013
13	0xbc7b7a57	-0.015348992
14	0xbd3562e1	-0.04428375
15	0x3c43c4cb	0.011948775
16	0x3c617932	0.013761805
17	0xbd0eca57	-0.034860935
18	0xbd14c065	-0.036316294
19	0x3be9aa0a	0.007130866
20	0xbc3fac70	-0.011698827
21	0xbc90ec4e	-0.017690804
22	0x3c9f36be	0.019435283
23	0x3bb04184	0.005378904
24	0x3c22c1dd	0.009933916
25	0x3d3257cf	0.043540772
26	0x3cbf899c	0.023381047
27	0xbb4448e4	-0.0029950673
28	0xbb916b19	-0.004437816
29	0x3b73c4fe	0.0037196274
30	0xbca4d19c	-0.02011948
31	0xbc8b2d65	-0.01698942
32	0xbc3d9829	-0.011571922
33	0x3a122957	0.0005575618
34	0xbb483aaf	-0.0030552556
35	0xbc81332a	-0.015771467
36	0xbd39601c	-0.045257673
37	0x3aa18cb2	0.0012325256
38	0xbcdf1c60	-0.02723521
39	0xbd3ec469	-0.04657403
40	0x3c658681	0.014009119
41	0xbcc1c2b8	-0.02365242
42	0xbd0a2f9d	-0.033736814
43	0x3cf5e9c6	0.030018698
44	0xbc199112	-0.009372966
45	0xbc5db13f	-0.013531028
46	0x3c07d99e	0.00829163
47	0xbd0fc654	-0.03510125
48	0xbb78fda0	-0.003799297
49	0xbbcb6b2b	-0.006207844
50	0xbceb4541	-0.028719546
51	0xbc8b10fd	-0.016975874
52	0xbb3cebbe	-0.0028827037
53	0xbc3483f7	-0.011017791
54	0xbcbf2f95	-0.023338119
55	0xbc39494e	-0.011308981
56	0xbd05fa22	-0.03270925
57	0xbc9c3f38	-0.019073114
58	0xbc90a6e9	-0.017657714
59	0xbca49a2e	-0.02009305
60	0xbc2e4541	-0.010636629
61	0x3bd41499	0.006472182
62	0x3b941fb3	0.0045203804
63	0x3c6a603d	0.014305172
64	0xbaa3c079	-0.0012493274
65	0xbce2be18	-0.027678534
66	0xba005be7	-0.0004896507
67	0xbca2978c	-0.019847654
68	0xbd0a521e	-0.03376972
69	0xbc94bde4	-0.018156953
70	0xbc2b521e	-0.01045659
71	0xbc6cfe7f	-0.0144649735
72	0xbcc84ac9	-0.024449723
73	0x3b166bd6	0.0022952459
74	0xbcdedcc8	-0.027204886
75	0xbc3f5fb2	-0.01168053
76	0x3bb4ec55	0.005521337
77	0xbc6e61b6	-0.014549663
78	0xbb95ce4d	-0.004571712
79	0x3c9bddde	0.019026693
80	0x3be05547	0.0068461034
81	0x3c802bd1	0.015645893
82	0x3d322643	0.04349352
83	0x3bcbf916	0.0062247617
84	0x3b89e0d9	0.004207712
85	0x3d24f69b	0.040274244
86	0x3c04f6b1	0.008115456
87	0x3bdb523a	0.006693152
88	0x3d0d72b7	0.03453323
89	0x3a712974	0.00091995974
90	0xbcb20982	-0.02173305
91	0x3b827075	0.003980691
92	0xbc859295	-0.016305247
93	0xbd055547	-0.03255203
94	0xbbac81b5	-0.0052644857
95	0xbc89eeee	-0.016837563
96	0xbcd98355	-0.026551882
97	0x38c5a1b8	9.4238145e-05
98	0xbc30e467	-0.010796643
99	0xbc7d1cf8	-0.015448801
100	0xbd16b02e	-0.03678911
101	0xbc3500ac	-0.0110475235
102	0xbcf0df30	-0.0294033
103	0xbd3dfed0	-0.046385586
104	0xbc7f0290	-0.015564576
105	0xbcab8f00	-0.020942211
106	0xbcfedb76	-0.031110507
107	0x3a80e421	0.0009833613
108	0xbd310906	-0.043221496
109	0xbd8e0b0f	-0.06935703
110	0xbd758fe4	-0.059951678
111	0xbd05ed61	-0.032697085
112	0xbd45fe7a	-0.04833839
113	0xbd0ed66d	-0.03487246
114	0xbcc237a9	-0.023708181
115	0xbcfbb2cb	-0.030724904
116	0xbc70052d	-0.0146496715
117	0xbd1784ec	-0.036992
118	0x3ccd1787	0.025035633
119	0xbcd2efbc	-0.02574908
120	0xbc8881a1	-0.016663374
121	0x3d24a571	0.04019684
122	0xbc189b40	-0.009314358
123	0x3a171d0f	0.0005764523
124	0x3d72f100	0.059311867
125	0x3bb76d88	0.005597774
126	0x3bc226a8	0.0059250183
127	0x3c0fd631	0.008779095
128	0x3bd15b13	0.0063890307
129	0xba859cc9	-0.001019382
130	0xbd0c444d	-0.034244824
131	0xbbf308cc	-0.00741682
132	0xbb7b9ee3	-0.0038394264
133	0xbbaa5477	-0.0051980573
134	0xbc829216	-0.0159388
135	0x3d357519	0.044301126
136	0x3d018168	0.031617552
137	0x3c9ffa08	0.019528404
138	0x3cb15039	0.021644698
139	0xbae4b5e0	-0.0017449223
140	0x3bd0597d	0.006358324
141	0x3cd9b351	0.026574763
142	0xbc7fc7da	-0.015611613
143	0xbcbd516c	-0.023110114
144	0xbd65d1f6	-0.056108437
145	0x3cce01e5	0.025147388
146	0xbd853d9d	-0.065058924
147	0x3c56ac21	0.013102562
148	0x3dbdb666	0.09263305
149	0x3b89b35c	0.0042022895
150	0x3cde56d6	0.027141016
151	0x3de7b8cc	0.11314544
152	0x3d29a0f4	0.041413262
153	0xbd4219d5	-0.047387917
154	0x3b207623	0.0024484477
155	0xbd591315	-0.052996714
156	0x3bd81535	0.006594325
157	0x3d76a5d4	0.06021674
158	0xba9e9559	-0.0012098952
159	0x3b391595	0.0028241624
160	0x3d7a7654	0.061148003
161	0x3c932ccc	0.017965697
162	0xbd16ab28	-0.03678432
163	0x3ca2849f	0.01983863
164	0xbc53b5ff	-0.012921809
165	0xbc848f6e	-0.016181674
166	0x3d0cdaee	0.034388475
167	0xbb4edb70	-0.00315639
168	0x3ae63497	0.001756328
169	0x3d5f79d1	0.054559533
170	0x3c22be1c	0.009933021
171	0xbd503968	-0.050835997
172	0xbc8931b9	-0.016747342
173	0xbd1fde34	-0.03903027
174	0xbd630bbb	-0.05543111
175	0xbcd1b417	-0.025598569
176	0xbd1e961c	-0.038717374
177	0xbd5c387e	-0.053764813
178	0xbcb485a3	-0.02203638
179	0xbcdd5f05	-0.027022848
180	0xbcbac58c	-0.022799276
181	0x3cd10091	0.025512965
182	0xbc231a60	-0.009955019
183	0xbb98fc9f	-0.0046687867
184	0x3d23b04f	0.039963063
185	0x3c05cf44	0.008167092
186	0x3be2f7a1	0.0069264923
187	0x3d5659e9	0.05233184
188	0x3cb085cd	0.021548176
189	0xbc767cb8	-0.015044384
190	0x3c7e56fe	0.01552367
191	0xbcd1b373	-0.025598263
192	0xbcc0062e	-0.023440447
193	0x3bc51722	0.0060147205
194	0xbd03c261	-0.032167796
195	0xbc255e0a	-0.010093221
196	0x3cc5a7f5	0.02412794
197	0xbc143555	-0.0090459185
198	0xbc6bf526	-0.01440171
199	0x3cf4105d	0.029792959
200	0xbc97c0b3	-0.018524503
201	0x3aa4fa4d	0.0012586802
202	0x3c1183fe	0.008881567
203	0xbcf08b16	-0.029363196
204	0x3d3ded10	0.04636866
205	0x3d6fe2b2	0.058565803
206	0xbc89f934	-0.016842462
207	0xbdac0f63	-0.08401372
208	0xbc6cdfd0	-0.014457658
209	0xbd93cfb0	-0.072173476
210	0xbc55da02	-0.013052465
211	0x3d592646	0.053015016
212	0xbc5559e2	-0.013021918
213	0x3d01729f	0.03160345
214	0x3de1438b	0.10999211
215	0x3d1b0646	0.03784778
216	0xbdcc91db	-0.09988757
217	0xbb72af7c	-0.0037030866
218	0xbe083f0e	-0.13305303
219	0x3d073624	0.033010617
220	0x3e06858c	0.13136882
221	0xbbe06c85	-0.006848874
222	0x3d2b5ea7	0.041838314
223	0x3e22c66f	0.15896009
224	0x3d21a986	0.03946831
225	0x3b48e203	0.0030652292
226	0x3ce341f3	0.027741408
227	0xbc50791a	-0.012724185
228	0x3b9da7e1	0.0048112725
229	0x3cf6aef3	0.03011272
230	0x3d06faf1	0.03295416
231	0x3cc20ca7	0.023687674
232	0x3d54b663	0.05193175
233	0x3d0b2b0a	0.033976592
234	0xbb09f9b9	-0.0021053387
235	0xbd0b696b	-0.03403608
236	0xbbd5488e	-0.0065088933
237	0x3c8e1489	0.017343776
238	0xbcfdd11d	-0.030983502
239	0x3affc13d	0.0019512546
240	0x3d699220	0.05702412
241	0x3cffca78	0.031224474
242	0x3cf71296	0.03016023
243	0xbce2b126	-0.027672362
244	0xbbcebdd0	-0.0063092485
245	0xbc77d080	-0.015125394
246	0xbc8e8203	-0.017395979
247	0xbb3eab8e	-0.0029093954
248	0xbc33ac41	-0.0109663615
249	0x3c46645a	0.012108887
250	0x3cab2c25	0.020895073
251	0xbbe846f4	-0.0070885364
252	0x3a2bda3f	0.00065556535
253	0x3d29246a	0.041294493
254	0x3d2f0587	0.04272988
255	0xbc65c275	-0.014023413

1.bn1.weight f4 [64]
0	0x3ecf31e9	0.40467766
1	0x3e4d51e2	0.20050767
2	0x3ece0221	0.40236
3	0x3e0cf0a6	0.13763675
4	0x3e6c6f7d	0.23089404
5	0x3e3da411	0.18519618
6	0x3e727502	0.23677447
7	0x3e7663d1	0.24061514
8	0x3e3385e7	0.17531548
9	0x3e74c439	0.23902978
10	0x3e85a97f	0.26105878
11	0x3e90b2be	0.2826137
12	0x3e41d3e0	0.1892848
13	0x3e6c5579	0.2307948
14	0x3eaddb85	0.33956543
15	0x3ea8505b	0.32873806
16	0x3d8e850f	0.06958973
17	0x3e463481	0.19355966
18	0x3e1d59ee	0.15366337
19	0x3e45656a	0.19276968
20	0x3e9f7619	0.3114479
21	0x3e3c9932	0.18417814
22	0x3f245f36	0.6420778
23	0x3e920f07	0.2852709
24	0x3ec6c55a	0.38822442
25	0x3e71fc56	0.23631415
26	0x3ec7be45	0.39012352
27	0x3e347aec	0.17625016
28	0x3e431d3e	0.19054124
29	0x3e67a1e4	0.2262035
30	0x3e42f928	0.19040358
31	0x3e4ea6b8	0.20180786
32	0x3e7add2e	0.24498436
33	0x3e7e36c0	0.24825573
34	0x3db234d1	0.0870148
35	0x3e4c24dd	0.19935937
36	0x3e9320cb	0.28735957
37	0x3ea06109	0.31324032
38	0x3e0253f4	0.12727338
39	0x3dfc9842	0.123337284
40	0x3e9560dc	0.2917546
41	0x3e68cc3b	0.22734158
42	0xbd20860e	-0.039190345
43	0x3ea76700	0.3269577
44	0x3de3a4b4	0.11115399
45	0x3e5c8ae7	0.21537362
46	0x3ee9d290	0.4566846
47	0x3e7d103f	0.24713229
48	0x3eb360fa	0.35034925
49	0x3e7afd93	0.24510793
50	0x3eae9792	0.34100014
51	0x3e97ab45	0.29622856
52	0x3e8bac8c	0.2728008
53	0x3f15b8f0	0.5848532
54	0x3e3b0fc8	0.18267739
55	0x3e341700	0.17586899
56	0x3ded10db	0.115754806
57	0x3ea22b9f	0.31673905
58	0x3e76608c	0.24060267
59	0x3eca43c0	0.39504814
60	0x3e5d0410	0.21583581
61	0x3e6156d6	0.22005782
62	0x3e5eba30	0.21750712
63	0x3e4dcd9d	0.20097966

1.bn1.bias f4 [64]
0	0xbd970e45	-0.073757686
1	0x3de927ab	0.11384519
2	0xbe34bf2f	-0.17651056
3	0x3db6c736	0.08924715
4	0x3d571c79	0.052517388
5	0x3e21d821	0.15805103
6	0xbd97f020	-0.07418847
7	0x3dfc9cd9	0.12334604
8	0x3d3d9492	0.046284266
9	0xbe0dc3e8	-0.13844264
10	0xbd9e513e	-0.077303395
11	0xbe2d8316	-0.16944537
12	0xbd2c223e	-0.042024843
13	0x3d9b626d	0.075871326
14	0x3c1a6eb0	0.009425804
15	0xbd9cd815	-0.07658402
16	0x3e1b01be	0.15137383
17	0xbe0577a3	-0.13033919
18	0x3e291f82	0.16515926
19	0x3e152a68	0.14566958
20	0xbd3e3e71	-0.046446268
21	0x3d04e378	0.032443494
22	0xbddd03a7	-0.10791712
23	0xbd2603e9	-0.040531073
24	0xbe24f65c	-0.16109604
25	0xbd37bf32	-0.044860072
26	0xbe5d43ac	-0.21607846
27	0xbdaf2f41	-0.08553935
28	0x3d0fb14b	0.03508119
29	0xbd81b5ae	-0.06333481
30	0xbccfb29c	-0.025353722
31	0x3d99f565	0.075175084
32	0xbd9bf2fe	-0.076147065
33	0x3da96ff9	0.0827331
34	0x3d1b396a	0.03789655
35	0xbd6ea1c6	-0.058259748
36	0xbb680925	-0.0035405841
37	0x3cf8b373	0.030359006
38	0xbda9ef18	-0.08297557
39	0xbd777ce0	-0.060421824
40	0xbe2c40c0	-0.16821575
41	0x3e11ce9d	0.14238973
42	0xbd7946e0	-0.060858607
43	0x3c4fb4ae	0.012677355
44	0xbd99c717	-0.075086765
45	0xbda82da7	-0.082118325
46	0xbe22b8b6	-0.15890774
47	0xbe31ecd9	-0.17375506
48	0xbe793a72	-0.24338701
49	0xbd762240	-0.060091257
50	0xbe288d70	-0.16460204
51	0xbd511750	-0.051047623
52	0xbd7d3f3e	-0.06182789
53	0xbda9fae7	-0.08299809
54	0xbbffc538	-0.0078054927
55	0xbd3ea903	-0.0465479
56	0x3de12ecf	0.10995256
57	0x3d35203a	0.044220187
58	0x3dbe6c6a	0.09298022
59	0xbcb5b3af	-0.022180406
60	0xbd8bf1a8	-0.06833202
61	0x3c0055a6	0.00783292
62	0x3e20314f	0.1564381
63	0x3d344231	0.044008438

1.conv2.weight f4 [64, 64, 3, 3]
0	0x3c9ce895	0.019153873
1	0x3b8d93b0	0.0043205842
2	0x3ab0eb96	0.0013497944
3	0x3d0e2535	0.034703452
4	0x3c875756	0.016521137
5	0x3c571b74	0.013129104
6	0x3cb905a2	0.022585694
7	0x3b8c19f4	0.004275555
8	0x3b127b0b	0.0022351171
9	0xbb8723fa	-0.004124162
10	0xbca05612	-0.019572292
11	0xbc1ae990	-0.0094551
12	0xbbb1ff01	-0.00543201
13	0xbcb64c7b	-0.022253266
14	0xbc63d86b	-0.0139065785
15	0x3c17c82f	0.009264036
16	0xbbe3417e	-0.0069352975
17	0xba939266	-0.001125884
18	0xb9d078fa	-0.00039762986
19	0x3c660f5f	0.014041751
20	0x3c84d2f1	0.016213866
21	0xbbaa38ef	-0.0051947753
22	0x3bd4d1e0	0.0064947456
23	0x3c0d4c43	0.008624139
24	0xbb86bb89	-0.0041117114
25	0x3ba933e2	0.0051636556
26	0x3c01cd47	0.007922477
27	0xbb11f8c8	-0.002227353
28	0x3c103b5b	0.008803214
29	0x3b82c8f1	0.0039912392
30	0xbc531431	-0.012883232
31	0x3a3864f6	0.00070340873
32	0x3a0d5ce6	0.0005392566
33	0xbc0aa2c7	-0.008461661
34	0x3ba64a2e	0.005074761
35	0x3b831c6a	0.00400119
36	0xbae15873	-0.0017192498
37	0x3ae20571	0.0017244053
38	0x3cbe2273	0.023209786
39	0x3bdbde89	0.006709878
40	0xba8053bc	-0.000979058
41	0x3bc8c5e5	0.0061271065
42	0x3cd39155	0.025826136
43	0x3ac3b70b	0.001493187
44	0xbb08ede2	-0.0020893742
45	0x3c353176	0.011059156
46	0x3c4b4abb	0.012407954
47	0x3cb32268	0.021866992
48	0xb9654927	-0.00021866393
49	0xbc2158fe	-0.009847878
50	0xbb4bfe1f	-0.003112681
51	0x3c6f6400	0.014611244
52	0xbc633997	-0.013868711
53	0xbbf86181	-0.0075799827
54	0xbc56ec99	-0.013117933
55	0xbbf2da18	-0.0074112527
56	0x3b7d41e3	0.0038644008
57	0xbc519531	-0.012791918
58	0xbcb71b5d	-0.022351915
59	0xbc4b95b1	-0.012425826
60	0xbd0a87a9	-0.03382078
61	0xbd2b6b41	-0.041850332
62	0xbcacd8e0	-0.021099508
63	0x3b1ec901	0.0024228694
64	0xbaa68cf4	-0.0012706802
65	0xbbe308fc	-0.0069285613
66	0x3bd57fea	0.0065154927
67	0xbad61a48	-0.0016334737
68	0xbbe2fd6a	-0.006927182
69	0x3c421036	0.011844685
70	0x3c3d9f49	0.011573621
71	0x3cabe70f	0.0209842
72	0x3c905f2a	0.017623503
73	0xbb268cfc	-0.0025413623
74	0xbaa63801	-0.0012681485
75	0x3b995334	0.004679108
76	0xbb89c02f	-0.0042038183
77	0x3b79dc71	0.0038125778
78	0xbc95c4d6	-0.018282335
79	0xbcce668c	-0.025195383
80	0xbc380300	-0.011231184
81	0xbb9eafce	-0.004842735
82	0xbb421825	-0.0029616442
83	0xba52c289	-0.0008039852
84	0x3b4c57db	0.0031180296
85	0xbbbdab4f	-0.005788244
86	0x3ba421cf	0.005008913
87	0x3becec7d	0.00723034
88	0x3b747b2e	0.0037304866
89	0x3c2b595a	0.010458315
90	0xbc432f48	-0.011913128
91	0xbc3a7a35	-0.0113816755
92	0xbb433146	-0.0029784008
93	0xbac127cd	-0.0014736593
94	0x3b2d689e	0.0026460062
95	0x3c5396a9	0.012914338
96	0xbbb23211	-0.0054380973
97	0x3bce2660	0.0062911958
98	0x3c6fadba	0.014628822
99	0xbc607453	-0.013699609
100	0x3b2a52e0	0.0025989339
101	0xbaef0bb6	-0.0018237743
102	0xbc10db51	-0.008841352
103	0x3c1cec4a	0.00957782
104	0xba59d6aa	-0.00083098805
105	0xbd1f2d39	-0.038861487
106	0xbc3a31cc	-0.011364412
107	0xbc5916c6	-0.0132500585
108	0x3b90eb85	0.0044226074
109	0x3bb7f8b0	0.0056143627
110	0x3c53c2aa	0.0129248295
111	0x3bd45b80	0.006480634
112	0x3b91cfdb	0.004449827
113	0x3c3292b7	0.010899237
114	0x3b8540cc	0.0040665623
115	0x3b61ba4f	0.0034443324
116	0x3c1a54cc	0.009419631
117	0x3d0b6cdd	0.034039367
118	0x3d1ac119	0.03778181
119	0x3d1cda94	0.03829439
120	0x3ca8e425	0.0206166
121	0x3ca77030	0.020439237
122	0x3d02d297	0.031939115
123	0x3c027104	0.007961515
124	0x3c2c9979	0.010534638
125	0x3cdf732d	0.0272766
126	0xbbd0d591	-0.0063731153
127	0x39ab4800	0.00032669306
128	0x3c43a282	0.0119406
129	0x3a15f5b0	0.0005720509
130	0x3c65a821	0.014017136
131	0x3c9a9dcd	0.018874073
132	0xba98617d	-0.0011625733
133	0x3c3397c4	0.010961477
134	0x3c16919f	0.009189992
135	0xbcad4e48	-0.021155491
136	0xba3108f6	-0.00067533494
137	0x3bacb1c5	0.005270215
138	0xbcaa015c	-0.020752601
139	0xbbaf0c25	-0.005342024
140	0x3ba855f4	0.0051371995
141	0xbccd3021	-0.025047364
142	0xbc61c151	-0.013779
143	0xbb825bdc	-0.0039782356
144	0xbbdef131	-0.0068036546
145	0xbb816337	-0.003948595
146	0xbc2fce94	-0.010730404
147	0xbba63c9d	-0.0050731436
148	0xb9a9a35e	-0.0003235591
149	0xbbe14060	-0.006874129
150	0xbb99b1a6	-0.004690367
151	0x3b40e292	0.0029431921
152	0xba2cd1d9	-0.0006592549
153	0x3bf4a2dd	0.007465704
154	0x3c98fba5	0.018674681
155	0x3cf1a943	0.029499656
156	0x3bfbae0c	0.00768066
157	0x3c5bb3e5	0.013409589
158	0x3cc579c0	0.024105906
159	0x3b39f2ab	0.00283734
160	0x3c220430	0.009888694
161	0x3c9bb972	0.019009326
162	0xbc1ac22b	-0.009445707
163	0x3bb65c19	0.005565178
164	0xbbff4e3b	-0.007791308
165	0xbc14d572	-0.009084092
166	0x3c82d1f8	0.015969262
167	0x3be0dbba	0.006862131
168	0xbc32ea2c	-0.010920089
169	0x3bd54f0c	0.0065096673
170	0xbbcf7a53	-0.006331721
171	0xbcc92201	-0.024552347
172	0xbd2ad29f	-0.04170477
173	0xbd1b7d8f	-0.03796154
174	0xbc2f20e0	-0.01068899
175	0xbd00ea53	-0.03147347
176	0xbcce5bcb	-0.025190255
177	0x3b380fc4	0.002808557
178	0xbc8e64de	-0.017382082
179	0xbc737d16	-0.014861366
180	0x3c90a0cc	0.017654799
181	0x3b62d33e	0.0034610773
182	0x3c3cd1b9	0.011524611
183	0x3c719461	0.014744849
184	0x3b827052	0.003980675
185	0x3c143ac1	0.009047211
186	0x3bd6daeb	0.006556859
187	0x3c04f99d	0.008116153
188	0x3c52c82c	0.0128651075
189	0xbc7db570	-0.015485153
190	0xbc89be9e	-0.016814526
191	0xbc1eee99	-0.009700441
192	0xbb2bad11	-0.0026195685
193	0xbbb66570	-0.0055662915
194	0xbb548eca	-0.0032433742
195	0x3b9659f4	0.00458836
196	0x3b6ec324	0.003643223
197	0xbb1b120f	-0.0023661887
198	0xbc8cedba	-0.0172032
199	0xbc0988d2	-0.008394437
200	0xbc76ff37	-0.015075496
201	0xbc7b258c	-0.015328776
202	0xbcb2d3af	-0.021829454
203	0xbc060e28	-0.008182086
204	0xbc10d622	-0.008840116
205	0xbc9f63b0	-0.019456714
206	0xbc08c828	-0.008348502
207	0x3b5f5a18	0.00340808
208	0x3bbe2f33	0.0058039664
209	0x3b884e11	0.004159697
210	0x3c728806	0.014802938
211	0x3d02bced	0.031918455
212	0x3d20c1ce	0.039247327
213	0x3c7e3671	0.0155159095
214	0x3cec69e5	0.028859088
215	0x3cb3856d	0.021914208
216	0x3b518c46	0.0031974479
217	0xbbc52b3a	-0.006017116
218	0x3c1c5a59	0.009543025
219	0xbcfa7633	-0.03057394
220	0xbd2d52e5	-0.042315383
221	0xbcffe684	-0.031237848
222	0xbcce2097	-0.025162024
223	0xbd22f82f	-0.039787468
224	0xbd113f48	-0.03546074
225	0xbaba4a67	-0.0014212847
226	0x3ca3c2ba	0.019990314
227	0x3caac199	0.020844268
228	0x3a09338a	0.0005233815
229	0x3c41ad4f	0.011821105
230	0xbb0e33d9	-0.0021698384
231	0x3c3aac35	0.011393596
232	0x3c263308	0.010144003
233	0x3c7a9aff	0.015295743
234	0x3ccd52e4	0.02506394
235	0x3baa77eb	0.0052022836
236	0xba7ebc4a	-0.00097173883
237	0x3c8b45f4	0.01700113
238	0xbb9e4548	-0.0048300363
239	0xbc6421fa	-0.013924116
240	0x3c6b2085	0.014351015
241	0xbb8aa49f	-0.00423105
242	0xbc10f430	-0.008847281
243	0x3b0027d0	0.001955498
244	0xbc1a0816	-0.009401342
245	0x3acbc8c4	0.0015547504
246	0x3c523e38	0.012832217
247	0xbb0c0086	-0.0021362617
248	0x3c4ac59d	0.012376216
249	0x3c189f25	0.009315287
250	0x3b307b3f	0.002692893
251	0x3b9c6f1a	0.0047739865
252	0xbba84238	-0.005134847
253	0xbbaf8a93	-0.0053570955
254	0x3c4664e0	0.012109011
255	0xbc16d42e	-0.009205861

1.bn2.weight f4 [64]
0	0x3d0fb8f9	0.035088513
1	0x3e791665	0.24324949
2	0x3ecab157	0.39588425
3	0x3e8d2d16	0.2757346
4	0xbd301123	-0.042985093
5	0xbdddaa2f	-0.108234756
6	0x3dfc4402	0.12317659
7	0x3f247318	0.6423812
8	0x3ab686d6	0.0013925682
9	0x3e7101e3	0.23535876
10	0x3dc300c4	0.095216304
11	0x3ee61cb7	0.44943783
12	0x3eddf271	0.4334903
13	0x3e1b0ab6	0.15140805
14	0x3d43aa43	0.047769796
15	0x3d85dcd0	0.06536257
16	0xbdc1b91e	-0.094591364
17	0x3ddca39a	0.10773392
18	0x3ce8cf58	0.028419182
19	0x3f23b109	0.6394201
20	0x3e8acf54	0.27111304
21	0x3e639903	0.22226338
22	0x3f37e832	0.71838677
23	0xbcab5765	-0.020915696
24	0x3e5f26d9	0.21792163
25	0x3d01827c	0.03161858
26	0x3d34b0e1	0.044113997
27	0x3f12a957	0.5728964
28	0xbc854693	-0.016269004
29	0x3d349172	0.04408402
30	0x3f692529	0.91072327
31	0xbd452f60	-0.048140883
32	0xbd7418d3	-0.059593987
33	0x3e9a5ace	0.30147403
34	0x3f6ba81d	0.92053396
35	0x3c234d5c	0.009967174
36	0xbe048240	-0.12940311
37	0x3e01dfe0	0.12683058
38	0x3efce471	0.49393037
39	0x3f371d50	0.715291
40	0x3f28441b	0.6572892
41	0x3cc77078	0.024345621
42	0x3da86ff9	0.08224482
43	0x3cdfe929	0.02733286
44	0x3eef3a51	0.4672418
45	0x3dbeee8b	0.09322842
46	0xbd08c228	-0.033388287
47	0x3e95a0df	0.29224297
48	0x3dc11fbb	0.0942988
49	0x3df39ac8	0.118947566
50	0xbdf6175c	-0.12016174
51	0x3edeb1da	0.43495065
52	0x3d3a4626	0.045477055
53	0x3f6ee034	0.93310857
54	0x3d4ab5ec	0.0494899
55	0x3d10192c	0.035180256
56	0x3e9ed54a	0.31022102
57	0x3e2a1d25	0.1661268
58	0x3e5d87f5	0.21633895
59	0xbe1027a3	-0.1407762
60	0x3e317e31	0.17333294
61	0x3d33a7d6	0.043861233
62	0x3d6a7794	0.057242945
63	0x3f568052	0.8378955

1.bn2.bias f4 [64]
0	0x3e043b04	0.12913138
1	0x3dfeb172	0.12436189
2	0x3e880f54	0.26574194
3	0x3dc4d8af	0.096116416
4	0xbd0bad98	-0.0341011
5	0xbd3fa59c	-0.046788797
6	0xbdd1d594	-0.10245815
7	0xbea6fe1b	-0.32615742
8	0x3e27782d	0.16354437
9	0x3f2a1b25	0.6644767
10	0x3d86a445	0.06574301
11	0x3d100eb4	0.035170272
12	0x3eab1840	0.3341694
13	0x3f13b395	0.57695895
14	0xbd8c203d	-0.068420865
15	0xbd6e6e83	-0.05821086
16	0x3e870cd8	0.26376987
17	0x3ea4fdba	0.32224828
18	0x3e581ec2	0.21105483
19	0x3e1ec141	0.15503408
20	0x3e470596	0.19435725
21	0xbb5ea0c4	-0.0033970335
22	0x3e97cd8d	0.2964901
23	0x3e149110	0.14508462
24	0x3ede55ff	0.43424985
25	0xbdf2ab2d	-0.118490554
26	0xbd99fb18	-0.075185955
27	0x3ec67d9d	0.3876771
28	0x3b8c6f23	0.0042857095
29	0x3e217338	0.15766609
30	0x3f42e989	0.76137596
31	0x3dd6ce0a	0.104885176
32	0xbddf2bb6	-0.10897009
33	0xbccffce1	-0.025389137
34	0x3eb85f65	0.3601028
35	0x3e3d05f4	0.18459302
36	0xbd0bf7f8	-0.03417203
37	0xbca445b5	-0.02005277
38	0xbe8bbbf4	-0.27291834
39	0x3dde1241	0.108433254
40	0x3f11ea3f	0.56998056
41	0xbd62e834	-0.055397227
42	0xbd8cfae4	-0.06883791
43	0xb9ea058d	-0.00044636094
44	0x3eb20621	0.347703
45	0xbd2b258e	-0.04178386
46	0x3e5339a3	0.20627455
47	0x3eb7cb51	0.35897306
48	0x3e1a7e9c	0.1508736
49	0xbc246d30	-0.010035798
50	0x3dbc6d40	0.09200525
51	0x3d55fc79	0.05224273
52	0x3e054818	0.13015783
53	0xbec98ae1	-0.3936377
54	0xbdad231e	-0.08453964
55	0x3eaa0340	0.33205605
56	0xbd950af1	-0.072774775
57	0x3eaba681	0.3352547
58	0x3e57011b	0.20996515
59	0x3de83c2a	0.113396004
60	0x3d1cb580	0.03825903
61	0x3e934511	0.2876363
62	0x3e1cc922	0.15311101
63	0x3f8270d4	1.0190682

2.weight f4 [4, 64, 3, 3]
0	0xb71903a2	-9.1203565e-06
1	0xb737290e	-1.0917209e-05
2	0xb71f797e	-9.505426e-06
3	0xb7756e45	-1.4628812e-05
4	0xb773c43a	-1.4529616e-05
5	0xb7615596	-1.3430972e-05
6	0xb73780be	-1.0937625e-05
7	0xb73605d1	-1.08494e-05
8	0xb7287846	-1.0041584e-05
9	0xb76521a4	-1.3657296e-05
10	0xb776c124	-1.4707712e-05
11	0xb78eb2fe	-1.7011069e-05
12	0xb7c5b814	-2.3569948e-05
13	0xb81be290	-3.7165883e-05
14	0xb813f1e8	-3.5272824e-05
15	0xb7f35175	-2.9005789e-05
16	0xb7f93c2f	-2.9711138e-05
17	0xb7c2a3ec	-2.3202934e-05
18	0xb7a3bae3	-1.951814e-05
19	0xb7e74555	-2.7569631e-05
20	0xb7d4a67d	-2.5349897e-05
21	0xb808ea79	-3.2643296e-05
22	0xb82dfc60	-4.1481457e-05
23	0xb83b2442	-4.4618042e-05
24	0xb7bdf83b	-2.2646147e-05
25	0xb7faffc5	-2.9921424e-05
26	0xb7b493dd	-2.1526526e-05
27	0xb5ed83ea	-1.7696268e-06
28	0xb69c899a	-4.665181e-06
29	0xb68ecffc	-4.2561423e-06
30	0xb681e96d	-3.871674e-06
31	0xb70abab2	-8.268909e-06
32	0xb6dd9c81	-6.6045327e-06
33	0xb7eaa30a	-2.7970895e-05
34	0xb81a4e7b	-3.678955e-05
35	0xb81036a2	-3.4383156e-05
36	0xb7376467	-1.0931027e-05
37	0xb74a077a	-1.2041879e-05
38	0xb69fe55f	-4.7652716e-06
39	0x370cb29f	8.386239e-06
40	0xb5342153	-6.710372e-07
41	0x3710fb58	8.641589e-06
42	0xb657e6ad	-3.2171768e-06
43	0xb713b62b	-8.804297e-06
44	0x365fe1e1	3.3361068e-06
45	0xb7d8419f	-2.5779764e-05
46	0xb803c901	-3.1420033e-05
47	0xb7eb0b61	-2.8019482e-05
48	0xb7fcb4b8	-3.0124895e-05
49	0xb7ff50e0	-3.043603e-05
50	0xb771e705	-1.4418508e-05
51	0xb79ad331	-1.8456574e-05
52	0xb7a2d8f3	-1.941293e-05
53	0xb73a85b6	-1.1117596e-05
54	0xb8310935	-4.2208663e-05
55	0xb858e87c	-5.171493e-05
56	0xb8240429	-3.910452e-05
57	0xb6ac093c	-5.1270745e-06
58	0xb7a2b0ed	-1.9394292e-05
59	0xb7bd9616	-2.2600445e-05
60	0xb7ac2157	-2.0519523e-05
61	0xb7dab137	-2.6070147e-05
62	0xb7c0a027	-2.296276e-05
63	0xb71cb688	-9.340823e-06
64	0xb7dddef0	-2.6449066e-05
65	0xb76c7e30	-1.40960765e-05
66	0x357509ed	9.1284056e-07
67	0xb83b5681	-4.4664837e-05
68	0xb82231da	-3.8670238e-05
69	0xb73e4082	-1.1339902e-05
70	0xb7d01210	-2.4803943e-05
71	0xb77e4b8e	-1.5157171e-05
72	0xb6768643	-3.6735007e-06
73	0xb67423dd	-3.6379708e-06
74	0xb6488417	-2.9879209e-06
75	0xb59fece7	-1.1915371e-06
76	0xb611ac5a	-2.1707006e-06
77	0x36d1f8d9	6.257655e-06
78	0xb60cf615	-2.1004864e-06
79	0xb648e8dc	-2.9937864e-06
80	0x36b4b2cf	5.385234e-06
81	0xb8132a3c	-3.5086865e-05
82	0xb825a8a5	-3.9496128e-05
83	0xb82916ed	-4.031409e-05
84	0xb8101ab6	-3.4357152e-05
85	0xb82b4edc	-4.084302e-05
86	0xb8359c67	-4.3299424e-05
87	0xb827196e	-3.9839586e-05
88	0xb85ad601	-5.2174557e-05
89	0xb8528a42	-5.0196664e-05
90	0xb7027dda	-7.777906e-06
91	0xb775970b	-1.4638305e-05
92	0xb7309ec4	-1.0527383e-05
93	0xb62d20ed	-2.5798174e-06
94	0xb74bab52	-1.21396315e-05
95	0xb711f0ff	-8.698785e-06
96	0xb72969b3	-1.0097795e-05
97	0xb7f180ac	-2.8789356e-05
98	0xb7d1a6dd	-2.4992443e-05
99	0xb6898d69	-4.0993805e-06
100	0xb63ad5d2	-2.784062e-06
101	0xb67a97dc	-3.7341297e-06
102	0x362f5687	2.6127398e-06
103	0x3651c3d6	3.1257418e-06
104	0x36a55280	4.9269875e-06
105	0xb7900766	-1.7169583e-05
106	0xb7bff8e0	-2.2884866e-05
107	0xb7501b23	-1.2404084e-05
108	0x35fc7cc2	1.8811772e-06
109	0x341d79cd	1.4666075e-07
110	0xb5f90797	-1.8554155e-06
111	0xb6a6e892	-4.9742603e-06
112	0xb6e0c3b4	-6.698503e-06
113	0xb7199086	-9.15316e-06
114	0xb57e45af	-9.4723777e-07
115	0xb617a6c3	-2.2597821e-06
116	0xb5ead143	-1.7495262e-06
117	0xb6532b43	-3.1466632e-06
118	0xb6d79f35	-6.4260335e-06
119	0xb682fad4	-3.903502e-06
120	0xb5ca5f51	-1.5077914e-06
121	0xb72a6fef	-1.0158851e-05
122	0xb71c1be6	-9.30482e-06
123	0xb72d04a1	-1.0312681e-05
124	0xb770286a	-1.4314524e-05
125	0xb749bb32	-1.2024118e-05
126	0xb57c7118	-9.404189e-07
127	0xb5a13975	-1.2012157e-06
128	0x34c202d1	3.6137365e-07
129	0xb75db4a3	-1.3214684e-05
130	0xb7231181	-9.7196325e-06
131	0xb690d76d	-4.3166133e-06
132	0xb6935c67	-4.3916984e-06
133	0xb6782ad6	-3.6979814e-06
134	0x36512d37	3.1169745e-06
135	0x360da3f2	2.1106066e-06
136	0x36ea0f10	6.975497e-06
137	0x36ba0a7d	5.544453e-06
138	0x34cd8c3b	3.8286257e-07
139	0xb6755e6a	-3.6562801e-06
140	0xb5f2af2e	-1.8081389e-06
141	0xb78742e8	-1.612441e-05
142	0xb7af436b	-2.089302e-05
143	0x36868202	4.008646e-06
144	0xb793a051	-1.7598419e-05
145	0xb798601e	-1.816457e-05
146	0xb78338ea	-1.564292e-05
147	0xb7d8c54a	-2.5841076e-05
148	0xb7ac504c	-2.0541389e-05
149	0xb78b042f	-1.657204e-05
150	0xb7c48466	-2.3426674e-05
151	0xb797e511	-1.810727e-05
152	0xb75e45d9	-1.3248494e-05
153	0xb6f12103	-7.1862028e-06
154	0xb67118dd	-3.592627e-06
155	0xb45a3d82	-2.0325209e-07
156	0xb7a42d64	-1.957146e-05
157	0xb79d4b09	-1.87508e-05
158	0xb74ba27c	-1.2137574e-05
159	0xb79d4410	-1.8747553e-05
160	0xb7909e59	-1.7239874e-05
161	0xb72625d6	-9.90318e-06
162	0xb6f973bf	-7.434253e-06
163	0xb710fc20	-8.641771e-06
164	0xb6c6e6b6	-5.927718e-06
165	0xb6fd276f	-7.5445782e-06
166	0xb704fb38	-7.9263045e-06
167	0xb695df32	-4.4665294e-06
168	0xb6d30f57	-6.290076e-06
169	0xb6e6ad27	-6.8746917e-06
170	0xb67db685	-3.7806178e-06
171	0xb7f70f75	-2.9451892e-05
172	0xb7f3601f	-2.9012617e-05
173	0xb7e3906b	-2.7127759e-05
174	0xb64c4341	-3.0437516e-06
175	0xb735ee67	-1.0843948e-05
176	0xb791391e	-1.7311944e-05
177	0xb811728c	-3.4677374e-05
178	0xb8349063	-4.3049815e-05
179	0xb836f2f3	-4.3618445e-05
180	0x362dc4ea	2.5893628e-06
181	0xb6b65ee5	-5.43507e-06
182	0xb5afe5ee	-1.3105434e-06
183	0x37dfc424	2.6675007e-05
184	0xb7202c64	-9.547079e-06
185	0xb78f6641	-1.7094544e-05
186	0xb685b362	-3.984592e-06
187	0xb747a9db	-1.1900872e-05
188	0xb7178d0d	-9.033142e-06
189	0xb528c857	-6.287641e-07
190	0x35a5741a	1.2327248e-06
191	0x36b37cd1	5.3491462e-06
192	0xb63dbf33	-2.8274487e-06
193	0xb6780d5f	-3.6962663e-06
194	0xb5063c0b	-5.0006264e-07
195	0xb6cff75e	-6.197878e-06
196	0xb74465cd	-1.1706213e-05
197	0xb74b6234	-1.2122608e-05
198	0xb70a6b2d	-8.250395e-06
199	0xb70a6c1e	-8.250614e-06
200	0xb72ba73a	-1.023133e-05
201	0xb8354666	-4.3219326e-05
202	0xb801faf8	-3.098973e-05
203	0xb7a7ab37	-1.998768e-05
204	0xb7a3a540	-1.9508065e-05
205	0xb8072834	-3.222395e-05
206	0xb8283db2	-4.011178e-05
207	0xb704761d	-7.8953135e-06
208	0xb6e840c4	-6.9216785e-06
209	0xb6e7e38e	-6.9108273e-06
210	0xb6cee537	-6.1659625e-06
211	0xb662dfc9	-3.3806884e-06
212	0x359eddf3	1.1836513e-06
213	0xb6e9a744	-6.9634134e-06
214	0xb624bb0e	-2.4546785e-06
215	0xb453d478	-1.9728202e-07
216	0xb7661ad3	-1.3715314e-05
217	0xb75619c2	-1.2761391e-05
218	0xb6ecf3c2	-7.0617252e-06
219	0xb7f72cc7	-2.9465546e-05
220	0xb7c17de1	-2.306601e-05
221	0xb724d9c0	-9.825861e-06
222	0xb81462a1	-3.5377805e-05
223	0xb7ddda47	-2.6446896e-05
224	0xb7408fbd	-1.14775585e-05
225	0xb631e46f	-2.6508021e-06
226	0xb6e3c632	-6.7882e-06
227	0xb6fd3d24	-7.5471053e-06
228	0xb7944cd6	-1.7678754e-05
229	0xb7ac4778	-2.0537278e-05
230	0xb772a7cf	-1.4463395e-05
231	0xb71c6912	-9.322788e-06
232	0xb72b0262	-1.0192949e-05
233	0x35108e86	5.385158e-07
234	0xb688851d	-4.0686123e-06
235	0xb6c89ca2	-5.978699e-06
236	0xb6379277	-2.7354379e-06
237	0xb75380d9	-1.260658e-05
238	0xb7a39e0f	-1.9504716e-05
239	0xb7185a98	-9.080999e-06
240	0xb6e5de7f	-6.850634e-06
241	0xb690c0b0	-4.313966e-06
242	0x36e1b903	6.7270607e-06
243	0x359ff2d6	1.1917098e-06
244	0x359c3dc4	1.1640882e-06
245	0x3670e442	3.589565e-06
246	0xb758fc31	-1.2933321e-05
247	0xb7a8f06a	-2.0139112e-05
248	0xb79a9b5d	-1.8430577e-05
249	0xb8087afa	-3.2539458e-05
250	0xb817f044	-3.622497e-05
251	0xb7fbea91	-3.003076e-05
252	0xb621ee57	-2.4129602e-06
253	0xb67f3f6c	-3.8034877e-06
254	0xb68e4913	-4.2404367e-06
255	0xb70c5a06	-8.3656105e-06

2.bias f4 [4]
0	0xb854249d	-5.0578838e-05
1	0x3e524289	0.20533194
2	0x3d85883f	0.065201275
3	0x3e418af7	0.18900667
