expert_target_aware/mocosflV2_ResNet18_cifar10_cut2_bnlC4S2_expert_batchsize128_ressfl_2.0_SSIM0.5_data_proportion_0.005_aux_cifar100/checkpoint_c_best.tar (torch, 315844 bytes, 11 tensors)

0.conv1.weight f4 [64, 3, 3, 3]
00000000: 26cc 913e 35a0 00be e966 25bd 13dc ac3e
00000010: 0ff3 20be 3f91 0cbe ad7b b73d 386b 3bbe
00000020: e83d 053d b6f5 123e 3c50 22be 11e8 11be
00000030: 9539 5c3e d83c 1ebe 492a 4dbe 27d2 223d
00000040: 2fa2 aebd c10e 7f3d 6b95 7a3e a647 01be
00000050: 8e1f 63bd 565c 7a3e 5787 3fbe 0085 39be
00000060: c328 2d3e b2de 31bd 09cd ea3d 0cf3 65bc
00000070: df87 e3bc b583 d1bd 0322 ab3d f1ca b63d
00000080: 7912 153d 0971 993d 5952 fd3d d794 b13d
00000090: b15d c1bd d503 73bd d4b1 e1bd 4430 78bd
000000a0: f4db 28bc 6fb4 2ebd 5961 9d3c 0fba c33d
000000b0: 012a 803d 3da2 943d cd16 fa3d 0eb8 3b3e
000000c0: b085 bdbd 25ee 11bd 4823 6f3d 20d3 64be
000000d0: 809e 25be 8741 96bd cb33 1e3e c7cb 64bc
000000e0: 9c3e 33be a443 4f3d 629c a5bd a5d4 69be
000000f0: 03c6 553c 6e9c 30bd e566 6bbe 16f6 cf3d
00000100: ced7 843d 1ba5 ec3d e493 9bbb 111c 9cbb
00000110: 8d92 953d 9e31 d0bd dd2f 87bd ec35 42bd
00000120: 9b9e 8ebd 363c 7fbd 58de d13d ff51 81bd
00000130: fb6a f03a 8453 463e 6638 f9bb 7614 d83d
00000140: 5923 633e 44f1 0c3e 524e 743d 38a3 2e3d
00000150: 0d1b 93bd ba26 d5bd 534d 03be 30d5 2e3d
00000160: 76e1 a13d a972 893d 56e7 01be 9928 80be
00000170: ce31 21be 96bf 48be ee0d 88be fd92 4cbe
00000180: 1cc2 113c f979 97bc db14 313d eb90 a63e
00000190: f1df 043d 44dd 983e caed d23d 5653 0fbe
000001a0: a508 023e 7d30 1e3e 4ad1 67bd e449 463e
000001b0: a6d6 cfbe c6d3 debe 5b7b b9be e759 66be
000001c0: 1508 8bbe 126d 6abe 633c a9be f072 3dbe
000001d0: 94e2 81be 7d87 9bbc daa2 6dbd fc75 9abc
000001e0: abe1 27bc 36da ccbd f087 aabd 2b7a 9ebe
000001f0: 9f79 68be 775a a4be 21db 2e3e 4e3f 7f3e
00000200: 7c82 4d3e 44d8 0b3f 9f55 163f fb49 0a3f
00000210: f881 d23e 75a1 233f 030e 003f 900b 1ebd
00000220: e971 0fbe 6c5b 52bd d22e acbd 4283 2ebe
00000230: 28e7 eabd 996f 083d 6191 0abd 3aa3 5b3d
00000240: e7d0 98bd 2f37 10be 3791 89bd 6417 05be
00000250: b51b 35be de5f 07be 8ff5 11be 3f2e 31be
00000260: 980f b4bd f159 e23d 406f 2e3e 7492 033e
00000270: aeb4 4f3e 6c57 933e 5280 603e 7341 003e
00000280: d348 683e 1ec7 4c3e 0e37 873c 7e85 30be
00000290: 7eab 70be d23a da3a a0e1 4bbe 64f5 34be
000002a0: 92d9 f13c ca9f 0fbd bc53 35bc dc0f d5bc
000002b0: 1b2a 33bd 38d0 69bd b253 e2bd 9386 34be
000002c0: 9b84 e4bd ae56 cebe 46fb c3be e13a a2be
000002d0: 5e47 af3d 121b b53e 738b 423e 3d37 1f3e
000002e0: 9028 d33e 76bb bc3e de8f f03c da1d d63e
000002f0: c4ca ca3e 70b5 eabd 4824 2abe a2f7 f2bd
00000300: f77e 2abe b4e9 5bbe bc19 31be 5ea1 0bbe
00000310: 2b88 46be 3518 14be 23b3 823d 9727 003d
00000320: c033 743d c17d f43c 8c04 263b 8e05 c93c
00000330: 9d0a f73c b67e f9bb fd88 c33c e9fc 183e
00000340: d746 103e 1b25 133e 2a97 113e c1d8 0f3e
00000350: 167b 0a3e e5b6 e73d 068c cc3d 381e d83d
00000360: f0b4 3abd 25fa 4e3e b7ce c23e 053b 3f3d
00000370: e965 643e 9fd7 a53e d7e3 6c3c 7708 113e
00000380: 6ded 9e3e 8193 4dbd ad04 08bd cdc2 d3bd
00000390: b520 12bc 8513 2ebd ea6d 4bbe bac2 833d
000003a0: b175 d43c 849f b7bc 54bd ef3d da9c 083d
000003b0: de97 b33c 49ee 06bd d718 4fbe fe6f a6be
000003c0: 29c2 d5bd 3f9b b0be 3323 c8be 7dd5 293e
000003d0: d680 d13e 1040 e63e 17e3 473c 5faa 573e
000003e0: 7ea4 913e a92c b3be 03e1 86be 7275 7cbd
000003f0: 909a 52be f84f 343c b249 25be de11 3cbd
0.28476065 -0.12561114 -0.040381346 0.33761653 -0.1571772 -0.13727282 0.08959136 -0.1830262
0.03252974 0.14351544 -0.1585092 -0.14248683 0.21506341 -0.15452898 -0.20035662 0.0397512
-0.08527028 0.06226993 0.24471061 -0.12624988 -0.055450015 0.24449286 -0.18703972 -0.18117142
0.1691008 -0.04342527 0.114648886 -0.014034998 -0.02777475 -0.10230199 0.083560966 0.08925427
0.03639457 0.07492263 0.12369222 0.08670967 -0.09441698 -0.059329826 -0.11020246 -0.060592905
-0.010306347 -0.042652544 0.019211458 0.09556972 0.062580116 0.07257507 0.1221138 0.1833193
-0.092540145 -0.035627503 0.058383256 -0.22346163 -0.16173744 -0.07336717 0.15449445 -0.0139646
-0.17504352 0.050601617 -0.08086468 -0.22835024 0.013047698 -0.043117933 -0.2298847 0.10154359
0.06486474 0.11554929 -0.0047478545 -0.004764088 0.07303343 -0.10165714 -0.06600926 -0.047414705
-0.06963845 -0.06231328 0.10247487 -0.06314468 0.001834243 0.19367796 -0.0076056 0.105507776
0.22181453 0.1376391 0.059645005 0.042636126 -0.07182894 -0.10407777 -0.12822466 0.04268378
0.079043314 0.06711323 -0.12685904 -0.25030974 -0.15741655 -0.19604334 -0.26573128 -0.19977947
0.008896377 -0.018490778 0.04323278 0.3253244 0.03244013 0.29856312 0.10299261 -0.13996634
0.1269861 0.15448184 -0.056596078 0.19364125 -0.4059345 -0.43520945 -0.36226925 -0.22495233
-0.27154604 -0.2289317 -0.33053884 -0.18500876 -0.25368178 -0.018985504 -0.058016635 -0.018855087
-0.0102466745 -0.10002558 -0.08326709 -0.30952582 -0.22702645 -0.3210027 0.17075779 0.24926493
0.20069307 0.5462687 0.587244 0.54019135 0.41114783 0.6391824 0.5002138 -0.038585246
-0.14008297 -0.051356718 -0.08407368 -0.17042258 -0.11469871 0.033309553 -0.03383005 0.05362246
-0.0746172 -0.14083551 -0.06717151 -0.12997204 -0.1768635 -0.13220164 -0.1425383 -0.17302798
-0.08792037 0.11052311 0.17034626 0.12848836 0.20283768 0.28777635 0.2192395 0.12524967
0.2268403 0.19997832 0.016505744 -0.17238423 -0.23502919 0.001664961 -0.19910288 -0.17671734
0.02952269 -0.035064496 -0.011067327 -0.026008539 -0.043741327 -0.05708334 -0.1105112 -0.17629461
-0.11158105 -0.40300506 -0.38277644 -0.31685546 0.08558534 0.35372216 0.18998508 0.15548415
0.41241884 0.3686177 0.029365476 0.4181965 0.39607823 -0.11460388 -0.16615403 -0.118636385
-0.16649996 -0.2147587 -0.17294973 -0.13635775 -0.19387881 -0.14462359 0.06381824 0.031287756
0.059619665 0.02984512 0.00253323 0.024538781 0.030156428 -0.007613982 0.023869032 0.14940228
0.14089523 0.14369623 0.14217821 0.14047529 0.13523516 0.11314181 0.09987645 0.10552639
-0.04558271 0.2021261 0.38048336 0.046687145 0.223045 0.32391068 0.014458618 0.14163385
0.31040516 -0.0501895 -0.033207584 -0.1033989 -0.008918931 -0.042499084 -0.19866148 0.064336255
0.025935026 -0.02241493 0.11706033 0.03335271 0.021923002 -0.03294209 -0.2022432 -0.32507318
-0.10437424 -0.34493443 -0.39089355 0.16585346 0.40918607 0.4497075 0.0122001385 0.21061085
0.2844581 -0.3499501 -0.26343545 -0.061635442 -0.20566773 0.011005394 -0.16141394 -0.045915477

0.bn1.weight f4 [64]
00000000: 6b3f 8a3f 9c75 813e e59c 383e c2ca 3f3f
00000010: 2277 843f 5150 47be b6b2 473f 8c67 f3b5
00000020: ad62 2b3f c795 983f 5617 5e3e c08d 533e
00000030: 063e dfbd 1f5f a33f 2e7c 1a3e b701 ae3f
00000040: 1678 c4be 55b7 1d3e d233 ad3e e58a b33d
00000050: 2ba3 073f 12df 8b3f b479 e2bd 9945 053c
00000060: 9411 94bd 51ba 8bbe e697 053f 6ef4 b93f
00000070: af1a ad3d 3315 ad3f cc23 a23e 7fdc c73e
00000080: 7513 b4bb cb05 183f 5924 b13e 9e37 0b3d
00000090: f893 52be 868b 473d 2e89 be3b 6060 833f
000000a0: b090 093e 7970 e13d 2f23 52bd 1e8b 163f
000000b0: 295d ecbd e9d0 703f 5cf1 37be 8974 693c
000000c0: 6b17 cabd 73ac 313f 0bb1 a63f a39b 2cbc
000000d0: 1722 b93f 4520 f13e f9da 7f3c 2ff2 bb3e
000000e0: fcc0 223e 1319 923f 87c0 93bc d783 5f3b
000000f0: e72d 7f3a d0bf bf3f bb1f adbd 025f b83f
1.0800604 0.2528504 0.180286 0.7491876 1.0348856 -0.19464232 0.78007066 -1.8135047e-06
0.6694744 1.1920708 0.2168859 0.20659542 -0.10900502 1.2763404 0.15086433 1.3594273
-0.38372868 0.15401967 0.33828598 0.087667264 0.5298335 1.0927451 -0.11058369 0.008134269
-0.07229915 -0.27290586 0.52184904 1.4527719 0.08452355 1.3522094 0.31667936 0.39035413
-0.0054954835 0.5938384 0.34598044 0.033988588 -0.20564258 0.048717044 0.005814693 1.0263786
0.134341 0.110077806 -0.051303085 0.58806026 -0.115412064 0.9406877 -0.17963165 0.014248976
-0.09867748 0.6940376 1.3022779 -0.010535154 1.4463528 0.47094932 0.015616172 0.3670821
0.1589393 1.1413902 -0.01803614 0.0034105682 0.0009734318 1.4980412 -0.08453318 1.4403994

0.bn1.bias f4 [64]
00000000: 6c7b 053e 1d65 e63e df62 3b40 7c30 34be
00000010: ce71 723e 168e 513f 787b 8c3f 5020 08b8
00000020: 72fc 1a3e 8354 84be f28a 963f 5ace 1540
00000030: d26f d63e e6b5 24bd f0e7 7a3f 35ac 843c
00000040: 8b81 863f f621 2b3f f62a 193f 97d9 113f
00000050: 8b62 5c3f b15b 63bd 28a7 e33e 6da7 0740
00000060: 1486 0c40 7286 953f 6406 953e 2960 7fbc
00000070: 50ad 5040 7703 86be bd99 a93e 6ebd d73e
00000080: 387d ed3e 1989 d63e 21ef c13e 633e cd3f
00000090: 49fd b1bb 30d3 c83e 20cf 1740 3fc2 c83a
000000a0: 5efd dc3e 0ca7 fb3f 1300 f03f 962a d63e
000000b0: 6cc1 303f 9c1c 98be 9d02 1240 7b17 ce3e
000000c0: ad63 823e e40b d8bc 69b3 2fbd e798 0240
000000d0: 0a8e 5cbb 3839 293e 4cca a03e 4d7f 733f
000000e0: b2e5 3fbe 394f d0bd a115 d23e 111a 0540
000000f0: 6423 e7bb 1295 8cbd c097 8d3f c946 60bd
0.13035363 0.44999018 2.9279096 -0.1759662 0.23676226 0.8185743 1.097518 -3.245502e-05
0.15135363 -0.25845727 1.1761153 2.3407197 0.41882187 -0.040212534 0.9801016 0.016195396
1.0508283 0.66848695 0.5983118 0.5697264 0.86087865 -0.055507366 0.44463468 2.1195939
2.1956835 1.1681654 0.29106438 -0.015586891 3.2605782 -0.26174518 0.33125106 0.4213671
0.46384597 0.41901472 0.37877753 1.6034664 -0.0054318053 0.39223623 2.372017 0.0015316679
0.43162054 1.9660354 1.8750023 0.41829365 0.6904514 -0.29709327 2.2814095 0.4025229
0.25466672 -0.026372857 -0.04289571 2.0405824 -0.0033653998 0.16525733 0.3140434 0.9511612
-0.18739966 -0.101713605 0.41032127 2.079716 -0.0070537794 -0.068643704 1.1061935 -0.054755006

1.conv1.weight f4 [64, 64, 3, 3]
00000000: 3e83 2a39 0ffc 0c39 7df3 ef38 2b7f 4139
00000010: 59cc 1d39 1858 fc38 5a27 0f39 cdee f238
00000020: b28c bc38 8050 93b8 5858 03b8 b5ca a734
00000030: dea8 83b8 afd9 e8b7 a328 00b6 1673 77b8
00000040: ee0d aab7 63d6 8737 f106 fd38 3032 1a39
00000050: f819 eb38 c97d 1d39 5620 3a39 aa85 0c39
00000060: ec4b 5239 4ae7 6939 c0c4 2b39 1020 8d39
00000070: 9dab 8c39 0347 9439 271b 9639 151f 9239
00000080: 22bb 9c39 e067 7439 6097 7839 92fd 8839
00000090: 772d 2339 3e1c 4239 55f5 3e39 aee6 5a39
000000a0: 83f1 8839 583a 8339 7474 8439 24a8 a339
000000b0: 9be6 9f39 b7ef cc38 5e11 dc38 488d fa38
000000c0: 936a e938 6436 0539 eeda 1739 052c 1839
000000d0: 8bd0 2a39 768a 2c39 d114 a239 1fc8 ae39
000000e0: 6cbf b139 96fa ad39 592c bd39 6970 c139
000000f0: 9578 ab39 98a4 bd39 2f29 c839 bad9 9339
00000100: 75f9 9339 7c41 9439 3fc8 9339 9718 9439
00000110: 2451 9439 b6de 9339 e735 9439 9a59 9439
00000120: d9ad fcb8 11d9 06b9 4993 20b9 6a13 40b9
00000130: 424c 4eb9 09d7 63b9 9863 63b9 caa9 7fb9
00000140: 8247 89b9 7da3 1bb9 e5f1 5cb9 037c 81b9
00000150: 7879 38b9 6fe6 49b9 cab2 78b9 1bfc 65b9
00000160: f561 81b9 235a 90b9 35fd 03b9 290e 51b9
00000170: fcc2 dfb8 9e7d 6fb9 26d7 aab9 f357 7eb9
00000180: 347e 88b9 8b09 c2b9 3ca0 98b9 3a77 5db9
00000190: 0c04 4fb9 1319 83b9 18c7 87b9 06c3 75b9
000001a0: 9752 9ab9 b6d6 9bb9 1bbc 91b9 f2ba b2b9
000001b0: 3971 ab38 854e 7038 0e8a b838 549a bd38
000001c0: ea11 8238 94a5 a838 d406 d638 9db3 9638
000001d0: 8ed9 a338 88c3 82b9 3a9a 72b9 5086 59b9
000001e0: d2bc f8b8 8a0b eab8 8a80 a6b8 3180 4bb9
000001f0: 63c3 30b9 9f85 56b9 681a dd39 37b7 ce39
00000200: 76fb b239 a8a1 ce39 bf19 b939 92bd 9739
00000210: 4737 c339 7761 ac39 633c 8c39 872d 07b9
00000220: 68d8 18b9 db90 c6b8 7ef6 c7b8 3d9d 8bb8
00000230: 1e84 dbb6 2b5d 4eb8 b31f 38b7 12aa 4f38
00000240: dcfb 6a38 61d8 8138 da33 5d38 07f1 3938
00000250: f47d 5e38 c086 3338 d814 4c38 b645 7438
00000260: 2f79 3e38 2096 4839 0c31 4a39 4b60 4539
00000270: 4ef5 6e39 9966 7d39 fc64 6f39 3dce 7d39
00000280: c60a 8539 0f87 6f39 309f 3bb9 e76f 2eb9
00000290: 6c5d 3ab9 ca17 77b9 1181 72b9 cb25 82b9
000002a0: f716 81b9 07e8 82b9 f01d 92b9 e124 6938
000002b0: e870 8738 4742 5038 ca17 0a38 6cd5 3638
000002c0: 043c dc37 4b64 f037 bd11 2238 240e aa37
000002d0: 7d9f b338 5453 6538 f279 9c37 cd3d 9338
000002e0: b0f7 7138 69a3 0037 f79e 0db7 f9ef 38b8
000002f0: b831 c4b8 1fb6 8f38 09ee 4f38 b25d ee37
00000300: 0f16 4739 4070 5139 c7d7 3b39 281c 3e39
00000310: edc9 3939 0b40 2139 53c5 7c38 abcd 8238
00000320: 822f 8d38 4478 8c38 9e54 b338 0bee b838
00000330: 8328 6a38 7e13 9838 a889 9438 17e4 68b9
00000340: 7bc5 5eb9 2f02 6db9 dd01 72b9 452d 56b9
00000350: d2ff 6db9 bec9 65b9 4970 42b9 60a5 58b9
00000360: 9bfe 3fb7 e85c 16b5 e9ae 91b7 9453 77b8
00000370: 2969 8ab8 ec09 a6b8 6d03 06b9 ce94 1eb9
00000380: 0a1c 2bb9 003f 6fba cb4a 6dba cfc6 77ba
00000390: b399 79ba a1aa 71ba e3fa 7bba 2773 79ba
000003a0: ca42 70ba fc3a 7bba 350b c639 7df0 b339
000003b0: 7609 b139 5e4d 8d39 beb8 5a39 2500 4439
000003c0: a4ce 5839 2edd 0c39 5142 eb38 2ee7 92b9
000003d0: f359 59b9 5c4e 9ab9 b147 44b9 b471 f1b8
000003e0: 25ac 62b9 64a0 b6b9 7cf6 92b9 4af1 f8b9
000003f0: ddc5 1d38 60fa 4db7 3200 b9b8 1b3f fe37
0.00016261355 0.0001344534 0.00011441761 0.00018453288 0.00015048812 0.00012032705 0.00013652202 0.00011583939
8.990745e-05 -7.0245005e-05 -3.131511e-05 3.1253663e-07 -6.278021e-05 -2.7757922e-05 -1.909714e-06 -5.899657e-05
-2.0272066e-05 1.6193086e-05 0.00012065273 0.00014705281 0.0001121051 0.00015019545 0.00017750388 0.00013401234
0.00020055444 0.00022306773 0.00016381126 0.00026917504 0.00026830743 0.00028281668 0.0002863046 0.00027870448
0.00029894063 0.0002330835 0.00023707515 0.00026128866 0.00015561828 0.00018511803 0.00018211205 0.00020876035
0.00026119882 0.00025029737 0.00025263766 0.00031215057 0.00030498658 9.7721284e-05 0.000104936524 0.00011947245
0.00011130157 0.0001270413 0.0001448204 0.00014512248 0.00016290152 0.00016454779 0.00030914557 0.00033336968
0.0003390269 0.00033183832 0.0003608193 0.0003689558 0.00032705502 0.0003617152 0.00038177657 0.00028200244
0.00028223885 0.0002827755 0.0002818722 0.0002824708 0.00028289214 0.00028203957 0.0002826892 0.00028295518
-0.00012048678 -0.000128601 -0.00015313657 -0.00018317779 -0.00019674099 -0.00021728514 -0.00021685509 -0.00024381946
-0.00026183954 -0.00014842856 -0.00021070948 -0.00024697193 -0.00017592858 -0.00019254697 -0.00023717727 -0.00021933058
-0.0002467778 -0.00027532977 -0.0001258746 -0.00019937068 -0.00010669787 -0.00022839612 -0.00032585225 -0.00024256091
-0.0002603397 -0.00037009674 -0.00029111083 -0.00021120618 -0.00019742566 -0.0002500495 -0.00025897543 -0.00023437673
-0.00029434703 -0.00029723876 -0.00027796705 -0.0003409009 8.175005e-05 5.7293586e-05 8.7995184e-05 9.040968e-05
6.20222e-05 8.0417056e-05 0.00010205587 7.186013e-05 7.8129684e-05 -0.00024941214 -0.00023136372 -0.00020744768
-0.00011860732 -0.00011160139 -7.939439e-05 -0.00019407344 -0.00016857455 -0.00020458408 0.0004217208 0.00039427888
0.0003413816 0.00039411825 0.00035305132 0.00028942205 0.00037234483 0.00032879013 0.00026747872 -0.00012891564
-0.00014576467 -9.468357e-05 -9.534972e-05 -6.6573244e-05 -6.542089e-06 -4.9200997e-05 -1.0974635e-05 4.9511036e-05
5.602451e-05 6.191503e-05 5.2738797e-05 4.433191e-05 5.3046228e-05 4.280242e-05 4.8656802e-05 5.8239057e-05
4.541239e-05 0.00019129412 0.00019282493 0.00018823256 0.00022788832 0.00024166181 0.00022830436 0.0002420479
0.00025375764 0.0002284313 -0.00017893012 -0.0001663562 -0.00017773145 -0.00023564618 -0.00023127 -0.0002482369
-0.00024621908 -0.00024968406 -0.00027869595 5.5585875e-05 6.458332e-05 4.965279e-05 3.292392e-05 4.3590946e-05
2.625399e-05 2.8656932e-05 3.864033e-05 2.0272164e-05 8.565092e-05 5.467546e-05 1.8653434e-05 7.0210175e-05
5.7689555e-05 7.667441e-06 -8.441267e-06 -4.409251e-05 -9.355269e-05 6.852694e-05 4.9574333e-05 2.8415441e-05
0.00018986336 0.0001997361 0.00017914093 0.00018130301 0.00017718198 0.00015378014 6.0265254e-05 6.237192e-05
6.732253e-05 6.6981214e-05 8.551146e-05 8.818143e-05 5.5827677e-05 7.2515555e-05 7.0828304e-05 -0.00022210214
-0.00021245137 -0.00022602895 -0.00023079613 -0.00020425495 -0.00022697382 -0.00021914297 -0.00018543111 -0.00020660972
-1.1443767e-05 -5.601455e-07 -1.7366796e-05 -5.8967227e-05 -6.5999404e-05 -7.917345e-05 -0.00012780512 -0.00015123488
-0.00016318276 -0.0009126514 -0.00090519775 -0.0009451927 -0.0009521499 -0.0009218846 -0.0009612275 -0.0009515755
-0.0009165226 -0.00095836795 0.00037773853 0.00034320718 0.0003376712 0.0002695126 0.00020858922 0.0001869207
0.00020676345 0.00013433836 0.000112180256 -0.00028019532 -0.00020728241 -0.0002943155 -0.00018718724 -0.000115129544
-0.00021617168 -0.00034833245 -0.00028030935 -0.0004748202 3.761599e-05 -1.2277247e-05 -8.821524e-05 3.0308545e-05

1.bn1.weight f4 [64]
00000000: 9691 1839 7a49 9337 917c 6537 88e4 ea39
00000010: 8a58 8438 357f 80b9 06dc 94b9 5830 7837
00000020: f268 e2ba b153 9339 0b3c ca37 7541 9435
00000030: f559 39b7 2c82 acbc ab46 c43d e3f3 6a38
00000040: 06e5 9bba 78a9 ca36 72c7 f53a 2325 5cb7
00000050: 0654 913d 2328 c435 1ee3 2638 c9dd a7b8
00000060: 1643 41ba c024 1c3a 4573 4937 e598 1438
00000070: b9d7 8db7 b624 0540 b097 59b9 10c2 c4b6
00000080: dca2 5e3e 431d ed36 8e52 aeb7 35f3 90bc
00000090: f821 9bb6 f24c 0abd 4048 1f38 1539 01ba
000000a0: abeb 03b9 002b 4137 f5b0 df37 5ba0 35b8
000000b0: 560c 83b7 3e24 a83b 7d16 643c f74b f3ba
000000c0: 1d5c 82bc b83f c13f 6490 2337 ad08 693a
000000d0: ed76 9638 728d e237 4923 3f3c f3ba 9338
000000e0: 2748 de3d 8d27 4939 1bb3 643c 3e29 4537
000000f0: 5f8c 3738 36b5 de3b 3c75 c6b6 e99d 5b3b
0.00014550085 1.755798e-05 1.36784665e-05 0.00044802227 6.310742e-05 -0.0002450884 -0.0002839269 1.4793208e-05
-0.0017273708 0.0002810038 2.4108236e-05 1.104591e-06 -1.1047804e-05 -0.021058165 0.09583791 5.6017085e-05
-0.0011893816 6.039798e-06 0.0018751456 -1.3121668e-05 0.07096104 1.4614819e-06 3.9789003e-05 -8.004491e-05
-0.00073723623 0.0005956404 1.2007372e-05 3.5428344e-05 -1.6908964e-05 2.0803657 -0.0002075124 -5.863847e-06
0.21741813 7.066557e-06 -2.0780859e-05 -0.017694095 -4.6233145e-06 -0.033764787 3.7975842e-05 -0.00049294654
-0.00012580927 1.1513708e-05 2.6666074e-05 -4.3303105e-05 -1.5622161e-05 0.0051312735 0.013921377 -0.0018562068
-0.015913064 1.509757 9.749176e-06 0.00088895374 7.174709e-05 2.7007165e-05 0.0116661275 7.044328e-05
0.10853606 0.00019183588 0.013958718 1.17517175e-05 4.376133e-05 0.0067965044 -5.9145077e-06 0.003351087

1.bn1.bias f4 [64]
00000000: 2b54 1dba 0f5c fab8 37ed f2b8 1efb feba
00000010: 62e5 afb9 2398 fcb9 2523 91ba bec0 adb8
00000020: fd9c 6cbc 16f2 90ba 5233 5eb9 ab20 9cb8
00000030: 7f1d 72b9 0510 1bbd 1cd6 aa3c 467d 8fb9
00000040: 2dd6 86bb 75e2 9ab8 f521 72bc 3787 e1b9
00000050: 4bc9 ef3c 45ad 12b8 f88f 81b9 a74b 75b9
00000060: 7036 17bc c9a0 bfbb 95f8 16b9 5559 98b9
00000070: bcb0 b1b8 c6ba 673e b8a0 52ba 640b 9fb9
00000080: dcb7 c0bd f889 29b9 efe8 11b9 f3c4 d2bc
00000090: d9cd 01b8 7c79 cdbc 135c 64b9 53e8 9bbb
000000a0: 00da 3aba 5567 f7b8 dd93 4cb9 357c 26bb
000000b0: 0330 1fb9 372f bcbc 4702 bebd 5e0a c8bb
000000c0: b6d0 f4bc 2784 c03f 15c4 e6b8 6755 71bb
000000d0: 6845 7db9 9500 dcb8 ff07 05bd 84cf 85b9
000000e0: 46ee ac3c eb1d 76ba 8b92 b0bc c224 2ab9
000000f0: 81f4 91b9 d36e 36bc be66 93b8 a0d5 03bc
-0.0006001617 -0.00011938076 -0.00011583644 -0.0019453501 -0.00033549505 -0.00048178536 -0.0011073096 -8.285184e-05
-0.014441726 -0.0011058475 -0.00021190688 -7.4447446e-05 -0.00023089907 -0.037857074 0.020854048 -0.0002736842
-0.004114887 -7.385473e-05 -0.014778604 -0.00043016087 0.029270789 -3.4970482e-05 -0.00024712062 -0.00023393203
-0.0092292875 -0.0058480245 -0.00014397719 -0.00029058257 -8.472937e-05 0.22629842 -0.0008034813 -0.0003033533
-0.094100684 -0.00016168493 -0.00013915052 -0.025728678 -3.0947707e-05 -0.025082342 -0.00021778075 -0.00475792
-0.00071278214 -0.00011797125 -0.0001951004 -0.0025403623 -0.00015181307 -0.022971733 -0.09277778 -0.0061047515
-0.029884677 1.504033 -0.00011003778 -0.0036824585 -0.00024153816 -0.00010490526 -0.03247833 -0.00025522348
0.021109711 -0.00093886134 -0.021554252 -0.00016226157 -0.00027838725 -0.011134821 -7.0286434e-05 -0.008046538

1.conv2.weight f4 [64, 64, 3, 3]
00000000: 7449 12bc b9dd 19bc 221a 12bc 70f3 18bc
00000010: b988 1fbc 8fdd 16bc 8434 10bc 2376 16bc
00000020: f2e8 12bc fc07 01bc c624 f8bb f300 fbbb
00000030: 6ea1 fdbb 5fba 00bc 5ab9 fcbb ab72 02bc
00000040: 9efa f6bb 7589 00bc fac9 03bc d70e 00bc
00000050: 8776 02bc 59e5 02bc 7d87 04bc 8a7f 05bc
00000060: 8f30 03bc 7648 01bc 20eb ffbb 301c 513c
00000070: 1ac5 553c 0fb4 4f3c 50e9 503c eef0 513c
00000080: 37fd 4d3c 0dfd 513c 6e26 523c 1c08 4a3c
00000090: d3cc 04bc 5af0 08bc 65c3 07bc aa3f 06bc
000000a0: f007 0cbc 1759 0abc 4780 07bc aa4f 07bc
000000b0: 9408 09bc a243 e1bb 8228 ebbb a835 dabb
000000c0: c153 f2bb 2b7b f8bb 2275 f2bb cdb9 e3bb
000000d0: dcb2 edbb 4ec3 e6bb d97c 973c 66a2 9d3c
000000e0: da07 9d3c 79f0 9b3c 4f43 a43c 6551 a13c
000000f0: 40d8 9c3c 3727 a43c 59e0 9e3c d9a6 fabb
00000100: 0b32 f8bb e957 fbbb a32f fbbb 5082 01bc
00000110: 8bdb f9bb 362a f7bb a0fa fcbb 7559 f7bb
00000120: 83be acbc 7266 b6bc be45 b0bc a8be b4bc
00000130: f73d c3bc 7833 bdbc 0600 afbc e8f4 b8bc
00000140: 8709 b4bc 9739 2dbc a7be 34bc 92d9 2cbc
00000150: c0f1 2ebc b7f8 37bc ee9f 33bc 8c84 2abc
00000160: 24eb 2dbc be6a 26bc c965 f0bb 5fb1 efbb
00000170: c83c e8bb 488f f2bb 15f7 edbb 3f6b efbb
00000180: 8e87 f0bb 04f0 f5bb 7ac1 f0bb 35bd 00bc
00000190: b43f 04bc e6d8 01bc b67d febb a93d 02bc
000001a0: f8dd 01bc 3341 00bc 6a4d 02bc 7766 fcbb
000001b0: 9426 00bc 5c1c 08bc 2c4d fabb 0e5c 05bc
000001c0: bc9e 09bc a480 07bc 4455 00bc a151 04bc
000001d0: b676 00bc a19c 8fbd f517 abbd 52bb 93bd
000001e0: ea02 adbd 95b1 c9bd bf35 b1bd c9a4 8ebd
000001f0: b1a4 aabd 55d2 92bd 2343 6dbc ef7f 93bc
00000200: 9de5 90bc a104 78bc 1ae0 99bc ffb4 93bc
00000210: 0dd9 50bc 217d 86bc 2bb9 83bc 551e 50bc
00000220: bb6c 57bc 4c83 4fbc 5f83 56bc 113e 60bc
00000230: e256 55bc e188 4dbc a41f 52bc 4615 45bc
00000240: 8ae6 66bd 946a 6ebd 3f9e 65bd 1443 6ebd
00000250: 0f1f 74bd de94 6cbd 0f7d 63bd db39 69bd
00000260: aad9 61bd 8bcf edbb 51ae f2bb 230f eebb
00000270: d9dd f5bb 076f f8bb d463 f3bb d35d fbbb
00000280: ef80 f5bb 5637 f4bb 2ff9 673c a2b2 793c
00000290: 6fb7 703c 9833 833c 8994 8b3c 5bc9 853c
000002a0: e3ee 913c 6e45 953c e6bb 8b3c e1a3 7cbc
000002b0: b00c 75bc a34b 73bc 3899 7ebc 7692 7abc
000002c0: df89 71bc e734 73bc 5d1b 75bc 3b13 6bbc
000002d0: a59f 8fbc f781 85bc 9d34 63bc 8b2a 83bc
000002e0: 4bfd 74bc e148 4fbc bc36 84bc 61e3 77bc
000002f0: 5f62 4cbc 2f5c f4bb 98d4 eebb 1f5a f4bb
00000300: ce3e f6bb bfa8 f7bb cc79 f3bb d9fa f9bb
00000310: 3ef1 f5bb 6a19 f5bb 2d64 02bc e9a7 fcbb
00000320: d371 00bc 74ed 01bc 397b 02bc 396c 03bc
00000330: 6982 fbbb 3127 f9bb 95e6 02bc 8d90 cebb
00000340: ef23 edbb 9104 c8bb 360a d4bb b163 f5bb
00000350: 31a3 cfbb b342 c8bb db53 e0bb b5a7 babb
00000360: b753 29bc f838 3cbc 6c02 30bc a5af 2dbc
00000370: 5f00 3dbc 8040 2cbc 5869 20bc 67a6 2fbc
00000380: 41eb 15bc aefc ca3a 9d3e d63a 80e6 663b
00000390: b352 a13a ed47 cf3a a9cd 5a3b fb9c 453b
000003a0: f5ff 433b 8458 a43b 446d f1bb a839 00bc
000003b0: 8942 f7bb da93 febb a2a6 00bc 7e89 f9bb
000003c0: 24a2 eabb 5404 f7bb 6edd ebbb 220f 28bc
000003d0: a16d 2cbc 5e0b 2abc beec 2abc 1401 35bc
000003e0: b7df 2ebc 1d6a 2abc 3806 2bbc 0d36 2dbc
000003f0: cd04 43bc 88ef 48bc e1ae 40bc ceaf 47bc
-0.008928645 -0.009391242 -0.008917363 -0.009335384 -0.009737187 -0.009208097 -0.008801583 -0.009183439
-0.008966671 -0.007875439 -0.007572743 -0.0076600253 -0.007740191 -0.007856934 -0.0077125253 -0.007961909
-0.0075372 -0.007845272 -0.00804376 -0.007816038 -0.007962829 -0.007989251 -0.008088944 -0.008148083
-0.008007183 -0.007890811 -0.0078100115 0.012763068 0.013047481 0.012677207 0.012750939 0.01281379
0.012572578 0.01281668 0.012826545 0.012331035 -0.0081054745 -0.0083580855 -0.008286332 -0.00819389
-0.008546814 -0.008444092 -0.00827033 -0.0082587395 -0.008363862 -0.0068745175 -0.0071764598 -0.0066592284
-0.007395238 -0.007583042 -0.007399217 -0.0069496394 -0.0072539877 -0.007042325 0.01849215 0.019242477
0.019168783 0.019035565 0.020051626 0.019692132 0.019146085 0.02003823 0.019394087 -0.0076492843
-0.007574325 -0.007670392 -0.007665591 -0.007904604 -0.0076250485 -0.0075428737 -0.0077203065 -0.007548506
-0.021086937 -0.022265647 -0.02151763 -0.022063568 -0.023833258 -0.023095831 -0.021362316 -0.022577718
-0.0219772 -0.0105728125 -0.011031783 -0.01054992 -0.010677755 -0.011228732 -0.010963423 -0.010407578
-0.010615144 -0.010157285 -0.0073363525 -0.0073148455 -0.007087324 -0.0074023344 -0.0072621205 -0.007306486
-0.007340378 -0.0075054187 -0.007347283 -0.0078576105 -0.008071829 -0.007925248 -0.0077664508 -0.007949271
-0.007926457 -0.007828045 -0.007953027 -0.0077026444 -0.007821698 -0.008307543 -0.007638594 -0.008139623
-0.008399662 -0.008270416 -0.007832829 -0.0080761025 -0.007840803 -0.070122965 -0.08354179 -0.07213463
-0.084478214 -0.09848324 -0.086528294 -0.06965024 -0.08332194 -0.07169024 -0.014481339 -0.01800534
-0.017687613 -0.015137822 -0.018783618 -0.018030642 -0.012747061 -0.016417088 -0.016079506 -0.012702544
-0.013148482 -0.012665581 -0.013092845 -0.013686673 -0.013021203 -0.0125448415 -0.0128249265 -0.012028998
-0.056372203 -0.05820711 -0.05605912 -0.05816944 -0.059599932 -0.05775916 -0.055539187 -0.05693994
-0.05513922 -0.007257407 -0.007406034 -0.007264988 -0.007503253 -0.007581595 -0.007427672 -0.007671097
-0.0074921767 -0.0074528856 0.014158531 0.015240343 0.0146921715 0.016015813 0.0170386 0.016331365
0.017814105 0.018221583 0.01705737 -0.015419931 -0.014956638 -0.014849576 -0.01553946 -0.015293708
-0.014742344 -0.014844156 -0.014960137 -0.014347847 -0.01753218 -0.016297324 -0.013867524 -0.016011497
-0.014952968 -0.012651653 -0.01613938 -0.015129895 -0.012474625 -0.007457278 -0.0072885267 -0.0074570323
-0.007514811 -0.007557958 -0.007430291 -0.0076287803 -0.007505565 -0.0074798362 -0.007958454 -0.007710446
-0.007839638 -0.007930148 -0.007963949 -0.008021408 -0.007675458 -0.007603549 -0.007989545 -0.006303853
-0.0072369496 -0.00610406 -0.006470944 -0.007488691 -0.0063365926 -0.006111467 -0.006845934 -0.005696262
-0.010334901 -0.011488192 -0.010742765 -0.010600959 -0.011535733 -0.010513425 -0.009790741 -0.010720826
-0.009150327 0.0015486681 0.0016345565 0.0035232604 0.0012307971 0.0015814282 0.0033386743 0.0030153382
0.00299072 0.0050154347 -0.007367762 -0.007826246 -0.0075457734 -0.00776909 -0.007852228 -0.0076152673
-0.007160442 -0.0075383577 -0.0071980273 -0.010257514 -0.010524184 -0.010378687 -0.01043242 -0.01104762
-0.010673455 -0.010401276 -0.010438494 -0.010571969 -0.011903 -0.01226414 -0.011760444 -0.012187911

1.bn2.weight f4 [64]
00000000: 807d e93d c85f e63e 0bc8 e940 9f66 933d
00000010: af43 b740 13a0 be3f cc9f 813c 991d d13e
00000020: d43f 8fbb 1092 743d d45d 8340 ca46 c240
00000030: b8e8 6d3d f953 5f3f 953f e83f 70b2 563e
00000040: 541e f93f 363f 0740 2aef 9d3f a90e f5be
00000050: 12d3 0740 3cd8 6ebd b8c5 803d 0fb6 7940
00000060: 7d2c 5d40 b1c4 c43f c581 58be 6ca5 853e
00000070: aa10 bb40 175b ccbd d8f2 0f40 6f48 0e3e
00000080: 351a 1abe 8959 943e f5d6 e63c 22f6 6940
00000090: 19c1 693f c4a7 00be 48fc 9540 7f45 f7bd
000000a0: 1557 51bd c39c 8140 82bf 7140 9d78 fcbd
000000b0: 4103 9d3f 8f1b fb3e dcd8 6240 16d3 d53d
000000c0: 6151 1c3f 5863 d5bd 1c6a bdbc 628b 5a40
000000d0: 04ab 2f40 a070 91bd 98d7 83bd ae52 c73f
000000e0: 3cbb bfbc 98fe 9a3e a9e1 ee3d 9e63 9b40
000000f0: 2796 953e 4af2 b2bf 60f6 0d40 c372 3cbf
0.1140089 0.4499495 7.3056693 0.07197308 5.727012 1.4892601 0.015823267 0.40842894
-0.0043716226 0.05970961 4.1052036 6.0711412 0.058083266 0.8723751 1.8144404 0.20966506
1.946238 2.113233 1.2338612 -0.47862747 2.1222577 -0.058311686 0.06287712 3.901737
3.4558403 1.5372525 -0.21143253 0.2610277 5.845784 -0.099783115 2.249197 0.13894819
-0.1504906 0.2897456 0.028178671 3.6556478 0.9131027 -0.12563998 4.687046 -0.12073802
-0.05110844 4.050386 3.7773137 -0.12327693 1.2266618 0.49044463 3.544486 0.10440652
0.61061674 -0.10419339 -0.023121886 3.4147573 2.744813 -0.0710156 -0.064376056 1.5572107
-0.02340471 0.30272365 0.11664135 4.8559103 0.2921612 -1.3980191 2.2181625 -0.7361261

1.bn2.bias f4 [64]
00000000: 77fc 473e f0b8 843e dc44 4640 023e 893e
00000010: 074e 7040 fe4e 4c3f 574a 863f a6b8 de3e
00000020: 8ad6 8f3e 00ff f1bc 03c0 c73f 036d 1b40
00000030: 24ad 8c3e 481f 5c3f 6d1f 833f ded1 cc3e
00000040: f609 7a3f 3ec7 453f e881 e43e b6f4 d23e
00000050: 2d83 493f 763e 9f3e 2d12 9a3e e280 f43f
00000060: 2996 0a40 affb 823f 5db6 403e 2154 df3e
00000070: 90d5 5040 eb3d d83e b9fb 9a3f 6444 b13e
00000080: 1f04 a43e 2843 d13e 5aa5 ae3e 583a db3f
00000090: 8909 cbbb d46a 673e ad08 1d40 05e3 1e3a
000000a0: 5abe 943e df9b 0240 2dac 0040 7c31 8d3e
000000b0: 7f5b 013f 0a78 1e3e 59f7 1640 1935 843e
000000c0: 3465 423e 1e81 363e a2f6 a73e 7821 fe3f
000000d0: 030d d93f 4913 9d3e 431d 273e 4141 503f
000000e0: 1aff 903c 467e 383f dacd 833e b390 0040
000000f0: c62e 853e e3aa 953f 6d67 793f fe4f 7e3f
0.19529901 0.25922346 3.0979528 0.2680512 3.7547624 0.7980803 1.0491437 0.4350025
0.28093368 -0.029540539 1.5605472 2.4285285 0.27475846 0.8598523 1.0243965 0.40003866
0.9767145 0.77257144 0.4463036 0.41202325 0.78715783 0.3110234 0.30091992 1.9101832
2.165415 1.0233058 0.18819566 0.43618873 3.2630348 0.4223474 1.210807 0.3462249
0.32034394 0.4087155 0.34110528 1.712718 -0.006196205 0.22599345 2.4536545 0.000606105
0.29051477 2.0407636 2.0105088 0.27576816 0.50530237 0.15475479 2.358847 0.2582176
0.18983918 0.17822692 0.32805353 1.9853964 1.6957096 0.30678776 0.16319756 0.8134957
0.017699767 0.7206768 0.2574299 2.0088317 0.26012248 1.1692775 0.9742344 0.9934081

2.weight f4 [4, 64, 3, 3]
00000000: 5471 273e e343 1e3e fa38 83be 9799 633e
00000010: 340b 223d 0062 c2be aa17 f23d b9e9 adbd
00000020: d94b 89be b855 9b3d f5ed b33d 80d7 1a3e
00000030: 4f6f d53d af98 083e c129 433e 892f 0f3e
00000040: cda7 163e 97f0 213e 642a fa3f 5b3f f73f
00000050: a16c 4240 091c 0940 1920 1740 91e1 5d40
00000060: fad8 0d40 f606 0f40 ac75 4640 9b63 8a3d
00000070: dd93 263e 0c6c 3c3e 4dee 983d ae61 4d3e
00000080: f966 473e dd3d 593c bf34 fb3d 836b cd3d
00000090: 57f1 953f f2d5 ad3f 1b9a b43f 5992 a93f
000000a0: 7888 cc3f 53b7 cd3f c66c a63f 2302 bd3f
000000b0: d1f9 b13f f402 da3e 28a7 043f 5cc2 f63e
000000c0: f15f 053f 712e 233f 20f2 093f dcfd 063f
000000d0: 3388 113f 4219 e03e 93da 323e b237 9c3e
000000e0: e98b ba3e 2404 083e 2cf8 3e3e 9955 863e
000000f0: 5b00 bc3d f274 f53d 2a91 333e 947a 0d3d
00000100: 64c3 f33d af23 173e 5ce2 8f3d 70e8 363e
00000110: 989f 3c3e 9c82 ba3d ecb0 223e a3bb 0e3e
00000120: 112d 893e 371a b43d edb8 9fbd 5d0d 4e3e
00000130: 52e0 9cbc 786f 14be 2fa9 943e 8ed2 2d3e
00000140: cb78 013e a4f2 de3d fd17 7e3d 6e45 55bd
00000150: 6d94 ab3d c318 16bd d1d1 2dbe 3183 d53d
00000160: 1189 d9bc 7a1f 0ebe 0521 4ebe 895d bebe
00000170: 6ac2 18be 71e7 b0be 487e 30bf 2da2 bfbe
00000180: dd62 c0be c0da 3dbf 9169 13bf 6db4 0640
00000190: 31df 0440 c3a8 0540 3a58 1340 52e7 0840
000001a0: 45ee 0140 01f6 1740 e906 0540 fef7 f43f
000001b0: 2e40 053e 587d d93d c4d8 dc3d d630 053e
000001c0: 2435 ac3d 72a5 b93d dda2 ff3d bd82 a33d
000001d0: 2dc1 b53d e112 823e 22e6 92bd b200 eebd
000001e0: db7e 843e d074 56bd 69a4 a23a 1a39 de3e
000001f0: c73e b63e b7e3 d43e 5a09 dfbe 5f32 b9be
00000200: 71b1 91be ff4b d3be 3c0b d9be 6fb5 abbe
00000210: 52b7 01bf 731d 02bf 0d32 d2be b770 053e
00000220: 68aa d7be 18e0 10bf b423 34be 9286 06bf
00000230: 174e 39be 3c46 75be 0e6f e3bd 6348 ef3e
00000240: c727 9c3e 65f7 bf3e 1c24 c73e 9986 a83e
00000250: 5483 cb3e 2cf2 ca3e a1da 9d3e b4be aa3e
00000260: 0c3f a13e 453d 1a3f 0495 283f 309e 463f
00000270: cd22 303f a144 4b3f 650f 603f 7278 3a3f
00000280: 3129 463f 53a5 4e3f 1411 403e 0e3b 073e
00000290: c209 cb3d 371b 5b3e 639c f43d 0a8a a33d
000002a0: cc6d 503e d31a af3d 2e56 973c 3746 543e
000002b0: 7298 253e 61b0 253e 43c5 663e 6d86 243e
000002c0: b3fc 2c3e 1ae1 653e 1134 253e f984 303e
000002d0: 794b 473f bf75 583f 617a 483f 44cf 4a3f
000002e0: df3b 513f a2ab 3e3f 6475 5f3f 3911 5b3f
000002f0: 36fe 423f bcaf e9bc 07aa cfbe 9b55 eebe
00000300: a49a 07be cc68 98be 4d51 94be 25e2 7bbd
00000310: 9afa 823d 869d 983d 16c9 f13d 3dd5 d03d
00000320: f40a ca3d 0b87 fc3d 6cbb a33d 395e a63d
00000330: d9d4 f83d 907d af3d 8694 b23d e8e3 61bf
00000340: 147d 46bf a609 1cbf ac35 81bf c70a 8cbf
00000350: fac5 63bf 8655 91bf fe26 9cbf d426 86bf
00000360: 35bf 0c3f 882e ef3e 587e 153f 3995 313f
00000370: ee7e d23e b4af f33e ea7a 333f a146 8f3e
00000380: 714f 943e 7066 c63e 2593 f63e b3c8 1b3f
00000390: e775 933e 32ee 7f3e 7a01 c13e ac7d 533e
000003a0: 7b32 d53d 1564 4b3e 87be d23d 1df0 41ba
000003b0: 6835 0ebd 5d66 ff3d aa6a 483d ec4b 0f3d
000003c0: e034 303e a777 123e ec04 103e 68da 833e
000003d0: acba a2be f395 f8be 60b9 2abd 8145 33bf
000003e0: 7b57 51be afe4 1ebe 7ed0 a0be 6eee 163f
000003f0: d524 ea3f 6805 f63f 6fa9 fa3f abc6 0240
0.16351825 0.15455584 -0.25629407 0.22226559 0.039561465 -0.37965393 0.1182092 -0.08491845
-0.2681568 0.07584709 0.08785621 0.15121269 0.10421621 0.13339494 0.19058897 0.13982977
0.14712448 0.15814434 1.9544187 1.931621 3.0378802 2.1423361 2.361334 3.4668925
2.2163682 2.2347999 3.1009321 0.067572795 0.16267343 0.18400592 0.07467327 0.20056793
0.19472875 0.013259378 0.1226592 0.10030272 1.1714276 1.3580916 1.4109529 1.3247787
1.5979147 1.6071571 1.3001945 1.4766277 1.3904363 0.42580378 0.5181756 0.4819516
0.5209952 0.6374274 0.5388508 0.5273111 0.5684845 0.4376927 0.17466192 0.30511242
0.36434868 0.1328283 0.18649358 0.2623718 0.09179755 0.11985196 0.17535844 0.034540728
0.11902502 0.14759706 0.070255965 0.17862105 0.18420255 0.09106943 0.15887803 0.13938765
0.26792195 0.087940626 -0.07798944 0.20122285 -0.019149933 -0.14495647 0.29035327 0.16974851
0.12643735 0.10886124 0.062034596 -0.052068166 0.08377919 -0.03664471 -0.1697457 0.104254134
-0.026554616 -0.13879195 -0.20129783 -0.37180737 -0.14917913 -0.34551576 -0.6894269 -0.37428418
-0.37575427 -0.7416191 -0.57582957 2.1047623 2.0761225 2.0884254 2.30226 2.1391187
2.0301678 2.37439 2.0785468 1.9138181 0.13012764 0.106196105 0.10783532 0.1300691
0.08408573 0.09064759 0.124822356 0.07983921 0.08874736 0.25405028 -0.071728006 -0.11621226
0.25878033 -0.052357495 0.0012408617 0.4340294 0.3559477 0.41579983 -0.43561822 -0.36171243
-0.2845569 -0.41268918 -0.42391384 -0.3353686 -0.5067035 -0.50826186 -0.4105381 0.13031279
-0.42122197 -0.5659194 -0.17591745 -0.5254909 -0.18096195 -0.23952574 -0.111051664 0.46734914
0.30499098 0.37493435 0.38894737 0.3291519 0.39748633 0.39637887 0.30830863 0.3334862
0.31493413 0.6024974 0.6585238 0.77585125 0.688031 0.79401594 0.8752349 0.72840035
0.77406603 0.80721015 0.18756515 0.13206121 0.099139705 0.213971 0.11943891 0.07985313
0.20354384 0.08550038 0.01847371 0.2072991 0.16171435 0.16180564 0.22536187 0.16066904
0.16893272 0.2244915 0.16133143 0.17238225 0.7784954 0.84554666 0.78311735 0.7922251
0.8173198 0.7448064 0.872885 0.85573155 0.76169145 -0.02852618 -0.40559408 -0.46549687
-0.13242584 -0.29767454 -0.28968278 -0.061494965 0.06395455 0.0745192 0.11805932 0.10196922
0.098653704 0.12330445 0.07994732 0.0812344 0.121499725 0.08568871 0.08719735 -0.8823838
-0.77534604 -0.6095222 -1.0094504 -1.0940789 -0.88973963 -1.1354225 -1.21994 -1.0480599
0.5497926 0.46715188 0.5839591 0.6936832 0.41112465 0.47594988 0.70109427 0.27983573
0.2896686 0.3875003 0.48159137 0.6085312 0.2880089 0.24993208 0.3769644 0.20653409
0.10410019 0.19862397 0.102902465 -0.00073981454 -0.0347189 0.12470696 0.048929848 0.034984514
0.1720767 0.14303456 0.14064378 0.25752568 -0.31783044 -0.48551902 -0.041680694 -0.7002793
-0.20443527 -0.15516923 -0.31409067 0.58957565 1.829249 1.92204 1.9582957 2.0433757

2.bias f4 [4]
00000000: 2bfc 283e 9f7f 38bb 7b50 213e 8568 2a3e
0.16502444 -0.002815224 0.15753357 0.16641434
