expert_target_aware/mocosflV2_ResNet18_cifar10_cut2_bnlC4S2_expert_batchsize128_ressfl_2.0_SSIM0.6_data_proportion_0.01_aux_svhn/checkpoint_c_best.tar (torch, 316626 bytes, 11 tensors)

0.conv1.weight f4 [64, 3, 3, 3]
00000000: bfb4 61bd 91e9 88be 5e3b 2abd 95ca 50be
00000010: 2105 3dbe 1782 27be da4b 9fbc edb3 46be
00000020: 2498 85be f5a4 45bc 6d32 54bb 671d 583e
00000030: 096c 6b3d 0778 8d3d bffa 503e ea6a b7bd
00000040: eb75 9c3e 76d3 6fbc b58d 603c 41d3 52be
00000050: 99ce 13be 5018 70bd 263d 4d3e 6df4 dd3c
00000060: 144a 3a3d 6a61 423e d085 293e abc0 fb3d
00000070: 122e 873e 36d9 d33d 509a 3c3e 4b17 373d
00000080: 39c4 2d3e 7f15 443e acd2 8d3d 1eb6 c03d
00000090: 1665 8ebd c0e7 03be dbfc e9bd ae31 93be
000000a0: 40ed 52be 83a5 91be 30cc 7dbd 3466 ecbd
000000b0: 8588 42bd 3a37 a73d 4cf5 ed3d 8afe 7e3e
000000c0: 4ca2 8abd 7a0c 9bbe 5c2c 2cbc c9ca c7bd
000000d0: b788 8d3c fcee 5c3e a2c5 51bc b7d7 d43d
000000e0: 73fd 7a3d 35af 1a3d 556c af3d cdfe fa3c
000000f0: 5b51 99ba ac57 443d b993 4d3d 334f 783d
00000100: a261 0a3e 8899 f43d 974f fe3c 010f 943d
00000110: fa21 653d 5820 5e3d 66b1 9d3d 00b7 af3d
00000120: f52e c2bd 04e2 0ebe e812 e9bd 3a3b 16be
00000130: da00 6abe a045 75be 11b8 aabd 15ba 14be
00000140: 5250 c6bd 911d 1a3d df6d 253e a0d1 983d
00000150: 3558 423d faa1 953d b8ef 263d 787d be3d
00000160: a60c db3d a564 603d 2090 5a3d 7dcf 063e
00000170: 35ae 3c3d 4e46 a53c 066f 173c 9b16 06bc
00000180: f49f 873d ddd3 f53d f176 953d 4387 debd
00000190: d6ea c6bd 07b6 10be a51a 17be 4510 8cbe
000001a0: 1584 89be 902b a0bb 7571 01be 3ccd e7bd
000001b0: f959 a1be 0a5d 81be bd06 28be d6e1 32be
000001c0: 8dbe eebd 99ce 293d c349 aebd 2e41 053d
000001d0: 1feb bdba 54fe 173d d738 233e 4dbc b33d
000001e0: f73f 883d 4970 453e 26d2 0e3e 3704 3b3d
000001f0: 599a d83d c136 263d f91a b63e 3d3b 0e3e
00000200: 01ca 9a3d 90a6 a63d 180e a0bd 95e4 98bd
00000210: 8b84 243c c84c 66be 52b7 22be 5342 15be
00000220: ad18 1abe 5d13 11be fa92 34be 694c 43be
00000230: 9a01 02be fd3f a4bd a2b7 01be ff66 10be
00000240: 562d dd3c 70f5 0a3d f375 bd3c 79d8 85bc
00000250: 2062 9cbc c0be 253c 9e26 0e3d 373a 243c
00000260: 5fda f63b 016a 263e 50d7 083e 9d65 313e
00000270: c9df cd3d 9b71 d93d 8711 073e 18e5 bc3d
00000280: 0c76 c03d 5947 6e3d fa67 eb3d ef66 ad3d
00000290: 717d 2fbe ff5b 803d 6eec cb3d 7999 90be
000002a0: b10a 23bd a26f e3bd 57fd 58be 62bf 693e
000002b0: 05b1 ec3c 2ead fdbd 3fa4 78bc caf0 c6bd
000002c0: a950 8ebe 2a6e e1bd 8ae4 b23d 0d5a 50be
000002d0: 6f9f 163e 69c1 7c3e b4bb 6bbe b34f b23e
000002e0: 203b 413e 2c12 1d3c cdfe 1cbd 04f5 8f3d
000002f0: de62 1fbe ddac 913e 899d 8b3e 14d9 1a3e
00000300: ce3c 4c3e 4537 433e f876 433e 2074 813d
00000310: 1918 92bb 7526 32bc f820 4bbe 70e1 edbd
00000320: 67f5 8ebe e742 6bbe 2572 07be 5147 72be
00000330: 795c c4bd e489 09be f32e f8bc 8ca8 0cbd
00000340: 0022 4a3d 2215 79bd 6341 8bbd 9e59 8dbd
00000350: b083 66bb 3c0e 113c cfb5 05bd 0b81 573d
00000360: 0c36 883c 1117 303d d376 45bd 5fc9 a23d
00000370: aa2d 6cbd 3048 24be f58c c93d 81d1 24bc
00000380: 7589 acbd 73c0 2abc becd 9e3d 3958 14bd
00000390: 7ca0 263e f94c 923d 2244 37be e6f6 ac3d
000003a0: 6df6 9fbb 824d 28be 66ee 823d 7b79 6c3b
000003b0: 0409 7fbe e6fb 5f3e 4430 32bc c4e9 98be
000003c0: e73b 633e de57 9e3d c723 69be d215 bdbd
000003d0: 034a 60be 48a1 0bbe 645b 82bd bbc7 f2bd
000003e0: b7c0 8dbd 4584 d13d dd48 133e c5d0 f43d
000003f0: 3192 65bc 1491 f2bd 72b9 babd 9699 2d3c
-0.055104014 -0.26740697 -0.041560523 -0.20389779 -0.18458988 -0.16358219 -0.019445349 -0.19404574
-0.26092637 -0.012063255 -0.003237869 0.21104966 0.057476077 0.06907659 0.20408152 -0.08955939
0.30558714 -0.014637819 0.013705661 -0.205884 -0.1443428 -0.058616936 0.20042858 0.02709409
0.045480803 0.18982473 0.16554952 0.12292608 0.26402336 0.10344164 0.1841824 0.04469995
0.16969384 0.19148825 0.06924948 0.09409736 -0.06952874 -0.12881374 -0.114251815 -0.2874884
-0.20598316 -0.28446588 -0.061962306 -0.11542931 -0.047493476 0.081648305 0.11619052 0.24901786
-0.06769237 -0.30282956 -0.010508623 -0.09755475 0.017277105 0.2157554 -0.012803467 0.10392707
0.061276864 0.037764747 0.085655846 0.030639077 -0.001169722 0.047935173 0.050189707 0.060622405
0.13513806 0.11943346 0.03104381 0.07229424 0.055940606 0.054230064 0.07699852 0.08579826
-0.094816126 -0.13953406 -0.11380559 -0.1467103 -0.22851887 -0.23952341 -0.08335889 -0.1452411
-0.09683289 0.037625853 0.16155194 0.07461858 0.047447402 0.07306285 0.040755957 0.09301275
0.10695772 0.054783482 0.053360105 0.13165088 0.046064574 0.020175125 0.009242779 -0.0081841005
0.066223055 0.120033 0.07298077 -0.10865643 -0.0971276 -0.14131938 -0.14756258 -0.27356163
-0.26858583 -0.0048880056 -0.12640937 -0.11318442 -0.31513956 -0.25266296 -0.1640882 -0.17468962
-0.116574384 0.041456793 -0.08510163 0.032532863 -0.0014489627 0.03710778 0.15939651 0.0877615
0.06652825 0.19281115 0.13947353 0.045658316 0.105763145 0.04057956 0.35567454 0.13889785
0.075580604 0.08137238 -0.07815188 -0.074654736 0.010041366 -0.22490227 -0.15890244 -0.14576082
-0.15048476 -0.14167543 -0.17634192 -0.19072117 -0.12695923 -0.08020017 -0.12667707 -0.1410179
0.026999157 0.033925474 0.023127532 -0.016338574 -0.019089758 0.010116279 0.034704797 0.010023645
0.007533356 0.16251375 0.13363385 0.17323919 0.10052449 0.10617372 0.1319028 0.09223384
0.09397516 0.05817351 0.11494441 0.08466899 -0.17137696 0.06267547 0.09957205 -0.2824209
-0.039805118 -0.11105277 -0.21190391 0.22826913 0.028893003 -0.12386547 -0.015175878 -0.097138956
-0.27795914 -0.1100734 0.087349966 -0.20346852 0.14709257 0.24683155 -0.23020822 0.3482643
0.1887021 0.009586852 -0.038328934 0.07029155 -0.15565059 0.28452197 0.27268627 0.15121871
0.1994507 0.19064052 0.19088352 0.06320977 -0.004458439 -0.010873427 -0.19836795 -0.116152644
-0.27921602 -0.2297474 -0.13227136 -0.23660018 -0.0958795 -0.13431507 -0.030295825 -0.034340426
0.04934883 -0.06081117 -0.06799581 -0.06901859 -0.0035173707 0.008853491 -0.03264409 0.0526133
0.016627334 0.042990748 -0.048209023 0.07948565 -0.057660736 -0.16043162 0.098413385 -0.010059715
-0.08424655 -0.01042186 0.07754086 -0.03621695 0.16272157 0.071435876 -0.17897084 0.0844553
-0.004881671 -0.16435817 0.06393127 0.003608315 -0.24905783 0.21873435 -0.010875765 -0.2986585
0.2219082 0.07731603 -0.22767554 -0.092326775 -0.21903233 -0.13635743 -0.06365088 -0.11854502
-0.06921523 0.102303065 0.14383264 0.11953882 -0.0140119055 -0.11844078 -0.09117402 0.0105957

0.bn1.weight f4 [64]
00000000: f4f0 d13e 77c3 983e 86b8 8d3e 20c4 093f
00000010: 4f40 183f 5bd9 983e 0d41 523f e6d2 ea3e
00000020: 59af da3e b093 293f 4829 883e efd8 683e
00000030: 7bbd 123f 52ce b23e 227f b13e 0764 163f
00000040: 6ec5 0a3f 53b8 233f 3c78 b63e 8b2d cb3e
00000050: e02d 0a3f 6efa 8a3e 1b31 ed3e 8672 0c3e
00000060: 307e 063f d81f b63e ee4d 123f f7ce 5b3e
00000070: 0fdd b93e d737 e73e c3b1 1f3f 552a 183f
00000080: 13e2 ce3e 2098 783e 4649 1b3f c42f 8a3f
00000090: 70e9 423f f8f0 9c3e a984 023f 6f15 9c3e
000000a0: 4fa8 bf3e 5f39 eb3e bec3 013f 0443 0f3f
000000b0: 7347 2e3f 4bd7 713e 33c8 013f 71b3 6b3d
000000c0: 5994 113f ed50 e43e 72a0 083e 3584 1d3f
000000d0: c7ef 3a3f 1fc4 3d3e 6a6e 953e a3c5 da3e
000000e0: c8a0 433f 8187 f93e 0cf2 403f 6cbf d13e
000000f0: d5d3 273f d0e9 b13e fd86 a03b e457 783e
0.41004145 0.29836628 0.27679843 0.5381489 0.5947313 0.2985333 0.8213051 0.45864028
0.42711905 0.6624098 0.26593995 0.22739004 0.57320374 0.34923035 0.34667307 0.5874638
0.54207504 0.6395313 0.35638607 0.39683184 0.5397625 0.27144188 0.46326527 0.13715562
0.52536297 0.3557117 0.5715016 0.2146567 0.36301467 0.4515979 0.6238062 0.59439594
0.40406856 0.24276781 0.6065868 1.0795827 0.7613745 0.30652595 0.50983673 0.30485103
0.37433097 0.45942208 0.50689304 0.5596163 0.6807777 0.23617284 0.50696105 0.057544176
0.56866986 0.4459299 0.13342455 0.61529857 0.7302212 0.18531846 0.29185802 0.4272891
0.7641721 0.48736194 0.75369334 0.40966356 0.65557605 0.34748697 0.0048989044 0.24252278

0.bn1.bias f4 [64]
00000000: 2497 fd3d 4d6b a93f 442e 943d 4270 703e
00000010: 2748 5f3f f23e 3ebe 27c7 4bbd e5a1 c53e
00000020: 169e 2b3e 5574 06be 094e c43f e445 20be
00000030: a850 863d 443e 923f f2d9 21be af38 b93c
00000040: eb66 213e eb78 093f e681 873e 3f1e 813e
00000050: b060 56be 0cad 503f 079a ab3e a206 2ebe
00000060: 6032 f33e 694c 3ebe 8750 32bb 10e9 243f
00000070: 16dd 90be d750 29bb 6f20 80bd 7e92 563e
00000080: 085a 45be 6dd2 4bbe 067e 4d3e d59a 2d3f
00000090: ce26 253e 43f1 89be bef2 85bd 5ab4 c43f
000000a0: 1fb3 043d 970d a9bb 272d db3e 4cb6 b93e
000000b0: 8bee 86be 6023 723f f06e 483f e8a6 68be
000000c0: 84ec 80be c901 99be ac35 6a40 3ae4 ed3e
000000d0: d45e 5c3d e102 74be 2967 e33e a7ea 19be
000000e0: 5ab4 6e3f ed76 27be 26d4 e2bd 0b8c 08be
000000f0: 1756 1c3e a5ca 6c3f 3c66 ea3d 1bc8 423e
0.123823434 1.3235871 0.07235387 0.23480323 0.8721947 -0.18578699 -0.049750473 0.38600078
0.16759524 -0.13130315 1.5336314 -0.15651661 0.06558353 1.1425252 -0.15805796 0.022610037
0.15761916 0.5370013 0.26466292 0.25218388 -0.20935321 0.8151405 0.3351595 -0.16994718
0.4749937 -0.18583836 -0.0027208643 0.64418125 -0.28293675 -0.0025835538 -0.06256186 0.2095432
-0.19272625 -0.1990449 0.20067605 0.6781438 0.16128084 -0.2694188 -0.0654044 1.5367539
0.032397386 -0.0051590907 0.42807886 0.36271894 -0.2635387 0.9458523 0.7829428 -0.2271992
-0.25180447 -0.29884174 3.6595259 0.46463186 0.053801373 -0.23829223 0.44414642 -0.15030919
0.93243945 -0.1635396 -0.1107562 -0.13334672 0.15267216 0.9249671 0.11445281 0.19021647

1.conv1.weight f4 [64, 64, 3, 3]
00000000: 80e0 c83b 4dc9 a33b 16c4 89bb 4143 9c3c
00000010: 0007 ee3b 3027 1dbd 6e1a c63c 7987 9bbb
00000020: 53c3 17bd be26 753c da56 503c 7375 613b
00000030: 2ce3 09bc 6f7a 553c 457a 01bd 9093 e53b
00000040: d4ff 5e3b f9ea 03bd 4f81 10bc 670d ffbc
00000050: 2a9b 9abc 1243 b3bc e814 01bd 82e9 92bc
00000060: e534 85bc 5c82 d1bc dda7 693c bfab 4e3c
00000070: 0821 6a3b 0df0 85bb da53 a2bc e4e9 dbbc
00000080: a3f0 bcbc 6d06 cabc 68af 4dbc d45d f6bb
00000090: d14d 3ebb 5b7d 0dbc 2835 2dbd 255b cd3b
000000a0: c36c 0f3d cce9 f9bb da09 04bd 8f31 053d
000000b0: f81b e7bc 7f65 14bc fbfc 063c 793c a0bc
000000c0: 87bd 163d f45b d73c 8876 b83b 49ff 8b3c
000000d0: 82da 4d3c b3d9 01bd c5ac 063d 2e4b c03d
000000e0: 0df6 273d 395f 8c3d d36d 9a3d 5977 a5bb
000000f0: 3579 a73b d1a7 a43c 8b1c 7ebd 0db7 b03d
00000100: 8e1a 943d 271c 3e3d dd1d 723d 0583 713d
00000110: 2514 7e3c af63 373d 03b6 553d d04a f33c
00000120: 7167 6e3d 0be6 153d edba 2ebc ac98 303c
00000130: 0576 c73c 2eb7 d4bc 58aa 57bb 3e5f cf3b
00000140: 4d09 80bd ed93 0e3d 458b 733d 4337 f13c
00000150: f213 813d b722 7c3d e6fa 1c3d 9471 123d
00000160: 55b3 a33c d4b8 bf3b d4bc 6bbd e92f 26bc
00000170: 3c52 78bd cb3e b6bd f21d a8bc 24d2 95bd
00000180: 5878 b4bd 99b5 6dbd 5e6f 9dbd 882c 313c
00000190: 9f99 73bc b719 bebc b71c adbb 642a dfbb
000001a0: 0eac 32bd 3ad9 c1bc 3a2c 0dbd 98c0 72bd
000001b0: 2dc7 e1bc 5eec 213d 5c68 363d 7533 1dbd
000001c0: 2b5f 2b3d 789e b73d 2cb3 5cbd f4bc c9bb
000001d0: e993 413d 1944 cebc cfd1 c53b 5a7d c8bc
000001e0: 27ea 43bd 762e e8bc e302 61bc 057d b1bd
000001f0: 2669 93bd 4d9a 83bd 7b1d 35bc 112b cfbc
00000200: 0660 49bd 69f1 ce3c 8664 8cbc ffc7 d9bc
00000210: bf6a 883c 9fb2 24bc ae1f 34ba a0d8 873c
00000220: c5d6 b2bb 975f 9f3c b949 223d 3342 8b3d
00000230: 8362 ed3c 831b 793d 2669 873d b2af 7c3d
00000240: 8d96 b9bd 6bab c5bd 8087 acbd 4139 f5bc
00000250: b68d 3cbb e49c c3bc 08ea bdbb c12b b33c
00000260: 9a71 99bc 5d1e 16bd b0d7 093c a4ca a3bc
00000270: 25d3 65bc e1da aa3c d997 46bc 6ed5 1dbd
00000280: 82cd 243c 72f5 1cbd e7db 8c3c 007d f73c
00000290: 1567 8abc 8435 3c3d 13f9 133d ffcd 733c
000002a0: 1b36 29bc ce91 e4ba 4420 b8bc b103 f4bc
000002b0: 66bf 5abc bb82 79bc 50c0 e1bc 5dd3 953b
000002c0: 2813 a6bc cc57 abbc c914 dbbc 4c2e 1fbd
000002d0: 2b88 89bc a13d b2bc b840 1abc 5f71 29bb
000002e0: fa9e 193c fc74 0cba 658c 7a3c b989 09bc
000002f0: 9019 f9bc bb7b 8a3b ec2c ed3c 0ac2 ed3c
00000300: b727 aabc c0a9 a2bb 2a6a 63bc fede 873c
00000310: 6990 d43c 863f 033d f039 82bc a724 69bc
00000320: 2e1c f8bb 4e3b 5dbc e015 aa3b 35f8 5bb8
00000330: 24ff 7a3c 9423 e4bb 73e2 e8bc 4896 7abc
00000340: c97d babc d00f 0abd 44b4 da3b 7021 58bc
00000350: 06b1 13bd 6f4f c43b 2873 a4bc 737a 16bd
00000360: a72c 3bbd b55b 05bd 66b4 2abd 20a1 29bd
00000370: 1161 53bd 18f9 39bd 206d c4bc 76af 01bd
00000380: 9233 fbbc b158 a93c 8db5 41bc 6d2d 2bbc
00000390: 4015 6dbc 7521 b4bb da81 a0bc 0641 bd3c
000003a0: 0e11 0bbb b55d 9dbc 440a c23b 1c22 ffbc
000003b0: ae1f c5bc 006d e63a e3e8 29bc 9987 83bc
000003c0: 9397 ee3c 3c88 a43b c409 73bc 0823 e5bc
000003d0: ac61 89bc 5a9a d2bc e48a 6fbd a0b5 3abd
000003e0: dc21 5cbd 42bb c3bc b2f4 4cbd b783 d6bc
000003f0: e711 543d 5959 663d 20cf c2bb 5577 833d
0.006130278 0.004998362 -0.0042042835 0.019075038 0.007264018 -0.03836745 0.024182525 -0.004746374
-0.03705151 0.01496285 0.0127160195 0.003440228 -0.008415978 0.013029679 -0.031610746 0.007006116
0.0034026997 -0.03220651 -0.008819892 -0.03113432 -0.018872816 -0.021882568 -0.03151408 -0.01793361
-0.016260574 -0.025574856 0.014261213 0.01261419 0.0035725255 -0.004087454 -0.019815374 -0.026844926
-0.023063963 -0.024661267 -0.012554027 -0.0075185094 -0.0029038081 -0.008635844 -0.042287022 0.006266969
0.035015833 -0.0076267477 -0.032235958 0.032517966 -0.028211579 -0.009057402 0.008239026 -0.019560086
0.03680184 0.026288964 0.0056293644 0.017089503 0.012564303 -0.031701755 0.03287961 0.093893394
0.041006137 0.068541 0.075404786 -0.0050496277 0.0051108846 0.020099552 -0.06203894 0.08628664
0.072316274 0.046413567 0.05911051 0.05896284 0.0155077325 0.0447728 0.052175533 0.02969876
0.05820412 0.03659634 -0.010664684 0.010778587 0.024348268 -0.025966253 -0.003290793 0.0063284924
-0.06251774 0.03480904 0.05945899 0.029445296 0.063026324 0.061556544 0.038325213 0.035752848
0.019982973 0.0058508907 -0.057553127 -0.010143259 -0.0606253 -0.088986956 -0.020522092 -0.07315472
-0.08812016 -0.058034513 -0.07687257 0.01081384 -0.014868169 -0.023205621 -0.005282964 -0.0068104733
-0.043621115 -0.023663152 -0.034466006 -0.059265703 -0.027560795 0.039532058 0.04453312 -0.03837915
0.041838806 0.089657724 -0.05388181 -0.006156558 0.0472602 -0.025178956 0.006036974 -0.024473835
-0.047830727 -0.028342467 -0.013733598 -0.08666424 -0.0719779 -0.06425915 -0.011054392 -0.02528909
-0.04916384 0.025261598 -0.017137777 -0.026584623 0.016652463 -0.010052352 -0.0006871176 0.016582787
-0.0054577314 0.01945476 0.03962109 0.06799736 0.028977638 0.060817253 0.06611852 0.061690994
-0.090619184 -0.09651836 -0.08424282 -0.029934527 -0.002877099 -0.023878522 -0.005795721 0.02187145
-0.018730927 -0.03665005 0.00841324 -0.019994088 -0.014027392 0.020856323 -0.012121164 -0.03853362
0.0100587625 -0.038320012 0.017194701 0.030210972 -0.016894856 0.045949474 0.036126208 0.014880656
-0.010327841 -0.0017438473 -0.022476323 -0.029786916 -0.013351297 -0.0152289225 -0.027557522 0.0045723156
-0.020272806 -0.020915888 -0.02674331 -0.03886251 -0.016788563 -0.021757903 -0.009414844 -0.0025854928
0.009376282 -0.0005358008 0.015292262 -0.008394652 -0.030407697 0.0042261756 0.028952084 0.02902319
-0.02077089 -0.0049640834 -0.013880292 0.016585823 0.025947766 0.032043003 -0.015896767 -0.01422993
-0.0075717187 -0.013502909 0.005190596 -5.244483e-05 0.015319619 -0.006962249 -0.028428292 -0.015294619
-0.022765057 -0.033706486 0.0066743214 -0.013191566 -0.036057495 0.0059909145 -0.020074442 -0.03673787
-0.04569688 -0.03255816 -0.041675948 -0.041413426 -0.05160624 -0.04540357 -0.023977816 -0.031661473
-0.03066424 0.020672174 -0.01182307 -0.010447842 -0.014470398 -0.0054971525 -0.019593168 0.023102295
-0.0021219882 -0.019209722 0.005921634 -0.031144194 -0.024062958 0.0017580092 -0.010370466 -0.016055869
0.02912501 0.005021123 -0.014833871 -0.027970806 -0.016770206 -0.025708366 -0.058482066 -0.045583367
-0.05374323 -0.023893002 -0.050038047 -0.026185853 0.051774886 0.056237552 -0.0059451014 0.06419245

1.bn1.weight f4 [64]
00000000: ba03 0e3f 2030 9d3e 621e d23e 6be2 5e3f
00000010: c3cc 883f 174d 113f 9d37 793e 2f76 803f
00000020: ab2b ad3e ec05 ca3e 543a b03e 985b 1d3f
00000030: 6f18 4f3f ef63 2e3f d738 323f e88a 233f
00000040: 392a aa3e d51f f83d f8c8 f63e 1c83 f03e
00000050: d272 7a3e 60a9 2a3f 925a c03e 2c4d 083f
00000060: 13b4 793f 276f 173f 1132 4e3f eba8 313f
00000070: b96a 403f 871a 3a3f 4892 203f 37a5 bc3f
00000080: 33c8 573f a283 673e 43b1 0d3f bbc9 273f
00000090: 27bc 403f c634 b63e 3c0e 7d3f b534 483f
000000a0: 25c9 9bbd 63cf 073f 6b59 d83e cce8 cd3e
000000b0: 6266 3d3f 1e5e dd3e 4203 fd3e ea53 9f3e
000000c0: 88f4 e53e 3654 db3e d5c4 403f 60a6 c33e
000000d0: 4767 8e3e 7936 e33e 2386 483f 86c9 6a3e
000000e0: eafd a43c 2aa2 d23e a1d4 af3e 305a 583d
000000f0: f2ff 5a3e 4622 393e 2f77 8b3e c21f fe3e
0.55474436 0.3070078 0.41038805 0.87064236 1.0687488 0.56758255 0.24337621 1.0036067
0.3382238 0.39457643 0.344195 0.61467886 0.8089666 0.68121237 0.6961798 0.6388383
0.33235338 0.121154465 0.48200202 0.4697503 0.24457863 0.66664696 0.375691 0.53242755
0.97540396 0.5915398 0.80545145 0.69398373 0.75162846 0.7269673 0.6272321 1.473792
0.84289855 0.22608808 0.55348605 0.6554219 0.752871 0.35587138 0.98849845 0.78205425
-0.07606725 0.5305082 0.4225572 0.40216672 0.7398435 0.43235868 0.49416548 0.3111871
0.44913125 0.42837685 0.7530034 0.38212872 0.2781317 0.44377497 0.78329676 0.22928438
0.020140607 0.41139346 0.3434191 0.052820385 0.21386698 0.1807948 0.27239367 0.49633604

1.bn1.bias f4 [64]
00000000: 0997 ae3e 3aa4 70bd cdb8 acbd 019c d33e
00000010: 161a a73d 983b 36bd 0bfa d8bd debe d53d
00000020: 574f 24be 528c 0b3c ccf9 a9bd f6e5 4dbd
00000030: fc3c dc3e e4f4 f83d 8c68 403e 3562 833e
00000040: 479e 98bd 6e37 53be 6888 e73d 3bcc 87bd
00000050: dee9 29be 82ee 613e 57ea 023c 1a6a 073e
00000060: 2b31 023f e1ef 273e a898 6a3e 385d 733e
00000070: c8b5 df3e 5b58 393e 9502 8e3e bce1 173e
00000080: 4ea8 51bd afc4 e7bd e289 45bd 1f45 bd3c
00000090: 7d51 a83d 564c d23e cabc 9bbd ff63 2d3d
000000a0: 248d acbd 6888 db3c f099 8bbc 4b26 69bd
000000b0: 3518 e23e 66c0 b7bd e739 793e de17 163e
000000c0: 50d2 653e 686c c13b f3ba 813c 71f8 fa3d
000000d0: 6ef3 82bd c1ac bf3d f287 99bb fb8d 983d
000000e0: f3ec 84bd 88c4 23bd 897b fe3d 6ee3 fabd
000000f0: 8819 73bd ab42 95bd 4c0d a43e 1d95 053e
0.34099606 -0.05875037 -0.084336855 0.4132996 0.081592724 -0.044490427 -0.10594567 0.10436796
-0.16045891 0.008517342 -0.08299598 -0.050268136 0.43015277 0.12156084 0.18789881 0.25660864
-0.07452064 -0.20626613 0.11305314 -0.06630751 -0.1659312 0.2206364 0.007990441 0.13224068
0.50856274 0.164001 0.22909796 0.23766029 0.43693376 0.18100111 0.27736345 0.14832205
-0.0511859 -0.11316811 -0.0482272 0.023104249 0.08218668 0.41073865 -0.07604368 0.04233169
-0.08425358 0.026798442 -0.017041177 -0.056921285 0.44159093 -0.08972244 0.24338494 0.14657542
0.22443509 0.0059028156 0.015836215 0.12254418 -0.06394087 0.09359122 -0.0046853954 0.074489556
-0.06490507 -0.03998235 0.12425906 -0.1225041 -0.05935052 -0.072881065 0.32041395 0.13045163

1.conv2.weight f4 [64, 64, 3, 3]
00000000: b5ae 3ebd c872 4b3b 1d38 76bc 36ad c6bc
00000010: 5498 853b e05d c1bc 1f0d 58bd ac92 67bd
00000020: f732 a3bd b1d2 d7bd cc3d 42bd a70c 4cbc
00000030: c266 b0bd c162 3abd fe6f 21bb f920 bbbc
00000040: 5679 093d ee9d f43c 9356 33bb 174f 883b
00000050: ae94 3b3c 455e 00bc a9bc 853b 302a 42bb
00000060: 2507 13bc 3703 65bb 14ab c83b 7351 7c3c
00000070: 2e5c 13bc e65f 8db9 bdd6 e1bb 3f69 8abc
00000080: 1351 f53b 020f 26bc 04d3 b63c 37d5 3f3d
00000090: f162 813d 6b39 a83d a348 3f3d e40a 50bd
000000a0: 673d 76bc 193f ecbc 98d2 b2bd a471 1ebd
000000b0: ea24 76bd 7f6d 36bd c263 84bd 97cc bebd
000000c0: db90 f4bc 69f6 4ebd 29ca adbd be0e 99bc
000000d0: 417e 02bd dd2c 83bd 2d1c 4cbd 19e9 6fbd
000000e0: 2947 35bc 34e8 a03c ebd2 92ba d27f 223d
000000f0: c084 043d 8585 423d 073c 7b3d 2df5 d33d
00000100: 0463 ff3d cd15 2e3e 6600 443d a6f1 413d
00000110: b25c 9a3d 5c8c bd3d adcc da3d a449 fe3d
00000120: 426f ffbc 438d 63bc b650 243d cbdd 69bc
00000130: 9128 73bb 0141 933c e25d a73b db29 ad3c
00000140: 2b21 6b3d a0d8 75bd 9bd4 333b 5308 5d3c
00000150: f5d1 b8bd 31f6 2ebd e561 24bd bd71 74bd
00000160: 2626 fcb9 9e1d e0bc 98e9 7b3d 318a a43d
00000170: dd9f 793d 6b8d d33d 9ff0 d63d 799d 6e3d
00000180: a94c 7b3d 64f6 203d a122 0dbb c3c0 563d
00000190: eea1 e13c b8b8 373d 0cb4 4cbc 2f84 81bd
000001a0: c387 2bbc 8300 b639 e3c8 59bd e64c 983a
000001b0: 80bf a53d 8bac 073e 6f85 b93d 7ebe c93c
000001c0: ea28 3a3d 876f f83c b6ff 59bd 0977 87bd
000001d0: bb86 44bd 4fc4 97bb 1c0c 6d3c 4f0d 9ebb
000001e0: 24cb b8bc 789c bebc 15ca c9bc 8d0f d6bc
000001f0: f975 e1bc fb21 ccbc 8301 b0bc 5595 9dbd
00000200: 763d 11bd b4ef 18bd 1b4b c9bd 814d 8cbd
00000210: 4e10 58bd 2742 c5bd 234b 21bd cb2c f6bd
00000220: 48ec 91bc 88a9 abbd 123d 64be c2a1 00be
00000230: 36b7 febd dcb1 94be bc7e 2fbe 8903 0dbe
00000240: 8095 3c3d 44d3 003d a576 3b3c 1584 af3d
00000250: 3733 973d a27b 173d 715b 773d 9fd9 043d
00000260: a537 af3c 07e2 93bd c473 523d d631 973c
00000270: 1dea d5bd ad67 583c ef72 e5bb c9d0 b9bd
00000280: a1d0 c2bb 5691 ebbc 49f8 483d f856 c53d
00000290: d2c4 0b3d 3dbb 673d 47be b23d 4df4 023c
000002a0: 9fbf efbc eedf d1bc d5d5 ddbd 8df3 14bd
000002b0: 8baf a5bd a554 b0bc 05eb b2bc e3af 63bd
000002c0: 4c3f 66bc 72d7 89bb a32c 29bd 3cea f03b
000002d0: 6c65 ea3b f766 053d c327 093d d822 043d
000002e0: d484 f93c 1090 fc3c 0fe4 c83c 2e78 083d
000002f0: 43db ca3c 4f26 1b3c a1de 7a3c 713e 353c
00000300: 91d8 863c ebf8 903c 3853 a93c ef9d 203b
00000310: 7366 123c e73c f53c cbe7 8dbd 06fb cebc
00000320: e30f c0bb ec33 a1bd 36ae 1bbd c581 06bd
00000330: 0ba5 93bd d850 07bd d9d5 57bd 9591 163d
00000340: 13f3 3f3d b744 463d 6440 4f3d 98f6 5e3d
00000350: 233d 443d f254 263d 7860 243d 3329 2b3d
00000360: 4d9f 5d3c b5ef a2bc dc21 bb3c 000c a7b8
00000370: 3eea 9cbb 7010 a43c 9427 c23c 01fc 0c3c
00000380: f35d 213d 10fc a93d e7ab b83d 5386 233d
00000390: 01ef c13d 1faf d53d b75a b23c 63cf d93d
000003a0: 8b7f 653d 6c02 88bc 38c6 af3d 1421 c63d
000003b0: 05a5 253e e3e2 2e3d acb0 053d 1223 bb3d
000003c0: a541 663d a700 573d 0bfb ca3d 2313 82bd
000003d0: a99c 5ebd 036b 953c 796a c1bd 1233 a1bd
000003e0: 1e8e 06bb 9007 12bd 85de 7bbc 032a 0b3d
000003f0: a52a 3b3e 496c 2c3e 996a 89bd 1102 3bbd
-0.046553332 0.0031043757 -0.015028027 -0.024252515 0.004076997 -0.023604333 -0.05274689 -0.05653636
-0.07968705 -0.10538233 -0.047422215 -0.012454188 -0.086133495 -0.045504335 -0.0024633403 -0.022842871
0.03356298 0.029860463 -0.0027364835 0.004159819 0.011449022 -0.007834976 0.004081328 -0.0029627196
-0.008973871 -0.0034944543 0.0061239097 0.015400278 -0.008994145 -0.00026965066 -0.006892054 -0.016895888
0.0074864714 -0.010135414 0.022317417 0.046834197 0.063177 0.082140766 0.04670013 -0.050791636
-0.015029288 -0.028838681 -0.08731574 -0.038682595 -0.060093798 -0.044538017 -0.0646434 -0.09316366
-0.029854229 -0.050527964 -0.084858246 -0.018683787 -0.031858686 -0.06405041 -0.049831558 -0.05857191
-0.011064329 0.019641973 -0.0011201774 0.03967268 0.032353163 0.047490615 0.061336543 0.10349498
0.124700576 0.17000504 0.047851942 0.047349595 0.075372115 0.09255287 0.1068357 0.124163896
-0.031180982 -0.01388866 0.040116034 -0.014274071 -0.0037103037 0.017975332 0.0051076273 0.021138122
0.05740468 -0.060021043 0.0027439955 0.013490754 -0.09024421 -0.042715255 -0.040132422 -0.05967878
-0.00048093608 -0.027357873 0.06150207 0.080341704 0.060943473 0.10329708 0.104951136 0.058255646
0.061352406 0.039297476 -0.0021535533 0.052429926 0.027543034 0.044853896 -0.012494098 -0.0632404
-0.01046938 0.00034714126 -0.053170096 0.0011619597 0.08093166 0.13249414 0.090586536 0.024626967
0.045449175 0.030326618 -0.05322238 -0.06614501 -0.04798005 -0.004631556 0.014468219 -0.004823364
-0.022557802 -0.02326797 -0.024632493 -0.026130462 -0.027522074 -0.024918547 -0.021485096 -0.076944984
-0.035459004 -0.037337974 -0.09828778 -0.0685072 -0.052749924 -0.09631758 -0.039378297 -0.12020262
-0.017812863 -0.08381945 -0.22288921 -0.12561706 -0.124372885 -0.29041946 -0.17138189 -0.1377088
0.04604101 0.03145148 0.011441861 0.085701145 0.07382815 0.03698314 0.06038994 0.032434102
0.021388838 -0.07220846 0.051379934 0.01845638 -0.10445044 0.013208312 -0.0070022265 -0.09073026
-0.0059452807 -0.028755825 0.04906491 0.096357286 0.03412325 0.05657505 0.08727699 0.007992816
-0.029266177 -0.025619473 -0.10831801 -0.03636508 -0.08090123 -0.021524737 -0.021840582 -0.05558766
-0.014053177 -0.0042065913 -0.041302335 0.0073521417 0.0071532037 0.032568898 0.033485185 0.032259792
0.030458845 0.030830413 0.02452281 0.033317737 0.024762755 0.009469583 0.015311868 0.0110622505
0.016460689 0.017696818 0.020669565 0.0024508198 0.008935559 0.029936267 -0.069289766 -0.025266182
-0.005861269 -0.078712314 -0.038007937 -0.0328386 -0.07209214 -0.033036083 -0.052694175 0.03675993
0.046862673 0.048405375 0.050598517 0.05443439 0.047909867 0.040608354 0.040131062 0.041787338
0.01352675 -0.019889692 0.022843294 -7.965416e-05 -0.004788666 0.02002737 0.023700513 0.008605004
0.039396238 0.0830003 0.09017163 0.039923023 0.094694145 0.10433792 0.021771772 0.10635259
0.056029838 -0.016602717 0.08582729 0.09674278 0.16176231 0.042696845 0.03263919 0.091375485
0.056214947 0.052490856 0.09911164 -0.06351306 -0.05434862 0.018239504 -0.09444136 -0.07871069
-0.0020531486 -0.035651743 -0.015372877 0.033975612 0.18277986 0.16838183 -0.06709785 -0.045656268

1.bn2.weight f4 [64]
00000000: 47d4 d03f 847f 5140 e4d8 0d3f 4f95 363f
00000010: 4c4d 983f 7aa7 4e3f e5a3 f33e 1858 e33f
00000020: 2145 6d3f aabf 123f 7577 4340 e639 073f
00000030: d510 3e3f 39bf 0440 5f4a 723f 1c4c 613f
00000040: af5f e23e ae9a 5b3f e9f9 1640 1124 1840
00000050: 4182 8f3f 9be7 2840 d2d0 c73f 9bbf 333f
00000060: 054f 2f40 a2c9 533f 4e5b a73e 76fc 9c3e
00000070: d75a 853f 8de1 ea3f 75ce 5bbe 8f1d 0140
00000080: a183 2e3f 24d6 2b3f 4d61 2c3f 82e7 e63f
00000090: a055 313f e461 043f 098f 3a3f 8013 9440
000000a0: d92a e73e 145d 373f eab4 de3f 5165 1c40
000000b0: 53fc 063f c014 1940 33e9 9c3f 733e 173f
000000c0: 1fdf 113f 18ff 4f3f 4af3 6f40 dba9 853f
000000d0: c87c b33f a48d 1b3f d93d 1140 bc71 943f
000000e0: c742 0740 2eed c03e 2c04 d53e 5849 583f
000000f0: 5965 1b3f e5db 6240 d60f ea3f 2649 cd3f
1.6314782 3.273408 0.55409074 0.71321577 1.1898589 0.807243 0.4758598 1.7761259
0.9268361 0.57323706 3.054166 0.5282272 0.74244434 2.0741713 0.9464473 0.8800676
0.44213626 0.857829 2.3590033 2.3772013 1.1211625 2.639136 1.5610602 0.7021424
2.739198 0.8272954 0.32686847 0.30661362 1.0418347 1.8350083 -0.21465476 2.017429
0.681696 0.6712363 0.6733597 1.80394 0.6927128 0.5171187 0.72874504 4.6273804
0.45149878 0.716264 1.739896 2.4436839 0.52728766 2.3918915 1.2258667 0.59079665
0.5698108 0.8124862 3.7492242 1.0442461 1.4022455 0.60763 2.2694 1.1597209
2.1134508 0.37680954 0.41604745 0.84486914 0.6070152 3.5446713 1.8286083 1.6037948

1.bn2.bias f4 [64]
00000000: 2f95 023f 0b19 eb3f 91e3 edbd b536 ea3e
00000010: d2fb e23e 1ba1 653d 05bb 5a3d 632b 923f
00000020: 0fd5 3fbe a3ce 1a3d 5b00 f93f a3f8 2f3c
00000030: 06cd 7d3e 2de6 993f 5b61 953e 127a 183f
00000040: beb0 34be f14f 603e 8b09 b03f 8b4a d13f
00000050: 7acb 1d3f 9ec6 c03f 8b7a 3d3f efc5 b53d
00000060: 6aeb b63f 7d3b 06bc c179 11bd 668c 343e
00000070: 6bbe 0dbe ae07 673f 6282 ac3c 0b44 863f
00000080: 99f0 823e 7017 2c3e c503 6dbc bc1a 363f
00000090: d836 853d dae1 7c3c 3944 083e 35ba 0f40
000000a0: 3658 ac3d 2b18 4a3e 80ef 273f f273 923f
000000b0: 4b8e 423e c71e ab3f 0965 733f 136d cbbd
000000c0: 4fd9 ef3d 5604 bd3b 659e 8d40 80c8 0f3f
000000d0: 8eae 3c3f ce1c a93d 2168 863f 1c56 303f
000000e0: 7996 683f 3ea0 73be eeca 353e 55ed 643e
000000f0: 05e8 123e 3f7d e23f 70fe ec3e f738 093f
0.51008886 1.8367018 -0.116156705 0.45744863 0.4433275 0.056061845 0.053401012 1.141949
-0.18733619 0.03779472 1.9453233 0.010740432 0.24785241 1.2023369 0.2917584 0.59561265
-0.17645547 0.21905495 1.3752912 1.6350874 0.61638606 1.5060613 0.7401511 0.088756435
1.4290593 -0.008192894 -0.035516504 0.17631683 -0.1384217 0.90246093 0.021058265 1.0489515
0.25574186 0.16805816 -0.014466231 0.71134543 0.06504601 0.015434707 0.13307275 2.2457402
0.084152624 0.19735782 0.65599823 1.1441634 0.18999593 1.3368767 0.9507604 -0.09932914
0.1171137 0.005768339 4.4255853 0.56165314 0.7370385 0.08257447 1.0500528 0.6888139
0.90854603 -0.23791596 0.17753193 0.2235616 0.14346321 1.7694472 0.4628787 0.53602546

2.weight f4 [4, 64, 3, 3]
00000000: f93f c73e 411a 2d3f 5219 1d3f 3881 1f3f
00000010: 0346 5c3f 7aeb 4b3f 90ce 173f 4cac 383f
00000020: 4d43 363f 7dff 99bd 4132 87bc 0cfd e0bd
00000030: 6f72 363d 38c0 893d ddfc 003d bb53 84bd
00000040: 56bb 563d 1c04 64bd 8730 3dbd 229d 2abc
00000050: 8348 9f3d b504 a03d 4b15 b53d 0f0b 173e
00000060: ff64 95bc 3974 fd3d 4916 153e 29d8 8ebc
00000070: a061 07bc 4bc8 babb 4bf9 4cbc f130 d03d
00000080: a3a8 cb3d 989a 89bd 6a2a 803d 0236 d83d
00000090: 41d0 37be 7bea 64bd d2b3 bbbd 4c3e b8bd
000000a0: 64ca 1e3d ee69 843d f85b 92bd 6e53 7c3b
000000b0: 97e9 c23c a371 abbd c97f b93d 262b 973d
000000c0: 40db a63d 4315 873e 5dba 9d3e b4d8 ce3d
000000d0: 07a5 983e f160 a63e 3505 773c db8c 273c
000000e0: 9ec6 1ebe ca97 f7bb e26d 6dbd e192 d8bd
000000f0: 5116 1cbe 7c7d 3abd b489 bcbd 3e5d 8e3d
00000100: 61b4 403e 32ee 063e a634 523e 4966 b33e
00000110: c0b9 b33e c6e8 443e 9a78 ad3e 3947 883e
00000120: edf5 d33d 41ee 483e 0e88 333e 2f73 753e
00000130: fbd7 973e f650 a03e b6fe 043e 84da 3b3e
00000140: fc09 2f3e d96e 453d 11c6 fdbb 817e debc
00000150: c5ee 953d d2b7 6c3c 6a46 30bd e325 373e
00000160: 506c 7b3d 06f3 483d 09f0 3cbd aed3 2e3e
00000170: a55e 7f3d 9f07 b9bb 2972 483e 933f 4f3e
00000180: 755c 1fbd 44df 7a3e a11e 583e b36c 96bd
00000190: 485f 7dbc 3cc2 c4bb 91f1 32bd 6ab2 83bb
000001a0: 073c 8bbc 6b71 b0bb 3657 323d 06a8 043d
000001b0: a6f9 e9bd 315c d7bd 0bc1 71be 685e 52bd
000001c0: 6773 94bb 063a 41bd 26f6 8ebd 67ec 913d
000001d0: ec36 9cbd 0b51 0b3e b8c3 6a3e ceb2 913e
000001e0: 706d 793e 2d38 d03e 71f1 cc3e 6bbc 543e
000001f0: e932 eb3e f08b ce3e b9d5 413e 53d5 ad3e
00000200: 1c36 b63e f0f0 c23e f1b1 fc3e 30c7 f33e
00000210: af08 663e 671f 8d3e b511 ac3e ff9f 8abd
00000220: 3d72 66bd 75ab 9a3a 86eb 963d f751 013e
00000230: 394d 0b3e 184d 4cbd 78bb b73d 8c39 593d
00000240: 7612 a5bd cca0 163d dd87 573c 255b 2d3d
00000250: 32a4 173e c722 8a3d 83c3 0fbb e5e6 ed3d
00000260: 6058 50b9 1888 c0bd 2271 8fbd a2ee 81bd
00000270: aead e73c 6297 d53d a53b 2d3e e2a7 94bb
00000280: 38bb 153d 3f2a 8c3c 0356 4d3e b97f 5a3e
00000290: f133 293e 7efb 063e cf25 323e bf5f ce3d
000002a0: 318b 073e 8366 473e 07db 323d 4a22 013f
000002b0: 5203 583f bcbb 583f 254a 3a3f 79ba 923f
000002c0: 7e3e 8c3f 2018 353f 9ab7 8c3f 3af4 803f
000002d0: e933 e73d 9934 6c3e 9f20 4f3e c3e0 b13e
000002e0: 39e1 fc3e 2c01 003f b254 a33e 9987 e43e
000002f0: c0db dc3e 1f85 9f3d 3109 7a3e 2b4b 053e
00000300: fac9 303e c027 d23e 99a7 963e f7bc 0e3d
00000310: 05b1 7b3e b4c9 2f3e 6220 123e 07f7 0a3e
00000320: 47e1 ad3d ef26 b13d 2757 203e 59e5 3a3e
00000330: 3359 cb3c 798f 8abb 8603 4d3d 5740 0abe
00000340: dda6 1cbd 1a8b 2ebd 5394 c3bd ca88 88bc
00000350: 59a9 ecbc f8b7 02be b3ee 933c 0517 afbd
00000360: 1a58 67bd 3d54 213d a173 04bd 97e5 07bb
00000370: 2953 943d 6323 503d 11c4 7ebd 95d9 b73d
00000380: 7721 2ebd b1c0 d4bd 61e3 463d 39c1 ffbb
00000390: 5872 cd3d 2bb0 263e 0ef8 113e 296a 123e
000003a0: c8ad 2c3e abf7 1f3e 6732 773d 6a79 1b3d
000003b0: df7d 423d 894c 433d 0ca7 ff3d e9ae 3b3e
000003c0: 0492 1b3e 5082 013e 8f7d 1f3e 5345 8fbe
000003d0: 662f d1bd b365 e0bd de12 07be b1f5 183d
000003e0: b1fe ad3d d26c 41be 709a 943d 92c9 fa3d
000003f0: d9d1 35be 5c89 30be 1ef3 50be 10c4 7c3d
0.38915995 0.67618185 0.6136676 0.6230655 0.8604433 0.79656184 0.59299564 0.72137904
0.7119644 -0.07519434 -0.016503455 -0.10985765 0.044542726 0.06726116 0.03149115 -0.06461283
0.05242475 -0.05566798 -0.046188857 -0.01041344 0.077775024 0.07813398 0.08841952 0.14750312
-0.018236635 0.12375683 0.14559282 -0.017437058 -0.008263022 -0.0057001463 -0.012510608 0.10165585
0.09944274 -0.067189395 0.0625809 0.10557176 -0.17950536 -0.05588768 -0.091651574 -0.08996257
0.038767233 0.06465517 -0.07146448 0.0038501876 0.023793025 -0.08371284 0.09057576 0.07381277
0.08147287 0.2638341 0.30806246 0.100999266 0.29813406 0.32495835 0.015076925 0.010226454
-0.15505454 -0.0075559365 -0.05796612 -0.1057489 -0.15242888 -0.045529827 -0.09205952 0.06951378
0.18818809 0.13176802 0.20527896 0.35038975 0.35102654 0.19229421 0.33881074 0.2661684
0.10349641 0.19622137 0.1753237 0.2396972 0.29656968 0.31311768 0.1298779 0.18345076
0.17093652 0.048201416 -0.0077445586 -0.027159931 0.07320932 0.014448123 -0.043035902 0.17885546
0.06138259 0.04905989 -0.046127353 0.17072937 0.06234612 -0.0056466605 0.19574799 0.20239095
-0.038906533 0.24499232 0.21105434 -0.073449515 -0.015464611 -0.0060046 -0.043687407 -0.0040190713
-0.016996397 -0.005384614 0.043540202 0.032386802 -0.1142457 -0.10515631 -0.23608796 -0.051359564
-0.0045303586 -0.047174476 -0.06980543 0.07125168 -0.07627663 0.13605134 0.22926223 0.2845673
0.24358153 0.4066786 0.40027955 0.20775001 0.4593728 0.4034114 0.18929185 0.33951816
0.35588157 0.38074446 0.4935451 0.47612906 0.2246425 0.2756302 0.3360726 -0.06768798
-0.05626129 0.0011800366 0.07369141 0.12628923 0.13603677 -0.04987821 0.08971304 0.053033397
-0.08060162 0.03677444 0.013154951 0.04232325 0.1480873 0.067449145 -0.0021936602 0.11616305
-0.00019869348 -0.09400958 -0.07004 -0.06344344 0.02828106 0.104292646 0.16917284 -0.0045366148
0.0365555 0.017109988 0.20052342 0.21337785 0.1652372 0.13181874 0.17397235 0.10076856
0.13236691 0.19472699 0.043665912 0.50442946 0.84380066 0.8466146 0.72769386 1.1463157
1.0956571 0.70739937 1.0993531 1.0074532 0.11289198 0.2306694 0.20227288 0.34741792
0.4939058 0.5000179 0.31900555 0.44634703 0.43136406 0.07789063 0.24417569 0.13016956
0.17264548 0.41045952 0.29424742 0.03484818 0.24579246 0.17166787 0.14270166 0.13570796
0.08490234 0.08650004 0.15658246 0.18251552 0.024822807 -0.004228529 0.05005219 -0.13501106
-0.03824507 -0.042613126 -0.09549775 -0.016666789 -0.028889345 -0.12765491 0.018058157 -0.085493125
-0.056480505 0.039386977 -0.032336835 -0.0020736211 0.07242424 0.050814997 -0.062198702 0.08977047
-0.042512383 -0.103883155 0.04855669 -0.0078050164 0.10031575 0.1627814 0.14254782 0.1429831
0.16863167 0.15621822 0.0603508 0.037957586 0.04748332 0.04768041 0.124830335 0.18328442
0.1519242 0.12647367 0.1557524 -0.27982578 -0.10214119 -0.109568976 -0.13190791 0.037343685
0.08495844 -0.18889168 0.07256019 0.12245478 -0.17755832 -0.17239898 -0.20405242 0.061710417

2.bias f4 [4]
00000000: 7f5d 423e a6d8 7b3d f3af 893e ee5c 0f3e
0.18980978 0.06148591 0.2689205 0.14000294
