expert_target_aware/mocosflV2_ResNet18_cifar10_cut3_bnlC4S2_expert_batchsize128_ressfl_2.0_SSIM0.6_data_proportion_0.01_aux_cifar100/checkpoint_c_best.tar (torch, 614536 bytes, 17 tensors)

0.conv1.weight f4 [64, 3, 3, 3]
-0.18424346 0.064497 -0.13070175 0.12825622 0.29516837 0.10447977 -0.113036446 0.040377926
-0.1998255 -0.22633457 0.11753449 -0.1111173 0.065520495 0.31067994 0.10995307 -0.1203408
0.06617454 -0.17337063 -0.15598357 0.03738122 -0.087611355 0.03852449 0.18216869 0.04183638
-0.025957795 0.047155466 -0.12118842 -0.30248448 -0.08455493 -0.12300179 -0.00876072 0.16658977
0.099737935 0.04166728 0.1583258 0.08621627 -0.06585683 0.08390634 0.01705018 0.03301988
0.124526374 0.022700755 -0.054328006 -0.05637113 -0.13548656 0.12520629 0.15308858 0.061181948
0.088607945 0.055916928 -0.04091007 -0.04528212 -0.18163078 -0.21905835 0.03180893 -0.029827366
-0.2119876 0.11779636 0.16956367 0.0063915015 -0.0898457 0.062651 -0.026372954 0.05203472
-0.0008154466 -0.16434266 0.058211632 0.123966515 -0.0011081559 -0.13301083 0.02277864 -0.014856
0.057695493 0.05483171 0.028303126 -0.1235945 -0.0061948686 0.03811534 -0.1697734 0.019693699
0.12789404 0.0007651773 0.06667992 -0.07116962 0.03926907 0.18033284 0.011398202 -0.19293986
-0.031796116 -0.06677431 -0.003559608 0.0317088 -0.15127462 0.09291612 0.18930925 -0.010961613
-0.0974753 0.010320623 -0.02899184 -0.039931282 -0.0060747704 -0.1468636 0.06775469 0.16887277
-0.0074277404 -0.070673764 0.045913056 0.020672113 0.07307718 0.050598476 -0.01467928 0.098312415
0.059876498 0.010670329 0.03028955 0.0056698993 -0.04266829 -0.0799145 -0.1360926 -0.071875714
-0.1281078 -0.21873385 -0.13449648 -0.035106894 -0.11384635 -0.05438962 -0.0063181478 0.08032148
0.06738624 0.07614275 0.14625813 0.1439692 0.028615523 0.09459032 0.0704357 -0.041384313
-0.09362641 -0.05444041 -0.049578313 -0.08899852 -0.06397189 0.042892557 -0.013835561 0.02216425
0.03981957 0.1232224 0.063599326 0.15396228 0.24842316 0.15797667 0.019485842 0.09110631
0.022214195 0.025373751 -0.06706982 0.038624197 -0.12960142 -0.23328106 -0.12052357 -0.011412269
-0.100103445 0.018971104 0.071551755 -0.1212603 0.054642927 -0.12002677 -0.3055098 -0.053786725
0.030953528 -0.03885609 0.08134079 0.13310328 0.018521545 0.07643356 0.026017347 -0.09328442
0.003464469 0.08661135 0.058890097 0.055317834 0.11068207 -0.051198937 0.081473365 -0.032582384
-0.219555 -0.03866511 0.09431588 0.0043531274 0.08705654 -0.015712522 -0.028751345 -0.024141092
0.013627538 0.019302689 0.0062610796 -0.019421713 -0.036949158 -0.024117287 0.059438616 0.045102615
0.047962345 0.09590297 0.10014493 0.08412061 0.047069512 0.026093075 0.036420155 -0.036758758
-0.05967327 -0.053513315 -0.030919435 -0.03629356 -0.047414605 -0.04123195 -0.068264514 -0.058276843
-0.05178076 -0.06332631 -0.00798075 -0.047259383 -0.10114946 -0.01464517 -0.0037490805 -0.04498931
0.012258379 -0.14410628 -0.004347938 0.019019311 -0.07778484 0.023617681 0.054286044 -0.054085866
0.064235605 0.0571004 0.2779321 0.09115555 0.09847344 0.11531478 -0.12012194 -0.08426407
0.12937331 -0.07893885 -0.044224925 -0.06849341 -0.09552093 -0.07378769 -0.13495643 -0.14554438
-0.12242864 -0.11880609 -0.12423874 -0.123790875 -0.026329415 -0.025084665 -0.010134048 -0.055693597
00000000: 51aa 3cbe 0117 843d aed6 05be 9955 033e
00000010: 4f20 973e 7df9 d53d a77f e7bd 5363 253d
00000020: 0e9f 4cbe 40c4 67be ecb5 f03d 7891 e3bd
00000030: 9c2f 863d 7111 9f3e 132f e13d 3d75 f6bd
00000040: 8486 873d 1288 31be 28ba 1fbe 0d1d 193d
00000050: 956d b3bd dbcb 1d3d 6e8a 3a3e a05c 2b3d
00000060: 71a5 d4bc 1726 413d a231 f8bd 3fdf 9abe
00000070: 232b adbd 5de8 fbbd 1f89 0fbc 8296 2a3e
00000080: 6743 cc3d 4fab 2a3d 2920 223e 2892 b03d
00000090: f2df 86bd 16d7 ab3d d2ac 8b3c db3f 073d
000000a0: af07 ff3d eff6 b93c 0b87 5ebd 6ae5 66bd
000000b0: fdbc 0abe 1436 003e 41c3 1c3e ec99 7a3d
000000c0: 1578 b53d 2609 653d 5191 27bd bf79 39bd
000000d0: 6bfd 39be d550 60be 154a 023d 8558 f4bc
000000e0: 4713 59be 383f f13d 19a2 2d3e cd6f d13b
000000f0: 0601 b8bd 2b4f 803d 180c d8bc 5c22 553d
00000100: b2c3 55ba 7149 28be 526f 6e3d 28e2 fd3d
00000110: 8b3f 91ba fe33 08be 459a ba3c 9566 73bc
00000120: 1c52 6c3d 3797 603d f5db e73c 1d1f fdbd
00000130: 53fe cabb d51e 1c3d 14d9 2dbe ae54 a13c
00000140: a8f6 023e 2e96 483a 7b8f 883d 61c1 91bd
00000150: 9bd8 203d 2ca9 383e 86bf 3a3c 0792 45be
00000160: a53c 02bd f8c0 88bd 5048 69bb 16e1 013d
00000170: bce7 1abe cf4a be3d 49da 413e 5698 33bc
00000180: 21a1 c7bd d517 293c 4c80 edbc fc8e 23bd
00000190: de0e c7bb 6963 16be f9c2 8a3d fcec 2c3e
000001a0: 6764 f3bb 68bd 90bd 540f 3c3d 9058 a93c
000001b0: 7da9 953d 5940 4f3d 5d81 70bc 0558 c93d
000001c0: 0f41 753d 9bd2 2e3c ca21 f83c 90ca b93b
000001d0: f2c4 2ebd 37aa a3bd dc5b 0bbe 9333 93bd
000001e0: b12e 03be c4fb 5fbe 72b9 09be 3fcc 0fbd
000001f0: 4628 e9bd a6c7 5ebd 7708 cfbb 977f a43d
00000200: cc01 8a3d bbf0 9b3d b1c4 153e a96c 133e
00000210: 1a6b ea3c 92b8 c13d 9840 903d 9982 29bd
00000220: 34bf bfbd e8fc 5ebd a112 4bbd db44 b6bd
00000230: b203 83bd 1bb0 2f3d 8dae 62bc cd91 b53c
00000240: d819 233d 075c fc3d 5d40 823d 4aa8 1d3e
00000250: a462 7e3e a3c4 213e c6a0 9f3c f295 ba3d
00000260: 8bfa b53c 9ddc cf3c e75b 89bd 6834 1e3d
00000270: 3cb6 04be 3be1 6ebe 10d5 f6bd 87fa 3abc
00000280: 0903 cdbd 4a69 9b3c ba89 923d 5257 f8bd
00000290: 43d1 5f3d 98d0 f5bd c86b 9cbe 784f 5cbd
000002a0: 4192 fd3c 9027 1fbd 0096 a63d 3a4c 083e
000002b0: 7fba 973c 3389 9c3d 5522 d53c e70b bfbd
000002c0: 250c 633b 4b61 b13d be36 713d f494 623d
000002d0: 48ad e23d fab5 51bd 82db a63d 1b75 05bd
000002e0: 07d3 60be 4e5f 1ebd af28 c13d aea4 8e3b
000002f0: b34a b23d 8cb7 80bc f187 ebbc 8ac3 c5bc
00000300: 0a46 5f3c ac20 9e3c be29 cd3b 491a 9fbc
00000310: 0058 17bd 9e91 c5bc e875 733d 85bd 383d
00000320: 2a74 443d c768 c43d c918 cd3d 6d47 ac3d
00000330: f6cb 403d 25c1 d53c 4d2d 153d 5a90 16bd
00000340: f56b 74bd c730 5bbd c14a fdbc 8ea8 14bd
00000350: d135 42bd d5e2 28bd 44ce 8bbd b3b3 6ebd
00000360: 1018 54bd 39b1 81bd b1c1 02bc 0e93 41bd
00000370: 7327 cfbd 4cf2 6fbc 22b3 75bb b646 38bd
00000380: 5ed7 483c 9990 13be 2679 8ebb 63ce 9b3c
00000390: a84d 9fbd de79 c13c 0b5b 5e3d 2489 5dbd
000003a0: f58d 833d 1ce2 693d 1e4d 8e3e c3af ba3d
000003b0: 71ac c93d 282a ec3d 7e02 f6bd a492 acbd
000003c0: 707a 043e b1aa a1bd 3225 35bd 4646 8cbd
000003d0: 7aa0 c3bd 001e 97bd 0532 0abe 9609 15be
000003e0: debb fabd 9b50 f3bd e170 febd 1286 fdbd
000003f0: c9b0 d7bc 5b7e cdbc 4709 26bc f81e 64bd

0.bn1.weight f4 [64]
0.32619476 0.3147346 0.21893877 0.16210103 0.22751826 0.28183165 0.37790638 -3.7595112e-06
0.22497725 0.29435864 0.19995676 0.020614162 0.13915311 -0.045642667 0.31914437 0.25634798
0.1965325 0.014799211 0.41888982 0.31664476 0.18364835 0.19428445 0.27950025 0.2430149
0.21603662 0.076129675 0.18313275 0.06580217 0.25307113 0.4558924 0.27921972 0.014723615
0.3851091 0.42444953 4.906737e-06 0.0013065357 0.04951671 -0.0020188275 0.36814207 0.059903577
0.5499365 0.3627241 0.27374873 0.35358837 0.31998524 0.15985477 0.34775424 0.2724733
0.19255005 0.45455799 0.023887437 0.06274979 0.19808747 -0.00080040534 0.0074355924 0.2845706
0.16427456 0.2721652 0.38076904 0.20575523 0.029323956 0.12000589 0.18891813 0.26109958
00000000: 0003 a73e e524 a13e 7c31 603e d0fd 253e
00000010: 8cfa 683e 3d4c 903e f27c c13e e94b 7cb6
00000020: 7060 663e 2db6 963e 77c1 4c3e 08df a83c
00000030: 277e 0e3e cef3 3abd e466 a33e 0b40 833e
00000040: d13f 493e 6478 723c ba78 d63e 431f a23e
00000050: 500e 3c3e 81f2 463e a81a 8f3e e6d8 783e
00000060: b438 5d3e e0e9 9b3d 2787 3b3e 4ac3 863d
00000070: 8a92 813e bb6a e93e e3f5 8e3e 513b 713c
00000080: 052d c53e 7351 d93e 8da4 a436 1040 ab3a
00000090: 09d2 4a3d 4e4e 04bb 1e7d bc3e 745d 753d
000000a0: a3c8 0c3f f9b6 b93e cb28 8c3e 8909 b53e
000000b0: 1bd5 a33e f8b0 233e d80c b23e 9f81 8b3e
000000c0: d72b 453e d3bb e83e 96af c33c f682 803d
000000d0: 71d7 4a3e 4bd2 51ba 45a6 f33b 3db3 913e
000000e0: 9737 283e 3d59 8b3e 29f4 c23e 80b1 523e
000000f0: cb38 f03c a6c5 f53d c173 413e d8ae 853e

0.bn1.bias f4 [64]
0.16054375 0.14618954 0.18489519 0.15879539 0.037119765 0.23349273 -0.09247775 -0.0002223519
0.20012423 -0.071438424 0.15210146 0.15464388 0.026077265 0.16483563 0.1031467 0.13486522
0.056583118 0.15005787 0.04890808 0.009530026 0.10652455 0.11140374 0.065583125 0.1845908
0.09842704 0.19126047 0.16347249 0.186914 0.11542094 -0.07808819 0.15748839 0.16435821
0.03795605 0.031470962 -7.7057615e-05 0.15124421 0.15791467 0.15919593 -0.090661705 0.18437396
0.1326395 -0.008190962 0.084226966 0.073096655 0.075548664 0.17450428 0.023971014 0.114843346
0.22966656 -0.006697545 0.14972931 0.15185313 0.09056954 0.15950301 0.17077503 0.08698156
0.16096956 0.16693953 -0.06557874 0.18631697 0.1599248 0.1548533 0.16212948 0.18171063
00000000: 9565 243e b6b2 153e 2a55 3d3e 429b 223e
00000010: e50a 183d b818 6f3e f964 bdbd 2227 69b9
00000020: 5eed 4c3e 4f4e 92bd 7cc0 1b3e f75a 1e3e
00000030: fd9f d53c acca 283e 943e d33d 1c1a 0a3e
00000040: b3c3 673d c5a8 193e d753 483d d423 1c3c
00000050: 8b29 da3d a527 e43d 7250 863d 5f05 3d3e
00000060: 1e94 c93d c9d9 433e 5565 273e 6266 3f3e
00000070: d061 ec3d b3ec 9fbd a344 213e 854d 283e
00000080: ce77 1b3d b2e7 003d fe99 a1b8 c3df 1a3e
00000090: 62b4 213e 4204 233e d8ac b9bd 87cc 3c3e
000000a0: a6d2 073e 6233 06bc 307f ac3d b3b3 953d
000000b0: 42b9 9a3d 40b1 323e dc5e c43c fd32 eb3d
000000c0: b62d 6b3e 1477 dbbb a452 193e 637f 1b3e
000000d0: 867c b93d c254 233e a6df 2e3e 6323 b23d
000000e0: 34d5 243e 32f2 2a3e 254e 86bd e0c9 3e3e
000000f0: 54c3 233e dd91 1e3e 4505 263e 5a12 3a3e

1.conv1.weight f4 [64, 64, 3, 3]
-0.043727204 -0.0015634247 -0.0063138874 -0.028061712 -0.0324566 -0.022697387 -0.039102837 -0.019286409
0.004037916 -0.00025988996 0.024083992 0.011578427 -0.0003582678 0.004136357 0.00556692 -0.021271754
-0.014832336 -0.0009504225 -0.03413436 -0.021036305 0.003032029 -0.027756516 -0.01024582 0.016507085
-0.0206856 0.0017727528 0.0148743065 -0.03588205 -0.008615191 -0.0008659749 -0.01393954 -0.007110128
0.0007912158 -0.010862778 0.010109471 0.018565068 -0.061679654 -0.009753192 -0.008164809 -0.06436907
-0.026327526 -0.025097838 -0.05219696 -0.015594243 -0.013695842 -0.04444931 -0.04625975 -0.024147391
-0.0076217926 -0.005764243 0.0068323035 0.0017267701 0.0011649303 0.005946148 -0.012242964 -0.005765283
-0.012287254 0.024610294 0.0039599016 0.0076226057 -0.011351388 0.0020490433 -0.006711978 0.029646398
0.029615372 0.029642778 0.029601302 0.029612534 0.029606724 0.029608957 0.029622396 0.029623682
0.0015661307 0.0019074853 -0.004898886 0.0071838177 0.023614552 0.014193195 -0.0026051854 0.026213389
0.008303947 -0.08596219 -0.08185749 -0.04202112 -0.06759117 -0.039252613 0.0072786305 -0.06010344
-0.026128685 0.016090956 -0.01888223 -0.040202912 -0.018100481 -0.032256484 -0.035711978 -0.008952415
-0.031060083 -0.026520241 0.0035365683 -0.009588301 -0.003927562 0.0019918862 -0.0036932174 0.007649406
0.011352253 -0.007913685 0.0039349883 0.010576732 -0.0136470655 0.0125691695 0.008253376 -0.012910531
0.008984225 0.0072286567 -0.004350306 0.014695535 0.017766247 -0.019164093 -0.0045613637 0.004126784
-0.0057494133 0.009111483 0.016203789 -0.0026630873 0.012245078 0.019293625 -0.07660428 -0.0650379
-0.043029863 -0.029735204 -0.016955923 0.0009851659 0.0036927087 0.011090794 0.016446406 0.0026896778
-0.0002802626 0.022985656 -0.014937122 -0.039370686 -0.022732764 -0.00703739 -0.015935916 -0.0018541266
-0.020081185 0.029597415 0.022808854 -0.00029052698 0.01772182 -0.0024158906 -0.005849187 0.009347496
0.004451908 -0.0069096903 0.004838776 0.0067388704 0.00647798 0.018041808 0.019017344 0.008462397
0.021462744 0.022217136 0.024968442 0.031729408 0.01644999 0.027519055 0.021906372 0.0112781925
0.0064544682 0.020155068 0.009181386 -0.007567074 -0.022618487 -0.018202655 -0.0052398173 -0.01665362
-0.015685113 -0.0025987206 -0.017386928 -0.013032668 -0.0050643673 0.0017441146 0.02624859 0.009059667
0.007828692 0.027236175 -0.00061281404 5.9528014e-05 0.011833051 -0.00904318 -0.007835258 0.0037236144
0.0045794584 -0.00095652766 0.011802402 0.0068180333 0.003034372 0.019462083 -0.0057664313 0.022023572
0.0164769 0.00766784 -0.0065453383 -0.03132443 0.0071040494 -0.0083066495 -0.005942627 -0.09039954
-0.054741986 -0.040528186 -0.045066945 -0.015480372 4.55871e-05 -0.023298379 0.0039537577 0.020521384
-0.06811226 0.009511498 0.026404997 -0.012705405 0.028752768 0.04755193 0.03811699 0.07583175
0.085802555 -0.024901226 0.012672702 0.0024928036 0.0090371985 0.03217272 0.026883213 0.011286965
0.041173793 0.03465431 -0.032636654 0.018455993 0.0049335295 0.0063293003 0.054674707 0.03542214
0.014250858 0.061431564 0.050522912 -0.029716166 0.014263125 0.006049386 -0.004284711 0.037078157
0.018015675 0.0066300593 0.038918946 0.02195526 0.008707771 0.031785097 0.037187446 -0.008319007
00000000: 4c1b 33bd d4eb ccba bae4 cebb ade1 e5bc
00000010: 36f1 04bd dfef b9bc 4c2a 20bd 88fe 9dbc
00000020: 7f50 843b d741 88b9 cb4b c53c 71b3 3d3c
00000030: e4d5 bbb9 478a 873b b66a b63b 1a42 aebc
00000040: 5403 73bc c625 79ba 78d0 0bbd 5454 acbc
00000050: 01b5 463b a261 e3bc 15de 27bc de39 873c
00000060: d974 a9bc b75b e83a 5db3 733c 0ef9 12bd
00000070: bb26 0dbc 9702 63ba ab62 64bc 14fc e8bb
00000080: 9869 4f3a cbf9 31bc 32a2 253c c515 983c
00000090: cea3 7cbd dacb 1fbc b1c5 05bc eed3 83bd
000000a0: d3ac d7bc fb99 cdbc 7bcc 55bd ff7e 7fbc
000000b0: 8664 60bc 7b10 36bd dd7a 3dbd c0d0 c5bc
000000c0: 3bc0 f9bb fae1 bcbb 84e1 df3b ca54 e23a
000000d0: 93b0 983a e8d7 c23b b696 48bc b3ea bcbb
000000e0: 7b50 49bc 879b c93c 10c2 813b 0dc7 f93b
000000f0: 2cfb 39bc 3e49 063b 27f0 dbbb 01dd f23c
00000100: f09b f23c 69d5 f23c 6e7e f23c fc95 f23c
00000110: cd89 f23c 7c8e f23c abaa f23c 5dad f23c
00000120: a046 cd3a 9604 fa3a d686 a0bb 3b66 eb3b
00000130: 4e73 c13c 938a 683c c2bb 2abb 76bd d63c
00000140: 470d 083c f20c b0bd e6a4 a7bd 571e 2cbd
00000150: 3d6d 8abd 59c7 20bd 9481 ee3b 062f 76bd
00000160: d30b d6bc 2ed1 833c e8ae 9abc cfab 24bd
00000170: 7647 94bc 601f 04bd b946 12bd 26ad 12bc
00000180: b771 febc fa40 d9bc c5c5 673b 4018 1dbc
00000190: c7b2 80bb 4e8a 023b e809 72bb dea7 fa3b
000001a0: cdfe 393c 67a8 01bc 13f1 803b 084a 2d3c
000001b0: f197 5fbc ebee 4d3c 2b39 073c b186 53bc
000001c0: 9232 133c 5ede ec3b 038d 8ebb 8bc5 703c
000001d0: 858a 913c 04fe 9cbc 7e77 95bb f939 873b
000001e0: 9365 bcbb 5448 153c cfbd 843c 3187 2ebb
000001f0: 949f 483c aa0d 9e3c b4e2 9cbd 9732 85bd
00000200: 1540 30bd 3e97 f3bc 26e7 8abc af20 813a
00000210: 5f01 723b 29b6 353c 9dba 863c 4e45 303b
00000220: 36f0 92b9 6a4c bc3c d5ba 74bc 2843 21bd
00000230: 103a babc e899 e6bb 0a8c 82bc 2a06 f3ba
00000240: 4c81 a4bc 4776 f23c a2d9 ba3c df51 98b9
00000250: 5a2d 913c eb53 1ebb 89aa bfbb 3d26 193c
00000260: 50e1 913b af6a e2bb 988e 9e3b bed1 dc3b
00000270: 3c45 d43b 6acc 933c 43ca 9b3c dea5 0a3c
00000280: a3d2 af3c b600 b63c 9e8a cc3c b2f6 013d
00000290: 21c2 863c a46f e13c fe74 b33c 2bc8 383c
000002a0: 0180 d33b 3e1c a53c 866d 163c 38f5 f7bb
000002b0: 684a b9bc bc1d 95bc c6b2 abbb 2c6d 88bc
000002c0: 117e 80bc 4c4f 2abb 086f 8ebc f986 55bc
000002d0: fef2 a5bb c69a e43a 4807 d73c ff6e 143c
000002e0: ea43 003c 661e df3c 41a5 20ba b8ad 7938
000002f0: 6adf 413c d929 14bc 745f 00bc e207 743b
00000300: 480f 963b 7cbf 7aba dd5e 413c cf69 df3b
00000310: 51dc 463b f26e 9f3c 55f4 bcbb c76a b43c
00000320: 90fa 863c 8142 fb3b 477a d6bb 0c4e 00bd
00000330: 16c9 e83b 9d18 08bc 5eba c2bb 6523 b9bd
00000340: 2239 60bd e200 26bd 1e98 38bd 63a1 7dbc
00000350: c734 3f38 3edc bebc 868e 813b 761c a83c
00000360: 717e 8bbd 1dd6 1b3c 4b4f d83c 552a 50bc
00000370: ed8a eb3c d0c5 423d 9020 1c3d ad4d 9b3d
00000380: 40b9 af3d a8fd cbbc 2aa1 4f3c 4e5e 233b
00000390: c210 143c 8bc7 033d 2f3a dc3c f6ec 383c
000003a0: daa5 283d aef1 0d3d 03ae 05bd 0631 973c
000003b0: 72a9 a13b 0566 cf3b 96f2 5f3d ce16 113d
000003c0: 6e7c 693c aa9f 7b3d 1df1 4e3d 516f f3bc
000003d0: e2af 693c ee39 c63b c366 8cbb 44df 173d
000003e0: 9c95 933c f840 d93b 7969 1f3d 84db b33c
000003f0: 0aab 0e3c 1731 023d dd51 183d 724c 08bc

1.bn1.weight f4 [64]
0.2895678 0.24284162 0.27271733 0.20434207 0.35714945 0.31835043 0.19991457 0.018396052
0.6289855 0.29447454 0.37270507 0.10231134 0.16733432 0.25701067 0.26502642 0.32556483
0.22686951 0.025178391 0.14173527 0.3368308 0.3815304 0.34664944 0.41945907 0.4000116
0.29204106 0.26069415 0.24628147 0.2757429 0.35646814 0.37307358 0.34207055 0.4630909
0.3009821 0.21215264 0.23593776 0.21841338 0.32127187 0.2684179 0.4185826 0.3296381
0.30872294 0.16231035 0.27312225 0.26428646 -0.124833636 0.5490628 0.15768369 0.3512345
0.26346955 0.23440811 0.2187604 0.1697731 0.20290647 0.28977847 0.444011 -0.00090668944
-0.08787311 0.6894064 0.7637684 0.25360736 0.3239506 0.2308555 0.23897843 0.2941269
00000000: 3b42 943e 79ab 783e 9ba1 8b3e 0c3f 513e
00000010: 4bdc b63e d4fe a23e 68b6 4c3e 51b3 963c
00000020: 3205 213f 5ec5 963e 33d3 be3e 9c88 d13d
00000030: b059 2b3e e796 833e 8bb1 873e 6fb0 a63e
00000040: 7b50 683e ea42 ce3c 0d23 113e 1675 ac3e
00000050: f457 c33e 097c b13e 57c3 d63e 52ce cc3e
00000060: 6886 953e b479 853e 3631 7c3e 2c2e 8d3e
00000070: fe82 b63e 8003 bf3e df23 af3e 401a ed3e
00000080: 531a 9a3e 8b3e 593e ab99 713e c2a7 5f3e
00000090: bf7d a43e 126e 893e 7550 d63e 53c6 a83e
000000a0: ef10 9e3e af34 263e aed6 8b3e 8e50 873e
000000b0: c7a8 ffbd 618f 0c3f d577 213e 02d5 b33e
000000c0: 7be5 863e ae08 703e ba02 603e 00d9 2d3e
000000d0: b7c6 4f3e d85d 943e 6955 e33e e6ae 6dba
000000e0: d1f6 b3bd f07c 303f 5386 433f d3d8 813e
000000f0: dadc a53e 6265 6c3e c3b6 743e cd97 963e

1.bn1.bias f4 [64]
-0.053219363 -0.19489922 0.01855457 -0.18412028 -0.12907453 -0.09644791 -0.004935772 0.0780068
-0.11399482 -0.20321603 -0.08801699 0.006889508 -0.06943534 0.08222846 -0.10331525 -0.16755056
-0.049559016 0.09147935 0.063115835 -0.11862982 -0.04988272 -0.029368613 -0.072028324 -0.09285925
0.015589355 -0.016329158 -0.021399414 0.2287458 -0.12816578 -0.12545562 -0.11079867 -0.13369091
-0.0238977 0.005255747 -0.020650236 -0.0063763964 -0.062361285 0.13401754 0.0034327721 -0.1028089
-0.13660659 0.010412722 0.0055920826 -0.0029329516 0.068035886 -0.18161993 0.07994849 -0.18690749
-0.024543094 0.010237917 -0.085580625 -0.0130857555 0.021513712 -0.05580175 -0.23974793 -0.005246073
0.0028590471 -0.07589104 -0.16711174 0.007649146 -0.057192903 -0.025628775 -0.1127037 -0.015660157
00000000: 8cfc 59bd a993 47be c1ff 973c 078a 3cbe
00000010: 1d2c 04be 7b86 c5bd 42bc a1bb 07c2 9f3d
00000020: 1e76 e9bd dd17 50be 4042 b4bd 62c1 e13b
00000030: 1e34 8ebd 6567 a83d f296 d3bd 6092 2bbe
00000040: 65fe 4abd 8759 bb3d e042 813d 31f4 f2bd
00000050: d351 4cbd 7296 f0bc 9683 93bd fe2c bebd
00000060: 7e6a 7f3c bac4 85bc d34d afbc 573c 6a3e
00000070: e43d 03be 7077 00be 6aea e2bd 45e6 08be
00000080: 1cc5 c3bc 6738 ac3b af2a a9bc 17f1 d0bb
00000090: 8c6e 7fbd e53b 093e 5cf8 603b 798d d2bd
000000a0: 99e2 0bbe 1f9a 2a3c ca3d b73b c336 40bb
000000b0: 6656 8b3d 93fa 39be 09bc a33d ad64 3fbe
000000c0: 990e c9bc f0bc 273c e544 afbd a365 56bc
000000d0: 863d b03c 6090 64bd 7b80 75be 40e7 abbb
000000e0: da5e 3b3b c36c 9bbd 571f 2bbe b0a5 fa3b
000000f0: 1b43 6abd 70f3 d1bc 33d1 e6bd bb49 80bc

1.conv2.weight f4 [64, 64, 3, 3]
0.04052913 0.03213862 0.0491114 0.026324797 0.017957078 0.026461903 0.010495684 0.010969064
0.018484373 0.01636568 0.002283396 -0.017723618 0.0060481094 0.0006818068 -0.024304826 0.0020485264
0.0013597634 -0.018406473 0.009577575 0.0041335123 0.017841963 0.011398893 0.016170908 0.014071951
0.0013337076 0.019285174 0.016242644 0.0029165132 0.0035242524 0.006587806 -0.0014499266 0.001960452
0.0052695177 -0.0059064683 -0.001502983 0.001404689 0.04322887 0.035225358 0.055030994 0.0388858
0.017116224 0.0337404 0.053458065 0.034299772 0.052491993 -0.020896144 -0.017786516 -0.00996952
-0.045844093 -0.04171968 -0.028846368 -0.022502396 -0.025845036 -0.020367041 0.008015295 0.0068584587
0.010273041 0.017047416 0.01706073 0.016772458 0.019176368 0.018025087 0.012574794 0.0163447
0.015889248 0.013516551 0.014589173 0.012319575 0.0083001 0.0071138474 0.003247783 -0.0016408096
0.0017081614 -0.008925893 -0.007685213 0.022833178 -0.010369313 -0.007570254 -0.017057521 -0.035832264
-0.017731503 0.003249905 0.00038138754 0.02817506 0.027096348 0.0024204513 0.0010743117 0.028233504
-0.00051971775 0.0049071764 -0.036994547 -0.017226879 -0.025157081 -0.02263948 -0.0042720935 -0.021165969
0.038006656 0.06130745 0.04296724 -0.019715294 -0.018113045 -0.023269441 -0.0095657455 -0.01081125
-0.026214097 -0.032366846 -0.035848636 -0.053861637 -0.013540063 -0.016315198 0.024254981 -0.01810839
-0.021222385 0.009546331 -0.0072292415 -0.008884687 0.017747248 0.047303326 0.013589691 -0.02175482
0.04935236 0.008270508 -0.033497047 -0.0026139128 -0.029462574 -0.060892507 0.0076309214 0.00016032257
0.03758408 -0.008385727 -0.019337596 0.006822486 -0.011728157 -0.018823866 0.009935103 0.039412152
0.025395643 0.04165489 0.055841934 0.01066688 0.024522351 0.074982196 0.019418022 0.025333587
0.0034586454 -0.015262269 -0.034343507 -0.0026838502 -0.014587371 -0.03192085 0.005703625 -0.006539946
-0.028401414 0.010399811 0.010895975 0.0068629687 0.006935661 0.0051573734 0.0007049809 -5.0256283e-05
-0.0030644548 -0.00814548 0.022476261 0.026879087 0.020968389 0.011373289 0.01296852 0.006105367
-0.0045567565 -0.0018714934 -0.007761631 -0.015854714 -0.010551471 -0.008002605 -0.02042196 -0.020796947
-0.023018233 -0.04456292 -0.033610094 -0.023242207 -0.086094275 -0.057578098 -0.083437346 -0.055652723
-0.011250935 -0.04322148 -0.05759691 -0.020114051 -0.048848588 0.004946866 0.010638288 0.010192493
0.006185277 0.011781339 0.012441889 0.008818319 0.015904613 0.016382067 0.05163506 -0.022626383
-0.0010687072 -0.002110263 -0.053220145 -0.011974374 0.06033407 0.040035192 0.059147142 -0.026691323
-0.03287122 -0.058536083 -0.022394322 -0.022098295 -0.018776279 -0.014271074 -0.047142345 -0.029033072
0.0030959616 -0.041668277 -0.067359895 0.0335944 -0.016797341 -0.053692356 0.048892245 -0.00560616
-0.048598308 0.015253272 0.009758019 0.051322233 0.005037683 -0.02474922 0.010847706 -0.042413626
-0.037823617 0.018058022 0.060471036 0.010800398 -0.032958496 0.04248214 0.0025930977 -0.02432975
0.06359103 -0.01200771 -0.04011605 0.004454675 0.017576134 0.024267105 -0.022249544 -0.016083675
-0.011963856 0.024301905 0.0069658416 -0.016714167 -0.066555165 -0.008159947 0.02715923 -0.035016157
00000000: df01 263d c9a3 033d 0929 493d 1aa7 d73c
00000010: b91a 933c a2c6 d83c 17f6 2b3c 97b7 333c
00000020: 8a6c 973c 5211 863c 07a5 153b 1f31 91bc
00000030: 382f c63b 48bb 323a ea1a c7bc 9240 063b
00000040: 173a b23a 2cc9 96bc 43eb 1c3c 6a72 873b
00000050: 4f29 923c 6cc2 3a3c da78 843c 0a8e 663c
00000060: cdcf ae3a f1fb 9d3c 4b0f 853c f922 3f3b
00000070: 25f7 663b 86de d73b 770b beba ed7a 003b
00000080: ebab ac3b 0c8b c1bb beff c4ba 8b1d b83a
00000090: c110 313d 7748 103d 2e68 613d b746 1f3d
000000a0: 5337 8c3c 6033 0a3d d8f6 5a3d eb7d 0c3d
000000b0: d801 573d 642e abbc 07b5 91bc 3357 23bc
000000c0: 04c7 3bbd 41e2 2abd 384f ecbc f256 b8bc
000000d0: f8b8 d3bc c8d8 a6bc 9552 033c ecbc e03b
000000e0: 4250 283c 06a7 8b3c f2c2 8b3c 6566 893c
000000f0: c217 9d3c 59a9 933c 8206 4e3c 52e5 853c
00000100: 2b2a 823c 8674 5d3c 6d07 6f3c 0bd8 493c
00000110: 25fd 073c 471b e93b c2d8 543b 6f10 d7ba
00000120: 63e4 df3a e93d 12bc 3dd4 fbbb a50c bb3c
00000130: 0de4 29bc e50f f8bb 37bc 8bbc dac4 12bd
00000140: a841 91bc 5cfc 543b f8f4 c739 62cf e63c
00000150: 29f9 dd3c 6fa0 1e3b ebcf 8c3a f349 e73c
00000160: ab3d 08ba 61cc a03b 9887 17bd 621f 8dbc
00000170: 3916 cebc 6e76 b9bc ebfc 8bbb 4164 adbc
00000180: deac 1b3d 851d 7b3d 6bfe 2f3d f881 a1bc
00000190: cf61 94bc 8e9f bebc a5b9 1cbc ab21 31bc
000001a0: f2be d6bc 1993 04bd 05d6 12bd 059e 5cbd
000001b0: 24d7 5dbc 73a7 85bc 62b2 c63c 0c58 94bc
000001c0: 91da adbc 3768 1c3c 46e3 ecbb 1491 11bc
000001d0: ad62 913c 22c1 413d 4ca7 5e3c 2a37 b2bc
000001e0: b325 4a3d 0681 073c 3334 09bd 2e4e 2bbb
000001f0: 7f5b f1bc 6c6a 79bd cf0c fa3b 431c 2839
00000200: c4f1 193d 4a64 09bc e169 9ebc 298f df3b
00000210: 7527 40bc 8234 9abc d8c6 223c a36e 213d
00000220: 860a d03c 519e 2a3d 83ba 643d 23c4 2e3c
00000230: 19e3 c83c 4490 993d 8b12 9f3c 6288 cf3c
00000240: 71aa 623b 990e 7abc c7ab 0cbd 89e3 2fbb
00000250: deff 6ebc 70bf 02bd 79e5 ba3b 0b4d d6bb
00000260: 15aa e8bc f863 2a3c 0885 323c c1e2 e03b
00000270: 8b44 e33b 2fff a83b 78ce 383a 46ca 52b8
00000280: 05d5 48bb 9f74 05bc 2320 b83c 8831 dc3c
00000290: e6c5 ab3c 0857 3a3c ea79 543c 880f c83b
000002a0: d850 95bb e64c f5ba 4855 febb bfe1 81bc
000002b0: 14e0 2cbc 5c1d 03bc f44b a7bc 5c5e aabc
000002c0: bc90 bcbc 9c87 36bd bdaa 09bd 7166 bebc
000002d0: 3252 b0bd 03d7 6bbd 33e1 aabd 1cf4 63bd
000002e0: d755 38bc 0209 31bd bdea 6bbd 39c6 a4bc
000002f0: 7515 48bd 5219 a23b 374c 2e3c 6afe 263c
00000300: ddad ca3b 8406 413c 11d9 4b3c b67a 103c
00000310: 644a 823c af33 863c 497f 533d f75a b9bc
00000320: dd13 8cba 574c 0abb 5efd 59bd 2a30 44bc
00000330: dc20 773d f1fb 233d 4644 723d c3a7 dabc
00000340: f9a3 06bd 88c3 6fbd 4c74 b7bc 7c07 b5bc
00000350: b6d0 99bc 39d1 69bc 5518 41bd c4d6 edbc
00000360: 9ee5 4a3b 5bac 2abd fcf3 89bd 489a 093d
00000370: 949a 89bc 84ec 5bbd 3c43 483d e1b3 b7bb
00000380: 050f 47bd dce8 793c 19e0 1f3c 4337 523d
00000390: 2613 a53b e0be cabc 94ba 313c e9b9 2dbd
000003a0: f0ec 1abd 6bee 933c 7ab0 773d 27f4 303c
000003b0: 7dff 06bd c101 2e3d f6f0 293b 2f4f c7bc
000003c0: 043c 823d fcbb 44bc ba50 24bd 86f8 913b
000003d0: d3fb 8f3c cfcb c63c ad44 b6bc e9c1 83bc
000003e0: 0d04 44bc ca14 c73c b741 e43b 26ec 88bc
000003f0: 134e 88bd 4cb1 05bc 097d de3c 1a6d 0fbd

1.bn2.weight f4 [64]
0.364339 0.12667026 -0.07050146 0.7075201 0.19677536 0.33375922 -0.071278855 0.6308985
0.25962454 0.03206747 0.17520475 0.17429827 0.071191974 0.16320735 -0.15001833 0.65828466
0.6112432 -0.041796446 0.45932576 0.10337726 0.50020105 0.3835622 0.30437025 0.24489708
0.09122145 0.10585387 -0.0004550064 0.34896296 0.42371857 0.3909593 0.3036445 -0.0038413478
0.43674675 0.052821916 0.60477495 0.046983697 0.026495358 0.56342727 0.47191796 -0.013727462
0.04942742 0.4161066 0.430109 0.41365692 0.19690146 0.03134039 0.0031906925 0.46663043
0.012104021 0.018465547 0.30449885 0.27651867 0.05030033 0.09423536 0.06381923 0.1535429
0.6634883 0.2900708 0.5874957 -0.026316592 0.19828965 0.2003454 -0.041890506 0.044029873
00000000: a48a ba3e d9b5 013e 1263 90bd 0a20 353f
00000010: 7b7f 493e 7de2 aa3e a6fa 91bd 9082 213f
00000020: 82ed 843e 2e59 033d e068 333e 3f7b 323e
00000030: 19cd 913d d41f 273e 689e 19be 5885 283f
00000040: 6f7a 1c3f c032 2bbd bf2c eb3e 75b7 d33d
00000050: 2d0d 003f 4462 c43e 6bd6 9b3e 4dc6 7a3e
00000060: 50d2 ba3d eac9 d83d ed8d eeb9 46ab b23e
00000070: a4f1 d83e d12b c83e 4b77 9b3e 1fbf 7bbb
00000080: 459d df3e cb5b 583d 88d2 1a3f fa71 403d
00000090: cb0c d93c c53c 103f 3b9f f13e 26e9 60bc
000000a0: 6874 4a3d ed0b d53e 3f37 dc3e d7ca d33e
000000b0: 89a0 493e c85e 003d f01a 513b 2fea ee3e
000000c0: f24f 463c 0f45 973c 46e7 9b3e db93 8d3e
000000d0: b807 4e3d 78fe c03d a8b3 823d 5a3a 1d3e
000000e0: 5fda 293f 2984 943e 1e66 163f e595 d7bc
000000f0: 710c 4b3e 5827 4d3e 6195 2bbd ab58 343d

1.bn2.bias f4 [64]
-0.15997632 0.048021164 0.06265497 -0.33020616 0.013270659 -0.16064462 0.050210726 -0.35574317
-0.02011779 0.0891926 0.14331387 0.30858746 0.11713762 0.1250915 0.08503076 -0.19758533
0.09387005 0.11734872 0.04911944 -0.15114002 -0.035582583 -0.066479675 -0.095128946 0.07027054
0.04954544 0.0697906 0.121488556 0.11878362 0.12096831 -0.05404069 -0.097159885 0.13698484
-0.015304918 0.026437324 -0.023572188 0.14732225 0.19207253 0.12747236 0.23271734 0.104607426
0.08388301 0.12207637 0.01574851 0.033921026 -0.009669779 0.15592381 0.09304546 -0.090865165
0.12349211 0.07956425 0.122149594 0.15168461 0.073416285 0.50501245 0.08742197 -0.03314048
-0.09211951 -0.03502409 -0.31542033 0.080853425 0.35299617 0.06453414 0.13998888 0.051981024
00000000: d5d0 23be d7b1 443d 4051 803d c810 a9be
00000010: 2e6d 593c 0680 24be c3a9 4d3d f823 b6be
00000020: 10ce a4bc 9caa b63d dfc0 123e 2dff 9d3e
00000030: d9e5 ef3d fc17 003e 9b24 ae3d cf53 4abe
00000040: f13e c03d 8754 f03d 7731 493d 73c4 1abe
00000050: 0bbf 11bd 7f26 88bd f7d2 c2bd 00ea 8f3d
00000060: 29f0 4a3d 60ee 8e3d fece f83d d444 f33d
00000070: 3cbe f73d c559 5dbd c3fb c6bd c145 0c3e
00000080: 7bc1 7abc 1693 d83c 761a c1bc a5db 163e
00000090: a9ae 443e 1d88 023e 744d 6e3e 6b3c d63d
000000a0: dbca ab3d 2d03 fa3d 0503 813c c6f0 0a3d
000000b0: fe6d 1ebc 7eaa 1f3e 9e8e be3d 8417 babd
000000c0: 6ee9 fc3d 95f2 a23d 9129 fa3d 3653 1b3e
000000d0: 475b 963d 7f48 013f 4a0a b33d 50be 07bd
000000e0: 27a9 bcbd 6c75 0fbd c67e a1be 7b96 a53d
000000f0: eabb b43e 7a2a 843d 3f59 0f3e 0eea 543d

2.conv1.weight f4 [64, 64, 3, 3]
0.0036774555 0.0035548822 0.0034573083 0.0039561405 0.0038639314 0.0037754453 0.0037004077 0.0036270488
0.0035784715 0.0006959386 0.0005665148 0.0004708901 0.00089253363 0.0007961161 0.0006978191 0.00064559147
0.0005515287 0.00045928085 0.0017691875 0.0017272069 0.0017041108 0.001830777 0.0018132181 0.0017948576
0.0017588718 0.0017575471 0.0017506399 0.002190366 0.0021874881 0.0021521796 0.0022159396 0.0022353765
0.0021632763 0.0020128184 0.0019744032 0.0018628279 -0.001121841 -0.0011979708 -0.00104152 -0.0012175663
-0.0012970626 -0.0011492742 -0.0012085384 -0.001296417 -0.0011642546 0.00076802785 0.0007697693 0.0006126172
0.0009319308 0.00087890145 0.00069511024 0.0010179059 0.0009241742 0.00073819386 -0.00018114403 -0.0001163343
-8.642475e-05 7.286687e-05 0.00011767939 0.00013781706 0.0001641642 0.00017989374 0.00015975606 0.0015079845
0.0019847373 0.0022854365 0.0015431077 0.0021014228 0.0022586866 0.0016358063 0.0021585142 0.00230527
0.002733155 0.0028310805 0.002720168 0.0027141476 0.0027702926 0.0026330068 0.0027306573 0.0027545374
0.0025963231 -0.00035699573 -0.00053107983 -0.00061756244 -0.0003313297 -0.0004971075 -0.000584613 -0.0003967907
-0.0005573929 -0.00064661936 -0.0017208293 -0.0017744261 -0.0018479605 -0.0016115534 -0.001663195 -0.001784013
-0.0015748476 -0.0016750345 -0.0018042086 -0.0011694159 -0.0011257876 -0.0011768922 -0.0012602881 -0.0012816365
-0.0013462369 -0.0014451355 -0.0015309217 -0.0016169793 -0.0007040947 -0.00078398775 -0.0008067308 -0.0007028044
-0.0007782369 -0.000804491 -0.00076703896 -0.0008391584 -0.00085529394 0.00015796663 0.000271196 0.0001049769
0.00016634048 0.0003127626 0.00011018762 9.042587e-05 0.00023558727 3.188262e-05 0.0036621075 0.0036815177
0.0034914417 0.0038329521 0.00384708 0.0036425628 0.003743059 0.003756574 0.0035493013 0.0017058442
0.0017107397 0.002102212 0.0017671523 0.0017673235 0.002154425 0.0019468091 0.0019442203 0.0023350576
0.0009076838 0.0007630224 0.00055749726 0.0010956564 0.00090314896 0.0006059923 0.0009715679 0.0007270161
0.00047242583 0.0004459543 0.00037506348 0.00043658266 0.0005684601 0.0005239535 0.00057105196 0.00058856583
0.00057335617 0.00057650224 0.0011038982 0.0009861247 0.000708918 0.0011996285 0.0010760238 0.0008167547
0.0011735493 0.0010670108 0.0008374524 0.0009043256 0.000846706 0.0009632869 0.0010397498 0.000977806
0.00107792 0.0010609736 0.0009790887 0.0010783115 -0.00082626933 -0.00096377375 -0.0007291339 -0.00080977794
-0.00084779755 -0.0006132349 -0.00074157177 -0.00071195205 -0.00062242313 0.0025262074 0.0023922892 0.002336011
0.0026324783 0.0024818643 0.002464979 0.0026834065 0.0025981022 0.002610172 0.0012700958 0.0012910111
0.0012386803 0.001396272 0.0014546198 0.0014126723 0.0014396578 0.0015220804 0.0015134868 0.0007755178
0.000778703 0.00077772635 0.0009113293 0.0008936767 0.0008302365 0.0010074563 0.0009713522 0.00082203414
0.00015145962 0.00011834907 0.000201501 0.00019444671 0.00016823354 0.00024978165 0.00017091344 0.00015046724
0.00021212215 -0.0001669899 -0.00018329459 -0.00016703038 -0.00013547756 -0.0001593905 -0.00015758818 -0.0001850661
-0.00021097407 -0.00022051578 -0.0021907089 -0.002194597 -0.0021650782 -0.002225389 -0.0022162276 -0.0021889436
-0.0023315852 -0.0023202791 -0.0022866623 -0.009582218 -0.009559938 -0.00936028 -0.009567745 -0.009601756
-0.009483595 -0.00936422 -0.00949483 -0.0094352 -6.394874e-05 -0.00015616938 -0.00023312631 0.00023134684
00000000: 7701 713b 07f9 683b 0294 623b 83a2 813b
00000010: 033a 7d3b 766d 773b 8a82 723b c8b3 6d3b
00000020: ca84 6a3b a66f 363a 2a82 143a cde1 f639
00000030: ebf8 693a 72b2 503a d9ed 363a e93c 293a
00000040: 7794 103a a2cb f039 15e4 e73a 7263 e23a
00000050: 785c df3a aff6 ef3a 81a9 ed3a 6d41 eb3a
00000060: f289 e63a 7f5d e63a ba75 e53a 3e8c 0f3b
00000070: f65b 0f3b 950b 0d3b 4c39 113b 657f 123b
00000080: c1c5 0d3b 7de9 033b fd64 013b 222a f43a
00000090: bd0a 93ba 3b05 9dba 9d83 88ba bf96 9fba
000000a0: 3302 aaba 3ea3 96ba d267 9eba 89ec a9ba
000000b0: e799 98ba 7a55 493a 58ca 493a 0b98 203a
000000c0: d14c 743a 1466 663a 0f38 363a 416b 853a
000000d0: 4844 723a 5a83 413a 7bf1 3db9 80f8 f3b8
000000e0: ef3e b5b8 1ad0 9838 a4ca f638 fc82 1039
000000f0: 7e23 2c39 dca1 3c39 3184 2739 90a7 c53a
00000100: 5e12 023b 43c7 153b 1a42 ca3a 06b8 093b
00000110: 7906 143b 8d68 d63a dc75 0d3b 0314 173b
00000120: bb1e 333b a689 393b d944 323b d7df 313b
00000130: cc8d 353b 868e 2c3b d4f4 323b 7885 343b
00000140: 1327 2a3b 282b bbb9 2a38 0bba eae3 21ba
00000150: 52b6 adb9 5250 02ba b740 19ba 5908 d0b9
00000160: 011e 12ba e481 29ba 738d e1ba dc93 e8ba
00000170: 4437 f2ba c23a d3ba 90ff d9ba 8bd5 e9ba
00000180: 1e6b ceba d58c dbba 327b ecba 1647 99ba
00000190: 2a8f 93ba f341 9aba 4030 a5ba 96fc a7ba
000001a0: 3774 b0ba b36a bdba 35a9 c8ba d2f0 d3ba
000001b0: ff92 38ba 8784 4dba ca7a 53ba 683c 38ba
000001c0: 9802 4cba 7ae4 52ba 1d13 49ba f8fa 5bba
000001d0: ce35 60ba d8a3 2539 502f 8e39 0b27 dc38
000001e0: af6b 2e39 49fa a339 8714 e738 05a3 bd38
000001f0: fa07 7739 b4b9 0538 f8ff 6f3b 9e45 713b
00000200: acd0 643b 4432 7b3b 4b1f 7c3b 10b8 6e3b
00000210: 1c4e 753b da30 763b 659b 683b a296 df3a
00000220: e63a e03a 44c5 093b cb9f e73a 89a5 e73a
00000230: 4131 0d3b 132c ff3a 35d5 fe3a c407 193b
00000240: a1f1 6d3a 9105 483a 0225 123a 219c 8f3a
00000250: 4dc1 6c3a 74db 1e3a d1b0 7e3a 3995 3e3a
00000260: ecaf f739 f9ce e939 2ba4 c439 22e5 e439
00000270: b604 153a ed59 093a a6b2 153a fc49 1a3a
00000280: 484d 163a 6920 173a adb0 903a db40 813a
00000290: afd6 393a da3c 9d3a 5e09 8d3a 7b1b 563a
000002a0: c8d1 993a f1da 8b3a 7b88 5b3a 4410 6d3a
000002b0: 7af5 5d3a 1785 7c3a 3748 883a ba29 803a
000002c0: fe48 8d3a 5e10 8b3a c454 803a 2156 8d3a
000002d0: ff99 58ba c3a5 7cba 5923 3fba 4747 54ba
000002e0: bb3e 5eba 7fc1 20ba 0a66 42ba 4ba2 3aba
000002f0: 1c2a 23ba ba8e 253b f4c7 1c3b c317 193b
00000300: a885 2c3b c6a6 223b 7c8b 213b 17dc 2f3b
00000310: ec44 2a3b 6b0f 2b3b 5879 a63a 2537 a93a
00000320: 375b a23a 1d03 b73a f1a8 be3a 6b29 b93a
00000330: e6b2 bc3a 8b80 c73a 3160 c63a 1e4c 4b3a
00000340: e021 4c3a 55e0 4b3a 46e6 6e3a a145 6a3a
00000350: 3aa4 593a a00c 843a 58a2 7e3a c77d 573a
00000360: 22d1 1e39 2c32 f838 034a 5339 64e4 4b39
00000370: d967 3039 20f5 8239 3a37 3339 bec6 1d39
00000380: 1b6d 5e39 031a 2fb9 c432 40b9 e024 2fb9
00000390: fb0e 0eb9 1022 27b9 413e 25b9 4e0e 42b9
000003a0: ec38 5db9 413a 67b9 ff91 0fbb 3ad3 0fbb
000003b0: fce3 0dbb d5d7 11bb 213e 11bb 6174 0fbb
000003c0: 82cd 18bb d30f 18bb d4db 15bb bcfe 1cbc
000003d0: 49a1 1cbc dc5b 19bc 08c2 1cbc af50 1dbc
000003e0: 1561 1bbc 636c 19bc 3490 1bbc 1996 1abc
000003f0: 381c 86b8 66c1 23b9 5e73 74b9 b295 7239

2.bn1.weight f4 [64]
-0.00019160513 0.0020797995 -0.053690672 0.042573623 0.52358025 -2.9202854e-05 0.00019144705 -0.0011100929
2.1568216e-05 -0.00029429625 4.4527955e-05 0.54823023 -0.24115735 -0.004093008 -0.0013288428 -0.00020650198
9.6474905e-05 2.3889004e-05 9.247201e-06 0.00017668087 -5.3035947e-06 -0.00070689165 -0.002499719 -0.032424342
4.7440644e-05 2.0317637e-05 0.48223516 0.5120354 -0.01481568 -4.733034e-05 6.339875e-06 0.00019044126
-0.00039472317 2.6637088e-05 0.0009122674 0.06718784 2.839795e-06 -0.002809897 0.00012990511 -0.0019277018
0.44934526 0.0001596492 -1.32173e-05 0.48342964 -0.0013287795 -0.065830715 -0.00821279 -8.93257e-06
-4.65721e-06 -0.0005184447 0.0006359561 -0.24108346 0.00012520496 0.0021171737 -0.0007247388 0.00036387707
0.48218554 0.0030745303 -5.423755e-05 0.4387495 0.00014903025 0.0002047697 -0.011314535 0.0007148367
00000000: 9ce9 48b9 3f4d 083b c0ea 5bbd ae61 2e3d
00000010: 5b09 063f a7f8 f4b7 2dbf 4839 8980 91ba
00000020: 64ed b437 c64b 9ab9 87c3 3a38 d158 0c3f
00000030: f4f1 76be a41e 86bb 912c aeba 7488 58b9
00000040: 9252 ca38 3f65 c837 6d24 1b37 6943 3939
00000050: 88f5 b1b6 b24e 39ba 53d2 23bb 63cf 04bd
00000060: 01fb 4638 cb6f aa37 87e7 f63e c114 033f
00000070: 77bd 72bc 9184 46b8 1dbb d436 30b1 4739
00000080: d9f2 ceb9 b672 df37 3b25 6f3a c799 893d
00000090: 4e93 3e36 4026 38bb 2337 0839 f0aa fcba
000000a0: 9510 e63e 8167 2739 dfbf 5db7 1784 f73e
000000b0: 712a aeba 41d2 86bd f08e 06bc 19dd 15b7
000000c0: 2145 9cb6 3ce8 07ba 4bb6 263a 95de 76be
000000d0: 7349 0339 48c0 0a3b 66fc 3dba c1c6 be39
000000e0: 06e1 f63e 0f7e 493b 207d 63b8 c6a3 e03e
000000f0: 0145 1c39 73b7 5639 9960 39bc e163 3b3a

2.bn1.bias f4 [64]
-0.0012863552 -0.010157611 0.006582692 -0.05672329 -0.7689309 -0.0003193689 -0.0032107958 -0.012766369
-0.0007249448 -0.0026287378 -0.001087338 -0.4942869 0.37993366 -0.017855518 -0.007371795 -0.0026890982
-0.0015274873 -0.0002936881 -0.00011324858 -0.0015885427 -5.9800026e-05 -0.0037873676 -0.0073168627 0.00048554927
-0.000869298 -0.00036184944 -0.45095718 -0.60083944 -0.03409607 -0.00044467932 -6.319094e-05 -0.0019198672
-0.0043297964 -0.00039840746 -0.011253463 -0.022416867 -4.0300405e-05 -0.005813037 -0.00086314086 -0.003708047
-0.40789282 -0.0020475974 -0.0006877157 -0.598341 -0.007948111 -0.08231908 -0.01408093 -9.959615e-05
-6.659992e-05 -0.0046246657 -0.0037322063 0.012971602 -0.0012138229 -0.013066772 -0.0039302893 -0.0017198024
-0.3243101 -0.035282455 -0.0006084503 -0.43563023 -0.0010711 -0.0041215033 -0.021850115 -0.002897361
00000000: eb9a a8ba 1c6c 26bc 9fb3 d73b ae56 68bd
00000010: a8d8 44bf f870 a7b9 376c 52bb 082a 51bc
00000020: 390a 3eba e746 2cbb 0285 8eba 2c13 fdbe
00000030: aa86 c23e bc45 92bc 198f f1bb 953b 30bb
00000040: f835 c8ba 26fa 99b9 de7f edb8 a636 d0ba
00000050: cad1 7ab8 7c35 78bb 4bc2 efbb 5291 fe39
00000060: 9ae1 63ba 9cb6 bdb9 dce3 e6be 9dd0 19bf
00000070: 52a8 0bbd d923 e9b9 6185 84b8 0ea4 fbba
00000080: f7e0 8dbb 58e1 d0b9 7260 38bc 94a3 b7bc
00000090: 3b08 29b8 4a7b bebb 6744 62ba b502 73bb
000000a0: 54d7 d0be fc30 06bb d247 34ba e02c 19bf
000000b0: cb38 02bc e896 a8bd b3b3 66bc 47de d0b8
000000c0: 8fab 8bb8 828a 97bb 0898 74bb d886 543c
000000d0: 2319 9fba 0416 56bc a8c9 80bb fe6a e1ba
000000e0: f90b a6be 5684 10bd 6980 1fba ed0a dfbe
000000f0: 2764 8cba ad0d 87bb 03ff b2bc a7e1 3dbb

2.conv2.weight f4 [64, 64, 3, 3]
-0.0009261051 -0.0010907991 -0.0010998348 -0.00096896006 -0.0011171498 -0.0011179178 -0.0008838786 -0.0009757528
-0.00091953547 -0.0036075055 -0.004285238 -0.003923032 -0.0043933024 -0.004988571 -0.0045226463 -0.003991567
-0.004470075 -0.0039821765 -0.0011438453 -0.0013587738 -0.0012446406 -0.0015342947 -0.0016954609 -0.0015478584
-0.0012918897 -0.0013977991 -0.0014868566 0.002285163 0.0024433597 0.0029975628 0.00250355 0.0025051145
0.002971121 0.0036760664 0.00357247 0.0041200467 1.3129791e-05 0.0013575023 0.0015231011 -0.0007193839
0.004505283 -0.00084508234 0.00065804704 -1.5484619e-06 -0.0023384704 -0.0005056914 -0.0004976184 -0.0004736524
-0.0005487334 -0.00053990685 -0.00050605205 -0.00050134567 -0.00049206533 -0.00047798565 0.00020995394 -4.2979796e-06
0.0002738665 -0.00044201122 -0.00070080237 -0.00031696018 -4.0880765e-05 -0.00015912863 0.00018130011 -0.00024069664
-0.000882428 -5.6265744e-06 -0.00072082056 -0.001295183 -0.00047841272 -0.00076445425 -0.0011230045 -0.00041393825
-0.00031808205 -0.00025990768 -0.00030289768 -0.0004302698 -0.00034827372 -0.00029643037 -0.00035351858 -0.00027160096
-0.000256282 -0.0010018017 -0.0012366469 -0.0009726359 -0.0011490856 -0.0013699998 -0.0010976174 -0.0010391297
-0.0012747099 -0.0010467116 -0.00083114905 -0.0008884336 -0.00086402264 -0.0007506408 -0.00075692235 -0.0007632666
-0.0006915419 -0.0007072383 -0.00075209164 0.021092178 0.0103474585 0.018727835 0.0022065686 -0.003021272
0.014686032 0.0022892617 -0.011251465 -0.0005556271 0.013224804 0.011333127 0.008966842 0.023993095
0.020574808 0.014757063 0.025546994 0.026595023 0.017962921 -0.0008885037 -0.0010219445 -0.0010242834
-0.00091107865 -0.0010135288 -0.0010161678 -0.0008851859 -0.0009768731 -0.0009732222 0.0013681961 0.0014285545
0.0010422778 0.001386324 0.0015490905 0.0010793265 0.0013382637 0.0014849633 0.0010423897 -0.00041249566
-0.0005091715 -0.0004853627 -0.00039025527 -0.00043096658 -0.00034650147 -0.00024067126 -0.00025856303 -0.000111217705
-0.004232306 -0.0047507966 -0.003846658 -0.004678464 -0.005244397 -0.004212062 -0.0041263043 -0.0046185143
-0.0036255016 -7.106093e-05 -8.8049885e-05 -6.547026e-05 -0.00010526949 -0.00016417871 -0.00012765052 -0.0001426728
-0.00019138749 -0.00014351853 -0.00052177894 -0.0005127036 -0.00048763782 -0.00056618755 -0.0005439342 -0.0005062661
-0.0005532141 -0.0005261715 -0.00050332333 -0.0006125219 -0.00065437536 -0.0006005046 -0.00065146567 -0.0007071437
-0.0006560726 -0.0006228878 -0.0006502752 -0.0006163637 -0.00049528724 -0.00049301673 -0.000498247 -0.00047983887
-0.00049729645 -0.000518063 -0.0004964968 -0.0005197875 -0.0005325378 -0.0024420952 -0.002458028 -0.0023149312
-0.0025618363 -0.0025420468 -0.0023052632 -0.0026582906 -0.0026541902 -0.0024143993 -0.00022583285 -0.00028329002
-4.2517193e-05 -0.0002804401 -0.0002693699 -3.0006491e-05 -0.00013399505 -4.6598438e-05 9.873569e-05 0.0096321795
0.009648619 0.0102214 0.009617653 0.009605689 0.009981919 0.010077693 0.010004489 0.010285147
-0.00068355503 -0.0006776321 -0.0006800097 -0.00075349654 -0.00077545736 -0.0007511485 -0.00075004017 -0.0007769272
-0.00074460986 -0.0004157478 -0.0004215186 -0.00043076667 -0.00028936777 -0.00030120282 -0.0003378755 -0.00032676465
-0.00034882454 -0.0003962785 -0.0042088036 0.0085700005 -0.0034244964 0.0029543592 0.012217596 0.002116364
-0.0073508914 0.0044374997 -0.0009146731 -0.015959613 -0.002374877 -0.013163823 -0.004802681 0.009047938
-0.0023354043 -0.004251904 0.00907654 -0.00079210225 0.003815483 0.0036526385 0.0038200554 0.003162732
00000000: dcc5 72ba 25f9 8eba 5528 90ba cf01 7eba
00000010: 546d 92ba 1987 92ba 17b4 67ba a9c9 7fba
00000020: fb0c 71ba e66b 6cbb 2f6b 8cbb c78c 80bb
00000030: b1f5 8fbb 2b77 a3bb b532 94bb b1cb 82bb
00000040: b579 92bb eb7c 82bb 14ed 95ba e218 b2ba
00000050: 3523 a3ba 631a c9ba 3a3a deba 82e1 caba
00000060: a054 a9ba 5b36 b7ba a1e2 c2ba acc2 153b
00000070: c620 203b c272 443b 9912 243b d92c 243b
00000080: 24b7 423b 29ea 703b 1a20 6a3b 7501 873b
00000090: 0648 5c37 38ee b13a cba2 c73a 0995 3cba
000000a0: 0ea1 933b 8488 5dba ca80 2c3a bfd4 cfb5
000000b0: 0641 19bb 6090 04ba 9b72 02ba 8d54 f8b9
000000c0: e0d8 0fba 8988 0dba 94a8 04ba bd6c 03ba
000000d0: f2fd 00ba 269a fab9 1527 5c39 5d37 90b6
000000e0: bd95 8f39 bebd e7b9 0db6 37ba ad2d a6b9
000000f0: 6377 2bb8 c4db 26b9 611b 3e39 8363 7cb9
00000100: be52 67ba e8cb bcb6 73f5 3cba 21c3 a9ba
00000110: 78d3 fab9 a865 48ba c731 93ba da05 d9b9
00000120: 40c4 a6b9 3844 88b9 3dce 9eb9 d695 e1b9
00000130: 8298 b6b9 366a 9bb9 7658 b9b9 aa65 8eb9
00000140: 965d 86b9 e34e 83ba fc16 a2ba 7ef8 7eba
00000150: ea9c 96ba 9191 b3ba eedd 8fba 6833 88ba
00000160: 2b14 a7ba d031 89ba 78e1 59ba c5e5 68ba
00000170: 947f 62ba a7c6 44ba 336c 46ba f415 48ba
00000180: 9748 35ba f565 39ba 0428 45ba 81c9 ac3c
00000190: 6388 293c 1e6b 993c 149c 103b 8800 46bb
000001a0: af9d 703c 7007 163b 1158 38bc 81a7 11ba
000001b0: d9ac 583c 94ae 393c a9e9 123c 2b8d c43c
000001c0: 808c a83c 9cc7 713c ee47 d13c cedd d93c
000001d0: fa26 933c 79ea 68ba c4f2 85ba 3f41 86ba
000001e0: 74d5 6eba 62d8 84ba ef30 85ba d20b 68ba
000001f0: 6c0a 80ba d61f 7fba 0b55 b33a 563e bb3a
00000200: 0a9d 883a 50b5 b53a da0a cb3a 3078 8d3a
00000210: ae68 af3a 1aa3 c23a cba0 883a 3b44 d8b9
00000220: ec79 05ba 4778 feb9 2d9b ccb9 5bf3 e1b9
00000230: a4aa b5b9 b35c 7cb9 be8f 87b9 8d3d e9b8
00000240: 28af 8abb 92ac 9bbb 3618 7cbb cd4d 99bb
00000250: 31d9 abbb 5605 8abb f335 87bb e856 97bb
00000260: d399 6dbb 8c06 95b8 6ca7 b8b8 144d 89b8
00000270: 21c4 dcb8 6327 2cb9 edd9 05b9 709a 15b9
00000280: 30af 48b9 767d 16b9 fec7 08ba f566 06ba
00000290: a4a9 ffb9 346c 14ba ce96 0eba f1b6 04ba
000002a0: 9205 11ba c6ee 09ba 75f1 03ba a691 20ba
000002b0: 638a 2bba 2e6b 1dba 1fc7 2aba 9c5f 39ba
000002c0: 49fc 2bba 4b49 23ba 3b77 2aba 7893 21ba
000002d0: 2ad6 01ba cb3d 01ba ca9c 02ba e292 fbb9
000002e0: 005d 02ba 9fce 07ba 5627 02ba 5942 08ba
000002f0: 029a 0bba 8f0b 20bb de16 21bb 1ab6 17bb
00000300: 7be4 27bb 7898 26bb e613 17bb b736 2ebb
00000310: ecf1 2dbb e63a 1ebb 8bcd 6cb9 8b86 94b9
00000320: 7d54 32b8 0808 93b9 373a 8db9 73b6 fbb7
00000330: 0681 0cb9 b172 43b8 5210 cf38 4ad0 1d3c
00000340: 3e15 1e3c a977 273c 5c93 1d3c 2e61 1d3c
00000350: 348b 233c e81c 253c dee9 233c 0883 283c
00000360: 9a30 33ba 1fa3 31ba ae42 32ba 4c86 45ba
00000370: 1048 4bba b9e8 44ba 589e 44ba b4aa 4bba
00000380: ec31 43ba baf8 d9b9 45ff dcb9 86d8 e1b9
00000390: 49b6 97b9 c2ea 9db9 e224 b1b9 9c51 abb9
000003a0: 70e2 b6b9 9ac3 cfb9 01ea 89bb 3069 0c3c
000003b0: 846d 60bb ec9d 413b 502c 483c b2b2 0a3b
000003c0: bfdf f0bb 7268 913b acc6 6fba bcbd 82bc
000003d0: d3a3 1bbb 13ad 57bc cf5f 9dbb cd3d 143c
000003e0: 950d 19bb 8e53 8bbb c5b5 143c 15a5 4fba
000003f0: 2f0d 7a3b 1b61 6f3b e559 7a3b d745 4f3b

2.bn2.weight f4 [64]
-0.04071519 -0.024894252 0.2969457 0.07560286 0.04333287 0.022678193 0.011032076 0.6873967
0.050893094 0.018251702 0.28283918 1.102899 -0.006590628 0.3808722 0.052896265 0.18537231
0.19289969 -0.015817976 0.11955876 1.2516718 0.16222209 0.030576395 0.016849669 0.30656597
0.0019910045 0.23080905 0.07702889 0.8949201 0.13502176 -0.021529311 0.20661414 0.56535256
0.097074516 -0.010539451 0.02149867 0.46443054 0.6029821 0.22474152 0.15059143 0.35806194
-0.004356614 0.06882258 0.38599163 0.0358844 0.34565628 0.748221 -0.026902769 0.0008625668
0.35990363 -0.028119387 0.06368303 0.4474008 0.019493273 0.8339763 0.007992186 0.014517275
0.0154486 0.681823 -0.013305197 0.009761525 0.9298643 0.25259736 0.021090321 -0.008071996
00000000: f9c4 26bd 08ef cbbc 4409 983e acd5 9a3d
00000010: cf7d 313d 9ec7 b93c e1bf 343c 3bf9 2f3f
00000020: 4775 503d 9884 953c 4cd0 903e cb2b 8d3f
00000030: 32f6 d7bb ae01 c33e c1a9 583d 3dd2 3d3e
00000040: 7f87 453e b394 81bc 39db f43d c836 a03f
00000050: 8c1d 263e 597b fa3c 5108 8a3c 37f6 9c3e
00000060: 837b 023b 3559 6c3e 53c1 9d3d 7c19 653f
00000070: 2543 0a3e 3d5e b0bc a892 533e f2ba 103f
00000080: 01cf c63d a9ad 2cbc fb1d b03c d7c9 ed3e
00000090: 095d 1a3f a422 663e a434 1a3e e553 b73e
000000a0: edc1 8ebb daf2 8c3d b2a0 c53e 85fb 123d
000000b0: dcf9 b03e 698b 3f3f 3263 dcbc e11d 623a
000000c0: 4a45 b83e a15a e6bc 406c 823d b811 e53e
000000d0: 5bb0 9f3c 797f 553f a8f1 023c ddd9 6d3c
000000e0: 201c 7d3c f48b 2e3f 0afe 59bc ceee 1f3c
000000f0: 960b 6e3f 7154 813e 9cc5 ac3c 6840 04bc

2.bn2.bias f4 [64]
-0.16169794 0.040670343 -0.008465046 -0.003834563 0.09975175 -0.018676018 0.0009819658 0.46186864
-0.058031283 -0.027139977 0.10364769 0.4958506 0.025129946 0.084840946 0.06858277 0.12986942
0.097551264 0.037009027 0.121252246 0.35561416 0.05027042 0.03657936 0.057122752 0.04195398
0.13538748 -0.0008480721 0.10655072 -0.05127578 -0.00059931556 0.038672674 -0.019560674 0.15109524
0.11373092 -0.03958756 0.069248915 0.16197702 0.31206143 0.09996688 0.11606456 0.058052134
0.031630866 0.060387816 0.16259837 -0.08946209 0.0146724805 0.26115495 0.04777632 0.027613882
0.16268878 0.053647894 0.054385114 0.06953759 0.016962355 0.8148867 0.014674411 -0.023911336
-0.11829172 -0.14019813 0.008067126 0.040136185 0.3609954 -0.121776916 0.14590842 0.061404053
00000000: 2594 25be f295 263d fab0 0abc 4b4d 7bbb
00000010: a54a cc3d 73fe 98bc 4eb5 803a 0c7a ec3e
00000020: 36b2 6dbd a854 debc 3d45 d43d 21e0 fd3e
00000030: 51dd cd3c 17c1 ad3d 2075 8c3d 7dfc 043e
00000040: f5c8 c73d c796 173d 1953 f83d 0f13 b63e
00000050: 5be8 4d3d 3dd4 153d 8cf9 693d f0d7 2b3d
00000060: 04a3 0a3e 2851 5eba 4437 da3d 8d06 52bd
00000070: 631b 1dba 3d67 1e3d b53d a0bc b6b8 1a3e
00000080: c2eb e83d 9126 22bd 60d2 8d3d 4edd 253e
00000090: 84c6 9f3e 70bb cc3d 42b3 ed3d 13c8 6d3d
000000a0: 5e8f 013d 3759 773d 3080 263e e637 b7bd
000000b0: d864 703c 1ab6 853e 1ab1 433d 8236 e23c
000000c0: e397 263e e5bd 5b3d edc2 5e3d b969 8e3d
000000d0: a3f4 8a3c 6a9c 503f f16c 703c b5e1 c3bc
000000e0: ee42 f2bd 1990 0fbe fb2b 043c d765 243d
000000f0: 64d4 b83e 2d66 f9bd 0469 153e d182 7b3d
